data/best/output/poster/train/10_stemgnn.pt (torch, 435920 bytes, 73 tensors)

weight_key f4 [135, 1]
-0.0038898124 0.15798499 -0.24569489 -0.21890487 -0.11382179 0.080138534 -0.0055040987 0.23609059
-0.02620063 0.07785459 -0.08993483 -0.058743812 -0.28432453 -0.19660197 -0.12216966 0.011474304
0.1175874 0.1784077 -0.20106909 -0.12906994 0.107874885 0.24625592 -0.061853234 0.22169276
-0.048544556 0.03128712 0.26972356 -0.27470055 -0.18652014 -0.074582815 -0.11442945 0.25796854
-0.19145663 -0.13620406 -0.2068107 -0.2776768 -0.1733383 0.2553809 0.13263138 0.14483257
0.016004477 -0.15225674 0.05006623 -0.277949 -0.21585783 -0.15469913 0.18701534 0.17377849
-0.13255359 -0.011171769 0.18936168 0.29544932 0.117420316 0.040311735 0.20001867 -0.17483202
0.054744355 -0.23161645 -0.20656821 -0.1536831 0.13368587 0.118416764 -0.17782755 0.08908543
0.16187897 -0.039325397 0.009850035 0.067898795 0.18357606 0.2839503 -0.2302296 -0.11030375
0.115050055 0.24488404 0.25680038 0.2603788 0.058405224 -0.25847968 0.027273739 -0.18661128
-0.27855885 0.2635732 0.22546938 -0.29630858 0.055883847 -0.050531838 -0.05020702 -0.13661519
0.11283797 -0.1767139 0.108347796 0.14935052 0.21192981 0.10990216 -0.29537115 -0.1942945
0.14791167 0.06226206 -0.23152772 -0.1708558 0.2789427 0.19844256 -0.13089183 -0.0747688
-0.28191525 -0.0044434206 -0.2226704 -0.22799122 -0.015585593 0.04525007 -0.12094134 0.17711812
-0.18065028 0.26900715 0.20228991 -0.25216573 -0.074132845 0.012485516 0.041675773 0.06869738
0.11493265 0.016077563 -0.14632522 0.1397967 -0.28597695 -0.17692852 -0.07591924 -0.14610565
-0.104559444 -0.24330163 -0.06288455 0.06422569 -0.192983 -0.015678437 0.211419
00000000: 39ec 7ebb d1c6 213e 7197 7bbe 9928 60be
00000010: 661b e9bd ac1f a43d ba5b b4bb bbc1 713e
00000020: b4a2 d6bc 3a72 9f3d c12f b8bd 5a9d 70bd
00000030: fc92 91be 0752 49be 1634 fabd b8fe 3b3c
00000040: aad1 f03d 82b0 363e 0ee5 4dbe e92a 04be
00000050: 82ed dc3d 832a 7c3e d159 7dbd 6d03 633e
00000060: a8d6 46bd ec26 003d 3519 8a3e 8da5 8cbe
00000070: 23ff 3ebe e0be 98bd fd59 eabd 7414 843e
00000080: 350d 44be 1479 0bbe 2fc6 53be a72b 8ebe
00000090: 987f 31be 49c1 823e 85d0 073e fd4e 143e
000000a0: d21b 833c 31e9 1bbe 3f12 4d3d 554f 8ebe
000000b0: d609 5dbe 7369 1ebe f380 3f3e fdf2 313e
000000c0: 21bc 07be cc09 37bc 07e8 413e 2245 973e
000000d0: 107a f03d eb1d 253d b2d1 4c3e 2a07 33be
000000e0: 9e3b 603d dd2c 6dbe 9e86 53be 1a5f 1dbe
000000f0: f3e4 083e 7d84 f23d 6d18 36be 6c72 b63d
00000100: 9ac3 253e ab13 21bd 0b62 213c 860e 8b3d
00000110: 5dfb 3b3e ef61 913e 4fc1 6bbe efe6 e1bd
00000120: 5d9f eb3d e2c2 7a3e 577b 833e 5f50 853e
00000130: 513a 6f3d 7357 84be 2d6d df3c 0717 3fbe
00000140: 449f 8ebe 11f3 863e 72e1 663e c2b5 97be
00000150: 76e6 643d 79fa 4ebd e0a5 4dbd dae4 0bbe
00000160: 9817 e73d 7df4 34be 73e5 dd3d 58ef 183e
00000170: 2104 593e 6214 e13d e33a 97be 23f5 46be
00000180: 2876 173e 8006 7f3d 9a15 6dbe d3f4 2ebe
00000190: 94d1 8e3e 8734 4b3e 8208 06be 6220 99bd
000001a0: 3257 90be 1d9a 91bb b603 64be 8876 69be
000001b0: b75a 7fbc 2358 393d 18b0 f7bd 745e 353e
000001c0: 63fc 38be 4ebb 893e 1625 4f3e de1b 81be
000001d0: f6d2 97bd 0d90 4c3c 37b4 2a3d 36b1 8c3d
000001e0: cf61 eb3d 18b5 833c 47d6 15be de26 0f3e
000001f0: 926b 92be c02c 35be 8c7b 9bbd b89c 15be
00000200: 4323 d6bd 1024 79be 9dc9 80bd c288 833d
00000210: 569d 45be 1170 80bc 397e 583e

weight_query f4 [135, 1]
-0.07151125 0.0058193407 0.07761114 0.18908034 0.32274532 0.4134561 0.31742287 0.4082596
0.102622375 -0.1443418 -0.019511867 0.32299843 0.1183314 -0.027705053 -0.10815214 -0.1588353
-0.13187328 0.05813042 0.28122514 0.27885038 -0.1678162 0.3039688 -0.11310926 0.056496356
-0.00090072514 0.06273689 0.061734866 -0.14662318 -0.1369082 0.07273669 0.12273997 -0.016081791
0.2304236 -0.1480782 0.09878099 0.3798812 -0.0022381446 0.3866935 0.22680327 -0.14838427
0.30793124 0.08556633 -0.012418228 0.3575692 -0.11977689 0.15207069 0.058115628 0.33263648
0.20309602 0.2629458 0.22541957 0.048954643 0.057862073 -0.12482527 0.2808617 0.35600176
0.3233539 -0.08939805 0.1333462 -0.08936108 -0.04364798 -0.053187307 0.2214263 -0.057183836
0.11359054 0.13262695 0.31143945 -0.10456903 -0.08350477 -0.05216688 0.3280516 0.0137351435
0.3709578 0.22843008 0.15835796 0.11824234 0.06144858 0.15688342 0.052144405 0.117913
0.15792039 -0.11233937 -0.035962656 0.35987452 -0.120548174 0.09865841 0.41360775 0.22749424
0.12862828 -0.13751945 0.26757553 -0.090702035 0.036008466 0.02058434 0.07606728 0.1234252
0.3646592 0.15648633 0.38553044 0.30103526 -0.06827116 0.25272846 -0.09055066 -0.0060734185
0.20748068 0.21856578 0.34271508 0.02413771 0.12063645 0.27305678 -0.16736087 0.33438823
-0.12579192 0.124050304 0.069362104 -0.036581002 0.15899299 0.3656843 0.033214755 -0.056439772
0.010188925 -0.17399092 0.25393993 -0.022303095 -0.078200124 -0.051514834 0.2905018 0.27682275
0.34736976 0.22747135 0.020656094 0.0369279 0.20798604 0.36735496 0.20469753
00000000: 7e74 92bd 2bb0 be3b 97f2 9e3d 479e 413e
00000010: e03e a53e 85b0 d33e 4085 a23e 6707 d13e
00000020: ae2b d23d 56ce 13be 5ad7 9fbc 0d60 a53e
00000030: bc57 f23d b5f5 e2bc df7e ddbd b9a5 22be
00000040: ca09 07be 2a1a 6e3d befc 8f3e 7ac5 8e3e
00000050: 03d8 2bbe cca1 9b3e d4a5 e7bd b968 673d
00000060: a41e 6cba 337c 803d b3dd 7c3d 6324 16be
00000070: aa31 0cbe f9f6 943d 185f fb3d f6bd 83bc
00000080: 2af4 6b3e d0a1 17be b04d ca3d ca7f c23e
00000090: d6ad 12bb b1fc c53e 1e3f 683e 0cf2 17be
000000a0: 2aa9 9d3e 663d af3d d375 4bbc 4f13 b73e
000000b0: 964d f5bd 6bb8 1b3e a70a 6e3d 544f aa3e
000000c0: 67f8 4f3e d5a0 863e 63d4 663e aa84 483d
000000d0: c800 6d3d 64a4 ffbd 1bcd 8f3e dd45 b63e
000000e0: a48e a53e 5316 b7bd e88b 083e f102 b7bd
000000f0: 39c8 32bd efda 59bd 93bd 623e 9939 6abd
00000100: 28a2 e83d 5ccf 073e fe74 9f3e 4a28 d6bd
00000110: 8d04 abbd f0ac 55bd 61f6 a73e 5e09 613c
00000120: 2eee bd3e 93e9 693e 9728 223e 0a29 f23d
00000130: 82b1 7b3d 0ca6 203e 5f95 553d 5f7c f13d
00000140: e2b5 213e 2f12 e6bd 944d 13bd 7941 b83e
00000150: f6e1 f6bd 6c0d ca3d 65c4 d33e 40f4 683e
00000160: 22b7 033e e6d1 0cbe a9ff 883e fdc1 b9bd
00000170: 9d7d 133d 7da0 a83c 29c9 9b3d 5ac6 fc3d
00000180: 9cb4 ba3e f43d 203e 3f64 c53e 4b21 9a3e
00000190: c0d1 8bbd a065 813e a072 b9bd 8703 c7bb
000001a0: d175 543e b5cf 5f3e 5a78 af3e 72bc c53c
000001b0: 3e10 f73d 19ce 8b3e a660 2bbe ef34 ab3e
000001c0: 99cf 00be 160e fe3d b80d 8e3d f6d5 15bd
000001d0: 0fcf 223e f93a bb3e 320c 083d 642d 67bd
000001e0: 73ef 263c ad2a 32be 6a04 823e fbb4 b6bc
000001f0: 6327 a0bd 3801 53bd a7bc 943e b6bb 8d3e
00000200: 73da b13e 40ee 683e f836 a93c b641 173d
00000210: 4bfa 543e f315 bc3e 3b9c 513e

weight_ih_l0 f4 [405, 3]
-0.063110955 -0.062971614 -0.104010135 0.061712325 -0.0049769455 -0.033310853 0.076913744 -0.053586964
-0.0066771354 0.013165153 -0.008720232 -0.069298185 0.0008101383 0.13920166 0.08484122 0.124279775
0.023736874 0.079231635 -0.028371725 -0.012514192 -0.061253466 0.026756065 0.025449086 -0.003602773
-0.044441555 -0.07805007 0.034665994 -0.04304094 0.05517748 -0.009787777 -0.035589438 0.021550562
-0.03871642 0.11493633 0.11248164 0.031948745 0.031233894 0.053974103 0.05162113 -0.041123778
-0.10110294 -0.044022888 0.09997326 0.03858399 0.10262672 0.06359258 -0.038182206 0.0078597
-0.07093697 -0.10017974 -0.10001079 0.0945446 0.016251013 0.090693906 0.09401385 0.11307583
0.087194055 0.10254995 0.13137117 0.04939206 0.028790299 0.026991405 0.18741392 0.050761566
-0.06318406 0.029897558 0.08475815 0.1060902 0.095467895 0.045922056 -0.04039829 -0.0507632
0.112791166 0.09056999 -0.009446688 0.07745787 0.04187258 0.047035333 -0.07402884 0.0042030625
-0.051096957 0.070178255 -0.012283936 0.03682744 0.0018034334 0.02319227 -0.04260747 -0.03872051
-0.14039528 -0.060899355 -0.12522106 -0.15192766 -0.13628411 0.14875433 0.12749879 0.16183992
0.14166592 -0.0038849574 0.014302551 0.005291115 -0.036888238 0.07853564 -0.04817432 -0.02557845
-0.06674834 -0.029521419 0.09022268 0.08995756 -0.00880093 -0.0037764385 0.00637656 -0.11007737
-0.050410293 -0.011597764 0.00086913223 0.058548905 0.017352512 0.09000543 0.0072369045 0.07877985
0.024850195 -0.0055182707 -0.033599064 -0.104270846 -0.1224704 0.0009819263 0.052535906 -0.018713467
-0.05908678 0.05408723 0.042005267 -0.0072187143 -0.03215162 0.08764792 0.043857858 0.020020064
0.16778961 0.15095785 -0.0076895915 0.07193031 -0.025444068 0.009908489 0.09625472 0.026535273
-0.0031296858 0.031563383 0.036965117 0.012128886 0.036098395 0.1074868 0.0105328085 -0.04725274
0.010244307 0.044712957 0.046257053 -0.07503405 -0.002129118 -0.05059235 -0.023338621 0.037098687
-0.055911597 0.03724002 0.10021685 0.032759674 -0.030400522 -0.05511519 -0.0054555405 -0.089831956
0.017508833 -0.10338768 -0.10804158 -0.081109904 -0.014904303 0.060240578 -0.043506578 0.10927141
0.0031623205 -0.05505612 -0.075366706 -0.15583825 0.082578845 0.05817745 0.09728002 0.021031786
-0.07913843 0.049549837 -0.05121828 -0.015099212 -0.12491422 -0.008573113 -0.06826539 -0.017309424
0.0024481183 -0.08298306 0.012093757 0.13577582 0.10270003 0.033441544 0.018144637 0.058616456
0.1229769 0.106715016 0.071180075 0.0117623145 0.005946493 -0.10869833 -0.09794574 0.072198726
-0.016669886 0.073491365 -0.06631185 -0.047935337 -0.07584728 0.12820311 0.074828945 0.14996777
0.102950275 0.09749695 0.05264438 -0.04401214 -0.036266223 -0.006436793 0.016263677 -0.08650664
0.04610167 -0.023152793 -0.085905574 -0.06051458 0.074041046 0.076320894 -0.082287945 0.09980922
0.082395054 0.09036041 0.11262606 -0.005470277 0.06992879 0.021202834 -0.03906126 0.01539994
0.0073893275 0.08538859 0.007957328 -0.008935276 0.04507571 0.05413559 -0.018321496 0.031301282
0.0735484 -0.027380351 0.007469704 -0.039579928 0.013100786 -0.07925608 -0.067736454 -0.027321856
00000000: 5140 81bd 43f7 80bd 4403 d5bd 10c6 7c3d
00000010: a515 a3bb f670 08bd f484 9d3d 017e 5bbd
00000020: dfcb dabb a7b2 573c 4edf 0ebc 35ec 8dbd
00000030: 765f 543a e18a 0e3e 3cc1 ad3d 6586 fe3d
00000040: d573 c23c 3244 a23d d26b e8bc 5308 4dbc
00000050: eae4 7abd 892f db3c 9a7a d03c 801c 6cbb
00000060: 5908 36bd b7d8 9fbd eefd 0d3d b24b 30bd
00000070: c801 623d ea5c 20bc 3bc6 11bd ce8a b03c
00000080: 1c95 1ebd bd63 eb3d c65c e63d b0dc 023d
00000090: 39de ff3c f313 5d3d ae70 533d 6871 28bd
000000a0: 0f0f cfbd 5851 34bd c8be cc3d 3f0a 1e3d
000000b0: f52d d23d d43c 823d f264 1cbd f9c5 003c
000000c0: 6747 91bd 092b cdbd 75d2 ccbd 99a0 c13d
000000d0: d820 853c babd b93d 558a c03d 4d94 e73d
000000e0: cc92 b23d b505 d23d 2a86 063e 544f 4a3d
000000f0: a2d9 eb3c 141d dd3c 6fe9 3f3e 5ceb 4f3d
00000100: a566 81bd b9eb f43c ae95 ad3d d245 d93d
00000110: ac84 c33d c418 3c3d ad78 25bd 13ed 4fbd
00000120: 0eff e63d c27c b93d 48c6 1abc 3ba2 9e3d
00000130: 9582 2b3d 1fa8 403d 6f9c 97bd d8b9 893b
00000140: 0b4b 51bd 9eb9 8f3d 9042 49bc 5fd8 163d
00000150: 2f61 ec3a b7fd bd3c 2c85 2ebd 6699 1ebd
00000160: c8c3 0fbe 9a71 79bd f339 00be ed92 1bbe
00000170: 108e 0bbe 0e53 183e 0b8f 023e 5db9 253e
00000180: df10 113e c59a 7ebb 3f55 6a3c 1761 ad3b
00000190: 1f18 17bd 4bd7 a03d 7052 45bd e689 d1bc
000001a0: 5bb3 88bd e7d6 f1bc abc6 b83d ab3b b83d
000001b0: c731 10bc 207e 77bb 76f2 d03b 3f70 e1bd
000001c0: 067b 4ebd 8c04 3ebc 7ad6 633a fad0 6f3d
000001d0: db26 8e3c c454 b83d 8e23 ed3b 5457 a13d
000001e0: a392 cb3c 9cd2 b4bb 2c9f 09bd f48b d5bd
000001f0: c3d1 fabd fbb3 803a e42f 573d fc4c 99bc
00000200: fb04 72bd 928a 5d3d b70d 2c3d f78a ecbb
00000210: 6bb1 03bd c180 b33d 4ca4 333d 1e01 a43c
00000220: 0ad1 2b3e b294 1a3e f8f8 fbbb 3350 933d
00000230: 1470 d0bc 3757 223c 3221 c53d 8060 d93c
00000240: 6a1b 4dbb 9b48 013d bc68 173d 3cb8 463c
00000250: e9db 133d 0a22 dc3d cd91 2c3c 178c 41bd
00000260: bdd7 273c ef24 373d 0978 3d3d 74ab 99bd
00000270: ac88 0bbb ed39 4fbd a330 bfbc cbf4 173d
00000280: 8f03 65bd fe88 183d 7e3e cd3d 022f 063d
00000290: 840a f9bc 77c0 61bd 64c4 b2bb d1f9 b7bd
000002a0: af6e 8f3c ecbc d3bd e744 ddbd f31c a6bd
000002b0: 2d31 74bc d3be 763d f433 32bd b0c9 df3d
000002c0: ef3e 4f3b 8782 61bd dc59 9abd 1094 1fbe
000002d0: 191f a93d 7a4b 6e3d bf3a c73d da4a ac3c
000002e0: 5413 a2bd c5f4 4a3d 42ca 51bd af62 77bc
000002f0: 07d3 ffbd 3e76 0cbc bace 8bbd 7ecc 8dbc
00000300: 9c70 203b 06f3 a9bd e524 463c d108 0b3e
00000310: 6554 d23d 00fa 083d 10a4 943c cf17 703d
00000320: 50db fb3d 678d da3d dcc6 913d b9b6 403c
00000330: ccda c23b 3b9d debd c797 c8bd eddc 933d
00000340: 498f 88bc a482 963d 82ce 87bd d857 44bd
00000350: d255 9bbd ad47 033e eb3f 993d 2791 193e
00000360: 98d7 d23d 7bac c73d a2a1 573d 1346 34bd
00000370: e48b 14bd bceb d2bb 673b 853c 652a b1bd
00000380: 1bd5 3c3d edaa bdbc 43ef afbd 23de 77bd
00000390: d5a2 973d 214e 9c3d 9586 a8bd c768 cc3d
000003a0: bdbe a83d e10e b93d 7ea8 e63d 0240 b3bb
000003b0: d336 8f3d 91b1 ad3c b3fe 1fbd 0850 7c3c
000003c0: 2c22 f23b 37e0 ae3d 745f 023c 4465 12bc
000003d0: 4fa1 383d 48bd 5d3d f616 96bc c635 003d
000003e0: 8ba0 963d c24c e0bc 6bc4 f43b 901e 22bd
000003f0: aea4 563c 0351 a2bd 69b9 8abd 16d2 dfbc

weight_hh_l0 f4 [405, 135]
0.06279603 0.08050595 -0.061646 0.1294198 -0.0049601514 0.020165225 0.03752242 -0.0564821
-0.04838898 0.0301274 0.072211534 -0.03859074 -0.10114987 0.031577583 0.01946034 0.11163662
-0.10810513 -0.0066548055 -0.05557023 -0.08642961 -0.015137434 -0.067261815 0.07030023 -0.07736224
0.08266233 -0.029403321 0.035390716 -0.14081217 -0.06742848 -0.017446298 -0.17510393 0.02296418
0.0112781925 0.0025240397 -0.11297504 0.099967934 0.049861837 -0.021036543 -0.032063115 0.057212986
0.16701022 -0.08900587 -0.028705424 0.011879267 -0.09164838 0.12002483 -0.020751566 0.08435913
-0.030088218 -0.037607968 -0.052350216 -0.04985814 0.06994532 0.08481003 -0.05193419 0.10715826
0.025637848 0.055095714 0.0916433 0.06072172 0.056673232 -0.027929055 -0.06034326 0.05109129
0.017908575 -0.025330372 0.01987561 0.045329053 -0.013608695 -0.09527674 -0.02258763 -0.05077032
-0.10299461 0.0040949937 0.018759346 0.0195617 0.06155062 -0.06469258 -0.072363526 0.10863578
0.007320644 -0.03844046 -0.057088505 -0.095746085 0.011958849 -0.09873137 0.021722637 0.085413694
-0.0059871874 -0.081050195 0.060460422 0.08686761 -0.13074051 0.05405726 0.009169309 0.020937705
-0.0101312455 -0.07382639 0.025329344 0.046480075 -0.047206663 -0.07075687 0.043424856 0.07100555
0.06140793 0.0015490875 0.046690904 0.0016435635 0.018009061 0.0677183 -0.022146214 -0.03364966
-0.02642935 -0.05224852 0.018281793 -0.06011701 0.0765389 -0.016577438 0.051311105 0.08714705
0.008853213 -0.012296441 0.0007218409 -0.06503091 0.068223916 -0.007322254 -0.034625947 -0.09473778
0.05918701 -0.096881166 0.0120105 0.021109095 -0.085698 -0.11199572 -0.06443437 0.055286102
-0.1373455 -0.13837093 0.020949833 -0.014018909 0.09013395 0.029168913 -0.019071225 0.0025695413
-0.023565553 -0.094498605 -0.056016937 0.070721775 -0.05068127 -0.119180374 -0.16368131 0.05367246
0.049183525 0.14712967 -0.021279043 -0.024206532 -0.1341153 -0.104128875 0.018417489 -0.018784521
-0.046453025 -0.0806806 0.08633421 -0.036052622 -0.12987858 -0.013963946 -0.07302347 -0.14964971
-0.12908573 0.13618164 -0.01778468 0.08033167 -0.0022958878 -0.02460955 0.121118 -0.102811515
-0.12505692 0.017969972 0.025744613 0.05309509 -0.0021146566 -0.14366457 0.0067878664 0.06418083
0.04315378 0.09505043 0.11460469 -0.1335807 -0.029372903 0.097421266 -0.10931296 0.0099720415
-0.12298205 -0.019464923 -0.06489068 -0.11197472 0.015302723 0.019218212 -0.14933315 -0.08314371
-0.14461043 -0.12930024 0.0039904937 -0.03494194 -0.0009205156 0.119808316 0.029914906 -0.049459103
-0.13196589 -0.009034796 0.07265319 0.035576813 0.12176398 -0.17044367 -0.0007034623 -0.021171425
-0.0012693928 0.049782045 -0.009082574 -0.010173742 -0.14849305 0.021734163 -0.16615382 -0.050348293
0.073549986 0.028693538 0.05895362 0.06518894 -0.09063019 0.043463163 0.008718631 0.023038834
0.08711608 0.12629645 -0.14832394 0.009770276 0.021260126 -0.009035939 -0.07857909 0.00907202
-0.00807148 0.106552586 -0.18109177 -0.057625357 -0.029802585 0.067939505 0.027853763 0.11599254
0.05577292 -0.025722828 -0.046116658 -0.01726314 0.01761567 0.0070945206 0.021476928 -0.00027958167
00000000: 349b 803d 4ee0 a43d 8480 7cbd a086 043e
00000010: c488 a2bb 8b31 a53c 1cb1 193d c659 67bd
00000020: 8633 46bd bdcd f63c a4e3 933d 5311 1ebd
00000030: aa27 cfbd 7f57 013d 4a6b 9f3c bda1 e43d
00000040: 3966 ddbd 8e10 dabb 9c9d 63bd 0202 b1bd
00000050: 0003 78bc 90c0 89bd 91f9 8f3d 1870 9ebd
00000060: de4a a93d 3cdf f0bc dbf5 103d 1131 10be
00000070: f117 8abd 8aeb 8ebc 724e 33be 601f bc3c
00000080: 2bc8 383c 5c6a 253b 755f e7bd fdbb cc3d
00000090: ed3b 4c3d d454 acbc 9d54 03bd 2a58 6a3d
000000a0: ba04 2b3e b648 b6bd a327 ebbc 42a1 423c
000000b0: 25b2 bbbd 94cf f53d 30ff a9bc 7bc4 ac3d
000000c0: 917b f6bc d00a 1abd 2e6d 56bd 0d38 4cbd
000000d0: 7e3f 8f3d e2b0 ad3d f2b8 54bd ca75 db3d
000000e0: 7706 d23c 0bac 613d 7caf bb3d 57b7 783d
000000f0: 3122 683d 79cb e4bc 7f2a 77bd 1a45 513d
00000100: 01b5 923c a481 cfbc 2dd2 a23c f5aa 393d
00000110: 01f7 5ebc 7420 c3bd b209 b9bc 8af4 4fbd
00000120: d7ee d2bd 4c2f 863b 33ad 993c dc3f a03c
00000130: 811c 7c3d 8b7d 84bd 5433 94bd 707c de3d
00000140: 03e2 ef3b be73 1dbd a3d5 69bd 8616 c4bd
00000150: 0cef 433c ac33 cabd acf3 b13c 60ed ae3d
00000160: 2b30 c4bb a5fd a5bd 59a5 773d a5e7 b13d
00000170: d7e0 05be 256b 5d3d df3a 163c 8d85 ab3c
00000180: 86fd 25bc 4a32 97bd 7c7f cf3c e461 3e3d
00000190: c65b 41bd fae8 90bd 43de 313d 5c6b 913d
000001a0: e286 7b3d c00a cb3a f63e 3f3d d76c d73a
000001b0: bd87 933c e4af 8a3d fa6b b5bc 3ad4 09bd
000001c0: 5d82 d8bc 8b02 56bd b3c3 953c 413d 76bd
000001d0: 6dc0 9c3d 68cd 87bc 982b 523d 277a b23d
000001e0: 110d 113c 0377 49bc ec39 3d3a ed2e 85bd
000001f0: fbb8 8b3d 85ef efbb f0d3 0dbd e205 c2bd
00000200: 146e 723d a269 c6bd b0c7 443c fbec ac3c
00000210: 6f82 afbd 035e e5bd 2bf6 83bd ae73 623d
00000220: 4ca4 0cbe 1cb1 0dbe fc9e ab3c 91af 65bc
00000230: 2698 b83d a5f3 ee3c 423b 9cbc c065 283b
00000240: 8c0c c1bc 7c88 c1bd 0472 65bd 94d6 903d
00000250: 2a97 4fbd d714 f4bd 139c 27be a7d7 5b3d
00000260: aa74 493d 29a9 163e 6351 aebc c74c c6bc
00000270: 8555 09be 8541 d5bd 46e0 963c ffe1 99bc
00000280: 8745 3ebd df3b a5bd fecf b03d eaab 13bd
00000290: e4fe 04be 09c9 64bc 548d 95bd c63d 19be
000002a0: 0d2f 04be 3373 0b3e 2db1 91bc ee84 a43d
000002b0: 9b76 16bb f899 c9bc b70c f83d d88e d2bd
000002c0: ec0e 00be c335 933c 5ee6 d23c 3d7a 593d
000002d0: 0d96 0abb ce1c 13be c06c de3b 3d71 833d
000002e0: 05c2 303d cda9 c23d ddb5 ea3d 61c9 08be
000002f0: 719f f0bc cd84 c73d 79df dfbd c661 233c
00000300: 03de fbbd e774 9fbc 68e5 84bd 0153 e5bd
00000310: 46b8 7a3c 836f 9d3c caea 18be 4047 aabd
00000320: c214 14be 4867 04be b0c2 823b 481f 0fbd
00000330: c24e 71ba 105e f53d 1b10 f53c a195 4abd
00000340: 1122 07be ae06 14bc 32cb 943d feb8 113d
00000350: 655f f93d c988 2ebe 8e68 38ba b26f adbc
00000360: c161 a6ba 42e8 4b3d 14cf 14bc c4af 26bc
00000370: 900e 18be d80b b23c 3a24 2abe 033a 4ebd
00000380: 60a1 963d b60e eb3c 5a79 713d c781 853d
00000390: 529c b9bd 6e06 323d 97d8 0e3c f0bb bc3c
000003a0: ea69 b23d db53 013e 3be2 17be 8213 203c
000003b0: b729 ae3c 7a0b 14bc 13ee a0bd cfa2 143c
000003c0: 3e3e 04bc 3e38 da3d 1f70 39be 9108 6cbd
000003d0: 8d24 f4bc de23 8b3d 932d e43c 7f8d ed3d
000003e0: 2572 643d aeb8 d2bc d2e4 3cbd 6e6b 8dbc
000003f0: bd4e 903c 2779 e83b 62f0 af3c d194 92b9

bias_ih_l0 f4 [405]
-0.022602292 0.11209568 -0.010037117 0.08170189 -0.009444219 0.02653815 -0.038595524 -0.043011803
0.11704811 0.062692896 -0.025737077 0.037353925 0.038773037 -0.057653837 -0.15333867 0.028369687
-0.10792527 -0.03678119 -0.10567619 -0.08976721 -0.11128265 -0.019442644 0.008766 0.11682832
0.031321753 -0.021738369 -0.11427229 -0.10337603 -0.07969294 -0.15129 0.008654664 0.011492599
0.056977693 -0.08911337 -0.010923312 0.05139441 -0.04890781 -0.10170981 -0.057433672 0.07436455
0.06820504 0.03989946 -0.11736079 0.07162451 0.049416363 -0.0027775036 0.005136021 -0.09133433
0.056077626 0.0149407415 0.01902537 -0.04107145 0.076402694 0.013112363 0.089210115 -0.08492859
0.06611574 -0.0732119 -0.11860443 0.07200184 -0.025228921 -0.030210637 -0.091669396 0.10514639
0.014445198 -0.08087425 -0.09369054 -0.0815817 -0.06182397 -0.013945694 -0.013913256 0.10474383
-0.071973465 -0.033018176 0.034794368 0.034182265 -0.15943524 0.024037138 0.08602107 -0.023927458
-0.094489194 0.017916037 -0.09514122 0.046485033 -0.08219124 -0.05127342 -0.08710651 -0.12878914
-0.0151350945 0.021119654 0.062176 0.030576885 0.0884863 0.041312933 0.011311412 0.018738367
0.015241331 -0.071802415 -0.010716967 0.023299953 0.009368446 0.017309913 0.07088377 -0.10668559
0.12843098 0.039030865 -0.08765038 0.046289366 0.036064424 -0.061075978 0.014848774 -0.051226642
0.020830184 0.114409186 0.10916846 0.029811585 -0.02354235 0.12288611 0.034573354 0.033822462
-0.1400074 -0.03078591 0.013295346 0.027743505 0.16396962 0.016658375 0.020470276 0.18120192
-0.077553235 0.031918798 0.047168758 -0.030619774 -0.039711174 0.13612927 0.061997876 0.14905165
-0.16850683 -0.08249697 0.06899325 -0.08298736 0.08746211 0.13517918 0.10046545 0.028410016
-0.07486257 -0.052526314 0.02358309 0.017224291 -0.01666815 0.00014360633 -0.05103466 0.12585713
0.03281512 0.060514607 0.002201658 -0.016124994 0.05424154 -0.02029176 -0.19036639 -0.09901802
0.057119004 -0.08270236 -0.015685199 0.10551318 -0.09225788 0.003783767 0.0040082997 -0.004197491
-0.092596866 -0.033296224 -0.0574319 -0.04213206 0.10232565 0.02658726 -0.20005374 -0.06736151
-0.0530659 -0.078701146 0.11478713 -0.18144464 -0.02213718 0.059151568 -0.064943574 0.015746083
-0.05180611 -0.07942742 0.06360121 -0.1301215 -0.048591565 -0.029434757 0.034122624 -0.10221715
-0.048733767 -0.02035338 0.068523996 -0.02688809 -0.038945045 0.006601155 -0.12774006 -0.108158596
-0.06600241 -0.08553089 0.039797273 0.018457048 -0.20439504 0.03497305 0.0034160975 -0.060115494
-0.017409436 -0.011693275 0.03830487 -0.02185886 -0.14595602 -0.06664753 -0.0634196 0.071295016
-0.111760944 -0.072062984 -0.12039727 0.10396642 0.036519155 0.005484846 -0.09900512 0.03199325
0.040137798 0.028973158 -0.06543109 -0.016977645 -0.06676691 -0.024308315 -0.036213126 0.06763738
-0.008256177 0.033909187 -0.09623465 -0.08881538 -0.038232323 0.09594861 -0.15724656 -0.0583628
0.086415455 -0.0021003978 -0.029229684 -0.059268937 -0.10048541 0.057221707 -0.036695268 -0.080853306
-0.1321138 -0.07620159 0.025670478 0.033987854 -0.13939676 -0.052850295 -0.021736622 -0.10962515
00000000: 7128 b9bc 6b92 e53d b872 24bc 5253 a73d
00000010: edbb 1abc 8966 d93c 5716 1ebd 252d 30bd
00000020: ebb6 ef3d 2265 803d 90d6 d2bc 6e00 193d
00000030: 7ad0 1e3d 6e26 6cbd d004 1dbe 8c67 e83c
00000040: ed07 ddbd e0a7 16bd c26c d8bd dfd7 b7bd
00000050: 28e8 e3bd 2e46 9fbc 459f 0f3c b043 ef3d
00000060: 3d4b 003d aa14 b2bc 9707 eabd d0b6 d3bd
00000070: 0d36 a3bd c4eb 1abe 4bcc 0d3c 744b 3c3c
00000080: 7161 693d 1281 b6bd b1f7 32bc f282 523d
00000090: 8e53 48bd 3c4d d0bd 923f 6bbd 714c 983d
000000a0: 16af 8b3d 9e6d 233d db5a f0bd dfaf 923d
000000b0: d068 4a3d c706 36bb 114c a83b 7e0d bbbd
000000c0: a7b1 653d 03ca 743c 18db 9b3c 893a 28bd
000000d0: 0479 9c3d 3dd5 563c cbb3 b63d 0aef adbd
000000e0: b067 873d 1ff0 95bd e1e6 f2bd b375 933d
000000f0: e2ac cebc 4c7c f7bc 2abd bbbd fe56 d73d
00000100: 8dab 6c3c 66a1 a5bd d3e0 bfbd 4e14 a7bd
00000110: 223b 7dbd 7b7c 64bc 6df4 63bc ef83 d63d
00000120: d366 93bd 113e 07bd 8a84 0e3d b402 0c3d
00000130: fe42 23be 88e9 c43c d12b b03d 8403 c4bc
00000140: 8d83 c1bd a7c4 923c 66d9 c2bd 1767 3e3d
00000150: e153 a8bd 1404 52bd e664 b2bd 4de1 03be
00000160: 30f9 77bc 2003 ad3c 43ac 7e3d 607c fa3c
00000170: 4e38 b53d c037 293d 8053 393c 3481 993c
00000180: c7b6 793c 250d 93bd 3896 2fbc 8bdf be3c
00000190: 1c7e 193c 85cd 8d3c 832b 913d fa7d dabd
000001a0: 6983 033e d4de 1f3d 0b82 b3bd eb99 3d3d
000001b0: 4ab8 133d ce2a 7abd 4648 733c 07d3 51bd
000001c0: 10a4 aa3c 5d4f ea3d b793 df3d 6d37 f43c
000001d0: e3db c0bc b6ab fb3d ca9c 0d3d 6c89 0a3d
000001e0: 1a5e 0fbe bc32 fcbc b9d4 593c 5946 e33c
000001f0: a7e7 273e 2577 883c 48b1 a73c ff8c 393e
00000200: 3bd4 9ebd 49bd 023d 0734 413d 52d6 fabc
00000210: 2fa8 22bd 7965 0b3e 7cf1 7d3d ffa0 183e
00000220: 0e8d 2cbe 2cf4 a8bd 554c 8d3d 47f5 a9bd
00000230: 561f b33d 696c 0a3e d4c0 cd3d 1fbc e83c
00000240: 8c51 99bd d525 57bd 5331 c13c f519 8d3c
00000250: a58b 88bc 0895 1639 b809 51bd b1e0 003e
00000260: 2669 063d 2ade 773d b149 103b 9018 84bc
00000270: 612c 5e3d e83a a6bc 68ef 42be f6c9 cabd
00000280: 9ef5 693d db5f a9bd 3f7e 80bc 4b17 d83d
00000290: b3f1 bcbd 14f9 773b 0e58 833b 1b8b 89bb
000002a0: 6da3 bdbd 9f61 08bd b63d 6bbd ab92 2cbd
000002b0: 1c90 d13d 87cd d93c e3da 4cbe d5f4 89bd
000002c0: a15b 59bd 112e a1bd 8415 eb3d a0cc 39be
000002d0: 0859 b5bc ea48 723d 2301 85bd eefd 803c
000002e0: a532 54bd d8aa a2bd 5a41 823d 923e 05be
000002f0: f307 47bd 2921 f1bc 2ac4 0b3d 3a57 d1bd
00000300: 0f9d 47bd 22bc a6bc 4f56 8c3d 6944 dcbc
00000310: d784 1fbd 804e d83b 4ace 02be 4182 ddbd
00000320: 462c 87bd d22a afbd 7702 233d 3c33 973c
00000330: ef4c 51be e73f 0f3d 9be0 5f3b aa3b 76bd
00000340: 3c9e 8ebc 2695 3fbc 91e5 1c3d 5a11 b3bc
00000350: 7f75 15be 807e 88bd 23e2 81bd 1f03 923d
00000360: ece2 e4bd c295 93bd d892 f6bd 59ec d43d
00000370: 1c95 153d 39ba b33b 32c3 cabd 5b0b 033d
00000380: 8867 243d 1e59 ed3c bc00 86bd b414 8bbc
00000390: 17bd 88bd 3b22 c7bc 3754 14bd 7785 8a3d
000003a0: eb44 07bc 5ce4 0a3d ac16 c5bd d7e4 b5bd
000003b0: 7f99 1cbd b480 c43d 3e05 21be d50d 6fbd
000003c0: 96fa b03d d4a6 09bb 1773 efbc fcc3 72bd
000003d0: 4bcb cdbd 4f61 6a3d c74d 16bd 6b96 a5bd
000003e0: d748 07be 940f 9cbd e54a d23c d936 0b3d
000003f0: 06be 0ebe 8d79 58bd 0011 b2bc 2783 e0bd

bias_hh_l0 f4 [405]
-0.023225663 0.08985607 -0.07431633 0.027288876 -0.0536767 0.009411089 -0.08687903 -0.01472925
0.06673812 0.084571555 -0.096457794 0.020581923 0.033288725 0.023909878 -0.1634503 -0.023523241
0.011361946 -0.09530048 -0.045693323 -0.14142202 -0.016865617 -0.055989314 0.027011916 0.09617646
0.09153726 -0.07424029 -0.08063101 -0.07551494 -0.056120675 -0.040158022 -0.11225496 0.031464905
-0.08133539 -0.14090706 0.00040757214 0.0060521015 0.042731307 -0.06997931 0.029418778 -0.0021917834
0.11619406 -0.076566 0.022682577 0.08173818 0.07978153 0.0026644592 -0.07987263 -0.010982301
0.04045133 0.035865612 -0.009148122 0.047239266 0.053975545 0.028800858 0.056174148 0.031347975
0.06532519 -0.14401212 -0.12352784 0.03678346 0.05302956 -0.028482059 -0.045147784 0.067054674
0.009079616 -0.043768585 -0.003623723 -0.0021126226 -0.08862739 -0.06958525 -0.040991325 0.027473506
-0.07351387 0.0056015565 0.027998993 0.029863037 -0.0032379236 0.009911464 0.032201275 -0.0036029015
-0.07107202 -0.03398553 -0.08464006 -0.0104473205 -0.095594905 -0.027707204 0.070667446 -0.0028172054
-0.06606161 0.05288267 0.112617284 -0.08130329 0.19242373 0.026853487 -0.0691274 -0.018187867
0.017866248 -0.04224432 0.0378238 -0.019739868 0.05581894 -0.08016251 0.057755474 -0.04822407
-0.025497293 -0.04173254 0.05096445 -0.051572353 0.08064923 -0.1069698 -0.029473385 0.01913176
-0.01267494 0.059783746 0.06781267 0.016456945 -0.06251282 0.10589541 -0.081830114 -0.041855693
-0.019934153 -0.047687814 -0.107052036 0.026380556 0.09181297 -0.074329026 -0.05570932 0.18281363
-0.07266035 -0.079950966 0.014015146 -0.033064 -0.09094233 0.10252203 0.09207807 0.11052701
-0.17182446 -0.070232764 -0.032583103 -0.10827905 9.763973e-05 0.033727776 0.13093024 0.027330594
-0.07632943 -0.008379209 -0.04992701 -0.02508716 -0.04680562 -0.058573186 -0.012294004 0.05063493
-0.053507082 -0.08345961 0.045720257 -0.12058737 0.021639472 -0.10919214 -0.06261731 -0.116307214
0.0394749 0.008168482 -0.08550234 0.063424475 0.0055197473 -0.00077445316 -0.085337974 -0.06689677
-0.030291384 -0.048819214 -0.058484066 0.04343266 0.087322295 0.0042110938 -0.17792498 -0.012446358
0.023202702 -0.025944991 0.13454984 -0.22473912 -0.069501065 0.062529005 -0.11860344 0.017247425
-0.09819809 -0.05940892 0.037008226 0.010056496 -0.08701175 -0.033459865 -0.085687235 -0.0030803934
-0.102387 -0.04143874 0.04056992 0.08101172 -0.072328106 -0.003318525 -0.060724024 0.04211664
0.038412165 -0.019788183 -0.10057416 0.018090462 -0.12562132 -0.050664913 -0.011288799 -0.0142592285
-0.12938708 -0.07274766 0.06995988 0.06474989 -0.17412391 -0.029953038 0.07379507 -0.0071048653
-0.08664879 0.0011640703 -0.09424924 0.07246197 0.0005615057 0.041427523 -0.055183202 -0.039061118
0.0005313604 -0.1294839 -0.036166407 -0.1423532 -0.044154555 0.10389 0.07953736 0.045767583
0.0073145158 -0.09822608 -0.09640067 0.016132385 -0.023836618 0.098017484 -0.039905366 -0.07132841
0.08109695 0.11542959 -0.022466246 -0.07574068 -0.06618086 -0.06881572 -0.11577429 -0.02985991
-0.18406339 -0.056795876 0.053863797 -0.06343759 -0.055165716 -0.0021957562 -0.03922821 0.018158497
00000000: bf43 bebc 7606 b83d 2933 98bd ec8c df3c
00000010: 19dc 5bbd f830 1a3c a2ed b1bd f452 71bc
00000020: ffad 883d da33 ad3d aa8b c5bd 6c9b a83c
00000030: c259 083d a6de c33c 845f 27be d0b3 c0bc
00000040: 7527 3a3c e62c c3bd ec28 3bbd efd0 10be
00000050: c329 8abc 0d55 65bd 1848 dd3c 2af8 c43d
00000060: e377 bb3d 4b0b 98bd df21 a5bd 94a7 9abd
00000070: cbde 65bd bd7c 24bd eee5 e5bd 58e1 003d
00000080: 2b93 a6bd f149 10be 68af d539 b550 c63b
00000090: 0607 2f3d 5051 8fbd a6ff f03c 06a4 0fbb
000000a0: 27f7 ed3d a3ce 9cbd d0d0 b93c 5966 a73d
000000b0: 8064 a33d 359e 2e3b 4394 a3bd 1cef 33bc
000000c0: 4bb0 253d d2e7 123d 01e2 15bc f67d 413d
000000d0: 7615 5d3d c7ef eb3c dd16 663d bc66 003d
000000e0: 37c9 853d ea77 13be 2afc fcbd 41aa 163d
000000f0: 8635 593d 3553 e9bc e2ec 38bd f653 893d
00000100: abc2 143c b046 33bd fc7b 6dbb ed73 0abb
00000110: 4782 b5bd b682 8ebd 85e6 27bd 1e10 e13c
00000120: 718e 96bd 438d b73b 255e e53c 54a3 f43c
00000130: 5833 54bb b163 223c 7ce5 033d a81e 6cbb
00000140: 358e 91bd 6934 0bbd c557 adbd 3d2b 2bbc
00000150: 43c7 c3bd 38fa e2bc 18ba 903d dda0 38bb
00000160: 4f4b 87bd 809b 583d e4a3 e63d 5782 a6bd
00000170: ba0a 453e d8fb db3c ab92 8dbd b9fe 94bc
00000180: 3d5c 923c 6108 2dbd 21ed 1a3d 81b5 a1bc
00000190: 67a2 643d 3e2c a4bd 0191 6c3d 9a86 45bd
000001a0: b3df d0bc bdef 2abd 19c0 503d 883d 53bd
000001b0: 6c2b a53d fc12 dbbd 2b72 f1bc 35ba 9c3c
000001c0: 8daa 4fbc cddf 743d 5ee1 8a3d b7d0 863c
000001d0: b906 80bd b1df d83d 8c96 a7bd e070 2bbd
000001e0: f34c a3bc 4c54 43bd 193e dbbd 091c d83c
000001f0: 7008 bc3d d139 98bd 752f 64bd 7f33 3b3e
00000200: f3ce 94bd 55bd a3bd c89f 653c 1e6e 07bd
00000210: f93f babd 12f7 d13d 6d93 bc3d fc5b e23d
00000220: c0f2 2fbe 32d6 8fbd dc75 05bd 68c1 ddbd
00000230: eec3 cc38 2326 0a3d 9412 063e 69e4 df3c
00000240: 9b52 9cbd f348 09bc 4480 4cbd 9683 cdbc
00000250: 40b7 3fbd 70ea 6fbd ca6c 49bc 9366 4f3d
00000260: 3e2a 5bbd dfec aabd 2a45 3b3d 83f6 f6bd
00000270: 4345 b13c 21a0 dfbd 813d 80bd 7a32 eebd
00000280: 6fb0 213d 19d5 053c da1b afbd b1e4 813d
00000290: ffde b43b ac04 4bba adc5 aebd 2c01 89bd
000002a0: a325 f8bc a8f6 47bd fd8c 6fbd 72e6 313d
000002b0: 08d6 b23d 37fd 893b f731 36be cfeb 4bbc
000002c0: 9813 be3c 978a d4bc 6fc7 093e 0322 66be
000002d0: 9356 8ebd 350f 803d 5ce6 f2bd 794a 8d3c
000002e0: 151c c9bd c556 73bd f095 173d 00c4 243c
000002f0: 3733 b2bd 360d 09bd ca7c afbd 6de0 49bb
00000300: 47b0 d1bd abbb 29bd a52c 263d 79e9 a53d
00000310: c220 94bd 9c7b 59bb c1b9 78bd 7f82 2c3d
00000320: 1356 1d3d d41a a2bc d3f9 cdbd 7332 943c
00000330: e0a2 00be 0386 4fbd a8f4 38bc 8a9f 69bc
00000340: 0c7e 04be bafc 94bd 2047 8f3d 979b 843d
00000350: 8a4d 32be 1360 f5bc df21 973d eecf e8bb
00000360: ec74 b1bd b893 983a bf05 c1bd f166 943d
00000370: 0232 133a e8af 293d c807 62bd 8dfe 1fbd
00000380: fe4a 0b3a 6d97 04be 3a23 14bd 0ac5 11be
00000390: 68db 34bd 48c4 d43d 7ce4 a23d ca76 3b3d
000003a0: 9bae ef3b c12a c9bd b76d c5bd 1028 843c
000003b0: 0345 c3bc 64bd c83d cf73 23bd a114 92bd
000003c0: 2816 a63d 5966 ec3d 220b b8bc ee1d 9bbd
000003d0: d589 87bd 42ef 8cbd 121b edbd c59c f4bc
000003e0: 1d7b 3cbe cba2 68bd 49a0 5c3d 91eb 81bd
000003f0: 72f5 61bd ade6 0fbb c2ad 20bd 21c1 943c

weight f4 [1, 4, 1, 12, 12]
-0.1558953 -0.016108688 0.048916716 0.07513112 -0.13815537 0.027728084 0.029508863 0.041396894
0.03791132 0.03414985 -0.066424325 -0.053241365 -0.08623529 0.035281982 0.015959216 0.08706197
0.021604294 -0.021641778 -0.025610408 0.024514908 0.033099215 -0.017384734 0.044362843 -0.026603768
-0.027535612 0.048949167 -0.015748357 0.059363548 -0.052607596 0.024622995 0.063792884 -0.0611617
0.13369246 0.07151201 -0.053019818 0.12957771 -0.0038934837 -0.009885951 -0.11671487 -0.16179909
-0.0302497 0.014208284 0.0055600544 -0.0384191 0.05324804 0.08208659 0.0048041963 -0.07582781
-0.0025017268 -0.014679649 0.18559743 0.15086721 -0.032252166 0.024829065 0.059580766 0.081621245
-0.024352944 -0.1258306 0.019963909 0.061850175 -0.078067064 -0.07442655 0.03704968 0.09024045
-0.13272806 -0.012307839 0.20559967 0.026752938 -0.06423171 -0.026760144 0.0031322867 -0.14384292
0.010645022 0.06347739 0.09963583 0.085576214 0.0973637 0.07130403 -0.02690072 0.04738765
-0.031378087 -0.09287933 0.027332589 -0.032820623 0.042182863 0.07270491 0.10632595 0.08089301
0.011078059 -0.14908406 -0.023702312 0.09123947 -0.102433644 -0.016142506 0.07525049 0.100449316
-0.012069918 -0.022396427 0.10100813 0.13581298 -0.025091618 0.07021826 0.026770685 0.08173042
0.027248602 0.055584777 -0.03605799 0.05338479 0.092060335 0.030627897 -0.09757201 -0.13369496
0.100939855 0.07515003 -0.1352469 -0.055273153 0.10048294 0.058066454 0.050631292 -0.016795704
0.013504476 0.083948255 -0.028236011 -0.027704189 0.017807713 0.011902525 0.07511796 -0.049566086
0.016131224 0.019388923 -0.026075555 0.1360725 -0.07400585 0.011924745 0.0046590394 0.063976325
0.053126894 -0.043029025 0.021799248 -0.030707676 -0.0584264 0.0010432986 0.039669402 -0.057171755
0.054808002 0.032851342 -0.13126501 0.009069843 0.10365726 -0.022770813 -0.0860885 -0.05116566
0.057373483 -0.02634983 -0.050727855 0.047527302 0.11787707 -0.0017028691 -0.018512607 0.05828787
-0.019784855 -0.010549504 0.08488945 -0.03365691 0.042624164 0.08209151 -0.035171755 0.14982103
0.08013015 0.05868601 -0.0023284273 0.011099289 0.043289937 -0.07533848 0.017166633 0.011650988
0.031911552 0.1235768 0.061789528 -0.003896582 0.052621003 -0.20578396 -0.10173505 -0.047367606
-0.007743533 -0.037805483 0.056601625 -0.08337932 -0.060700726 0.037872594 -0.06573461 -0.014484135
0.116832525 -0.03112814 -0.21044298 -0.22075747 0.022658793 0.049587123 -0.10393533 -0.19309758
0.16736934 0.20139487 -0.012288525 0.106651 -0.09499568 0.0016240112 0.0035013247 0.041699097
0.0030021947 0.04266645 -0.08594184 -0.058542684 0.0027670823 0.06585293 -0.079588585 0.00014560526
0.084443375 -0.05755446 -0.09853784 -0.117962316 0.06521564 0.042830266 -0.070358105 0.024083223
0.021201063 0.074852064 0.015207361 0.025505897 -0.059684742 -0.10278374 -0.0336919 0.05986844
-0.16783382 0.017543653 0.016703047 -0.022019623 0.0830184 0.044223394 0.016211677 -0.01343094
0.08996861 0.117726065 -0.18463232 -0.15087345 0.13589656 0.23279566 -0.05657422 -0.21608147
0.013577845 0.08022821 -0.011029026 0.0908489 -0.05176573 -0.022297373 -0.080735736 -0.056480337
00000000: 04a3 1fbe 5ef6 83bc e55c 483d 58de 993d
00000010: 9a78 0dbe 0226 e33c 92bc f13c ca8f 293d
00000020: e648 1b3d b7e0 0b3d 7a09 88bd 9e13 5abd
00000030: 219c b0bd d783 103d e7bc 823c 8c4d b23d
00000040: 7dfb b03c 194a b1bc ebcc d1bc 7dd3 c83c
00000050: 0b93 073d 6e6a 8ebc d0b5 353d 25f0 d9bc
00000060: 5d92 e1bc ec7e 483d b302 81bc 3127 733d
00000070: 107b 57bd 2ab6 c93c d8a5 823d b184 7abd
00000080: ade6 083e e474 923d 4f2b 59bd 05b0 043e
00000090: d129 7fbb aff8 21bc 3508 efbd a9ae 25be
000000a0: 38ce f7bc ddc9 683c 1e31 b63b 595d 1dbd
000000b0: 9e1a 5a3d 041d a83d 856c 9d3b 9c4b 9bbd
000000c0: 03f4 23bb e982 70bc 410d 3e3e ef7c 1a3e
000000d0: d91a 04bd 5366 cb3c f60a 743d 0a29 a73d
000000e0: d37f c7bc bdd9 00be 5a8b a33c 9c56 7d3d
000000f0: a0e1 9fbd f26c 98bd 68c1 173d fccf b83d
00000100: dde9 07be d1a6 49bc b888 523e fa28 db3c
00000110: ea8b 83bd 1738 dbbc 0d47 4d3b 8f4b 13be
00000120: 7568 2e3c 6f00 823d df0d cc3d 9542 af3d
00000130: 9f66 c73d d907 923d e65e dcbc 8d19 423d
00000140: 4f86 00bd 8537 bebd 98e8 df3c eb6e 06bd
00000150: f0c7 2c3d 50e6 943d 6bc1 d93d 3cab a53d
00000160: bf80 353c 7ea9 18be 5a2b c2bc c2db ba3d
00000170: bbc8 d1bd 4a3d 84bc ee1c 9a3d 5fb8 cd3d
00000180: e8c0 45bc b678 b7bc 5add ce3d 8f12 0b3e
00000190: f08c cdbc 97ce 8f3d 324e db3c 4762 a73d
000001a0: 7638 df3c ddac 633d 8bb1 13bd 02aa 5a3d
000001b0: 218a bc3d 5be7 fa3c d5d3 c7bd 55e7 08be
000001c0: 8eb9 ce3d 42e8 993d 2a7e 0abe 1a66 62bd
000001d0: 00ca cd3d 17d7 6d3d c262 4f3d 2597 89bc
000001e0: e141 5d3c 10ed ab3d 354f e7bc e5f3 e2bc
000001f0: 7be1 913c cf02 433c 72d7 993d cf05 4bbd
00000200: a125 843c 85d5 9e3c 679c d5bc 9756 0b3e
00000210: 6190 97bd 0160 433c dbaa 983b 0506 833d
00000220: 969b 593d 343f 30bd 5694 b23c aa8e fbbc
00000230: 8550 6fbd 4bbf 883a 627c 223d ee2c 6abd
00000240: 5b7e 603d 218f 063d 566a 06be ae99 143c
00000250: 424a d43d db89 babc 2b4f b0bd 1593 51bd
00000260: 7500 6b3d 99db d7bc 03c8 4fbd fdab 423d
00000270: 8969 f13d ce32 dfba c0a7 97bc 43bf 6e3d
00000280: d913 a2bc d4d7 2cbc 85da ad3d d4db 09bd
00000290: ad96 2e3d 981f a83d 4210 10bd af6a 193e
000002a0: 471b a43d be60 703d 8798 18bb cbd9 353c
000002b0: ca50 313d 104b 9abd 0aa1 8c3c c9e3 3e3c
000002c0: b0b5 023d d515 fd3d 0417 7d3d cc5d 7fbb
000002d0: 1f89 573d 08b9 52be 775a d0bd 8904 42bd
000002e0: 76bd fdbb ecd9 1abd 1bd7 673d c7c2 aabd
000002f0: 53a1 78bd 4b20 1b3d de9f 86bd de4e 6dbc
00000300: e445 ef3d 7100 ffbc 5d7e 57be 3f0e 62be
00000310: ef9e b93c de1b 4b3d 0cdc d4bd 5fbb 45be
00000320: de62 2b3e 753a 4e3e cf55 49bc d76b da3d
00000330: 188d c2bd c6dc d43a 7b76 653b accc 2a3d
00000340: 78c0 443b 04c3 2e3d 4702 b0bd 74ca 6fbd
00000350: f057 353b e7dd 863d 57ff a2bd 9dad 1839
00000360: a6f0 ac3d 3abe 6bbd 35ce c9bd 3a96 f1bd
00000370: c78f 853d ca6e 2f3d e917 90bd 2e4a c53c
00000380: daad ad3c 0a4c 993d 4c28 793c bef1 d03c
00000390: fd77 74bd 4880 d2bd 8500 0abd 9c38 753d
000003a0: a1dc 2bbe b5b7 8f3c d4d4 883c 7f62 b4bc
000003b0: 8d05 aa3d 9723 353d 5ace 843c 720d 5cbc
000003c0: 7641 b83d 5d1a f13d 4110 3dbe 927e 1abe
000003d0: 7828 0b3e fc61 6e3e 5fba 67bd 7644 5dbe
000003e0: 9c75 5e3c b04e a43d 16b3 34bc fd0e ba3d
000003f0: 4d08 54bd fba8 b6bc c758 a5bd ed57 67bd

weight f4 [12, 12]
0.28935325 -0.21936502 -0.13131648 -0.09300675 0.157346 0.13072222 0.13381554 -0.06901398
-0.18870778 0.3179479 0.12289186 -0.024827207 0.14762889 -0.18067226 0.2669113 -0.014972326
0.13768926 0.057245083 0.22453028 0.078657664 -0.37588742 0.08779476 0.23737392 -0.38636813
-0.021617971 -0.0720465 0.25449798 0.29385525 0.15791422 0.20509562 -0.1177821 -0.2253407
-0.36586395 -0.20950854 0.17864974 -0.25854635 0.014158959 -0.14586477 -0.16079332 -0.08919626
0.0744001 0.05624064 0.06632985 -0.13824466 0.11072568 -0.06953245 0.23731679 -0.07840291
0.26232764 -0.21226978 -0.14815947 -0.25917792 -0.027158225 0.0946372 0.058258303 0.13467264
0.057768285 0.12888217 -0.20755903 0.1737719 -0.06349227 0.15085214 -0.123304814 0.061874382
0.2782249 0.056091364 -0.2382503 -0.15548614 -0.19848748 0.21678755 0.047078073 -0.09174377
0.014178118 -0.0073056053 0.017062897 -0.16760595 -0.09871507 0.09177667 0.09527494 -0.18078762
0.124038905 0.2149086 -0.2120933 0.24904037 -0.09390548 -0.16047885 0.17917457 -0.16074584
0.058033556 -0.17537013 0.25203112 0.20693927 0.023178194 -0.020728046 0.072441116 -0.30228403
0.16319184 0.0020085808 0.3438489 -0.073966704 0.10780044 -0.2665672 -0.21723652 -0.16802949
-0.23545007 -0.24213801 0.16418523 -0.1692325 0.01450104 -0.29896295 -0.021730755 0.23121212
0.2767894 -0.0089930855 0.18267077 0.23990053 -0.22548912 -0.17439666 -0.18031643 0.0247453
-0.033205688 0.16993676 0.104960345 -0.22155815 0.30162284 -0.25015634 -0.16903666 -0.21871819
0.029120116 0.14212225 -0.1729308 -0.086152494 -0.07046212 0.11145252 -0.09783795 -0.13694727
-0.10396879 0.14323151 -0.008031919 -0.11018358 0.055402096 0.13730341 0.11049279 0.301433
00000000: 1c26 943e 39a1 60be d477 06be 537a bebd
00000010: 4f1f 213e 0cdc 053e f106 093e 3457 8dbd
00000020: 9d3c 41be 11ca a23e baae fb3d 6d62 cbbc
00000030: 072c 173e 2602 39be 99a8 883e 7d4e 75bc
00000040: 6afe 0c3e d279 6a3d 44eb 653e 4517 a13d
00000050: 5174 c0be bdcd b33d 2612 733e 0bd2 c5be
00000060: 2c18 b1bc 1e8d 93bd 8f4d 823e 3274 963e
00000070: 44b4 213e 9604 523e be37 f1bd b6bf 66be
00000080: 8552 bbbe 6889 56be f5ef 363e 3060 84be
00000090: fafa 673c 935d 15be 01a7 24be 87ac b6bd
000000a0: 145f 983d 965c 663d f2d7 873d 0290 0dbe
000000b0: 25c4 e23d 0767 8ebd 2c03 733e b491 a0bd
000000c0: cf4f 863e 405d 59be 1eb7 17be f8b2 84be
000000d0: ed7a debc 26d1 c13d 42a0 6e3d a0e7 093e
000000e0: 709e 6c3d b0f9 033e 5b8a 54be 43f1 313e
000000f0: 3c08 82bd fc78 1a3e 3c87 fcbd fe6f 7d3d
00000100: 7e73 8e3e 0fc0 653d e3f7 73be c237 1fbe
00000110: 4d40 4bbe 8efd 5d3e f0d4 403d 28e4 bbbd
00000120: 564b 683c dc63 efbb 7dc7 8b3c e5a0 2bbe
00000130: 202b cabd 68f5 bb3d 821f c33d 6420 39be
00000140: 1c08 fe3d 0011 5c3e fc2e 59be 7004 7f3e
00000150: 8451 c0bd 9154 24be 8a79 373e 8f9a 24be
00000160: 98b4 6d3d 3a94 33be 390a 813e e3e7 533e
00000170: 32e0 bd3c ddcd a9bc 025c 943d f9c4 9abe
00000180: c31b 273e 65a2 033b f70c b03e db7b 97bd
00000190: 7ac6 dc3d 7f7b 88be 4073 5ebe ec0f 2cbe
000001a0: d319 71be 07f3 77be 2c20 283e 494b 2dbe
000001b0: c595 6d3c ac11 99be b204 b2bc dfc2 6c3e
000001c0: 57b7 8d3e bc57 13bc 0c0e 3b3e 7ca8 753e
000001d0: 9fe6 66be 0a95 32be dfa4 38be a8b6 ca3c
000001e0: b002 08bd e703 2e3e 73f5 d63d 24e0 62be
000001f0: 4f6e 9a3e 7e14 80be f217 2dbe a9f7 5fbe
00000200: 4f8d ee3c 7f88 113e c614 31be b870 b0bd
00000210: 724e 90bd 3841 e43d 435f c8bd e83b 0cbe
00000220: 97ed d4bd 48ab 123e 4f98 03bc eea7 e1bd
00000230: 4fed 623d 4499 0c3e 0b4a e23d 6d55 9a3e

bias f4 [12]
0.19541307 -0.064019345 0.0783409 0.06482718 -0.050755728 0.25138238 0.14857326 0.25852907
-0.22521597 0.04957492 0.15084068 -0.18997112
00000000: 5d1a 483e 931c 83bd 3271 a03d 1dc4 843d
00000010: 3de5 4fbd 31b5 803e 9723 183e ec5d 843e
00000020: 049f 66be 120f 4b3d fb75 1a3e ca87 42be

weight f4 [3, 12]
-0.015620233 -0.12269182 -0.08614165 -0.2679086 -0.14486188 -0.41615322 -0.24587576 0.2361168
-0.31554502 0.055439517 -0.31373352 -0.045451492 0.44226962 -0.3401498 -0.42981485 0.17658079
0.38991743 0.37601486 0.1669802 -0.15627213 -0.40223688 -0.38216558 0.32352257 0.44041714
-0.35984877 0.2522084 0.13510889 -0.33399534 0.0052155014 -0.027467482 0.0043358677 0.021079365
-0.0061854483 0.30478242 -0.17307085 -0.44002455
00000000: 01ec 7fbc d945 fbbd 096b b0bd 512b 89be
00000010: ac56 14be 0912 d5be dbc6 7bbe 9ac8 713e
00000020: 1e8f a1be 8c14 633d aea1 a0be 582b 3abd
00000030: 2a71 e23e 1d28 aebe b110 dcbe 98d1 343e
00000040: 42a3 c73e 0585 c03e dcfc 2a3e cd05 20be
00000050: fef1 cdbe 35ab c3be c0a4 a53e 5b7e e13e
00000060: 193e b8be 7621 813e fc59 0a3e 7001 abbe
00000070: cce6 aa3b 7c03 e1bc e513 8e3b a2ae ac3c
00000080: 4daf cabb 710c 9c3e 7c39 31be e64a e1be

bias f4 [3]
-0.28870207 0.06584023 -0.20740204
00000000: c2d0 93be 3ed7 863d 3361 54be

weight f4 [3, 12]
-0.2654343 -0.18929137 -0.2055738 -0.2214561 0.014530548 -0.087386295 -0.015654247 -0.13417387
0.26358238 0.25311437 -0.28954855 -0.27673584 -0.1191849 -0.14711355 -0.08971209 -7.6080796e-06
-0.13763759 -0.16745305 -0.10601284 -0.029385114 -0.18287538 -0.027891668 -0.20561835 -0.15965489
-0.16092227 0.13930364 0.14114967 0.008754033 -0.2573711 -0.030392108 0.20466816 0.031504765
0.18030117 0.25579622 -0.22848073 0.19395432
00000000: 01e7 87be 99d5 41be f081 52be 63c5 62be
00000010: 8911 6e3c 96f7 b2bd 563d 80bc e064 09be
00000020: 45f4 863e 3598 813e b53f 94be 52b0 8dbe
00000030: 3617 f4bd efa4 16be f9ba b7bd e848 ffb6
00000040: def0 0cbe d078 2bbe 431d d9bd 0db9 f0bc
00000050: af43 3bbe 117d e4bc 9e8d 52be 927c 23be
00000060: cfc8 24be 9da5 0e3e 8a89 103e 136d 0f3c
00000070: 25c6 83be dff8 f8bc 8894 513e 240b 013d
00000080: dfa0 383e b9f7 823e daf6 69be f69b 463e

bias f4 [3]
-0.34259853 0.2575247 0.070649765
00000000: 1369 afbe 47da 833e d3b0 903d

weight f4 [3, 3]
-0.41019955 0.40931794 0.41437235 -0.34815633 0.06607868 0.36235628 -0.088415384 0.3959841
0.48931023
00000000: ad05 d2be 1f92 d13e 9d28 d43e 8c41 b2be
00000010: 4254 873d c386 b93e 2013 b5bd 6ebe ca3e
00000020: df86 fa3e

bias f4 [3]
0.44453385 0.53504336 -0.5302669
00000000: f199 e33e 9af8 083f 92bf 07bf
