data/best/output/poster/train/11_stemgnn.pt (torch, 435920 bytes, 73 tensors)

weight_key f4 [135, 1]
00000000: c979 80bb 48b7 213e 58ad 7bbe 7c3e 60be
00000010: 8341 e9bd cffe a33d f429 b6bb d5b4 713e
00000020: 2501 d7bc 1a5c 9f3d cb44 b8bd e7c5 70bd
00000030: ed97 91be b95b 49be 3b47 fabd e966 3b3c
00000040: cbbe f03d 19a7 363e 6fee 4dbe 4734 04be
00000050: d1da dc3d 2c21 7c3e 2a7f 7dbd 1bfa 623e
00000060: f4fb 46bd 9c01 003d 8d14 8a3e 35aa 8cbe
00000070: 7408 3fbe 82d1 98bd 9c6c eabd cc0f 843e
00000080: 8616 44be 6582 0bbe 82cf 53be 4e30 8ebe
00000090: e988 31be a2bc 823e 35c7 073e ac45 143e
000000a0: 43d1 823c 85f2 1bbe f5ec 4c3d fd53 8ebe
000000b0: 2b13 5dbe c772 1ebe a177 3f3e aae9 313e
000000c0: 73c5 07be f39e 37bc b4de 413e 7940 973e
000000d0: 6667 f03d adf8 243d 62c8 4c3e 7c10 33be
000000e0: 5616 603d 3436 6dbe f28f 53be 6e68 1dbe
000000f0: a1db 083e d671 f23d c521 36be c95f b63d
00000100: 4aba 253e fc38 21bd e0cc 203c e5fb 8a3d
00000110: 0ef2 3b3e 445d 913e a2ca 6bbe 97f9 e1bd
00000120: b78c eb3d 7eb9 7a3e a576 833e b34b 853e
00000130: fc14 6f3d 1b5c 84be a022 df3c 5720 3fbe
00000140: efa3 8ebe 68ee 863e 21d8 663e 6cba 97be
00000150: 1fc1 643d d11f 4fbd 37cb 4dbd 2cee 0bbe
00000160: ec04 e73d cffd 34be cdd2 dd3d 00e6 183e
00000170: bbfa 583e a301 e13d 903f 97be 7bfe 46be
00000180: d76c 173e 34e1 7e3d ec1e 6dbe 25fe 2ebe
00000190: eacc 8e3e 2d2b 4b3e dd11 06be 0933 99bd
000001a0: db5b 90be 95c4 92bb 040d 64be d77f 69be
000001b0: b1ef 7fbc e032 393d bec2 f7bd 2255 353e
000001c0: b305 39be a5b6 893e c31b 4f3e 8720 81be
000001d0: 98e5 97bd ddfa 4b3c e58e 2a3d 8b9e 8c3d
000001e0: 284f eb3d 6f6a 833c 9cdf 15be 8d1d 0f3e
000001f0: 3c70 92be 1036 35be 368e 9bbd 0da6 15be
00000200: ea35 d6bd 652d 79be 3fdc 80bd 2276 833d
00000210: a8a6 45be acbb 80bc a874 583e
-0.003920768 0.15792572 -0.24577844 -0.21898836 -0.113894485 0.08007585 -0.0055592004 0.23604138
-0.026245663 0.07781239 -0.08997496 -0.058782484 -0.28436223 -0.19663896 -0.122206174 0.01143811
0.11755141 0.1783718 -0.20110486 -0.12910567 0.107839234 0.24622029 -0.06188885 0.2216572
-0.048580125 0.031251535 0.26968804 -0.27473608 -0.18655568 -0.074618354 -0.11446497 0.25793302
-0.19149217 -0.1362396 -0.20684627 -0.2777123 -0.17337383 0.2553454 0.13259585 0.14479703
0.015968924 -0.15229233 0.050030667 -0.27798453 -0.21589343 -0.15473472 0.18697979 0.17374292
-0.13258915 -0.01120733 0.18932611 0.29541376 0.11738472 0.04027622 0.19998315 -0.17486757
0.0547088 -0.23165208 -0.2066038 -0.15371868 0.13365032 0.11838119 -0.1778632 0.08904988
0.16184345 -0.039360985 0.009814471 0.06786326 0.18354055 0.2839147 -0.23026517 -0.110339336
0.115014486 0.24484822 0.25676456 0.26034316 0.05836962 -0.2585152 0.02723819 -0.1866468
-0.27859446 0.26353765 0.22543384 -0.29634416 0.055848237 -0.050567452 -0.05024263 -0.13665074
0.11280236 -0.17674945 0.10831223 0.14931488 0.21189396 0.1098664 -0.29540682 -0.19433014
0.14787613 0.06222649 -0.23156327 -0.17089136 0.27890712 0.19840689 -0.13092752 -0.07480437
-0.2819508 -0.004479001 -0.2227059 -0.22802673 -0.015621112 0.045214534 -0.12097691 0.17708257
-0.1806858 0.2689716 0.20225434 -0.2522013 -0.074168384 0.012449947 0.04164018 0.06866177
0.11489707 0.016041962 -0.14636081 0.13976116 -0.28601253 -0.17696404 -0.07595484 -0.14614125
-0.10459502 -0.24333723 -0.062920086 0.064190164 -0.19301856 -0.015714489 0.21138251

weight_query f4 [135, 1]
00000000: b996 8fbd d5b5 cd3b 61d5 9b3d e9fe 3f3e
00000010: 1385 a43e 8e0f d33e f1f6 a13e 6683 d03e
00000020: 9235 d03d fab9 14be 89e9 a6bc eaf0 a43e
00000030: b69e f03d 7fdd e9bc ed38 dfbd 1484 23be
00000040: 22e5 07be 15b7 6a3d fd8e 8f3e ee54 8e3e
00000050: 7fba 2cbe 6432 9b3e ad51 e9bd 272f 643d
00000060: bc3b dbba dad2 7d3d cca1 793d 46f8 16be
00000070: 7103 0dbe 0b55 933d 29b0 f93d 44b9 8abc
00000080: bd10 6b3e 5e83 18be fd85 c83d b80c c23e
00000090: b542 4bbb b08c c53e 1b60 673e 83d3 18be
000000a0: 6238 9d3e 9183 ad3d ebe7 58bc 48aa b63e
000000b0: 64e3 f6bd 29f3 1a3e 98f2 6a3d 7aeb a93e
000000c0: 5d31 4f3e b33d 863e 3a11 663e 746d 453d
000000d0: bee6 693d 4d9b 00be 6765 8f3e 0cde b53e
000000e0: 3129 a53e 07a0 b8bd 2bc9 073e d98d b8bd
000000f0: 93d9 35bd 31dc 5cbd 1d03 623e f129 6dbd
00000100: dd24 e73d f812 073e 0617 9f3e 01a8 d7bd
00000110: aa85 acbd 64a3 58bd a598 a73e fe7c 553c
00000120: 0093 bd3e 3f3b 693e 7a7f 213e 33d6 f03d
00000130: beef 783d c1ec 1f3e b79b 523d 3501 f03d
00000140: 32fc 203e eb89 e7bd be4a 16bd 0dde b73e
00000150: 5573 f8bd 3181 c83d 1964 d33e bd34 683e
00000160: abf9 023e 968f 0dbe 0aa1 883e de29 bbbd
00000170: 6fc6 103d 2f49 a33c 5776 9a3d b675 fb3d
00000180: d55e ba3e 818f 1f3e 190c c53e 4ec6 993e
00000190: b140 8dbd be0b 813e c6db babd e15f debb
000001a0: adb4 533e 2c0b 5f3e 6214 af3e 8d5f bf3c
000001b0: e775 f53d be65 8b3e d336 2cbe 7dc6 aa3e
000001c0: 9faa 01be 6065 fc3d 4275 8c3d 4fe8 18bd
000001d0: 4f0a 223e f6d9 ba3e 1118 053d 9215 6abd
000001e0: 226d 1b3c 17df 32be 28ab 813e 0c4e bcbc
000001f0: 5b91 a1bd 28e0 55bd 4c61 943e 0760 8d3e
00000200: c87b b13e 0c2c 683e 420e a33c 261f 143d
00000210: 8832 543e c7c1 bb3e 6d19 513e
-0.0701117 0.0062777796 0.07609058 0.18749584 0.32132778 0.41222805 0.31633714 0.4072525
0.10166468 -0.1452407 -0.02037503 0.32215053 0.11749022 -0.028548 -0.108995296 -0.15968353
-0.13271001 0.057303507 0.2803878 0.2779917 -0.16868018 0.30311882 -0.113925315 0.05570903
-0.0016726176 0.06196866 0.060945317 -0.14743146 -0.13770844 0.07193955 0.12191803 -0.016934045
0.22955604 -0.14893863 0.09791181 0.3790033 -0.0031015102 0.385839 0.22595255 -0.14924435
0.3070708 0.0847236 -0.013238887 0.3567679 -0.1205509 0.1513182 0.05736026 0.33187467
0.20233674 0.26218948 0.22467509 0.048200086 0.05710482 -0.12559243 0.2800705 0.3552097
0.3225799 -0.09014898 0.13260333 -0.0901143 -0.044396948 -0.05392093 0.220715 -0.057901327
0.11286328 0.1319083 0.31072253 -0.10530091 -0.08423932 -0.052890196 0.32733646 0.013030289
0.37026215 0.22776507 0.15771285 0.11759605 0.06077551 0.15617658 0.051418032 0.1171898
0.15721205 -0.11305603 -0.036692373 0.359116 -0.12131373 0.09790266 0.41287306 0.22676368
0.12790553 -0.13824305 0.26685363 -0.09138845 0.03534549 0.019932358 0.07542103 0.12278311
0.36400476 0.15582086 0.38485792 0.30034107 -0.068971045 0.2520427 -0.0912395 -0.006786332
0.20674391 0.21781605 0.34195238 0.023360992 0.11985379 0.2722606 -0.16817789 0.3335456
-0.12662743 0.12324023 0.06858303 -0.03733092 0.15824245 0.36494416 0.032493655 -0.057149477
0.0094864685 -0.17467915 0.25325894 -0.022986434 -0.078890525 -0.052215725 0.28980482 0.27612326
0.3466475 0.22673053 0.01990426 0.036162518 0.20722401 0.36671278 0.20419855

weight_ih_l0 f4 [405, 3]
00000000: d119 81bd c2d0 80bd 49db d4bd 1ff8 7b3d
00000010: 635b a9bb 5739 09bd 9946 9a3d 30f8 61bd
00000020: 6d09 07bc 9c73 553c 34ed 10bc 5e30 8ebd
00000030: 1ae7 cbb9 f455 0d3e ac60 ab3d a889 fb3d
00000040: b29e b63c 5b57 9f3d 0a6f e7bc ab19 4bbc
00000050: a96b 7abd 088c dd3c 73c5 d23c a819 5abb
00000060: c66d 39bd 5283 a1bd 49b5 0a3d a8d2 2abd
00000070: a575 673d 4fbe 0abc 4552 14bd d091 ab3c
00000080: bc08 21bd 6c39 e93d 0238 e43d 1d34 fd3c
00000090: 2126 fe3c 373a 5c3d 9a99 523d 7d57 27bd
000000a0: 1785 cebd 9a4a 33bd 9d11 ca3d e4ca 183d
000000b0: 5096 cf3d d830 7e3d b095 22bd 728f d03b
000000c0: 3f28 91bd 970e cdbd 1eb4 ccbd 4b4c c13d
000000d0: 1dd8 833c 876c b93d e908 c03d 8f15 e73d
000000e0: d316 b23d 62fe d03d 4904 063e d44f 483d
000000f0: 08e3 d03c 3964 c23c dd9e 3c3e 82ca 4c3d
00000100: 1ef2 82bd 9dbd ee3c ee1e ad3d 2dd0 d83d
00000110: f510 c33d 1742 3c3d 6b52 25bd 4ec6 4fbd
00000120: 2b1a e63d 909c b83d 00a6 21bc 0670 9d3d
00000130: 4528 293d 6c53 3e3d d78c 99bd fec2 563b
00000140: 780a 55bd a3bd 8a3d 45d6 70bc b105 0d3d
00000150: 36d2 ec3a 9904 be3c 3f81 2ebd 0103 20bd
00000160: 561c 10be 24d1 7abd d322 00be f37b 1bbe
00000170: fe77 0bbe d8a9 153e b0e6 ff3d c328 233e
00000180: f30c 103e 8726 9fbb 38bf 5a3c 04d5 883b
00000190: c48f 1bbd 03a6 9e3d f580 44bd d5fb cfbc
000001a0: 3e53 88bd 4277 fcbc 862c b63d a9ac b53d
000001b0: 061f 29bc d5c9 acbb a2e5 a03b bb62 e1bd
000001c0: 8a60 4ebd bc9e 3dbc a8cb 763a eb20 703d
000001d0: 11cb 8e3c 40d7 b33d 6404 a63b 38de 9c3d
000001e0: 59db cf3c 15e8 a3bb 378e 07bd 356e d5bd
000001f0: 8eb1 fabd 577d 893a cef1 563d 0bca 99bc
00000200: 4543 72bd 998a 5f3d c211 2e3d 6359 dcbb
00000210: 09b7 01bd 3382 b43d 66af 353d a6a5 973c
00000220: 944d 2a3e 5116 193e 2bc0 1fbc e52d 8f3d
00000230: ccae e0bc 37da 0f3c 0ce0 c23d 4d7a d03c
00000240: 944c 59bb c18f 003d a1aa 163d 8258 433c
00000250: 230c 133d e4bc db3d 63f7 253c f331 43bd
00000260: ec60 213c 15ac 363d b803 3d3d 3ee3 99bd
00000270: b67b 19bb a517 50bd 01eb c0bc a9b9 1a3d
00000280: 9950 62bd b62a 1b3d 6cb0 cb3d ca1f 033d
00000290: b003 ffbc bf94 68bd ff4c e8bb ca48 bbbd
000002a0: ff74 923c 07fe d2bd b68c dcbd d4ad a7bd
000002b0: 4939 80bc 63ba 733d 8aa9 33bd 660f df3d
000002c0: 3b0d 383b 96b5 5dbd 5c77 98bd 81a7 1ebe
000002d0: afa2 a93d 5b51 6f3d 93bb c73d aa6c a73c
000002e0: a245 a3bd 889a 483d b781 50bd 6e3b 72bc
000002f0: 2c31 ffbd 1d59 11bc b76b 8cbd 0a50 90bc
00000300: d2db 8d39 a95d aebd 330d 233c 7548 093e
00000310: ade3 ce3d 713d 023d c879 8d3c 4298 6c3d
00000320: 8c24 fa3d 9699 d93d 1dd2 903d fd21 393c
00000330: f7dc 943b fe7f e1bd 177f cbbd 46e7 953d
00000340: bc0b 81bc c24c 983d 36a4 87bd 8b01 44bd
00000350: 062b 9bbd 1b91 033e 93d3 993d 84da 193e
00000360: 57a2 d23d 6978 c73d 373b 573d cf85 34bd
00000370: 0bc8 14bd 5bda d4bb 23ca 8c3c 2549 afbd
00000380: 427c 403d cb6e bdbc 4ae0 afbd 37c0 77bd
00000390: e1c3 963d df71 9b3d b35e a9bd 6ddb c93d
000003a0: 9034 a63d bb8d b63d f0d8 e63d d23a b0bb
000003b0: 9468 8f3d 7a44 aa3c 9fb2 21bd 859f 753c
000003c0: 36da f53b 051b af3d 9c28 043c 2588 2abc
000003d0: 1d91 323d fbc4 573d 36c5 95bc db5e 003d
000003e0: a7b4 963d 8146 e4bc e967 e43b 3f32 24bd
000003f0: d3a5 4f3c f532 a3bd 4498 8bbd a214 e0bc
-0.06303752 -0.062898174 -0.10393388 0.061515924 -0.005168365 -0.03350195 0.07532997 -0.05516833
-0.008241993 0.013028052 -0.008845616 -0.06942819 -0.0003889136 0.1380232 0.08368048 0.12282115
0.022292469 0.077803336 -0.02825119 -0.012396256 -0.06113783 0.027044311 0.025728917 -0.0033279452
-0.045270704 -0.078863755 0.033864293 -0.041704804 0.05650868 -0.008468225 -0.03621127 0.020943552
-0.03931497 0.113879055 0.11143495 0.030908639 0.03102404 0.053766456 0.051416017 -0.04085492
-0.100839786 -0.043772317 0.09866641 0.037302867 0.10136092 0.0620583 -0.039693534 0.0063647563
-0.070877545 -0.100125484 -0.09995292 0.0943838 0.016094262 0.09053903 0.093766995 0.11283409
0.086957596 0.1020477 0.13087572 0.048904255 0.025498882 0.02372943 0.18419977 0.049997814
-0.063938364 0.029143149 0.08453165 0.105865814 0.09524719 0.045961466 -0.040361803 -0.050726227
0.1123546 0.09014237 -0.009866238 0.076873824 0.04129817 0.046466276 -0.07497566 0.0032770033
-0.052011937 0.067744516 -0.014699523 0.034429256 0.0018068019 0.023195552 -0.042603727 -0.039065365
-0.1407331 -0.06123461 -0.12513284 -0.15184002 -0.13619992 0.14615571 0.12495172 0.15933518
0.1406744 -0.0048568877 0.013351254 0.004175784 -0.037978902 0.07746508 -0.047974546 -0.025388638
-0.06656502 -0.030818585 0.08895211 0.08870823 -0.010322338 -0.0052730837 0.004910187 -0.110051595
-0.050385036 -0.01157349 0.00094145024 0.058625143 0.017430814 0.0878129 0.0050664414 0.07659572
0.025373148 -0.0050020316 -0.03309461 -0.10421411 -0.12240897 0.0010489625 0.052476697 -0.0187731
-0.059146184 0.054575536 0.042497404 -0.006724523 -0.031668697 0.08813896 0.044356726 0.018511605
0.16631156 0.1494992 -0.009750406 0.069911756 -0.0274271 0.008780054 0.0951539 0.025448943
-0.0033157216 0.031387094 0.03678382 0.011922957 0.035900246 0.107293874 0.010129782 -0.047655057
0.009849768 0.044597704 0.046146125 -0.07514046 -0.0023419685 -0.0508038 -0.023549559 0.037774716
-0.055252645 0.03788253 0.09945759 0.03201274 -0.031129688 -0.05678248 -0.007089257 -0.09144743
0.017878054 -0.10302358 -0.10769026 -0.08187452 -0.015652316 0.059503924 -0.043862857 0.10891609
0.0028084058 -0.054128252 -0.07444641 -0.15493585 0.082829826 0.058427196 0.09752574 0.020437557
-0.07972266 0.048975497 -0.050904956 -0.014784677 -0.12460551 -0.008871344 -0.068564825 -0.01761629
0.00027057395 -0.08513958 0.009951877 0.13406546 0.101020195 0.031796876 0.017269984 0.057762392
0.12214002 0.10624997 0.07071326 0.011299607 0.0045429426 -0.11010741 -0.0993635 0.073195025
-0.015752666 0.074365154 -0.066231176 -0.047853034 -0.075765654 0.12848322 0.07511058 0.15024763
0.1028487 0.09739763 0.052546706 -0.044072922 -0.03632359 -0.0064957566 0.01718623 -0.08558873
0.0469935 -0.02312412 -0.085877016 -0.060486045 0.0736158 0.075900786 -0.082700156 0.09856305
0.08115494 0.08913752 0.11271846 -0.0053781057 0.070023686 0.020784605 -0.039476987 0.014991646
0.0075028194 0.085500754 0.008066323 -0.010408436 0.043595422 0.05267809 -0.018282514 0.03134046
0.073586755 -0.02786565 0.006970395 -0.04008698 0.012673813 -0.07968704 -0.06816152 -0.027353588

weight_hh_l0 f4 [405, 135]
00000000: 4db7 803d 0501 a53d 2e76 7cbd 5fa2 043e
00000010: 9152 a3bb 7ec6 a43c 3916 1a3d 176e 67bd
00000020: 53f8 45bd 1663 f73c a6e6 933d 0422 1ebd
00000030: 7e38 cfbd 6c51 013d 935d 9f3c 96cf e43d
00000040: 8272 ddbd 9110 dbbb 369b 63bd 6615 b1bd
00000050: 8c59 78bc 34d1 89bd 18f1 8f3d c493 9ebd
00000060: 1e4b a93d 3d3f f1bc c916 113d c04f 10be
00000070: b127 8abd 8b63 8fbc 5469 33be 5c26 bc3c
00000080: 8fa4 383c 672f 263b 849a e7bd 2fc4 cc3d
00000090: c615 4c3d dd45 acbc 628e 03bd 8fd1 693d
000000a0: ce0f 2b3e 5d66 b6bd 57e1 eabc 2e99 423c
000000b0: e7d5 bbbd 1aee f53d 45d4 a9bc bac7 ac3d
000000c0: 5da5 f6bc 3b7b 1abd 503f 56bd 9350 4cbd
000000d0: 7d5d 8f3d 21dc ad3d dce2 54bd f286 db3d
000000e0: eea0 d23c 7fac 613d 96b3 bb3d 42f8 783d
000000f0: 552a 683d 1224 e5bc 5c02 77bd f5c5 513d
00000100: 0c49 923c 95ae cfbc 89a4 a23c 788b 393d
00000110: bb27 60bc f269 c3bd 7d4c b9bc 8d20 50bd
00000120: 2cd4 d2bd 3069 883b a338 9a3c f91a a03c
00000130: 085e 7c3d 8ea0 84bd 513e 94bd cc80 de3d
00000140: c549 f23b da67 1dbd 0fe3 69bd 9751 c4bd
00000150: ea54 443c fa1f cabd 61ae b23c 1c0c af3d
00000160: e487 c7bb e924 a6bd 76fc 773d f6f4 b13d
00000170: cdf0 05be 72a1 5d3d b983 153c 1880 ab3c
00000180: 77b3 25bc 5c29 97bd 02b8 cf3c 33aa 3e3d
00000190: 8fc0 41bd 3ad2 90bd a7e4 313d b97d 913d
000001a0: 97d8 7b3d 426d c43a 4fa1 3f3d 331f dc3a
000001b0: 919a 933c 8e99 8a3d 4a51 b5bc b2a4 09bd
000001c0: 3766 d8bc 5a7a 56bd e62c 963c 3d6b 76bd
000001d0: ddae 9c3d dd9f 88bc b2ad 523d 908e b23d
000001e0: a896 113c 91fe 4abc 0642 413a 3134 85bd
000001f0: e8d4 8b3d 382d f1bb 95ff 0dbd cb28 c2bd
00000200: 65a7 723d 6563 c6bd ee8e 443c d49b ac3c
00000210: 8d9c afbd f857 e5bd 1d03 84bd fb4b 623d
00000220: 6310 0dbe c7ed 0dbe 6a01 a93c 34d5 66bc
00000230: e36a b93d d28b ed3c 21cf 9abc 990b 203b
00000240: 99a7 c4bc 0f3e c2bd 0ed5 65bd e474 913d
00000250: 4b5e 4fbd 906d f4bd ce20 28be 7e22 5c3d
00000260: fe89 493d 3de8 163e efa8 abbc 6c27 c7bc
00000270: 1952 09be b467 d5bd fd8c 993c e544 9bbc
00000280: fbc3 3dbd 2717 a6bd a2d0 b13d f768 13bd
00000290: b2fe 04be 8b38 63bc be1e 96bd 635d 19be
000002a0: 7e65 04be d010 0c3e 5036 97bc d5ff a43d
000002b0: 8332 17bb e5a0 c9bc e37d f93d 968b d3bd
000002c0: b1f0 ffbd 9dbd 923c 45bc d23c ed6f 5b3d
000002d0: 664f 24bb 6039 13be 38b5 d73b 03cb 833d
000002e0: e2a3 313d 01a4 c23d 3041 eb3d db8f 09be
000002f0: dcad f4bc 26e0 c73d 72ae e0bd b629 193c
00000300: b953 fcbd a013 9fbc 5b83 85bd cc2a e5bd
00000310: 0a57 7b3c 5d51 9d3c 7ac4 19be 2e36 aabd
00000320: 332a 14be b681 04be 824e 7f3b 94bc 0dbd
00000330: 7db3 6ab9 81a9 f53d 92dc f53c d6d1 4bbd
00000340: 3378 07be e824 1ebc 62eb 943d bb55 113d
00000350: 0648 fa3d 5292 2ebe a412 40ba 8aa5 b0bc
00000360: 1a88 a6ba 347b 4b3d 8162 0bbc a967 27bc
00000370: cd65 18be 7130 af3c 17b0 2abe ebde 4dbd
00000380: 5db4 973d 7961 e53c 611c 713d 2821 863d
00000390: 565a babd 0764 323d 9d81 0e3c ed92 bc3c
000003a0: 5063 b23d 5c51 013e e04a 18be 7cc7 213c
000003b0: ea09 ae3c b9d7 14bc 7360 a1bd 697b 0f3c
000003c0: 99b1 fbbb 850d da3d 8f30 3abe c1e2 6cbd
000003d0: c9ae f2bc ea31 8b3d 3aaa df3c 2d9e ed3d
000003e0: f459 673d e6d7 d4bc b797 3cbd 0e38 8dbc
000003f0: 4fb3 933c 226b dd3b 4932 ae3c bbf1 39b9
0.06284962 0.08056835 -0.061636142 0.12952565 -0.004984208 0.02011418 0.03761885 -0.056501474
-0.048332524 0.030198615 0.07221727 -0.03860666 -0.10118197 0.03157179 0.0194538 0.111724064
-0.10812856 -0.0066853245 -0.055567943 -0.086466596 -0.015158068 -0.067293555 0.07028407 -0.07743028
0.082662806 -0.0294491 0.03542212 -0.14092922 -0.06745852 -0.01750352 -0.17520648 0.02296751
0.011269703 0.0025357844 -0.113087684 0.099983566 0.049825452 -0.021029407 -0.03211821 0.057084616
0.16705248 -0.08906243 -0.028671904 0.011877341 -0.09171658 0.12008305 -0.0207311 0.08436532
-0.030108148 -0.037715178 -0.052306473 -0.04988153 0.07000253 0.08489252 -0.051974162 0.10719098
0.025711503 0.055096146 0.09165113 0.060783632 0.056680996 -0.027971301 -0.060304984 0.051214177
0.017857097 -0.025351802 0.019853847 0.045299023 -0.0136813475 -0.09541692 -0.02261948 -0.050812293
-0.10294375 0.00416293 0.018825835 0.019544112 0.061613113 -0.06475936 -0.072384484 0.1086441
0.007394048 -0.03842912 -0.057101306 -0.095858745 0.011983136 -0.0986938 0.021811666 0.085472316
-0.0060891975 -0.08112509 0.0605435 0.08689301 -0.1308014 0.054109044 0.009125643 0.020935103
-0.0101135885 -0.073809355 0.025356296 0.046549033 -0.04730278 -0.070713475 0.04343095 0.07104058
0.061485853 0.0014986175 0.046784695 0.0016793966 0.018018039 0.067675695 -0.022133488 -0.03360433
-0.026415927 -0.052362777 0.018331956 -0.060160864 0.0765054 -0.016677791 0.05143518 0.08718598
0.008886017 -0.012389795 0.0007372204 -0.06504095 0.06827718 -0.007360127 -0.03466757 -0.09480437
0.05924167 -0.09686927 0.011996968 0.021070398 -0.085747816 -0.11198419 -0.06445906 0.055248242
-0.13775782 -0.13860236 0.020630557 -0.0140889175 0.0905359 0.028997336 -0.018897595 0.0024420975
-0.024005698 -0.09484493 -0.056111388 0.07102373 -0.050627034 -0.1193496 -0.16418764 0.05374383
0.049203865 0.1473703 -0.020954577 -0.02431079 -0.13410224 -0.104201704 0.018743986 -0.01895375
-0.04632948 -0.08109885 0.08682372 -0.035988774 -0.12987784 -0.013868461 -0.07330082 -0.1497703
-0.12929341 0.13678288 -0.018458515 0.080566086 -0.0023070879 -0.024612853 0.12182214 -0.10329358
-0.1249708 0.01791268 0.02572454 0.053573538 -0.002507174 -0.14377356 0.0065828823 0.06435206
0.04336918 0.095039375 0.11487043 -0.13433783 -0.029868059 0.0975955 -0.10970773 0.009348324
-0.12320656 -0.019418538 -0.06519195 -0.111898035 0.015340576 0.019203836 -0.15016356 -0.08311115
-0.14469223 -0.12940106 0.0038956706 -0.03460367 -0.00022382844 0.11995221 0.030012403 -0.049760662
-0.13229446 -0.009652354 0.07271458 0.03548215 0.12220769 -0.17048004 -0.00073269964 -0.02156331
-0.0012705356 0.049678043 -0.008507372 -0.010217586 -0.14882584 0.021385403 -0.16668735 -0.05026142
0.074074484 0.02800058 0.058864955 0.06549293 -0.090992615 0.043552425 0.008697894 0.023019278
0.087103486 0.12628692 -0.14872313 0.009874221 0.021244962 -0.009084635 -0.07879724 0.008757451
-0.0076810834 0.1064711 -0.18182586 -0.057833437 -0.02962436 0.0679663 0.02730285 0.11602435
0.05648227 -0.025981855 -0.046043124 -0.017238643 0.018029837 0.006757156 0.021264212 -0.00017733026

bias_ih_l0 f4 [405]
00000000: 2ca8 b9bc f745 e63d 90f2 14bc e9fe a73d
00000010: 3239 08bc f93a e23c 26c6 1ebd 8f1a 31bd
00000020: 7f40 f13d 9936 7d3d 5576 ccbc 1a3b 1c3d
00000030: d370 1f3d 35d5 6ebd c692 1bbe c62d f33c
00000040: c190 ddbd f0bb 15bd 1bea d7bd 3fd7 b6bd
00000050: 2fad e0bd e8df 97bc 9ba5 123c 963f ef3d
00000060: caf6 023d 9908 acbc 8886 e7bd 5067 d0bd
00000070: f13d a3bd 7db5 1abe 39e4 113c 203d 583c
00000080: dc07 6d3d 3461 b3bd f578 30bc bf87 583d
00000090: 9c19 46bd af77 d0bd b06a 6bbd c354 9a3d
000000a0: 0abe 8a3d bd75 233d b5ac f0bd ea6a 923d
000000b0: 1154 493d d88f abba b446 eb3b d280 b7bd
000000c0: a1ac 653d e2b2 7f3c f872 9e3c 32a7 26bd
000000d0: 4811 9d3d e711 473c ed1e b73d 99e9 a9bd
000000e0: 1d9a 863d 3d2b 94bd 7aa2 f1bd bfcb 923d
000000f0: f27f d0bc 7aa1 f2bc 2840 bcbd 06e1 d63d
00000100: f0c8 803c 0509 a3bd 46c1 bdbd 9ea1 a6bd
00000110: aa94 7abd deb2 88bc 0d83 63bc 8e6d d63d
00000120: b715 93bd 0aa7 06bd cef9 0c3d d1ef 0b3d
00000130: a6b2 22be d93c cc3c 30da af3d fc11 c3bc
00000140: 40c6 c1bd d93d 8b3c eaca c2bd 8585 413d
00000150: 930b a8bd 3f29 51bd 254d b3bd e97c 01be
00000160: afa6 5dbc 2645 b33c 5775 803d d055 f73c
00000170: 4527 b63d d3e6 2c3d a160 343c 5d1d 983c
00000180: 4662 793c 8458 93bd 1169 32bc 0e12 ce3c
00000190: 6a38 153c b67a 8b3c 29d7 903d 461a d7bd
000001a0: 391e 033e 15f8 213d 847a b3bd 1557 453d
000001b0: 4bbe 1b3d c0cc 7cbd 38e0 723c 3e45 50bd
000001c0: e48d aa3c b7b0 ea3d 1833 e03d f8a2 f53c
000001d0: 889c bfbc c933 f73d 624f 103d bf94 073d
000001e0: 808c 0ebe 6270 f9bc 239b 633c a06a df3c
000001f0: e777 283e 26fb 903c ba35 ac3c 0581 393e
00000200: 5afe 9cbd 6e59 033d 934a 3f3d f431 f2bc
00000210: f0f3 23bd 4921 0d3e 2cab 813d 19c5 193e
00000220: d1e0 2ebe b2af adbd 7832 903d 415c abbd
00000230: d554 b03d 0e22 0c3e 57f7 cd3d ece2 ee3c
00000240: 2a56 95bd 1b4f 61bd 4199 bb3c a12f 873c
00000250: 5dd4 83bc 5f7b 8fba 64c4 5bbd 3248 013e
00000260: 25eb 073d 61b5 733d 5ec2 343a e9c2 8fbc
00000270: 6cd6 5c3d a82d acbc 9226 43be 0898 cdbd
00000280: 7051 713d 9139 acbd e124 89bc 47d5 d73d
00000290: 74d2 bcbd fa09 7a3b 9866 033b 1948 bebb
000002a0: d259 c1bd e338 09bd 7d77 71bd 67b8 2fbd
000002b0: 622e d13d e73c dd3c ce06 4fbe 13a4 87bd
000002c0: e2bb 53bd 6fba a2bd c182 eb3d 6ac6 38be
000002d0: ba1d c8bc 219a 6a3d 9963 88bd a208 813c
000002e0: 8aec 4dbd 6fe3 a2bd e8b9 813d 261d 05be
000002f0: 2011 41bd 92fe f2bc 9171 033d 099e cfbd
00000300: cf32 4dbd 68e5 b1bc 9f10 8e3d cd04 debc
00000310: 134c 20bd dbfe da3b 8df6 01be d8fa d9bd
00000320: 096e 8abd 0e0b b2bd b2ab 233d 2445 983c
00000330: 7468 4dbe da5e 103d 24d2 583b e7b6 71bd
00000340: df2f 8bbc e4f3 2fbc be33 1d3d ecbf a9bc
00000350: cebd 14be 728c 89bd 40c6 81bd 9425 973d
00000360: c4d4 e3bd cc06 93bd fd2e f9bd 3334 d53d
00000370: e278 0f3d 2514 d23b 0de4 cfbd 8f9a 063d
00000380: a6d4 213d a157 e73c f7f6 84bd 7895 a0bc
00000390: 8d53 8ebd 73ae c6bc 0f2e 14bd 5819 8b3d
000003a0: 5eda 06bc 1dea 0a3d 60d7 c8bd d796 b0bd
000003b0: f0f7 19bd c492 c43d ff15 24be 54df 68bd
000003c0: b390 b03d d36e 06bb d804 04bd 8b53 7cbd
000003d0: d1c2 cbbd b04d 693d 3a6e 18bd 8088 a5bd
000003e0: 528e 07be a36f 9dbd 3da3 d23c 46a8 0d3d
000003f0: b8d7 09be 835f 5dbd 79e3 a4bc 9f53 e0bd
-0.022663198 0.112438135 -0.0090910345 0.08202917 -0.008314418 0.027616011 -0.038763188 -0.04323822
0.1177988 0.061819647 -0.024958769 0.0381423 0.038925957 -0.0583088 -0.15192708 0.029684912
-0.10818625 -0.036556184 -0.10542699 -0.08927774 -0.10970532 -0.018539384 0.008950616 0.1168205
0.031973638 -0.021000193 -0.11304957 -0.10175955 -0.07970799 -0.15108295 0.00890451 0.013198167
0.057868823 -0.087587744 -0.010771026 0.052863833 -0.048364267 -0.10179078 -0.057474792 0.07535698
0.06774528 0.039907206 -0.11751691 0.071492985 0.049152438 -0.0013089133 0.0071800593 -0.089601174
0.056072835 0.015606614 0.01934193 -0.040686794 0.07669312 0.012150264 0.089414455 -0.08296508
0.065723635 -0.072348095 -0.11798568 0.07167768 -0.025451634 -0.029618014 -0.09191924 0.104921386
0.015720814 -0.07960705 -0.092653796 -0.08136295 -0.061176933 -0.016686853 -0.013886225 0.10470115
-0.07181876 -0.032874145 0.03441792 0.034164254 -0.15888461 0.024931358 0.08586538 -0.023812287
-0.09461641 0.016997265 -0.09511359 0.047246475 -0.082053326 -0.051064726 -0.087549485 -0.12645306
-0.01352851 0.021883558 0.06272381 0.030192286 0.08894209 0.04221232 0.011009366 0.018568689
0.015221184 -0.071946174 -0.010889308 0.025155094 0.009107688 0.017026287 0.070722885 -0.10503058
0.12804498 0.03954323 -0.087636024 0.04817875 0.038023274 -0.061718702 0.014823966 -0.050847284
0.020819612 0.11459487 0.10947245 0.029984936 -0.02339007 0.12070424 0.035231955 0.03310084
-0.13920784 -0.030449096 0.013891968 0.027272522 0.16451989 0.017697882 0.021021713 0.18115623
-0.07665701 0.03206771 0.04670198 -0.029564835 -0.04002756 0.13782229 0.063314766 0.15016593
-0.17077948 -0.08480777 0.07040876 -0.083672054 0.086099304 0.13684866 0.10056942 0.02916094
-0.07291825 -0.05500708 0.022900226 0.016502203 -0.016092474 -0.0010946802 -0.05365409 0.12625197
0.033183236 0.05949915 0.0006895418 -0.017548995 0.053915426 -0.021017864 -0.19057682 -0.10038763
0.058915555 -0.084094174 -0.016741218 0.10538726 -0.09219828 0.003815292 0.0020050164 -0.0058069346
-0.0944096 -0.033501517 -0.058951844 -0.04290047 0.10213925 0.02700658 -0.2021744 -0.066230915
-0.05169285 -0.07945716 0.11499549 -0.18044439 -0.024428237 0.057275895 -0.06659622 0.015751187
-0.05027441 -0.07953536 0.06334287 -0.129994 -0.047135472 -0.029662404 0.032090727 -0.10137565
-0.050097283 -0.021715835 0.06936764 -0.027101899 -0.03913505 0.006683213 -0.12691708 -0.10643548
-0.06759269 -0.08693515 0.039958663 0.018587656 -0.20059377 0.035246707 0.0033084238 -0.05901232
-0.0169906 -0.0107393 0.038379423 -0.020721398 -0.1452553 -0.06716241 -0.06336641 0.07380214
-0.11124566 -0.07179031 -0.121671654 0.10410347 0.035027392 0.006411093 -0.10150919 0.032862242
0.039509438 0.028240027 -0.06492417 -0.019602522 -0.0694953 -0.024253106 -0.036176737 0.06791943
-0.008230774 0.033914674 -0.098067045 -0.086225204 -0.037589967 0.09598306 -0.16024016 -0.056853607
0.08621349 -0.0020512834 -0.03223118 -0.06160311 -0.09949268 0.056958854 -0.037214495 -0.08082676
-0.13237885 -0.07687309 0.025712604 0.034584306 -0.13461196 -0.054046165 -0.020127999 -0.109534495

bias_hh_l0 f4 [405]
00000000: 7ac3 bebc 02ba b83d 2343 96bd 503b e23c
00000010: 683b 57bd dcd9 2b3c 8945 b2bd 9d08 75bc
00000020: 9337 8a3d 046a ab3d 9bf3 c3bd be10 af3c
00000030: 1bfa 083d 1181 be3c 7aed 25be 96ed b5bc
00000040: d0e0 353c f0b6 c2bd 9f23 3abd 9d50 10be
00000050: c87b 7abc eca1 61bd 45cb de3c 10f4 c43d
00000060: accd bc3d 4588 96bd d0a0 a2bd 1458 97bd
00000070: 94ee 65bd a1a3 23bd ee62 e5bd c7dd 073d
00000080: f7bf a4bd 02ba 0ebe 63c3 123a 0e77 f63b
00000090: f840 313d c37b 8fbd 67a9 f03c 6634 9dba
000000a0: 1b06 ed3d 92ca 9cbd 6989 b83c 6421 a73d
000000b0: 23da a23d 886e 873b 9864 9fbd c389 17bc
000000c0: 45ab 253d 0ca2 153d 41b2 10bc 4d11 433d
000000d0: fc45 5e3d 1d0e e43c 22ed 663d 9d71 083d
000000e0: a4fb 843d 7895 12be c3b7 fbbd 5b56 153d
000000f0: fe4b 583d 6378 e4bc e0f2 39bd fedd 883d
00000100: fca8 293c ee15 2ebd 9b8a 29bb b63b f8ba
00000110: 092f b4bd de1f 94bd 2bca 27bd 95b6 e03c
00000120: 553d 96bd 7c45 bc3b b248 e23c 8c7d f43c
00000130: b91d 30bb 4e0a 313c 3b42 033d 6a92 64bb
00000140: e8d0 91bd cff7 0ebd 4949 adbd 83b1 1ebc
00000150: f57e c3bd 8c44 e1bc d9d1 8f3d 5b41 fcb9
00000160: fe00 84bd 86bc 5b3d 1ac3 e73d f94b a7bd
00000170: 3482 453e ff59 e33c 0531 8ebd 9062 96bc
00000180: fd31 923c 219f 2dbd 6b38 1a3d fe82 92bc
00000190: fb90 633d f2c0 a4bd 4de8 6b3d 33bf 3ebd
000001a0: 4109 d4bc 7cd6 28bd 29cf 503d 5e80 4bbd
000001b0: 6b2e a93d f563 dcbd 33a6 f1bc c2d5 9f3c
000001c0: e4d6 4fbc 82a2 753d bf80 8b3d 423c 883c
000001d0: c56d 7fbd c467 d43d 423d a6bd 8d65 2ebd
000001e0: 25c0 9cbc 1df3 41bd 4a05 dabd 5040 d43c
000001f0: f128 bd3d ce18 96bd 3eed 61bd 8527 3b3e
00000200: 12f9 92bd 446f a3bd f9f9 5d3c ed1b 03bd
00000210: d7e5 babd ae6e d53d db45 bf3d 32a4 e43d
00000220: 8346 32be b891 94bd 3553 ffbc 6228 dfbd
00000230: cfd3 a5ba bffc 103d d72d 063e 360b e63c
00000240: 3957 98bd 0dee 31bc 4f4c 4fbd ea6d d3bc
00000250: 9e5b 3dbd e0fc 74bd 8157 74bc 9704 513d
00000260: 3fa8 59bd 4401 adbd 9813 353d 1ce1 f9bd
00000270: 5899 ae3c d21c e1bd d3ab 80bd 8c00 f1bd
00000280: 410c 293d ce0e de3b 8345 b1bd ada2 813d
00000290: 16d3 b63b 0ec1 42ba f9df b2bd fc4c 8cbd
000002a0: 9c7f 03bd eccd 48bd c4c6 75bd b6c0 2e3d
000002b0: 4e74 b23d b3ba 973b e25d 38be c265 39bc
000002c0: 1953 c93c 17bc dabc 0ffe 093e cd1b 65be
000002d0: bf07 93bd 9f6f 783d d248 f6bd 2d55 8d3c
000002e0: 07f9 c5bd f1c7 73bd 0887 163d beda 263c
000002f0: cd37 afbd ebfb 09bd 17a6 b3bd 3bba 12bb
00000300: 277b d4bd 4b50 2fbd 48a1 293d 5f79 a53d
00000310: 6284 94bd e01a 54bb c95a 75bd 5491 333d
00000320: 8dd2 163d c49b adbc 37a5 cdbd 5b44 953c
00000330: c97c f9bd 1067 4ebd 45b8 3abc 818c 57bc
00000340: 3e10 04be 9208 93bd 376e 8f3d f4ef 863d
00000350: d995 31be e497 f9bc c23d 973d b0a8 96bb
00000360: c466 b0bd 4b51 bc3a e4a1 c3bd cbae 943d
00000370: e7db 73ba 277b 2d3d 7f49 6cbd 596f 1cbd
00000380: 146a cbb8 9c57 05be b30f 12bd 2075 14be
00000390: 4f08 40bd 38e1 d43d 8ef7 a23d 8a9e 3c3d
000003a0: b783 f03b e227 c9bd 6b2e c9bd 1760 993c
000003b0: e501 bebc 74cf c83d d1b6 2fbd 5efd 8ebd
000003c0: 45ac a53d 1680 ec3d bca1 d0bc b8e5 9fbd
000003d0: 5b81 85bd 1279 8dbd 4c2b eebd 1565 f4bc
000003e0: 98c0 3cbe e662 6bbd 76cc 5c3d dbb2 80bd
000003f0: 3d5c 4ebd 2f46 5ebb fd16 1abd 4c7f 953c
-0.02328657 0.09019853 -0.07337024 0.027616173 -0.05254689 0.010488953 -0.08704669 -0.014955667
0.06748881 0.0836983 -0.095679484 0.021370288 0.033441644 0.023254903 -0.16203871 -0.022208016
0.011100963 -0.09507549 -0.045444127 -0.14093252 -0.015288301 -0.05508606 0.027196536 0.09616864
0.09218916 -0.0735021 -0.07940829 -0.073898464 -0.05613573 -0.03995097 -0.1120051 0.033170488
-0.08044427 -0.13938144 0.0005598573 0.0075215166 0.04327485 -0.070060275 0.029377652 -0.0011993765
0.1157343 -0.07655825 0.02252646 0.08160666 0.079517625 0.0041330494 -0.077828586 -0.009249154
0.04044654 0.036531493 -0.008831562 0.04762392 0.05426596 0.027838761 0.05637849 0.033311475
0.06493309 -0.1431483 -0.12290909 0.036459308 0.052806847 -0.027889436 -0.04539764 0.06682967
0.01035523 -0.042501383 -0.0025869969 -0.0018938694 -0.08798034 -0.07232641 -0.040964287 0.027430812
-0.07335917 0.005745588 0.027622554 0.029845022 -0.0026873185 0.0108056795 0.032045584 -0.0034877309
-0.07119924 -0.034904297 -0.08461244 -0.009685877 -0.095456995 -0.027498506 0.07022447 -0.0004811388
-0.06445502 0.053646587 0.113165095 -0.081687875 0.1928795 0.027752874 -0.069429435 -0.018357545
0.017846102 -0.042388085 0.03765146 -0.017884728 0.055558186 -0.08044614 0.057594586 -0.04656906
-0.025883319 -0.041220173 0.050978813 -0.049682967 0.08260807 -0.10761253 -0.029498195 0.019511107
-0.012685511 0.059969433 0.06811666 0.016630296 -0.062360544 0.10371354 -0.08117153 -0.042577315
-0.01913459 -0.04735099 -0.1064554 0.025909573 0.092363246 -0.0732895 -0.055157892 0.18276794
-0.07176413 -0.079802066 0.013548368 -0.032009054 -0.0912587 0.10421501 0.09339496 0.1116413
-0.1740971 -0.07254356 -0.031167606 -0.10896374 -0.0012651625 0.035397287 0.13103424 0.028081518
-0.074385114 -0.010859978 -0.050609883 -0.025809247 -0.04622995 -0.059811473 -0.014913441 0.051029768
-0.053138968 -0.08447507 0.04420814 -0.12201139 0.021313354 -0.10991825 -0.06282773 -0.117676824
0.04127145 0.006776667 -0.086558364 0.06329856 0.0055793626 -0.000742928 -0.08734126 -0.06850621
-0.03210412 -0.049024507 -0.06000401 0.042664252 0.087135896 0.0046304106 -0.18004563 -0.011315765
0.024575757 -0.026701016 0.13475822 -0.22373886 -0.07179212 0.060653325 -0.12025608 0.017252529
-0.09666639 -0.05951685 0.03674987 0.010183988 -0.08555565 -0.033687513 -0.087719135 -0.0022388834
-0.10375052 -0.042801183 0.041413575 0.0807979 -0.072518125 -0.0032364652 -0.059901033 0.043839768
0.03682189 -0.021192439 -0.10041278 0.018221071 -0.12182004 -0.050391257 -0.011396472 -0.013156057
-0.12896821 -0.07179369 0.07003444 0.06588736 -0.17342319 -0.030467935 0.07384826 -0.004597746
-0.08613351 0.0014367489 -0.095523626 0.072599016 -0.00093024824 0.042353775 -0.05768728 -0.038192127
-9.699553e-05 -0.13021702 -0.035659503 -0.14497805 -0.046882924 0.103945196 0.079573736 0.046049632
0.0073399204 -0.0982206 -0.09823307 0.018722577 -0.023194263 0.098051935 -0.042898957 -0.0698192
0.080894984 0.11547868 -0.025467746 -0.07807487 -0.06518813 -0.06907858 -0.11629352 -0.029833356
-0.18432844 -0.057467364 0.053905927 -0.06284114 -0.050380934 -0.0033916344 -0.03761958 0.018249176

weight f4 [1, 4, 1, 12, 12]
00000000: e807 20be 890f 87bc e76c 473d 7f52 993d
00000010: c80c 0dbe 8345 df3c 9c1f f03c 8b5c 283d
00000020: a42b 1c3d 794b 0c3d d6fe 88bd 7a25 5cbd
00000030: b660 b0bd bdd2 0f3d 611e 7f3c 4288 b13d
00000040: c7fb b33c 99f6 afbc bf4a d5bc f995 c43c
00000050: a0c9 083d 1497 8bbc e7e1 353d 545a dbbc
00000060: faea e1bc 0473 473d b91b 87bc 4660 703d
00000070: 52a5 55bd e341 ca3c 4db9 813d 2a35 7dbd
00000080: 0482 093e 7b73 933d 4775 5abd be8b 043e
00000090: bc94 8fbb 6cb7 1fbc 2ee3 ecbd 68c9 24be
000000a0: 97ec febc c2a2 5d3c 0f65 dd3b 0008 19bd
000000b0: 3c8a 573d 5951 a73d 61c9 8e3b 36e9 9abd
000000c0: d5cb 41bb 2f99 71bc 1646 3e3e 63b8 1a3e
000000d0: 3eff 05bd c594 c73c 7b81 743d a189 a73d
000000e0: eea1 c9bc 4af5 00be 5ffa a03c 6ab4 7c3d
000000f0: b3f0 9fbd f6ed 98bd 9876 183d 7c3f b93d
00000100: 4624 08be 53e9 4cbc 08b3 523e 6b5c dd3c
00000110: ad2c 84bd dabc dcbc ada4 503b 07a3 13be
00000120: 027a 2f3c cf44 823d ee9a cc3d f6de af3d
00000130: a97e c63d c543 923d 0899 dabc 9366 433d
00000140: 06c1 01bd 0b84 bebd bb60 e03c 80a4 05bd
00000150: 42e5 2c3d fa75 943d 3c4f da3d 0d50 a63d
00000160: 505b 303c aa00 19be 956c c0bc 2b93 bb3d
00000170: e6b9 d2bd a192 86bc 1157 9a3d 4109 cd3d
00000180: 5716 4dbc 79c5 b7bc a951 cf3d a14f 0b3e
00000190: 1db7 d1bc 2ad4 8e3d 2039 dc3c 67c2 a73d
000001a0: 12e6 dc3c bc44 633d f107 15bd 9b2f 5a3d
000001b0: 538d bb3d 17f9 fb3c fabf c5bd 560a 08be
000001c0: f4f7 cc3d 5486 983d 8348 09be 342a 5ebd
000001d0: d490 cc3d 5b48 6c3d 5394 4d3d a322 88bc
000001e0: 0ae5 5c3c 8e5b ab3d a6c3 ecbc f6f3 e7bc
000001f0: ec8e 953c c9b6 433c e9fd 983d b67a 4dbd
00000200: 775f 883c ee41 a23c 2099 d7bc 8c22 0b3e
00000210: ab52 97bd 8eaf 403c 343e 8c3b 9745 823d
00000220: 5013 5b3d 629c 2fbd a322 af3c 7fba ffbc
00000230: 6527 6ebd 5786 b43a 99a9 223d c6d9 6abd
00000240: bb03 5f3d 5750 053d 4559 05be b527 263c
00000250: 220b d33d 03c8 bfbc cf67 aebd 9557 4cbd
00000260: 000e 673d 1e01 e2bc 857c 4fbd 83ea 3f3d
00000270: dd5d f23d 4f9e a3ba ae54 a4bc c5c4 693d
00000280: 691f 9fbc 2499 20bc ea62 ac3d 04ff 0ebd
00000290: 9f94 323d fa52 aa3d 5472 10bd 8c98 1a3e
000002a0: 0ea8 a33d 41e3 6e3d 1a3c d3ba c832 413c
000002b0: cc05 303d e387 9bbd 3066 903c 00a6 4b3c
000002c0: e723 003d a37b fb3d ae4d 7e3d df7f 97bb
000002d0: 541b 573d 058e 52be b9b5 cfbd f319 41bd
000002e0: 4f2d 0abc b92f 1cbd 1b25 693d 3d25 aabd
000002f0: ffdd 79bd fbae 1a3d 4b07 87bd 6960 6abc
00000300: 8b84 ef3d 07b9 febc e7f5 57be db72 62be
00000310: 67b2 bc3c ebcd 4c3d b97a d5bd 1929 46be
00000320: 08d5 2b3e cf87 4e3e cd20 49bc 88c5 da3d
00000330: b911 c3bd 2b0f 913a c5ed 963b 674d 2e3d
00000340: 5e3e 483b a23b 2c3d 4ffa aebd a446 6cbd
00000350: 6ef0 003b 3c15 853d 0f87 a1bd 706d 88ba
00000360: 929d ad3d 6e52 69bd d14a cbbd 2808 f3bd
00000370: d17d 863d 4c58 323d d341 91bd c3d3 be3c
00000380: 602f b43c d4cd 9a3d 0411 733c 25ca d83c
00000390: d9d6 75bd 4f98 d3bd 6da9 06bd e1cb 773d
000003a0: 42b0 2bbe ea0d 8c3c ba05 8c3c 3f01 afbc
000003b0: 38fd a83d 4e5a 323d 803a 893c 113a 6ebc
000003c0: d891 b83d 562b f13d 6e6c 3dbe eccb 1abe
000003d0: d980 0b3e bfbd 6e3e bcc2 68bd 5b9d 5dbe
000003e0: 59b8 633c 12bc a43d 3f20 33bc ee51 ba3d
000003f0: b887 54bd b048 b5bc e4c3 a4bd 6785 66bd
-0.15628016 -0.0164869 0.04868784 0.07486438 -0.13774407 0.027254825 0.029311948 0.04110388
0.038127556 0.034251664 -0.06689231 -0.053746678 -0.08612196 0.035113085 0.015571208 0.08668567
0.021970643 -0.021479892 -0.026036618 0.023997294 0.03339541 -0.017039813 0.04440489 -0.02677647
-0.027577866 0.04869367 -0.016492711 0.058685564 -0.052159615 0.02468962 0.063341714 -0.06181828
0.13428503 0.071997605 -0.0533345 0.12943932 -0.004381744 -0.009748321 -0.115667686 -0.16092455
-0.031118674 0.013527574 0.006756432 -0.037361145 0.052622065 0.08169813 0.0043575023 -0.07564013
-0.0029570956 -0.0147459945 0.18581423 0.151094 -0.03271412 0.024362931 0.059693795 0.081805475
-0.024613347 -0.1259357 0.019650636 0.061695494 -0.078095816 -0.074672624 0.037222475 0.09045312
-0.13295087 -0.012506801 0.20576108 0.027021607 -0.06453834 -0.02694552 0.0031836436 -0.14417659
0.010710241 0.063607804 0.09990488 0.08587448 0.09692127 0.07141832 -0.0266843 0.047705244
-0.031678222 -0.09302529 0.027389875 -0.032627583 0.042210825 0.07249065 0.10659644 0.08120737
0.010763958 -0.1494166 -0.023489276 0.091589294 -0.102893636 -0.01642734 0.07536138 0.10011531
-0.012517533 -0.02243303 0.10122997 0.13604595 -0.02560001 0.06974061 0.026882708 0.08191376
0.026965175 0.055485472 -0.036384527 0.053268056 0.09157815 0.030758424 -0.09655757 -0.13285193
0.10008231 0.07447496 -0.13406567 -0.054239467 0.09988561 0.05768619 0.05019028 -0.016618079
0.013482342 0.08367072 -0.028901886 -0.028314572 0.018256627 0.011945435 0.074703045 -0.050165854
0.016647084 0.019806828 -0.026318133 0.13587397 -0.073888145 0.0117606055 0.004279876 0.063609295
0.053485215 -0.042873748 0.02137882 -0.031216858 -0.05814304 0.0013772947 0.039712522 -0.05733659
0.054446917 0.03254732 -0.13022335 0.010141303 0.10304858 -0.023410803 -0.08515894 -0.049888212
0.056409836 -0.027588423 -0.05065586 0.046854507 0.11834309 -0.0012483093 -0.02005991 0.05707242
-0.019424157 -0.009802137 0.08417304 -0.03491117 0.043598767 0.08316608 -0.03526528 0.15097255
0.07991038 0.058322195 -0.0016115934 0.011791892 0.04297428 -0.07594278 0.017626852 0.012429714
0.03128424 0.12279441 0.0620858 -0.0046233977 0.052516297 -0.20561989 -0.10142083 -0.047143888
-0.008433654 -0.03813145 0.056920152 -0.08307884 -0.061002728 0.03776453 -0.06593188 -0.014305213
0.116952024 -0.031094087 -0.21089898 -0.22114126 0.023034288 0.050001066 -0.10423798 -0.19351615
0.16780484 0.20168994 -0.012275887 0.10682207 -0.09524865 0.0011067142 0.004605981 0.042554285
0.0030554752 0.042049058 -0.08543836 -0.057684556 0.0019674557 0.06498191 -0.078870885 -0.0010408591
0.0847732 -0.056963377 -0.099263795 -0.1186679 0.06566966 0.043541238 -0.07092633 0.023294335
0.021995246 0.0755879 0.0148356 0.026463578 -0.060019348 -0.10331785 -0.03287642 0.06049717
-0.16766456 0.017096478 0.017092574 -0.021362899 0.08251423 0.043543153 0.016751528 -0.014540211
0.090121925 0.11775844 -0.18498394 -0.15116853 0.1362337 0.2331457 -0.05682634 -0.21642058
0.013898932 0.08043684 -0.010932981 0.09097658 -0.051887244 -0.022129387 -0.08045176 -0.056279566

weight f4 [12, 12]
00000000: 3266 943e 5429 60be c76f 06be 5483 bebd
00000010: 8b14 213e 20e2 053e bc2f 093e 4913 8dbd
00000020: d45f 41be a1c7 a23e 512b fc3d 3a5b c1bc
00000030: 37a4 163e 60d6 39be fab1 883e d5b4 72bc
00000040: 7cea 0c3e 0d9a 693d 0afe 653e 2c0b a13d
00000050: 537b c0be 3389 b33d 808a 723e 8e95 c6be
00000060: f6a7 b4bc 8459 94bd fe4e 823e 2481 963e
00000070: a7bb 213e cbea 513e b851 f1bd 7dd9 66be
00000080: 9f49 bbbe c38e 56be b0a8 363e c5fe 84be
00000090: 58ec 6e3c 64e2 14be 682a 25be cc9b b7bd
000000a0: 7c62 993d 6414 693d 981a 873d 21f4 0dbe
000000b0: 57d3 e33d cc60 8dbd f582 733e 3e8e 9fbd
000000c0: 33b4 863e 62b1 58be 0ef5 17be 62de 84be
000000d0: 62dd dcbc c476 c23d 6ad3 6d3d d9c1 093e
000000e0: ef71 6d3d e149 043e 6c10 54be b43c 333e
000000f0: 7170 81bd e493 1a3e 989d fcbd e825 7d3d
00000100: a67c 8e3e 6506 663d 41fe 73be 9136 1fbe
00000110: 8e38 4bbe e81d 5e3e 3f18 423d e4c9 b9bd
00000120: 1b43 6d3c 08f2 debb be3c 8c3c 04a5 2bbe
00000130: d738 cabd 8e24 bc3d dc41 c33d f2fb 38be
00000140: dce8 fd3d 251a 5c3e 67c0 58be a241 803e
00000150: 8014 c2bd e927 25be 6bbf 373e ce3d 24be
00000160: 4398 6c3d 51ec 33be c32c 813e 941c 543e
00000170: f9bf bb3c ae12 adbc a04d 933d 5976 9bbe
00000180: 88a0 263e 4081 df3a 922c b03e 73de 96bd
00000190: 0353 dc3d 50ab 88be 9633 5ebe 9fe2 2bbe
000001a0: ad4f 71be 212d 78be d5d9 273e 31aa 2ebe
000001b0: 47cf 643c be52 99be 526d b1bc 43ec 6c3e
000001c0: aaae 8d3e 913c 16bc 431b 3b3e b8a3 753e
000001d0: 1eef 66be 9cb3 32be 00ff 38be 27ac c13c
000001e0: 6225 05bd c4cb 2e3e f13d d63d 2753 63be
000001f0: 879a 9a3e e1b3 7fbe 907c 2dbe 2f42 60be
00000200: fbcb f13c d710 123e ab96 30be 887d adbd
00000210: 3937 8fbd 883d e53d fe9f c8bd 9b71 0cbe
00000220: acb2 d4bd c1e6 123e 1ef8 04bc c1bd e1bd
00000230: bb3a 633d b8c8 0c3e d809 e33d 3725 9b3e
0.2898422 -0.21890765 -0.13128577 -0.093023926 0.15730493 0.13074541 0.13397115 -0.06888444
-0.18884212 0.3179293 0.123129494 -0.02360307 0.1471108 -0.18148184 0.26698285 -0.0148136215
0.13761324 0.05703168 0.2246019 0.07863459 -0.3759409 0.08766403 0.23685646 -0.38785976
-0.022052746 -0.07243636 0.2545089 0.293954 0.1579424 0.20499723 -0.11783165 -0.22543903
-0.36579606 -0.20952897 0.17837787 -0.25975624 0.014582716 -0.14539486 -0.16129458 -0.08965263
0.074894875 0.05690421 0.06596869 -0.13862659 0.11124294 -0.06903228 0.23780425 -0.077908024
0.26309356 -0.21161416 -0.14839575 -0.25950915 -0.026961032 0.09495309 0.05806295 0.13452853
0.057969984 0.12918808 -0.2070939 0.17503625 -0.063202746 0.15095478 -0.12334746 0.06180373
0.27829474 0.056158442 -0.23827459 -0.15548159 -0.19845793 0.21691096 0.047386404 -0.09071711
0.014481331 -0.0068037547 0.017118808 -0.16762167 -0.098741226 0.0918666 0.09534046 -0.1806486
0.1239793 0.21494348 -0.21167146 0.25050074 -0.09476566 -0.16128506 0.17944114 -0.16039202
0.057762396 -0.17570616 0.25229463 0.20714027 0.022918688 -0.021127071 0.0719254 -0.3036373
0.16272175 0.0017052069 0.34409004 -0.073666476 0.10758021 -0.266932 -0.21699366 -0.16785668
-0.2356555 -0.24235965 0.1639169 -0.1705711 0.013965434 -0.2994594 -0.021658573 0.23137002
0.2767232 -0.009169714 0.18272118 0.23988235 -0.22552153 -0.17451328 -0.18066025 0.023641659
-0.032506354 0.17069918 0.10461033 -0.22199689 0.3019602 -0.24970962 -0.16942048 -0.21900247
0.02951621 0.14264236 -0.17244975 -0.08471209 -0.06992955 0.11193377 -0.09796141 -0.13715212
-0.103856415 0.14345838 -0.008115796 -0.11022521 0.05547593 0.13748443 0.11085862 0.3030183

bias f4 [12]
00000000: e6de 473e 1019 83bd 8cd6 a03d 713d 853d
00000010: d949 50bd 54ba 803e 9f28 183e 8a57 843e
00000020: 7487 66be f03d 4b3d 1da6 1a3e e39c 42be
0.19518623 -0.06401265 0.078534216 0.0650586 -0.050851677 0.25142157 0.14859246 0.25848037
-0.22512609 0.049619615 0.1510243 -0.1900516

weight f4 [3, 12]
00000000: a090 89bc 0573 fdbd b96b b2bd 5fcc 89be
00000010: f3ad 15be 72aa d5be e7fe 7cbe a9d9 703e
00000020: ec1d a2be 04fe 5e3d 9c40 a1be 7884 3fbd
00000030: a12e e33e 0ef7 aebe 7cd8 dcbe f35d 363e
00000040: 9177 c83e 093e c13e a782 2c3e 7e89 21be
00000050: 12c7 cebe 1574 c4be bf66 a63e ec51 e23e
00000060: 6df6 b8be 9641 813e 1d9f 0a3e c9c2 abbe
00000070: 517d 6e3b d455 ecbc 045f 3d3b b3b5 ae3c
00000080: ec16 c2bb 7e2c 9c3e 0cb5 32be 3a19 e2be
-0.016792595 -0.12375454 -0.08711953 -0.26913735 -0.14617138 -0.41731602 -0.24706613 0.23520531
-0.31663454 0.054441467 -0.31494606 -0.04675719 0.44371513 -0.34172863 -0.43133914 0.17809276
0.39153722 0.37742642 0.16846715 -0.15775105 -0.40386254 -0.38369814 0.32500264 0.44203126
-0.36125508 0.2524535 0.1353726 -0.33547047 0.0036390612 -0.02884952 0.0028895745 0.021326875
-0.0059231427 0.30502695 -0.17451876 -0.4415987

bias f4 [3]
00000000: e07e 94be fb24 873d d13f 55be
-0.29003048 0.0659885 -0.20825125

weight f4 [3, 12]
00000000: d7c8 87be 846c 41be 00b6 52be 47fa 62be
00000010: 8a5b 713c f178 b2bd d90e 81bc 54a2 09be
00000020: 571b 873e 30c6 813e 7e08 94be fc5e 8dbe
00000030: a1ea f4bd 88ed 16be 30f7 b6bd 8558 eb39
00000040: 5744 0dbe 5cce 2bbe 9a90 d8bd ad69 edbc
00000050: a8a7 3bbe 12ce e7bc c6da 52be 9cdb 23be
00000060: 6d2c 25be 5324 0e3e f6c8 103e 1d00 133c
00000070: 8ce8 83be c802 fbbc 33bd 513e ec24 023d
00000080: 045c 383e d8ce 823e e562 6abe ca1e 463e
-0.26520416 -0.18889052 -0.2057724 -0.22165786 0.014731297 -0.08714474 -0.01575415 -0.1344083
0.26388046 0.25346518 -0.2891273 -0.2761153 -0.119588144 -0.14739048 -0.08933866 0.00044888645
-0.13795601 -0.16777939 -0.105744556 -0.028981054 -0.18325675 -0.028296504 -0.20591268 -0.16001743
-0.16130228 0.13881044 0.1413916 0.008972195 -0.25763357 -0.030640975 0.2048233 0.031773493
0.18003851 0.25548434 -0.22889288 0.19347683

bias f4 [3]
00000000: 854e afbe a2aa 833e cb3d 903d
-0.34239593 0.2571612 0.07043036

weight f4 [3, 3]
00000000: d028 d2be 506c d13e 46f1 d33e f603 b2be
00000010: bb5b 883d 81de b93e 4353 b4bd 3af3 ca3e
00000020: 53cb fa3e
-0.41046762 0.40902948 0.41395015 -0.34768647 0.06658121 0.3630257 -0.088049434 0.39638692
0.4898325

bias f4 [3]
00000000: 637f e33e 6e10 093f 33b1 07bf
0.44433126 0.53540695 -0.5300476
