data/best/output/poster/train/12_stemgnn.pt (torch, 435920 bytes, 73 tensors)

weight_key f4 [135, 1]
-0.0039331997 0.15790814 -0.24580322 -0.2190139 -0.113916464 0.08005714 -0.005575584 0.23602684
-0.026258938 0.077799976 -0.089986764 -0.05879385 -0.28437334 -0.19664983 -0.12221688 0.011427484
0.11754086 0.17836125 -0.20111537 -0.12911615 0.10782877 0.24620983 -0.061899338 0.22164676
-0.04859057 0.03124108 0.26967764 -0.27474648 -0.1865661 -0.074628785 -0.114475384 0.25792268
-0.19150256 -0.13625002 -0.20685667 -0.27772266 -0.17338426 0.25533497 0.13258542 0.14478664
0.015958523 -0.15230274 0.050020248 -0.2779949 -0.21590386 -0.15474516 0.18696934 0.17373244
-0.13259959 -0.011217774 0.1893156 0.29540336 0.11737428 0.040265784 0.19997269 -0.17487797
0.05469838 -0.2316625 -0.20661427 -0.15372908 0.13363989 0.11837077 -0.17787364 0.08903946
0.16183305 -0.039371423 0.009804039 0.067852855 0.18353009 0.28390428 -0.2302756 -0.11034977
0.115004055 0.24483772 0.25675413 0.2603327 0.0583592 -0.2585256 0.027227776 -0.1866572
-0.27860495 0.2635272 0.22542343 -0.2963546 0.055837817 -0.05057788 -0.05025306 -0.13666119
0.11279191 -0.17675991 0.10830178 0.14930446 0.2118835 0.10985593 -0.29541728 -0.1943406
0.14786565 0.062216055 -0.2315737 -0.17090176 0.2788967 0.19839646 -0.13093801 -0.0748148
-0.28196126 -0.0044894037 -0.22271629 -0.2280371 -0.015631516 0.04520413 -0.12098732 0.17707217
-0.18069623 0.26896125 0.2022439 -0.25221172 -0.07417884 0.012439511 0.041629735 0.06865132
0.11488663 0.016031504 -0.14637129 0.13975072 -0.28602296 -0.17697452 -0.075965315 -0.14615172
-0.10460544 -0.24334767 -0.06293052 0.064179756 -0.19302902 -0.015725052 0.21137184
00000000: 12e2 80bb acb2 213e d7b3 7bbe 2e45 60be
00000010: 094d e9bd fff4 a33d 63b3 b6bb 05b1 713e
00000020: fc1c d7bc 9855 9f3d fb4a b8bd d2d1 70bd
00000030: 6299 91be 935e 49be d84c fabd 583a 3b3c
00000040: 43b9 f03d 55a4 363e 30f1 4dbe 0637 04be
00000050: 55d5 dc3d 6e1e 7c3e 298a 7dbd 5ef7 623e
00000060: e806 47bd 4bed ff3c 3013 8a3e 92ab 8cbe
00000070: 2f0b 3fbe fad6 98bd 1272 eabd 710e 843e
00000080: 3f19 44be 2085 0bbe 3cd2 53be aa31 8ebe
00000090: a58b 31be 44bb 823e 79c4 073e f342 143e
000000a0: 73bb 823c 40f5 1bbe 08e2 4c3d 5955 8ebe
000000b0: e715 5dbe 8475 1ebe e474 3f3e ebe6 313e
000000c0: 30c8 07be c1ca 37bc f3db 413e 1c3f 973e
000000d0: ed61 f03d bced 243d a4c5 4c3e 3613 33be
000000e0: 690b 603d ef38 6dbe b192 53be 286b 1dbe
000000f0: e5d8 083e 606c f23d 8224 36be 525a b63d
00000100: 90b7 253e ee43 21bd 1fa1 203c 70f6 8a3d
00000110: 50ef 3b3e e75b 913e 5ecd 6bbe 0fff e1bd
00000120: 3f87 eb3d bdb6 7a3e 4775 833e 544a 853e
00000130: 0e0a 6f3d 785d 84be c90c df3c 1123 3fbe
00000140: 4fa5 8ebe 0aed 863e 66d5 663e cabb 97be
00000150: 32b6 643d c02a 4fbd 27d6 4dbd e9f0 0bbe
00000160: 72ff e63d 8d00 35be 53cd dd3d 45e3 183e
00000170: fdf7 583e 25fc e03d ef40 97be 3901 47be
00000180: 186a 173e 43d6 7e3d a821 6dbe df00 2fbe
00000190: 8ccb 8e3e 7128 4b3e 9d14 06be 8038 99bd
000001a0: 3a5d 90be d91b 93bb bd0f 64be 8f82 69be
000001b0: aa0d 80bc f727 393d 33c8 f7bd 6852 353e
000001c0: 6f08 39be 4ab5 893e 0619 4f3e e521 81be
000001d0: 13eb 97bd 17cf 4b3c f183 2a3d 1099 8c3d
000001e0: ae49 eb3d 8054 833c 5be2 15be d01a 0f3e
000001f0: 9a71 92be cf38 35be b493 9bbd cca8 15be
00000200: 603b d6bd 2230 79be b7e1 80bd ad70 833d
00000210: 66a9 45be d3d1 80bc dc71 583e

weight_query f4 [135, 1]
-0.06924876 0.0061581386 0.0756926 0.18723495 0.3210355 0.4119338 0.31603348 0.40694508
0.101378836 -0.14550383 -0.020629864 0.3219199 0.11728258 -0.028740328 -0.10917751 -0.15986377
-0.13288791 0.05712749 0.28022933 0.2778639 -0.16878 0.30302632 -0.11402473 0.055592705
-0.001804841 0.06179682 0.060731057 -0.14766288 -0.13793677 0.07171426 0.1216921 -0.017169194
0.22931325 -0.14915371 0.09773409 0.37884262 -0.0032643373 0.38565877 0.22577465 -0.1494222
0.30690333 0.08457169 -0.013380738 0.3566335 -0.12068774 0.15117577 0.05721727 0.33174568
0.20220706 0.2620414 0.22450817 0.048027474 0.056933075 -0.12577151 0.27986765 0.354998
0.3223706 -0.09035263 0.13239849 -0.09032093 -0.044602368 -0.054113876 0.22052778 -0.058101498
0.11265987 0.13170792 0.31052315 -0.10550134 -0.08444329 -0.05308726 0.32714373 0.01283947
0.37007502 0.22757481 0.15753546 0.1174343 0.060614042 0.15600559 0.051232446 0.116995834
0.15701029 -0.1132564 -0.03688283 0.35892767 -0.12149105 0.09772905 0.41271034 0.22661561
0.12776566 -0.13839085 0.2667044 -0.09152015 0.035231035 0.019847414 0.075339265 0.12269108
0.36389154 0.1556679 0.38467714 0.30014658 -0.06915046 0.25188252 -0.091411024 -0.006980079
0.20653321 0.21761921 0.3417645 0.023182241 0.11968632 0.27210036 -0.16832355 0.33339742
-0.12678422 0.123089 0.068437986 -0.037472717 0.15809566 0.36479843 0.03234576 -0.057308
0.009322278 -0.17484169 0.2530902 -0.02314676 -0.07903303 -0.052361403 0.28965843 0.27596438
0.3464667 0.2265206 0.019684665 0.035934206 0.20699869 0.36652818 0.20409842
00000000: 4bd2 8dbd 36ca c93b b904 9b3d 85ba 3f3e
00000010: c45e a43e fde8 d23e 24cf a13e 1b5b d03e
00000020: b59f cf3d f5fe 14be f6ff a8bc afd2 a43e
00000030: d931 f03d d670 ebbc 7598 dfbd 54b3 23be
00000040: c513 08be 84fe 693d 387a 8f3e 2d44 8e3e
00000050: aad4 2cbe 4426 9b3e cc85 e9bd 2db5 633d
00000060: 6a90 ecba aa1e 7d3d 21c1 783d f034 17be
00000070: 4c3f 0dbe edde 923d b539 f93d 69a6 8cbc
00000080: 18d1 6a3e c0bb 18be d028 c83d a9f7 c13e
00000090: 7eee 55bb 1175 c53e 7831 673e 2202 19be
000000a0: 6f22 9d3e ec33 ad3d e23a 5bbc ab98 b63e
000000b0: 222b f7bd d2cd 1a3e a85c 6a3d 92da a93e
000000c0: 5e0f 4f3e 4a2a 863e 78e5 653e 75b8 443d
000000d0: a832 693d 3fca 00be d04a 8f3e 4cc2 b53e
000000e0: c20d a53e cd0a b9bd 7893 073e 2efa b8bd
000000f0: f9b0 36bd 83a6 5dbd 09d2 613e d6fb 6dbd
00000100: 38ba e63d 71de 063e e4fc 9e3e 1611 d8bd
00000110: 9bf0 acbd 0772 59bd 627f a73e a45c 523c
00000120: 797a bd3e 5f09 693e fa50 213e 6581 f03d
00000130: 6e46 783d eebf 1f3e 1dd9 513d 839b ef3d
00000140: 4ec7 203e f9f2 e7bd 7312 17bd 5ec5 b73e
00000150: 4dd0 f8bd 2b26 c83d c54e d33e ec0d 683e
00000160: 00d5 023e 55b6 0dbe 7b8d 883e eb6e bbbd
00000170: 6b4e 103d 0b97 a23c 794b 9a3d 7645 fb3d
00000180: fe4f ba3e 6867 1f3e 67f4 c43e d0ac 993e
00000190: c29e 8dbd bff6 803e b435 bbbd 26b9 e4bb
000001a0: 717d 533e 92d7 5e3e c2fb ae3e afe8 bd3c
000001b0: 1a1e f53d bd50 8b3e 025d 2cbe 11b3 aa3e
000001c0: b9d3 01be 1616 fc3d 3729 8c3d fe7c 19bd
000001d0: d4e3 213e dcc6 ba3e fd7c 043d cbbb 6abd
000001e0: 78bc 183c b309 33be 0a95 813e 469e bdbc
000001f0: 12dc a1bd e978 56bd 1c4e 943e 344b 8d3e
00000200: 1564 b13e 04f5 673e bc41 a13c bf2f 133d
00000210: 77f7 533e 95a9 bb3e 2dff 503e

weight_ih_l0 f4 [405, 3]
-0.06311373 -0.06297801 -0.10401345 0.061597712 -0.0050883763 -0.033423316 0.07453578 -0.05598679
-0.009059662 0.013918496 -0.007947651 -0.068533406 -0.0009746852 0.13743187 0.08309577 0.12222666
0.021687217 0.07720355 -0.028178405 -0.012323993 -0.06106687 0.02718508 0.025867475 -0.0031921747
-0.046430785 -0.080038056 0.032688342 -0.040879995 0.057344932 -0.007635357 -0.036324583 0.020824444
-0.03943438 0.11312178 0.11067633 0.030155055 0.030908704 0.053648382 0.051297907 -0.04044912
-0.10043054 -0.043367434 0.09816124 0.036798492 0.10086552 0.061504737 -0.04025669 0.00580533
-0.07073516 -0.09999157 -0.099824406 0.09433604 0.016044848 0.09048868 0.093638696 0.1127032
0.08682762 0.10181315 0.13063847 0.048669595 0.023903426 0.022105757 0.18259116 0.049983244
-0.06394985 0.029132593 0.084380865 0.10571161 0.09509379 0.04599842 -0.040324993 -0.05069107
0.11204712 0.089830264 -0.010177482 0.076728836 0.041154057 0.04632589 -0.07501504 0.0032391043
-0.052044425 0.06951765 -0.0129179815 0.036221735 0.0017830007 0.023171568 -0.042627495 -0.038965642
-0.14063334 -0.061134942 -0.124802686 -0.15151079 -0.13587113 0.14547639 0.124255635 0.15864967
0.14010155 -0.005438865 0.012772854 0.0038658318 -0.038292155 0.077159174 -0.04717778 -0.024595402
-0.065823294 -0.03107298 0.08869223 0.08845727 -0.011522004 -0.0064820624 0.0037059493 -0.110012054
-0.05034502 -0.011533419 0.0010372278 0.05871602 0.017517792 0.086890176 0.0041331067 0.0756833
0.026164226 -0.0042086365 -0.032306578 -0.10398735 -0.1221812 0.0012785319 0.052442018 -0.018807365
-0.05918028 0.05450835 0.042429302 -0.006797857 -0.031495616 0.08831801 0.04453549 0.018328633
0.16612369 0.14931996 -0.009947487 0.06970616 -0.027621066 0.00860786 0.09498104 0.025282905
-0.0034318508 0.031277854 0.036673415 0.012056302 0.03603251 0.10742364 0.009880416 -0.047913544
0.00959462 0.044596374 0.046141718 -0.07514442 -0.0022884458 -0.050749842 -0.023496281 0.038099844
-0.05492479 0.038203057 0.09883002 0.031382162 -0.031750757 -0.05681833 -0.0071278187 -0.09147695
0.018695973 -0.10220708 -0.106881395 -0.08204077 -0.01581883 0.059341326 -0.04393741 0.10883971
0.0027335207 -0.053328738 -0.07364104 -0.1541347 0.083033904 0.058633987 0.09773101 0.020027885
-0.08013872 0.048564933 -0.050726105 -0.01460145 -0.12442464 -0.008434275 -0.06812822 -0.01718451
-0.000119725344 -0.08553951 0.009555292 0.13331614 0.10025992 0.031051286 0.016887031 0.057372067
0.12175329 0.1061129 0.07057424 0.011164446 0.004569355 -0.11007967 -0.09933606 0.07375594
-0.015150251 0.07498084 -0.06611267 -0.047730755 -0.07564358 0.12844558 0.075074226 0.1502124
0.1029167 0.09746527 0.052615546 -0.043895602 -0.036145687 -0.006320591 0.01837609 -0.08438763
0.048190366 -0.023050373 -0.08580393 -0.060412783 0.07345662 0.07573955 -0.08285772 0.09757705
0.08015824 0.08813418 0.11266135 -0.0054381294 0.069962345 0.020500014 -0.03976476 0.014705817
0.0076530343 0.08565149 0.008215908 -0.012126374 0.04185882 0.050945263 -0.01821151 0.0314115
0.0736572 -0.027641105 0.0071560047 -0.03989189 0.0126009835 -0.079763584 -0.06823508 -0.027326155
00000000: c541 81bd 9dfa 80bd 0105 d5bd e24d 7c3d
00000010: 65bc a6bb e3e6 08bd 37a6 983d 6852 65bd
00000020: fa6e 14bc 670a 643c dd36 02bc 3e5b 8cbd
00000030: 0482 7fba f1ba 0c3e 1d2e aa3d f951 fa3d
00000040: 64a9 b13c e51c 9e3d 66d6 e6bc 93ea 49bc
00000050: 4121 7abd 3fb3 de3c 07e8 d33c ce33 51bb
00000060: 352e 3ebd feea a3bd 36e4 053d c871 27bd
00000070: 85e2 6a3d 0432 fabb 16c9 14bd 0698 aa3c
00000080: f285 21bd 64ac e73d 46aa e23d bc07 f73c
00000090: 4034 fd3c 68be 5b3d c11d 523d faad 25bd
000000a0: 87ae cdbd 0da2 31bd c308 c93d 04ba 163d
000000b0: 9592 ce3d 64ec 7b3d 33e4 24bd a33a be3b
000000c0: 98dd 90bd 61c8 ccbd bd70 ccbd 4133 c13d
000000d0: 7c70 833c 2152 b93d a5c5 bf3d efd0 e63d
000000e0: aed2 b13d 6a83 d03d 17c6 053e c559 473d
000000f0: 1ed1 c33c 2217 b53c 2df9 3a3e 3bbb 4c3d
00000100: 24f8 82bd 7aa7 ee3c e0cf ac3d 547f d83d
00000110: 88c0 c23d d768 3c3d d22b 25bd 70a1 4fbd
00000120: f678 e53d eef8 b73d 74bf 26bc 0224 9d3d
00000130: 2891 283d 37c0 3d3d 7ca1 99bd 2747 543b
00000140: 892c 55bd 455f 8e3d f1a5 53bc 3e5d 143d
00000150: 93b3 e93a 4dd2 bd3c 2b9a 2ebd 709a 1fbd
00000160: 3002 10be a268 7abd 8d98 ffbd a525 1bbe
00000170: cd21 0bbe c3f7 143e bd79 fe3d 0f75 223e
00000180: c876 0f3e 8238 b2bb 3c45 513c e559 7d3b
00000190: 3cd8 1cbd a105 9e3d 7d3d 41bd 4c7c c9bc
000001a0: 5dce 86bd c38c febc 46a4 b53d 1629 b53d
000001b0: cac6 3cbc 7b67 d4bb 83df 723b 004e e1bd
000001c0: 9436 4ebd aaf6 3cbc 97f3 873a 3680 703d
000001d0: 7981 8f3c 7af3 b13d 036f 873b d9ff 9a3d
000001e0: 5c56 d63c 9ae8 89bb e753 04bd 52f7 d4bd
000001f0: 233a fabd 6994 a73a 71cd 563d e711 9abc
00000200: 0567 72bd 2644 5f3d 59ca 2d3d 8fc0 debb
00000210: 8c01 01bd 13e0 b43d d96a 363d ee25 963c
00000220: 541c 2a3e 55e7 183e c9fa 22bc 1ac2 8e3d
00000230: 9345 e2bc fb07 0d3c 6b85 c23d 181e cf3c
00000240: e7e8 60bb 351d 003d dd36 163d cc87 453c
00000250: d396 133d ed00 dc3d 78e1 213c fe40 44bd
00000260: c132 1d3c b0aa 363d 19ff 3c3d 51e5 99bd
00000270: c0f9 15bb 11df 4fbd 467b c0bc 950e 1c3d
00000280: d1f8 60bd cf7a 1c3d 6567 ca3d 958a 003d
00000290: 150d 02bd 56ba 68bd 7a90 e9bb 4458 bbbd
000002a0: 4c28 993c f251 d1bd a2e4 dabd fe04 a8bd
000002b0: 7e96 81bc e40f 733d b7f7 33bd 5be7 de3d
000002c0: de24 333b 3c6f 5abd 1dd1 96bd 7dd5 1dbe
000002d0: ae0d aa3d 312a 703d 3227 c83d 8511 a43c
000002e0: c51f a4bd 06ec 463d 2dc6 4fbd ec3a 6fbc
000002f0: 58d2 febd ea2f 0abc cf86 8bbd 88c6 8cbc
00000300: 0e15 fbb8 572f afbd cd8d 1c3c 0784 083e
00000310: 1355 cd3d 445f fe3c ac56 8a3c f9fe 6a3d
00000320: ca59 f93d b851 d93d 3a89 903d 15eb 363c
00000330: 87ba 953b 7371 e1bd b470 cbbd 5b0d 973d
00000340: c238 78bc 8e8f 993d 1466 87bd 5381 43bd
00000350: 05eb 9abd 3d87 033e 84c0 993d 48d1 193e
00000360: fec5 d23d df9b c73d 6683 573d e0cb 33bd
00000370: 800d 14bd f61c cfbb 7489 963c 6cd3 acbd
00000380: 4363 453d 23d4 bcbc f9b9 afbd 6573 77bd
00000390: 6d70 963d 561d 9b3d 4fb1 a9bd 7ad6 c73d
000003a0: 012a a43d b17f b43d feba e63d 5632 b2bb
000003b0: 6b48 8f3d a5ef a73c 5fe0 22bd abf0 703c
000003c0: 4ec6 fa3b 0c6a af3d 049c 063c b3ad 46bc
000003d0: 2774 2b3d fbab 503d 4e30 95bc 58a9 003d
000003e0: 96d9 963d 996f e2bc eb7c ea3b ae65 23bd
000003f0: 5b74 4e3c 175b a3bd d5be 8bbd 1adb dfbc

weight_hh_l0 f4 [405, 135]
0.062803626 0.08058685 -0.06160871 0.1295644 -0.004940209 0.020120947 0.03753779 -0.05648309
-0.048256278 0.030219091 0.072241135 -0.038561188 -0.101176485 0.031586915 0.01949931 0.11177729
-0.10812929 -0.0066525796 -0.055588912 -0.08646978 -0.015107759 -0.06726118 0.070312336 -0.07744063
0.08268392 -0.029409323 0.035446923 -0.14098786 -0.067437105 -0.017447883 -0.17518856 0.023007246
0.011304917 0.0025776727 -0.113135 0.10001105 0.049770024 -0.021050269 -0.032068938 0.05704678
0.16707033 -0.08901666 -0.028673546 0.0118900575 -0.091734886 0.12009635 -0.020693697 0.08440295
-0.030098198 -0.037799127 -0.05234682 -0.049883164 0.070030175 0.08492714 -0.05200331 0.107231475
0.025680942 0.055131156 0.091624 0.060753815 0.056664474 -0.027925964 -0.060338322 0.051258154
0.01790885 -0.025311213 0.01989173 0.045345448 -0.013672175 -0.09547693 -0.022609528 -0.050835837
-0.102974765 0.004187566 0.018816082 0.019560302 0.06154836 -0.06480019 -0.0723544 0.10863281
0.007347173 -0.038495485 -0.057057217 -0.09588692 0.0119453 -0.098709136 0.021784982 0.0855246
-0.0059936363 -0.08116722 0.0605827 0.08688382 -0.13081728 0.054132644 0.009138405 0.020930342
-0.010118481 -0.073821016 0.025332268 0.046612836 -0.04724016 -0.07075284 0.043409783 0.071075104
0.06149398 0.0015082601 0.046708483 0.0017264906 0.01806903 0.06766509 -0.022155844 -0.03360771
-0.026465943 -0.052407708 0.018356513 -0.06011202 0.07653522 -0.016709596 0.051489167 0.08716994
0.008824754 -0.012486249 0.0007541121 -0.06501106 0.06829107 -0.007382346 -0.034666225 -0.09481194
0.059233893 -0.09685913 0.012022238 0.021028388 -0.08571483 -0.11200091 -0.064472385 0.05526944
-0.1378925 -0.13876353 0.02055309 -0.014241425 0.09060782 0.029016394 -0.018875405 0.002410066
-0.024128692 -0.09504099 -0.056225155 0.07109146 -0.050640598 -0.11948721 -0.16440922 0.053772848
0.049143776 0.14754282 -0.02086306 -0.024485128 -0.13416485 -0.10433627 0.018829212 -0.019075923
-0.04637249 -0.081269234 0.08700217 -0.035976354 -0.12996227 -0.013856517 -0.07348787 -0.14987457
-0.12942274 0.13700113 -0.018786395 0.08071047 -0.0022975 -0.024679234 0.122073114 -0.103433125
-0.12501983 0.017895635 0.02570751 0.053735565 -0.002627341 -0.14383726 0.0064454456 0.06437623
0.043400995 0.09508584 0.11491773 -0.13461663 -0.030056497 0.09763306 -0.109921336 0.009247951
-0.123356536 -0.019355906 -0.06526716 -0.11184173 0.015292942 0.019237446 -0.15045309 -0.083163194
-0.14480837 -0.12951827 0.0037429002 -0.03452553 1.9976203e-05 0.11997484 0.030003102 -0.049781635
-0.13240114 -0.009783274 0.07270993 0.03556646 0.122355126 -0.1705461 -0.00068587746 -0.021521563
-0.0012444119 0.049582064 -0.008351155 -0.010099447 -0.1489002 0.02132002 -0.16691631 -0.05031321
0.07419501 0.027773509 0.058856014 0.06560005 -0.09111661 0.04356954 0.00868644 0.02302268
0.087107375 0.12630887 -0.14890462 0.009833192 0.021288581 -0.009098444 -0.078877255 0.008702329
-0.0076206457 0.10648546 -0.18214692 -0.05796023 -0.02968477 0.06798758 0.027148325 0.11604789
0.056746267 -0.026089491 -0.046080064 -0.01726249 0.01814928 0.006653755 0.021216828 7.814931e-05
00000000: 309f 803d b80a a53d 6a59 7cbd 88ac 043e
00000010: 7ae1 a1bb afd4 a43c 3ac1 193d d05a 67bd
00000020: 60a8 45bd 078e f73c 29f3 933d 56f2 1dbd
00000030: 9e35 cfbd 4861 013d 04bd 9f3c 7eeb e43d
00000040: e472 ddbd e2fd d9bb 33b1 63bd 1117 b1bd
00000050: 8986 77bc 3bc0 89bd eaff 8f3d 3199 9ebd
00000060: 3056 a93d d2eb f0bc cb30 113d 1f5f 10be
00000070: 771c 8abd ddee 8ebc a164 33be b179 bc3c
00000080: 4238 393c 2cee 283b 53b3 e7bd 98d2 cc3d
00000090: a7db 4b3d 9d71 acbc b85a 03bd e2a9 693d
000000a0: 7c14 2b3e 5e4e b6bd c9e4 eabc 84ce 423c
000000b0: 80df bbbd 13f5 f53d d485 a9bc 74db ac3d
000000c0: 7f90 f6bc 42d3 1abd 9e69 56bd 4a52 4cbd
000000d0: fb6b 8f3d 48ee ad3d 6c01 55bd 2d9c db3d
000000e0: d760 d23c 35d1 613d 5da5 bb3d fed8 783d
000000f0: 0219 683d fec4 e4bc 5125 77bd 12f4 513d
00000100: 95b5 923c 7659 cfbc fbf3 a23c 26bc 393d
00000110: 4201 60bc 6989 c3bd 9e37 b9bc 3d39 50bd
00000120: 6fe4 d2bd da37 893b 2f24 9a3c ed3c a03c
00000130: 221a 7c3d f6b5 84bd 8b2e 94bd e17a de3d
00000140: 8ec0 f03b 71ad 1dbd d4b4 69bd 5d60 c4bd
00000150: 38b6 433c 0428 cabd 6b76 b23c 8627 af3d
00000160: 4466 c4bb 003b a6bd 9125 783d 25f0 b13d
00000170: f7f4 05be 31ba 5d3d 40b9 153c 1c76 ab3c
00000180: fcc7 25bc 792f 97bd 9e85 cf3c 1aed 3e3d
00000190: e67e 41bd dde6 90bd 75ce 313d d38f 913d
000001a0: 1de1 7b3d d0b0 c53a 6551 3f3d 694b e23a
000001b0: 8105 943c ff93 8a3d 2c80 b5bc 3da8 09bd
000001c0: 1bcf d8bc 77a9 56bd 6660 963c 0538 76bd
000001d0: 7fbe 9c3d 90e2 88bc 4ee6 523d 2786 b23d
000001e0: b395 103c 2093 4cbc 9baf 453a 8524 85bd
000001f0: 30dc 8b3d 9be7 f1bb 2cfe 0dbd c32c c2bd
00000200: 3d9f 723d 145e c6bd ecf8 443c ba43 ac3c
00000210: 428b afbd bc60 e5bd 190a 84bd 3562 623d
00000220: b133 0dbe 0718 0ebe f45e a83c de54 69bc
00000230: 9890 b93d cab3 ed3c 98a0 9abc 33f2 1d3b
00000240: 89a9 c5bc daa4 c2bd 594c 66bd 6698 913d
00000250: 846c 4fbd b6b5 f4bd e45a 28be eb40 5c3d
00000260: fc4a 493d 7715 173e 02e9 aabc 0995 c8bc
00000270: 8362 09be 41ae d5bd b83f 9a3c 1c45 9cbc
00000280: 14f1 3dbd 7c70 a6bd 322e b23d f15b 13bd
00000290: d414 05be 7206 63bc cf80 96bd b878 19be
000002a0: 6587 04be 064a 0c3e ede5 99bc 884b a53d
000002b0: a791 16bb 1b2c cabc 7801 fa3d bfd4 d3bd
000002c0: 3305 00be de99 923c 8e98 d23c d319 5c3d
000002d0: 782f 2cbb 134a 13be 5134 d33b afd7 833d
000002e0: 3ec5 313d 5dbc c23d fd59 eb3d f1d8 09be
000002f0: 0b39 f6bc d7f3 c73d 701e e1bd b884 173c
00000300: 5aa2 fcbd 4790 9ebc caaa 85bd 470d e5bd
00000310: 3f8f 7a3c d997 9d3c 6010 1abe 7751 aabd
00000320: a548 14be 70a0 04be 724b 753b a46a 0dbd
00000330: 9292 a737 5eb5 f53d 11c9 f53c d4e7 4bbd
00000340: 2a94 07be 064a 20bc f2e8 943d 23ae 113d
00000350: 5395 fa3d a3a3 2ebe 75cc 33ba fd4d b0bc
00000360: 891b a3ba 9016 4b3d 48d3 08bc 2778 25bc
00000370: 4b79 18be 53a7 ae3c 1cec 2abe 3915 4ebd
00000380: 8ef3 973d 4585 e33c 0113 713d 5259 863d
00000390: 589b babd f975 323d 9251 0e3c 0f9a bc3c
000003a0: 5a65 b23d 1d57 013e 747a 18be 661b 213c
000003b0: 6465 ae3c a411 15bc 668a a1bd 3794 0e3c
000003c0: 9cb6 f9bb 0d15 da3d b984 3abe b567 6dbd
000003d0: 7a2d f3bc 133d 8b3d 2a66 de3c 84aa ed3d
000003e0: c66e 683d a1b9 d5bc 73be 3cbd 116a 8dbc
000003f0: cdad 943c be07 da3b eace ad3c 17e4 a338

bias_ih_l0 f4 [405]
-0.022657603 0.112560354 -0.008482101 0.082209416 -0.0077462103 0.028158495 -0.038855817 -0.04337881
0.118553 0.061480194 -0.024617268 0.03856932 0.03896559 -0.058616295 -0.15131609 0.03035418
-0.1083645 -0.036471527 -0.10531498 -0.08915577 -0.10891079 -0.018277315 0.009056215 0.11681927
0.032278232 -0.020613248 -0.112675756 -0.102886714 -0.07971398 -0.15108928 0.0089493 0.013920546
0.058239266 -0.086889796 -0.011002175 0.05345285 -0.048029814 -0.10185889 -0.05751689 0.0761205
0.06749309 0.039865017 -0.11764136 0.07163216 0.049072914 -0.000820132 0.007957324 -0.088858716
0.05606703 0.015187011 0.01948397 -0.040484533 0.07689765 0.011681226 0.08945487 -0.08251369
0.065439366 -0.07199598 -0.11771389 0.07158426 -0.025595393 -0.029321501 -0.0920791 0.104913495
0.016218266 -0.07897789 -0.09207994 -0.08127891 -0.061142433 -0.017358214 -0.013865701 0.10476379
-0.071804814 -0.032816287 0.03439665 0.03413464 -0.15864737 0.025386697 0.085736856 -0.02373671
-0.09468852 0.01592424 -0.09509807 0.048250675 -0.082008496 -0.050904024 -0.088148735 -0.12521602
-0.012664872 0.021217331 0.0629644 0.030014431 0.08901364 0.042622354 0.010984141 0.018461784
0.015204181 -0.072053805 -0.011015558 0.025812333 0.008980546 0.016806614 0.07062389 -0.104220636
0.12791926 0.039580718 -0.087627046 0.04924276 0.038986158 -0.062069986 0.014790045 -0.050620407
0.020805733 0.11414935 0.10958243 0.03001553 -0.02329814 0.11985205 0.035565767 0.032680694
-0.13883206 -0.030852146 0.014040368 0.026953116 0.1647889 0.01797932 0.021274934 0.18117963
-0.07634175 0.032168802 0.04638127 -0.029327808 -0.040213414 0.13884501 0.0638894 0.15014403
-0.17167577 -0.08603508 0.071237415 -0.08412685 0.085690096 0.1377418 0.10066149 0.029590834
-0.07208895 -0.05572145 0.022813179 0.016489476 -0.015182051 -0.0018581192 -0.0545354 0.12627856
0.033401735 0.05903237 0.00052276 -0.018424029 0.054346062 -0.021231497 -0.19048798 -0.100783005
0.060248524 -0.08452789 -0.015211749 0.10546015 -0.09235211 0.004017645 0.0013547454 -0.006352283
-0.09519238 -0.032851856 -0.05966302 -0.043043047 0.10225035 0.026723526 -0.20300233 -0.0658035
-0.0510655 -0.07962953 0.11503153 -0.18020546 -0.02459733 0.05664343 -0.06691826 0.015768416
-0.04829947 -0.07964062 0.06327203 -0.13010179 -0.046627108 -0.02963018 0.031693894 -0.10044322
-0.050418485 -0.02217228 0.06978329 -0.027009416 -0.039133158 0.0067551318 -0.12686105 -0.106099136
-0.06829691 -0.0877685 0.039756447 0.018955212 -0.19949603 0.03550367 0.0034506146 -0.05860822
-0.016774619 -0.010202757 0.03839336 -0.020618841 -0.14502542 -0.06745347 -0.06322561 0.07587658
-0.11047662 -0.07163126 -0.1233172 0.10416842 0.034509458 0.0066954456 -0.10228656 0.03143455
0.040348638 0.027947577 -0.06446972 -0.020041058 -0.07053156 -0.024033433 -0.03612012 0.068043254
-0.008209908 0.03400757 -0.09856334 -0.08558087 -0.03725495 0.096024595 -0.16153884 -0.055940624
0.086426914 -0.0020367382 -0.03350793 -0.06257834 -0.0985749 0.05692816 -0.037566204 -0.08077851
-0.1313493 -0.07697694 0.026155591 0.034975074 -0.13277917 -0.05453977 -0.019367978 -0.1103287
00000000: 709c b9bc 0b86 e63d 83f8 0abc 695d a83d
00000010: ecd3 fdbb a5ac e63c 4727 1fbd fbad 31bd
00000020: eacb f23d a8d2 7b3d 27aa c9bc ddfa 1d3d
00000030: 629a 1f3d a417 70bd 9bf2 1abe 54a9 f83c
00000040: 35ee ddbd 2b63 15bd 61af d7bd 4d97 b6bd
00000050: 9f0c dfbd 4fba 95bc 8560 143c f13e ef3d
00000060: 2e36 043d 1ddd a8bc 8cc2 e6bd 45b6 d2bd
00000070: 1541 a3bd 26b7 1abe 16a0 123c 0013 643c
00000080: 4c8c 6e3d 47f3 b1bd 7742 34bc 60f1 5a3d
00000090: e9ba 44bd 659b d0bd d596 6bbd 11e5 9b3d
000000a0: d139 8a3d 8049 233d f4ed f0bd e2b3 923d
000000b0: ae00 493d 20fe 56ba 705f 023c 8ffb b5bd
000000c0: 8ba6 653d f1d2 783c d99c 9f3c 1cd3 25bd
000000d0: 847c 9d3d 9d62 3f3c 1d34 b73d f0fc a8bd
000000e0: 1305 863d a172 93bd fb13 f1bd c59a 923d
000000f0: 6ead d1bc a533 f0bc f893 bcbd e3dc d63d
00000100: 2bdc 843c 29bf a1bd 6894 bcbd 8f75 a6bd
00000110: 7d70 7abd d032 8ebc f72c 63bc 668e d63d
00000120: 670e 93bd 5f6a 06bd 80e3 0c3d c4d0 0b3d
00000130: 7574 22be c3f7 cf3c ce96 af3d 7d73 c2bc
00000140: 0eec c1bd 8d73 823c c7c2 c2bd 80a2 453d
00000150: 12f4 a7bd bd80 50bd 5387 b4bd a138 00be
00000160: 5380 4fbc f8cf ad3c 7bf3 803d d3e0 f53c
00000170: c94c b63d c794 2e3d d4f6 333c 2b3d 973c
00000180: f51a 793c f290 93bd 997a 34bc 6374 d33c
00000190: 2423 133c 06ae 893c 42a3 903d a171 d5bd
000001a0: 44fd 023e 641f 223d cf75 b3bd c7b2 493d
000001b0: f3af 1f3d 193d 7ebd f251 723c 5857 4fbd
000001c0: c970 aa3c 22c7 e93d c16c e03d 21e3 f53c
000001d0: bedb bebc fe74 f53d 69ad 113d 31dc 053d
000001e0: fe29 0ebe a4bd fcbc 9209 663c c8cc dc3c
000001f0: 6cbe 283e 5e49 933c c548 ae3c 2787 393e
00000200: 1059 9cbd 6fc3 033d 49fa 3d3d df40 f0bc
00000210: d2b6 24bd 632d 0e3e 72d8 823d 5bbf 193e
00000220: c6cb 2fbe 2933 b0bd ece4 913d b34a acbd
00000230: 4a7e af3d 300c 0d3e 9c27 ce3d 7a68 f23c
00000240: 5fa3 93bd 2d3c 64bd b4e2 ba3c f014 873c
00000250: 23be 78bc 228c f3ba 8360 5fbd 2b4f 013e
00000260: 42d0 083d edcb 713d d409 093a fded 96bc
00000270: fa99 5e3d aded adbc 480f 43be 5267 cebd
00000280: 28c7 763d f51c adbd b33a 79bc 7efb d73d
00000290: 1a23 bdbd 73a6 833b b691 b13a d026 d0bb
000002a0: 39f4 c2bd ab8f 06bd 3661 74bd e84d 30bd
000002b0: a268 d13d 4ceb da3c d8df 4fbe fcc3 86bd
000002c0: 0f2a 51bd cf14 a3bd a795 eb3d c887 38be
000002d0: 5780 c9bc f102 683d 710c 89bd c42c 813c
000002e0: aad5 45bd 9f1a a3bd c494 813d 6739 05be
000002f0: 11fc 3ebd feba f2bc 75d1 013d 2db5 cdbd
00000300: 9d83 4ebd a4a2 b5bc 8bea 8e3d da42 ddbc
00000310: 174a 20bd 275a dd3b dde7 01be 814a d9bd
00000320: 40df 8bbd f9bf b3bd a8d7 223d f647 9b3c
00000330: b048 4cbe 4c6c 113d b523 623b 2c0f 70bd
00000340: ed6a 89bc 7729 27bc 5b42 1d3d d8e8 a8bc
00000350: 8b81 14be 0b25 8abd 6e7c 81bd 2e65 9b3d
00000360: 9141 e2bd 69b3 92bd ba8d fcbd 4156 d53d
00000370: ca59 0d3d 7865 db3b 9e7b d1bd 84c1 003d
00000380: 9d44 253d 51f2 e43c b308 84bd 252d a4bc
00000390: da72 90bd c3e1 c4bc b1f2 13bd 435a 8b3d
000003a0: da82 06bc 864b 0b3d 94db c9bd 0645 afbd
000003b0: a598 18bd 8ba8 c43d 706a 25be ff21 65bd
000003c0: 9800 b13d cc7a 05bb 9c3f 09bd 1329 80bd
000003d0: a3e1 c9bd 812d 693d 05df 19bd 346f a5bd
000003e0: 6e80 06be 16a6 9dbd 4044 d63c 0642 0f3d
000003f0: 43f7 07be 1865 5fbd 98a9 9ebc 03f4 e1bd

bias_hh_l0 f4 [405]
-0.023280974 0.09032075 -0.072761305 0.027796416 -0.051978674 0.011031439 -0.08713931 -0.015096268
0.06824301 0.08335887 -0.09533798 0.021797296 0.033481278 0.022947416 -0.16142772 -0.02153875
0.010922729 -0.09499082 -0.0453321 -0.14081055 -0.014493783 -0.054824 0.027302135 0.09616741
0.09249376 -0.07311516 -0.07903448 -0.075025626 -0.056141727 -0.039957345 -0.11196031 0.03389286
-0.080073826 -0.1386835 0.0003287112 0.008110533 0.043609302 -0.07012839 0.029335542 -0.00043583644
0.11548211 -0.07660044 0.022402007 0.08174583 0.07943809 0.0046218312 -0.07705132 -0.008506709
0.040440734 0.036111895 -0.008689525 0.047826182 0.054470487 0.027369719 0.056418877 0.033762857
0.06464882 -0.14279619 -0.1226373 0.036365904 0.052663084 -0.027592923 -0.045557506 0.06682178
0.0108526815 -0.04187221 -0.002013153 -0.0018098493 -0.08794582 -0.07299779 -0.04094376 0.02749346
-0.07334522 0.0058034398 0.027601283 0.029815398 -0.0024500831 0.011261019 0.031917054 -0.003412153
-0.071271345 -0.03597731 -0.08459692 -0.008681676 -0.095412165 -0.027337799 0.06962522 0.000755874
-0.063591376 0.052980363 0.11340569 -0.08186573 0.19295102 0.0281629 -0.06945466 -0.01846445
0.017829102 -0.04249572 0.037525214 -0.017227488 0.055431042 -0.08066581 0.05749559 -0.04575911
-0.026009075 -0.041182686 0.05098779 -0.048618957 0.08357095 -0.10796381 -0.029532114 0.019737981
-0.012699392 0.059523914 0.068226635 0.01666089 -0.06226862 0.10286135 -0.08083773 -0.04299746
-0.018758798 -0.047754038 -0.10630701 0.025590166 0.092632286 -0.07300807 -0.054904666 0.18279134
-0.07144886 -0.07970097 0.013227659 -0.031772032 -0.091444544 0.10523775 0.09396959 0.11161937
-0.1749934 -0.07377087 -0.030338962 -0.10941854 -0.001674366 0.036290433 0.13112634 0.028511412
-0.07355581 -0.011574353 -0.05069693 -0.025821975 -0.045319524 -0.06057492 -0.015794758 0.051056348
-0.05292047 -0.084941864 0.044041358 -0.12288643 0.021743981 -0.110131875 -0.06273888 -0.1180722
0.04260442 0.0063429577 -0.085028894 0.06337145 0.0054255254 -0.0005405749 -0.08799151 -0.06905155
-0.03288688 -0.048374847 -0.060715187 0.042521674 0.087247 0.0043473598 -0.18087357 -0.010888352
0.025203109 -0.026873374 0.13479428 -0.22349994 -0.0719612 0.06002086 -0.120578125 0.017269759
-0.09469145 -0.0596221 0.03667904 0.010076232 -0.08504729 -0.033655293 -0.08811598 -0.0013064509
-0.104071714 -0.043257628 0.041829225 0.080890395 -0.072516255 -0.0031645456 -0.059845034 0.044176128
0.036117665 -0.02202579 -0.100614995 0.018588627 -0.12072229 -0.050134294 -0.011254282 -0.0127519565
-0.12875222 -0.071257144 0.070048384 0.06598993 -0.1731933 -0.030758988 0.07398906 -0.002523309
-0.08536447 0.0015957938 -0.09716917 0.07266397 -0.0014481762 0.04263813 -0.058464684 -0.03961982
0.00074219843 -0.1305095 -0.035205044 -0.14541659 -0.0479192 0.104164876 0.07963034 0.046173427
0.0073607867 -0.098127715 -0.098729365 0.019366905 -0.02285924 0.09809347 -0.044197656 -0.068906225
0.081108406 0.11549322 -0.026744498 -0.07905011 -0.064270355 -0.06910925 -0.11664524 -0.02978514
-0.18329889 -0.05757121 0.054348912 -0.062450383 -0.048548155 -0.00388524 -0.03685956 0.017454972
00000000: beb7 bebc 16fa b83d e103 95bd 4fb5 e33c
00000010: 97e7 54bd 35bd 343c 1876 b2bd 5656 77bc
00000020: fec2 8b3d 0eb8 aa3d 8f40 c3bd 3e90 b23c
00000030: aa23 093d 38fc bb3c 4f4d 25be 0872 b0bc
00000040: 3ff5 323c 8c8a c2bd 27ae 39bd a430 10be
00000050: 5577 6dbc 218f 60bd baa8 df3c 6bf3 c43d
00000060: 5e6d bd3d 67bd 95bd d4dc a1bd 09a7 99bd
00000070: def4 65bd 50aa 23bd 724b e5bd 3dd3 0a3d
00000080: bffd a3bd 0c03 0ebe df56 ac39 0ae2 043c
00000090: ab9f 323d 799f 8fbd 1751 f03c fa80 e4b9
000000a0: e281 ec3d b1e0 9cbd 6a84 b73c 5c6a a73d
000000b0: 70b0 a23d bb72 973b 15cd 9dbd b95f 0bbc
000000c0: 2fa5 253d 11ea 133d 825e 0ebc 63e5 433d
000000d0: 721c 5f3d 7636 e03c 7b17 673d ec4a 0a3d
000000e0: 9a66 843d 2a39 12be 4429 fbbd 6af4 143d
000000f0: 3fb5 573d 8e0a e2bc 829a 3abd dbd9 883d
00000100: 72cf 313c 3282 2bbd 1aef 03bb 7738 edba
00000110: f01c b4bd de7f 95bd a5b4 27bd f739 e13c
00000120: 0536 96bd c82a be3b 161c e23c 6c3f f43c
00000130: 9391 20bb 2380 383c 75bb 023d 6e9e 5fbb
00000140: b6f6 91bd f25c 13bd 2641 adbd 973d 0ebc
00000150: 7467 c3bd 85f3 dfbc ab97 8e3d d825 463a
00000160: 323c 82bd f001 593d 3e41 e83d 38a9 a7bd
00000170: f494 453e e2b5 e63c 3f3e 8ebd c242 97bc
00000180: 560e 923c fe0f 2ebd 0ab4 193d a920 8dbc
00000190: a90b 633d 1e34 a5bd 7f80 6b3d e86d 3bbd
000001a0: fc10 d5bc 2daf 28bd 93d8 503d ac24 47bd
000001b0: 3f27 ab3d 211c ddbd 55ed f1bc 8cb1 a13c
000001c0: 1c11 50bc 59cf 733d 68ba 8b3d 6b7c 883c
000001d0: 610d 7fbd f9a8 d23d 408e a5bd 1b1e 30bd
000001e0: 0dac 99bc bd99 43bd 7db7 d9bd 78a2 d13c
000001f0: ffb5 bd3d 4185 95bd b7e3 60bd a72d 3b3e
00000200: c853 92bd 433a a3bd d3b8 583c 6423 02bd
00000210: 4747 bbbd e486 d73d 2173 c03d b298 e43d
00000220: 7831 33be 2f15 97bd 6a89 f8bc d416 e0bd
00000230: 6676 dbba 47a5 143d fc45 063e c490 e93c
00000240: 6ea4 96bd 5ba2 3dbc 96a7 4fbd 9b88 d3bc
00000250: f7a0 39bd 681d 78bd 0264 81bc 7620 513d
00000260: 22c3 58bd 00f6 adbd b664 343d e1ab fbbd
00000270: 6f20 b23c d28c e1bd 3e7d 80bd d6cf f1bd
00000280: f981 2e3d 96d8 cf3b a123 aebd e4c8 813d
00000290: 9bc8 b13b 5eb5 0dba e534 b4bd e66a 8dbd
000002a0: 65b4 06bd b424 46bd 7db0 78bd 352b 2e3d
000002b0: 8eae b23d 4c74 8e3b ec36 39be 0f65 32bc
000002c0: c076 ce3c 8d25 dcbc 8307 0a3e 2bdd 64be
000002d0: 6560 93bd 6fd8 753d aaf1 f6bd 4f79 8d3c
000002e0: 97ed c1bd 4e36 74bd c33c 163d c816 253c
000002f0: 462d aebd 22da 09bd 2776 b4bd 383d abba
00000300: 8d23 d5bd e92e 31bd 1f55 2b3d dda9 a53d
00000310: 6783 94bd 4464 4fbb 1120 75bd 07f2 343d
00000320: 1ef0 133d 6e6f b4bc 3c0f cebd 2d47 983c
00000330: 3f3d f7bd 9e59 4dbd e163 38bc 95ed 50bc
00000340: 9fd7 03be 44ef 91bd 8775 8f3d ba25 873d
00000350: 9659 31be 46fa fbbc 9487 973d 1a5e 25bb
00000360: 91d3 aebd f429 d13a a100 c7bd d9d0 943d
00000370: bbd0 bdba 52a5 2e3d aa78 6fbd 6448 22bd
00000380: 1890 423a 48a4 05be 2a33 10bd 16e8 14be
00000390: ec46 44bd 6554 d53d 3b15 a33d 5920 3d3d
000003a0: c132 f13b 2ff7 c8bd 9f32 cabd 58a7 9e3c
000003b0: 4d43 bbbc 3be5 c83d 9a08 35bd b51e 8dbd
000003c0: 2a1c a63d b687 ec3d 4717 dbbc 06e5 a1bd
000003d0: 2da0 83bd 2789 8dbd b3e3 eebd f7ff f3bc
000003e0: b4b2 3bbe cacf 6bbd f79c 5e3d f9cb 7fbd
000003f0: 6eda 46bd 839f 7ebb 0dfa 16bd bbfd 8e3c

weight f4 [1, 4, 1, 12, 12]
-0.15619312 -0.01628563 0.04813242 0.074400365 -0.13697131 0.027449014 0.028717745 0.040233087
0.03807715 0.03488276 -0.06686376 -0.053806294 -0.086366534 0.034732513 0.015185617 0.086289644
0.022245498 -0.021434905 -0.026333703 0.023540301 0.033811763 -0.016621258 0.044121467 -0.02715876
-0.027312081 0.04892789 -0.017271498 0.058069024 -0.051531512 0.02510417 0.06264463 -0.062815964
0.1344035 0.07276221 -0.05327388 0.12957859 -0.0044877003 -0.008851293 -0.11535483 -0.1606781
-0.0318476 0.013275639 0.0072212415 -0.03703652 0.052419018 0.08186048 0.0040784734 -0.0746002
-0.0034701854 -0.0151531175 0.18617345 0.1514044 -0.033269044 0.023774363 0.060073406 0.08235892
-0.024567973 -0.12638922 0.019401452 0.06132548 -0.077573314 -0.07487923 0.03747577 0.09077003
-0.13290673 -0.012416995 0.20589583 0.027361237 -0.06502655 -0.027347079 0.0037054778 -0.14456235
0.010448462 0.06318356 0.10043234 0.086327 0.09618323 0.07106018 -0.026111849 0.04854782
-0.0315785 -0.09367215 0.027261203 -0.0328521 0.042718314 0.072269574 0.10694612 0.08162567
0.010716372 -0.1495133 -0.023298627 0.09201476 -0.1035283 -0.01693352 0.07590626 0.099664606
-0.013008646 -0.022802563 0.10157814 0.13634585 -0.026184825 0.06916404 0.027253082 0.08245505
0.027014019 0.055049375 -0.036642853 0.052949775 0.09146746 0.031629544 -0.09625621 -0.132616
0.09936147 0.074222915 -0.13360594 -0.05392224 0.099695206 0.057846826 0.0499118 -0.015604036
0.013713854 0.08383933 -0.02959444 -0.028854392 0.018875625 0.012296333 0.074048676 -0.05109906
0.016679868 0.020494673 -0.026229648 0.13590018 -0.074126385 0.011388868 0.0038991456 0.06321856
0.053753134 -0.042832393 0.021085385 -0.031669524 -0.0577356 0.0017922104 0.03942995 -0.057703808
0.054487847 0.03229789 -0.12944314 0.010963501 0.10270284 -0.023710728 -0.08447477 -0.048849292
0.055677813 -0.028673181 -0.050253417 0.04631532 0.11862218 -0.0008992834 -0.020357411 0.056810718
-0.019705012 -0.009737659 0.08404534 -0.035099108 0.043701187 0.083415486 -0.03544723 0.15190738
0.07991314 0.05784329 -0.0009782023 0.012424501 0.04285422 -0.0763898 0.018000763 0.013150219
0.030683428 0.12197196 0.06264519 -0.0054952935 0.052739438 -0.20492455 -0.101628594 -0.047278162
-0.008698268 -0.037908576 0.056789335 -0.0833256 -0.061014485 0.038109865 -0.06597937 -0.013633019
0.116906725 -0.031041397 -0.21117988 -0.2213885 0.023215607 0.050216656 -0.10440662 -0.19380736
0.16810192 0.20191537 -0.012390328 0.10696198 -0.0958975 9.8779194e-05 0.0053287954 0.04309594
0.0034076683 0.041466422 -0.08501336 -0.05697424 0.0017267538 0.064217396 -0.078494646 -0.0027117927
0.08481773 -0.05616546 -0.100000486 -0.119405836 0.06582088 0.04414799 -0.071436636 0.02247184
0.022865716 0.07648786 0.013990983 0.02768673 -0.060624886 -0.10425042 -0.032437805 0.06081485
-0.16718508 0.016785221 0.017394625 -0.020861454 0.082563326 0.04297523 0.017054329 -0.01600995
0.09004486 0.11775672 -0.18515113 -0.15131733 0.13636827 0.23324549 -0.056933142 -0.21661814
0.014076069 0.08056131 -0.011011339 0.091008164 -0.05165443 -0.021402495 -0.08069913 -0.056444284
00000000: 17f1 1fbe 7169 85bc 8026 453d 385f 983d
00000010: 3542 0cbe c1dc e03c 7a41 eb3c 73cb 243d
00000020: c9f6 1b3d 3ae1 0e3d deef 88bd fd63 5cbd
00000030: f0e0 b0bd ae43 0e3d 18cd 783c a0b8 b03d
00000040: 313c b63c 4198 afbc c7b9 d7bc 97d7 c03c
00000050: 347e 0a3d 4e29 88bc b6b8 343d 0c7c debc
00000060: 96bd dfbc 9c68 483d f57c 8dbc c9d9 6d3d
00000070: b512 53bd 43a7 cd3c d44b 803d a8a5 80bd
00000080: 12a1 093e 5b04 953d b635 5abd 40b0 043e
00000090: 8f0d 93bb 0305 11bc 273f ecbd cd88 24be
000000a0: a172 02bd 1182 593c 2aa0 ec3b 9bb3 17bd
000000b0: 53b5 563d 78a6 a73d b7a4 853b fdc7 98bd
000000c0: 0d6c 63bb c844 78bc 41a4 3e3e c109 1b3e
000000d0: 1f45 08bd 74c2 c23c 880f 763d cbab a83d
000000e0: c642 c9bc 2d6c 01be cbef 9e3c 6d30 7b3d
000000f0: c2de 9ebd 485a 99bd 3180 193d a3e5 b93d
00000100: b418 08be a770 4bbc 5bd6 523e ac24 e03c
00000110: a42c 85bd fb06 e0bc 9ad7 723b 2708 14be
00000120: 0730 2b3c 6266 813d 78af cd3d 36cc b03d
00000130: b7fb c43d 0088 913d 84e8 d5bc 14da 463d
00000140: 7558 01bd 2fd7 bfbd e352 df3c ec8f 06bd
00000150: 66f9 2e3d 1202 943d 9106 db3d 5c2b a73d
00000160: b993 2f3c 041a 19be c3dc bebc 3c72 bc3d
00000170: a506 d4bd 2ab8 8abc be74 9b3d f51c cc3d
00000180: 3722 55bc 71cc babc 3308 d03d 3f9e 0b3e
00000190: 8f81 d6bc e0a5 8d3d db41 df3c 31de a83d
000001a0: 814c dd3c 747b 613d d116 16bd dde1 583d
000001b0: 4b53 bb3d fb8d 013d fa21 c5bd 7dcc 07be
000001c0: 077e cb3d 2f02 983d ffcf 08be 91dd 5cbd
000001d0: 002d cc3d cbf0 6c3d 5170 4c3d 12a8 7fbc
000001e0: 13b0 603c f4b3 ab3d 0a70 f2bc 0c60 ecbc
000001f0: 0ea1 9a3c 8f76 493c d5a6 973d 3f4d 51bd
00000200: 38a4 883c 72e4 a73c 8fdf d6bc 6b29 0b3e
00000210: 93cf 97bd 6098 3a3c cf88 7f3b bb78 813d
00000220: 3f2c 5c3d 0571 2fbd 42bb ac3c e7b7 01bd
00000230: 2a7c 6cbd 9ae8 ea3a 4d81 213d d45a 6cbd
00000240: a62e 5f3d cb4a 043d be8c 04be 42a0 333c
00000250: de55 d23d 003d c2bc 1c01 adbd 3216 48bd
00000260: 6b0e 643d 05e4 eabc 87d6 4dbd 22b5 3d3d
00000270: 2ff0 f23d e3bd 6bba 96c4 a6bc 5bb2 683d
00000280: 686c a1bc b48a 1fbc f71f ac3d 15c4 0fbd
00000290: 0400 333d bdd5 aa3d 1d31 11bd 9c8d 1b3e
000002a0: 80a9 a33d 16ed 6c3d 0637 80ba 2290 4b3c
000002b0: e887 2f3d 4172 9cbd 5676 933c 0474 573c
000002c0: d05b fb3c 6fcc f93d 1f4c 803d dd11 b4bb
000002d0: 4f05 583d bed7 51be a722 d0bd bfa6 41bd
000002e0: 2e83 0ebc 0646 1bbd ef9b 683d 9da6 aabd
000002f0: 53ea 79bd 1719 1c3d 3120 87bd 075d 5fbc
00000300: cb6c ef3d 874a febc 8a3f 58be abb3 62be
00000310: a82e be3c fbaf 4d3d 23d3 d5bd 7075 46be
00000320: e922 2c3e e7c2 4e3e cd00 4bbc e20e db3d
00000330: e965 c4bd ad27 cf38 2d9d ae3b 5e85 303d
00000340: 3053 5f3b b2d8 293d 7c1b aebd d25d 69bd
00000350: 3e54 e23a 6984 833d cdc1 a0bd 55b8 31bb
00000360: ebb4 ad3d c10d 66bd 0ecd ccbd 0c8b f4bd
00000370: 19cd 863d 86d4 343d 5f4d 92bd dd16 b83c
00000380: e250 bb3c aba5 9c3d 703a 653c 48cf e23c
00000390: cd51 78bd 3f81 d5bd 81dd 04bd fe18 793d
000003a0: 9132 2bbe 2981 893c 2c7f 8e3c a4e5 aabc
000003b0: f616 a93d cb06 303d 85b5 8b3c 4c27 83bc
000003c0: 7169 b83d 6f2a f13d 4298 3dbe eef2 1abe
000003d0: 20a4 0b3e e8d7 6e3e ba32 69bd 25d1 5dbe
000003e0: 509f 663c 54fd a43d e768 34bc 7d62 ba3d
000003f0: 9893 53bd 4954 afbc 9645 a5bd 1f32 67bd

weight f4 [12, 12]
0.28999776 -0.21954864 -0.13151513 -0.09329421 0.15724176 0.13071337 0.13408335 -0.06898164
-0.18881088 0.31808904 0.12269325 -0.023385743 0.14676723 -0.18117578 0.2671392 -0.014582272
0.13750726 0.056831975 0.22470278 0.07867471 -0.37604067 0.08751454 0.23679864 -0.38838074
-0.022371814 -0.072252154 0.25458354 0.2941054 0.15791638 0.20489277 -0.11783651 -0.2254962
-0.3657638 -0.2095471 0.1783312 -0.26010114 0.014841218 -0.14541301 -0.16187872 -0.0901711
0.07529057 0.057440516 0.06564761 -0.13907322 0.111770876 -0.068516694 0.23769103 -0.07760316
0.26363838 -0.2115843 -0.14869776 -0.25989148 -0.02676127 0.09522022 0.057869013 0.13433422
0.058192242 0.12949412 -0.20700592 0.17568563 -0.063148506 0.15083653 -0.123540334 0.061589
0.27830932 0.056195337 -0.23829745 -0.15563281 -0.19836807 0.2171658 0.046913695 -0.09034129
0.014644765 -0.006922677 0.017074151 -0.16772556 -0.098738275 0.091941394 0.09537158 -0.18058653
0.12397636 0.21500921 -0.21162924 0.25100037 -0.09533535 -0.16129236 0.17984071 -0.15990621
0.057515074 -0.17600991 0.25258717 0.20745634 0.022586627 -0.021595526 0.07196321 -0.30444565
0.16237561 0.002383662 0.34438998 -0.07332671 0.10734735 -0.2672521 -0.21676032 -0.16764323
-0.23588817 -0.24259105 0.16406085 -0.17086363 0.0136444 -0.29911542 -0.021457374 0.23165138
0.27664354 -0.009329665 0.18281475 0.23996705 -0.22563164 -0.17468973 -0.18051417 0.02327828
-0.03209315 0.170574 0.10417097 -0.22251645 0.3022371 -0.24934869 -0.16976565 -0.21935657
0.029933684 0.14317979 -0.1725469 -0.08393505 -0.06957672 0.11176145 -0.09821979 -0.1374865
-0.10373714 0.14367083 -0.008251281 -0.110372774 0.055632614 0.13773061 0.110761575 0.30372423
00000000: 967a 943e 5cd1 60be e7ab 06be 0911 bfbd
00000010: fc03 213e bad9 053e 254d 093e 3f46 8dbd
00000020: a457 41be 91dc a23e 9946 fb3d 7593 bfbc
00000030: 264a 163e 2586 39be 78c6 883e 7bea 6ebc
00000040: b4ce 0c3e a5c8 683d 7c18 663e 3520 a13d
00000050: 6788 c0be d33a b33d 587b 723e d7d9 c6be
00000060: 1845 b7bc f0f8 93bd c658 823e fc94 963e
00000070: d5b4 213e 69cf 513e 4554 f1bd 7ae8 66be
00000080: 6545 bbbe 8493 56be 749c 363e fa2b 85be
00000090: 9428 733c 26e7 14be 89c3 25be a0ab b8bd
000000a0: f131 9a3d bf46 6b3d 4172 863d 3669 0ebe
000000b0: 21e8 e43d 7b52 8cbd 4765 733e 68ee 9ebd
000000c0: 9cfb 863e 8ea9 58be 3a44 18be 7f10 85be
000000d0: 733a dbbc d202 c33d 0f08 6d3d e98e 093e
000000e0: fd5a 6e3d 1b9a 043e 5cf9 53be efe6 333e
000000f0: 0154 81bd e474 1a3e b702 fdbd bf44 7c3d
00000100: 8f7e 8e3e 152d 663d 3f04 74be 355e 1fbe
00000110: 0021 4bbe b660 5e3e 9328 403d db04 b9bd
00000120: 99f0 6f3c a0d7 e2bb 17df 8b3c 40c0 2bbe
00000130: 4b37 cabd c54b bc3d 2d52 c33d adeb 38be
00000140: 51e7 fd3d 602b 5c3e 56b5 58be 1f83 803e
00000150: 2e3f c3bd d329 25be 2a28 383e 74be 23be
00000160: ed94 6b3d f13b 34be 1b53 813e 6f6f 543e
00000170: 9707 b93c 1ae9 b0bc 7361 933d 4de0 9bbe
00000180: cb45 263e 3637 1c3b e253 b03e 502c 96bd
00000190: edd8 db3d 44d5 88be 6bf6 5dbe abaa 2bbe
000001a0: ab8c 71be ca69 78be 91ff 273e e0f6 2ebe
000001b0: c38c 5f3c a825 99be 60c7 afbc 0536 6d3e
000001c0: 39a4 8d3e 74db 18bc ca33 3b3e ecb9 753e
000001d0: fb0b 67be dde1 32be b5d8 38be 17b2 be3c
000001e0: 1b74 03bd f3aa 2e3e 9757 d53d 5adb 63be
000001f0: d2be 9a3e 4355 7fbe 0cd7 2dbe 029f 60be
00000200: 7c37 f53c b99d 123e 22b0 30be 24e6 abbd
00000210: 3d7e 8ebd 30e3 e43d 7527 c9bd 43c9 0cbe
00000220: 2374 d4bd 721e 133e 6230 07bc 1f0b e2bd
00000230: 06df 633d 4109 0d3e f7d6 e23d be81 9b3e

bias f4 [12]
0.19463935 -0.06374872 0.07894781 0.06493781 -0.051222917 0.251096 0.14834847 0.25871113
-0.2247586 0.04993173 0.15088457 -0.19039717
00000000: 8a4f 473e b08e 82bd 64af a13d 1dfe 843d
00000010: 1fcf 51bd a88f 803e a9e8 173e c975 843e
00000020: 1e27 66be 3785 4c3d 7c81 1a3e 7af7 42be

weight f4 [3, 12]
-0.017740278 -0.12449044 -0.087774456 -0.2701367 -0.14725609 -0.41823247 -0.24803168 0.23456785
-0.31737944 0.05374784 -0.3159272 -0.04781665 0.44489157 -0.34348106 -0.43304196 0.17932938
0.39288604 0.37854612 0.16967714 -0.15938415 -0.4056713 -0.38539672 0.32620513 0.44334593
-0.3623962 0.25299594 0.13593139 -0.33667406 0.0023289686 -0.029942432 0.00171417 0.02183147
-0.005349568 0.3055522 -0.17569292 -0.44287905
00000000: 0f54 91bc d8f4 febd 18c3 b3bd 5c4f 8abe
00000010: 4dca 16be 9122 d6be 04fc 7dbe 8e32 703e
00000020: 8f7f a2be b226 5c3d 36c1 a1be 64db 43bd
00000030: d4c8 e33e c0dc afbe adb7 ddbe 1fa2 373e
00000040: 5c28 c93e ccd0 c13e d8bf 2d3e 9935 23be
00000050: 26b4 cfbe b852 c5be 5c04 a73e 3dfe e23e
00000060: ff8b b9be af88 813e 9931 0b3e 8b60 acbe
00000070: 9ca1 183b d549 f5bc 00ae e03a e9d7 b23c
00000080: 6e4b afbb 5771 9c3e d8e8 33be 0bc1 e2be

bias f4 [3]
-0.2910411 0.065833546 -0.2087548
00000000: 5703 95be bdd3 863d d1c3 55be

weight f4 [3, 12]
-0.26506954 -0.18850781 -0.20606989 -0.22188973 0.015119308 -0.08681454 -0.015974695 -0.13476384
0.26429698 0.2539018 -0.28858724 -0.27578574 -0.11976181 -0.14752944 -0.08904549 0.0006264522
-0.13830069 -0.16802773 -0.10555489 -0.0286536 -0.18357265 -0.02859106 -0.20613727 -0.1600758
-0.1613886 0.1385147 0.14146505 0.008943331 -0.25780073 -0.030731183 0.20482117 0.031888984
0.1799211 0.25534433 -0.22916368 0.19336729
00000000: 32b7 87be 3108 41be fc03 53be 1037 63be
00000010: f9b6 773c d2cb b1bd 5ddd 82bc 88ff 09be
00000020: ef51 873e 6bff 813e b5c1 93be ca33 8dbe
00000030: ae45 f5bd f511 17be 7b5d b6bd 7f38 243a
00000040: b29e 0dbe 760f 2cbe 2a2d d8bd f4ba eabc
00000050: 78fa 3bbe cc37 eabc a615 53be e9ea 23be
00000060: 0e43 25be ccd6 0d3e 37dc 103e 0d87 123c
00000070: 75fe 83be f6bf fbbc a4bc 513e 069e 023d
00000080: 3d3d 383e 7ebc 823e e2a9 6abe 1302 463e

bias f4 [3]
-0.34220552 0.25694042 0.0702816
00000000: 9035 afbe b28d 833e cdef 8f3d

weight f4 [3, 3]
-0.41099566 0.4084796 0.41326183 -0.3470774 0.06723363 0.36384967 -0.08770637 0.3967662
0.49033302
00000000: 066e d2be 3d24 d13e 0e97 d33e 21b4 b1be
00000010: c9b1 893d 814a ba3e 669f b3bd f024 cb3e
00000020: ee0c fb3e

bias f4 [3]
0.44414085 0.5356278 -0.5298987
00000000: 6e66 e33e e71e 093f 71a7 07bf

weight f4 [48, 12]
-0.13435291 0.03883036 0.04430677 -0.29001406 0.49612388 0.4751851 -0.17511438 0.08762666
-0.2072342 0.28519094 0.07358625 0.2311278 -0.112692244 -0.19810247 0.077721864 0.012107499
0.0072826976 0.08120487 -0.12115002 -0.19274794 -0.030177716 -0.0008970692 -0.12458867 -0.09184594
-0.17552973 0.11298871 -0.23931137 0.27492973 -0.49361384 -0.4034616 0.2887393 -0.1865285
-0.3520695 -0.12648934 0.17999314 0.19676934 0.18594958 -0.0643776 -0.035157725 0.33267483
-0.17318064 -0.4008824 0.11357214 -0.40127778 -0.10505358 -0.0094086 -0.042411752 0.19085191
0.033365164 -0.12845701 -0.07084905 0.38019857 -0.4462368 -0.71128833 0.27146626 -0.35503322
-0.0847723 0.021217776 -0.30637276 -0.12590711 0.17522167 -0.09120086 -0.26420537 -0.33780038
0.6263351 0.5933426 -0.11520487 0.28707635 -0.0024595386 0.053662263 -0.15130727 -0.0013546775
-0.22628877 -0.02953086 -0.13303976 0.011121001 -0.48924458 -0.37139472 0.21199903 -0.24361381
-0.20818034 0.15776192 -0.06581736 -0.05599038 -0.09521046 0.04207627 -0.2878658 -0.043506768
0.16394387 0.34482944 -0.3073233 -0.117326505 0.0731896 -0.15632927 0.1634504 -0.1782576
-0.0016100697 -0.2814567 0.13299114 -0.2912503 -0.017038161 -0.045283347 0.07032875 -0.07037554
0.20852394 0.12862612 -0.020817442 -0.18812937 0.08786575 0.25334844 0.12707338 0.12250383
0.49317053 0.25099954 0.09469435 0.07339499 0.3908764 -0.11217011 -0.0563642 0.15372166
-0.092804015 0.23473789 -0.19549647 0.07624522 0.23011687 0.13404681 -0.15727147 0.2527197
0.3323677 0.16643111 -0.13797733 0.13581559 0.09761361 0.2150988 0.22154447 -0.13648066
-0.4646329 -0.36082694 0.21965778 0.10266526 -0.28806 0.07073441 -0.0035055296 0.12851958
0.0729525 -0.09336914 -0.23821305 0.021589482 -0.00631271 -0.009252754 -0.21840307 -0.32602882
-0.20962447 -0.0300214 0.0034515387 0.069223724 -0.21006517 -0.016754504 -0.031587847 -0.20496793
0.18704212 0.04003283 -0.02250303 0.29829785 -0.18577164 -0.12227288 -0.1871314 -0.1505962
0.18862975 -0.09198537 -0.25499764 0.15454695 -0.107561134 -0.23891242 0.2512224 -0.3705652
-0.3358571 0.33698726 0.112245284 -0.21569024 0.035678044 -0.12252965 -0.2152787 0.0492395
0.15850268 0.010595871 -0.0038744602 -0.10078356 0.23545115 -0.18110661 0.24954787 0.011044225
0.112996764 0.1929896 -0.19486567 0.06292777 0.15946393 -0.0775484 0.002968155 -0.028926989
0.13168806 0.0692133 -0.2774295 -0.26626188 -0.024483059 0.08447313 -0.28442436 -0.21000853
0.53689617 0.28415322 -0.22209308 -0.057778824 -0.032857936 -0.025392435 -0.17328829 0.20648122
-0.17788935 0.10047111 -0.2127671 -0.38795367 0.3975487 0.647137 -0.31082025 -0.08480253
-0.11316575 -0.0734243 0.30903155 0.052911047 -0.28056923 -0.049109552 -0.14788531 -0.39661175
0.20313115 0.08049393 -0.2861942 0.31597525 -0.16862866 -0.26425818 -0.057080463 -0.10807938
-0.18919419 0.28180036 -0.2470528 0.41380912 -0.22992297 -0.6355605 0.23817964 -0.20072483
-0.24765646 -0.08381675 -0.20730162 0.033484273 -0.024610352 0.12299192 0.06565985 0.2846574
00000000: cf93 09be 950c 1f3d 047b 353d b97c 94be
00000010: f303 fe3e 764b f33e 2f51 33be 9b75 b33d
00000020: 3435 54be 8c04 923e 63b4 963d c4ac 6c3e
00000030: 31cb e6bd 60db 4abe a42c 9f3d 885e 463c
00000040: b2a3 ee3b bd4e a63d 801d f8bd b75f 45be
00000050: 4237 f7bc 4c29 6bba 5828 ffbd b919 bcbd
00000060: 11be 33be a066 e73d 0a0e 75be 97c3 8c3e
00000070: f4ba fcbe 8592 cebe a3d5 933e 5401 3fbe
00000080: 7442 b4be 6c86 01be 1f50 383e e77d 493e
00000090: 9169 3e3e 67d8 83bd 8c01 10bd 5b54 aa3e
000000a0: 4456 31be 7540 cdbe 8398 e83d 4874 cdbe
000000b0: 5526 d7bd 8726 1abc f2b7 2dbd af6e 433e
000000c0: e9a9 083d 3c8a 03be 4f19 91bd 63a9 c23e
000000d0: 2679 e4be fe16 36bf a0fd 8a3e eac6 b5be
000000e0: 1a9d adbd e7d0 ad3c e4dc 9cbe cbed 00be
000000f0: 4f6d 333e 84c7 babd ed45 87be 2cf4 acbe
00000100: 7f57 203f 4de5 173f 88f0 ebbd acfb 923e
00000110: 3630 21bb f6cc 5b3d 4bf0 1abe 6f8f b1ba
00000120: 3eb8 67be b4ea f1bc 933b 08be dc34 363c
00000130: 447e fabe 7327 bebe 4616 593e e675 79be
00000140: 3a2d 55be 578c 213e 41cb 86bd 2b56 65bd
00000150: b4fd c2bd 2b58 2c3d 2563 93be 2734 32bd
00000160: e7e0 273e 7c8d b03e 7b59 9dbe e148 f0bd
00000170: 6ee4 953d c814 20be 8b5f 273e 2989 36be
00000180: f908 d3ba 181b 90be d42e 083e c21e 95be
00000190: 9d93 8bbc 087b 39bd 8508 903d 0d21 90bd
000001a0: 4d87 553e 91b6 033e 5789 aabc fca4 40be
000001b0: f5f2 b33d e3b6 813e 861f 023e 4ae3 fa3d
000001c0: d980 fc3e 0383 803e 1def c13d 1d50 963d
000001d0: f420 c83e 71b9 e5bd 26de 66bd 3669 1d3e
000001e0: 0810 bebd 215f 703e 3a30 48be 7426 9c3d
000001f0: c2a3 6b3e 9143 093e c60b 21be 7a64 813e
00000200: 192c aa3e eb6c 2a3e ee49 0dbe 3e13 0b3e
00000210: a5e9 c73d dc42 5c3e 8edc 623e 96c1 0bbe
00000220: 5de4 edbe 4fbe b8be f8ed 603e 2a42 d23d
00000230: 9a7c 93be 34dd 903d 07bd 65bb a39a 033e
00000240: 1f68 953d 5238 bfbd 1fee 73be 6ddc b03c
00000250: d9da cebb dd98 17bc 0ea5 5fbe 40ed a6be
00000260: cca7 56be 70ef f5bc 3633 623b 2bc5 8d3d
00000270: 531b 57be be40 89bc 4262 01bd 1de3 51be
00000280: f887 3f3e 77f9 233d 4658 b8bc 7fba 983e
00000290: ec3a 3ebe 346a fabd 609f 3fbe e435 1abe
000002a0: 2828 413e d362 bcbd 0d8f 82be 8e41 1e3e
000002b0: 0349 dcbd 75a5 74be 39a0 803e b9ba bdbe
000002c0: 76f5 abbe 9889 ac3e dbe0 e53d e7dd 5cbe
000002d0: 2423 123d d3f0 fabd 0572 5cbe 5caf 493d
000002e0: 874e 223e 4e9a 2d3c a8ea 7dbb 9c67 cebd
000002f0: 1b1a 713e 0374 39be 7a89 7f3e d6f2 343c
00000300: d96a e73d 119f 453e de8a 47be 46e0 803d
00000310: 834a 233e b2d1 9ebd 6185 423b 4bf8 ecbc
00000320: 3cd9 063e b4bf 8d3d 3d0b 8ebe 7a53 88be
00000330: b290 c8bc 4000 ad3d 12a0 91be 7a0c 57be
00000340: 0772 093f 887c 913e 5e6c 63be 7da9 6cbd
00000350: 0b96 06bd cc03 d0bc 7c72 31be d06f 533e
00000360: a028 36be ccc3 cd3d 9edf 59be dda1 c6be
00000370: 818b cb3e c5aa 253f d523 9fbe f3ac adbd
00000380: 72c3 e7bd 7b5f 96bd 6239 9e3e 41b9 583d
00000390: c5a6 8fbe 1927 49bd 3f6f 17be b210 cbbe
000003a0: 9d01 503e 00da a43d 0c88 92be 82c7 a13e
000003b0: feac 2cbe d94c 87be 34cd 69bd b958 ddbd
000003c0: 1fbc 41be 2348 903e 69fb 7cbe cade d33e
000003d0: ed70 6bbe 18b4 22bf 5de5 733e cf8a 4dbe
000003e0: a899 7dbe 1ea8 abbd e046 54be ce26 093d
000003f0: a69b c9bc 30e3 fb3d ac78 863d 9dbe 913e
