data/best/output/poster/train/13_stemgnn.pt (torch, 435920 bytes, 73 tensors)

weight_key f4 [135, 1]
000000 7c 31 81 bb 90 b1 21 3e 94 b7 7b be 08 4a 60 be
       -0.0039426666 0.15790391 -0.24581748 -0.2190324
000010 42 55 e9 bd 15 ee a3 3d 4b 13 b7 bb 5b ae 71 3e
       -0.11393215 0.08004395 -0.0055870167 0.23601668
000020 5f 30 d7 bc 11 51 9f 3d 47 4f b8 bd 14 da 70 bd
       -0.026268182 0.07779134 -0.08999496 -0.058801726
000030 63 9a 91 be 89 60 49 be b9 50 fa bd aa 1b 3b 3c
       -0.284381 -0.19665731 -0.12222428 0.01142017
000040 73 b5 f0 3d 6f a2 36 3e 1a f3 4d be ed 38 04 be
       0.11753359 0.17835401 -0.20112267 -0.1291234
000050 8b d1 dc 3d 87 1c 7c 3e c4 91 7d bd 77 f5 62 3e
       0.10782155 0.24620257 -0.06190659 0.2216395
000060 7a 0e 47 bd 25 de ff 3c 41 12 8a 3e 82 ac 8c be
       -0.04859779 0.031233856 0.26967052 -0.27475363
000070 10 0d 3f be bc da 98 bd d4 75 ea bd 82 0d 84 3e
       -0.18657327 -0.07463595 -0.11448255 0.25791556
000080 1e 1b 44 be fe 86 0b be 1c d4 53 be 99 32 8e be
       -0.1915097 -0.13625714 -0.20686382 -0.27772978
000090 88 8d 31 be 54 ba 82 3e 9a c2 07 3e 14 41 14 3e
       -0.17339146 0.25532782 0.13257828 0.1447795
0000a0 6f ac 82 3c 21 f7 1b be 7f da 4c 3d 48 56 8e be
       0.015951363 -0.15230991 0.05001306 -0.27800202
0000b0 cc 17 5d be 69 77 1e be 00 73 3f 3e 09 e5 31 3e
       -0.21591109 -0.15475239 0.18696213 0.17372526
0000c0 15 ca 07 be ec e8 37 bc 12 da 41 3e 2c 3e 97 3e
       -0.13260682 -0.0112249665 0.18930843 0.2953962
0000d0 29 5e f0 3d 38 e6 24 3d c2 c3 4c 3e 18 15 33 be
       0.117367096 0.040258616 0.1999655 -0.17488515
0000e0 e1 03 60 3d d1 3a 6d be 93 94 53 be 08 6d 1d be
       0.0546912 -0.23166968 -0.20662145 -0.15373623
0000f0 04 d7 08 3e 95 68 f2 3d 66 26 36 be 88 56 b6 3d
       0.13363272 0.11836354 -0.17788085 0.08903223
000100 aa b5 25 3e 85 4b 21 bd ce 82 20 3c a9 f2 8a 3d
       0.1618258 -0.03937866 0.009796811 0.06784565
000110 6b ed 3b 3e f5 5a 91 3e 3e cf 6b be d4 02 e2 bd
       0.18352287 0.28389707 -0.23028275 -0.11035696
000120 79 83 eb 3d d6 b4 7a 3e 56 74 83 3e 62 49 85 3e
       0.11499686 0.24483046 0.25674695 0.2603255
000130 7d 02 6f 3d 69 5e 84 be aa fd de 3c f8 24 3f be
       0.058351982 -0.2585328 0.027220566 -0.18666446
000140 42 a6 8e be 17 ec 86 3e 84 d3 66 3e bc bc 97 be
       -0.2786122 0.26351997 0.22541624 -0.2963618
000150 a6 ae 64 3d 55 32 4f bd be dd 4d bd cf f2 0b be
       0.05583062 -0.05058511 -0.050260298 -0.13666843
000160 a2 fb e6 3d 74 02 35 be 87 c9 dd 3d 5d e1 18 3e
       0.11278464 -0.17676717 0.10829454 0.1492972
000170 16 f6 58 3e 5a f8 e0 3d e1 41 97 be 1d 03 47 be
       0.21187624 0.10984869 -0.2954245 -0.19434781
000180 36 68 17 3e c3 ce 7e 3d 88 23 6d be be 02 2f be
       0.14785847 0.062208902 -0.23158085 -0.1709089
000190 9a ca 8e 3e 90 26 4b 3e 80 16 06 be 41 3c 99 bd
       0.27888948 0.19838929 -0.1309452 -0.07482196
0001a0 29 5e 90 be c7 57 93 bb 9d 11 64 be 71 84 69 be
       -0.28196838 -0.004496548 -0.22272344 -0.22804429
0001b0 a4 1c 80 bc 79 20 39 3d f6 cb f7 bd 85 50 35 3e
       -0.015638657 0.045196984 -0.12099449 0.17706497
0001c0 52 0a 39 be 5a b4 89 3e 21 17 4f 3e d7 22 81 be
       -0.18070343 0.2689541 0.20223667 -0.25221893
0001d0 dc ee 97 bd d5 b0 4b 3c 5b 7c 2a 3d 49 95 8c 3d
       -0.07418606 0.012432297 0.0416225 0.068644114
0001e0 e3 45 eb 3d 57 45 83 3c 3d e4 15 be eb 18 0f 3e
       0.11487939 0.016024275 -0.14637847 0.13974349
0001f0 8d 72 92 be b3 3a 35 be 7e 97 9b bd ac aa 15 be
       -0.2860302 -0.17698173 -0.07597254 -0.14615887
000200 22 3f d6 bd 03 32 79 be 7a e5 80 bd eb 6c 83 3d
       -0.104612604 -0.24335484 -0.06293769 0.06417259
000210 48 ab 45 be e1 e0 80 bc f9 6f 58 3e
       -0.1930362 -0.01573223 0.21136464

weight_query f4 [135, 1]
000000 bc 5d 90 bd 42 95 4e 3b 58 c4 99 3d 23 41 40 3e
       -0.070491284 0.003152207 0.07508153 0.18774848
000010 44 83 a4 3e 79 f3 d2 3e e0 ce a1 3e d0 56 d0 3e
       0.32131398 0.4120138 0.31603146 0.40691233
000020 94 87 cf 3d 3d 0c 15 be 2d 71 a9 bc 69 cc a4 3e
       0.10133281 -0.1455545 -0.02068385 0.32187203
000030 27 15 f0 3d 10 fe eb bc a8 bf df bd f0 c9 23 be
       0.117227845 -0.02880767 -0.109252274 -0.15995002
000040 15 2a 08 be 9c a6 69 3d a5 6f 8f 3e 5f 39 8e 3e
       -0.13297303 0.057043657 0.28014866 0.27778146
000050 e6 ea 2c be d1 1b 9b 3e 1b af e9 bd c8 5a 63 3d
       -0.16886482 0.3029466 -0.11410352 0.055506498
000060 d1 26 f7 ba df ec 7c 3d bc ad 78 3d cc 38 17 be
       -0.0018856173 0.061749335 0.06071256 -0.1476776
000070 0a 45 0d be 13 cf 92 3d 27 26 f9 3d b8 f1 8c bc
       -0.13795868 0.071684025 0.1216548 -0.017205104
000080 21 ca 6a 3e 76 c3 18 be 35 15 c8 3d 31 f4 c1 3e
       0.22928669 -0.14918312 0.0976967 0.37881616
000090 65 5b 57 bb 3f 71 c5 3e 3f 29 67 3e 05 0a 19 be
       -0.0032860872 0.38562962 0.22574328 -0.14945228
0000a0 a6 1e 9d 3e 6a 26 ad 3d 30 b9 5b bc e7 93 b6 3e
       0.30687445 0.084545925 -0.013410851 0.35659716
0000b0 d8 3f f7 bd 01 c2 1a 3e f0 28 6a 3d a8 d3 a9 3e
       -0.12072724 0.15113069 0.057167947 0.33169293
0000c0 e2 fe 4e 3e d7 23 86 3e 36 db 65 3e c5 93 44 3d
       0.20214418 0.2619922 0.22446904 0.047992487
0000d0 e3 12 69 3d 40 d4 00 be e8 44 8f 3e a6 bc b5 3e
       0.056902777 -0.12580967 0.2798226 0.3549549
0000e0 73 07 a5 3e e4 26 b9 bd 48 87 07 3e cc 07 b9 bd
       0.32232246 -0.09040621 0.132352 -0.0903469
0000f0 96 c5 36 bd 9c c1 5d bd 56 c9 61 3e 94 29 6e bd
       -0.044622026 -0.05413972 0.2204946 -0.05814512
000100 b7 a2 e6 3d 66 d1 06 3e 7f f5 9e 3e 39 30 d8 bd
       0.11261504 0.13165817 0.31046674 -0.10556073
000110 bf 16 ad bd aa bf 59 bd 4b 75 a7 3e 0e fa 50 3c
       -0.08451604 -0.0531613 0.32706675 0.01275493
000120 f7 6e bd 3e 6b f5 68 3e 63 40 21 3e 73 62 f0 3d
       0.36998722 0.2274987 0.15747218 0.11737528
000130 94 0b 78 3d ad b3 1f 3e 10 b6 51 3d bf 8c ef 3d
       0.060557917 0.15595885 0.05119902 0.11696767
000140 2d bf 20 3e d0 09 e8 bd ef 34 17 bd da c2 b7 3e
       0.15697928 -0.113299966 -0.036915716 0.35890847
000150 87 d4 f8 bd 3e 25 c8 3d 1f 4e d3 3e 0e 0b 68 3e
       -0.121499114 0.097727284 0.4127054 0.22660467
000160 84 d2 02 3e 58 ba 0d be 2d 8a 88 3e 67 79 bb bd
       0.12775618 -0.13840616 0.2666792 -0.09154015
000170 e6 52 10 3d a2 cf a2 3c d8 59 9a 3d 49 4e fb 3d
       0.035235308 0.019874398 0.075366676 0.12270791
000180 79 51 ba 3e d0 6c 1f 3e f4 f7 c4 3e b4 af 99 3e
       0.36390284 0.15568852 0.38470423 0.30016863
000190 89 96 8d bd ca f6 80 3e 0c 37 bb bd 13 78 e4 bb
       -0.06913478 0.25188285 -0.09141359 -0.006972322
0001a0 51 82 53 3e e5 df 5e 3e 79 ff ae 3e cd fa bd 3c
       0.2065518 0.21765096 0.34179285 0.02319088
0001b0 04 1c f5 3d 99 4f 8b 3e 1b 61 2c be 03 b1 aa 3e
       0.11968234 0.27209166 -0.16833918 0.33338174
0001c0 42 d7 01 be 37 0d fc 3d 01 1e 8c 3d 64 9b 19 bd
       -0.1267977 0.12307208 0.0684166 -0.037501708
0001d0 91 d9 21 3e 44 c2 ba 3e 21 57 04 3d 4d e7 6a bd
       0.15805651 0.36476338 0.032309655 -0.057349492
0001e0 ce ed 17 3c 0b 19 33 be eb 8b 81 3e 82 40 be bc
       0.009273006 -0.17490022 0.2530206 -0.02322412
0001f0 a4 03 a2 bd 5b c9 56 bd 74 44 94 3e 8b 40 8d 3e
       -0.07910851 -0.05243812 0.28958476 0.27588305
000200 2f 5a b1 3e bf e4 67 3e ef e3 a0 3c 27 0e 13 3d
       0.34639117 0.22645853 0.019639937 0.03590217
000210 1a f1 53 3e fb ab bb 3e a0 12 51 3e
       0.20697442 0.36654648 0.20417261

weight_ih_l0 f4 [405, 3]
000000 9c 2b 81 bd dc e3 80 bd fe ee d4 bd 88 05 7c 3d
       -0.06307146 -0.06293461 -0.10397147 0.061528713
000010 bb 02 a9 bb f5 2e 09 bd be 37 95 3d 81 41 6c bd
       -0.005157796 -0.033492047 0.072860226 -0.057679657
000020 a0 fc 2f bc 87 e6 62 3c 68 4a 03 bc a6 81 8c bd
       -0.010741383 0.013848907 -0.008013345 -0.06860666
000030 6b 65 e6 ba 42 ee 0b 3e 11 99 a8 3d 3b b0 f8 3d
       -0.0017577832 0.13665107 0.0823232 0.12142988
000040 f6 1a ab 3c 20 78 9c 3d a5 86 e6 bc 3d 4d 49 bc
       0.02088688 0.076400995 -0.028140375 -0.012286481
000050 45 fa 79 bd fa 37 e0 3c 4a 68 d5 3c a2 4a 45 bb
       -0.06102969 0.027370442 0.026050705 -0.00301043
000060 06 34 42 bd 6e f5 a5 bd 12 c5 01 3d 17 d1 24 bd
       -0.047412895 -0.081034526 0.03168208 -0.040238466
000070 45 88 6d 3d d0 fe e4 bb a2 96 16 bd 6e fe a6 3c
       0.057991285 -0.006988384 -0.03676475 0.020384993
000080 d5 4e 23 bd b7 8f e6 3d a6 8a e1 3d 4f 87 f2 3c
       -0.039870102 0.1125788 0.11012773 0.029605536
000090 ac e1 fb 3c 82 13 5b 3d 9a 71 51 3d b4 cb 24 bd
       0.030747257 0.0534854 0.05113373 -0.04023333
0000a0 91 3c cd bd 1c bb 30 bd 81 26 c8 3d 39 f6 14 3d
       -0.10021318 -0.04314719 0.09772969 0.03636763
0000b0 6c b1 cd 3d 89 37 78 3d e6 9a 28 bd 0f 95 a0 3b
       0.10043606 0.060599837 -0.041163348 0.0049005817
0000c0 e1 5c 91 bd 7d 44 cd bd 5f e9 cc bd 04 f7 c0 3d
       -0.07097793 -0.10022829 -0.100054495 0.094221145
0000d0 71 7c 82 3c 05 16 b9 3d 18 59 bf 3d 38 64 e6 3d
       0.015928479 0.09037403 0.09343165 0.11249584
0000e0 8a 66 b1 3d cf f8 cf 3d ee 80 05 3e 0c 46 46 3d
       0.08662136 0.10154878 0.13037464 0.048406646
0000f0 32 79 b4 3c 35 b4 a5 3c 90 0f 39 3e 58 e7 4b 3d
       0.022030447 0.020227531 0.18072343 0.049781173
000100 a7 61 83 bd c3 08 ed 3c d1 67 ac 3d f9 15 d8 3d
       -0.0641511 0.028934842 0.08418239 0.10551066
000110 8a 57 c2 3d e4 c3 3c 3d ff d3 24 bd 60 4c 4f bd
       0.09489353 0.046085253 -0.040241238 -0.050609946
000120 91 cc e4 3d e9 4b b7 3d 04 24 2c bc 18 df 9c 3d
       0.111718304 0.089500256 -0.010506634 0.07659739
000130 84 08 28 3d 97 39 3d 3d 1a e7 99 bd 00 a2 4b 3b
       0.041023746 0.0461975 -0.07514782 0.0031071901
000140 26 b8 55 bd a4 1e 8f 3d fe 72 4d bc 7d dd 15 3d
       -0.05217757 0.06988266 -0.012539623 0.03658818
000150 e1 a6 ea 3a a6 e1 bd 3c 50 92 2e bd fb 4a 20 bd
       0.0017902517 0.023178887 -0.042620003 -0.039134007
000160 7e 2e 10 be 04 18 7b bd d2 29 ff bd d1 ee 1a be
       -0.14080235 -0.0613022 -0.124591485 -0.15130164
000170 cf eb 0a be e7 93 13 3e b3 b4 fb 3d 5d 15 21 3e
       -0.13566516 0.14411889 0.12290325 0.15730806
000180 1a c2 0e 3e 95 cf c8 bb 54 02 46 3c c0 ca 4e 3b
       0.13941231 -0.0061282613 0.012085516 0.0031553954
000190 4f bd 1f bd d3 96 9c 3d 79 48 44 bd 5f 83 cf bc
       -0.038998898 0.07645955 -0.047920678 -0.025331197
0001a0 31 3f 88 bd 8f d7 01 bd 91 5c b4 3d a3 e2 b3 3d
       -0.06652678 -0.031699713 0.08806718 0.08783462
0001b0 ed 4b 54 bc 2b 91 01 bc d4 43 16 3b 08 4c e1 bd
       -0.012957555 -0.007908146 0.0022928612 -0.1100083
0001c0 a7 32 4e bd c1 e8 3c bc cf 56 8e 3a 78 b1 70 3d
       -0.050341275 -0.011530102 0.0010859611 0.058762997
0001d0 22 e6 8f 3c 25 cd b0 3d 92 6f 6c 3b 60 eb 99 3d
       0.01756579 0.08632878 0.0036077243 0.07515597
0001e0 80 d6 da 3c 08 c5 6f bb 95 18 02 bd 7a dd d4 bd
       0.02671361 -0.0036585946 -0.031761725 -0.10393806
0001f0 d4 20 fa bd 80 ea ad 3a c0 b2 56 3d c4 45 9a bc
       -0.12213293 0.0013268739 0.052416563 -0.018832095
000200 05 80 72 bd 4e 8f 5f 3d 8c 14 2e 3d 65 7b dc bb
       -0.05920412 0.054580025 0.042500064 -0.006728577
000210 1b b6 fb bc c5 72 b6 3d 36 92 39 3d 08 4e 8f 3c
       -0.030726483 0.08908609 0.045305453 0.017493263
000220 7f 41 29 3e 9a 0c 18 3e 19 f7 34 bc bb 85 8c 3d
       0.16528891 0.14848557 -0.011045241 0.068614446
000230 d4 28 eb bc 94 4a 04 3c b5 6e c1 3d fe c1 ca 3c
       -0.028705992 0.008074421 0.09444944 0.024750706
000240 74 6e 6b bb a6 fa fe 3c 43 90 15 3d fd 70 42 3c
       -0.003592399 0.031125378 0.03651453 0.011867759
000250 ba d5 12 3d bc 9b db 3d 50 4a 1c 3c 75 ac 45 bd
       0.035848357 0.10723063 0.009539202 -0.04826017
000260 52 92 17 3c b0 29 36 3d f8 7d 3c 3d 5b 26 9a bd
       0.009251194 0.04447335 0.04601857 -0.07526847
000270 57 89 1c bb ee 46 50 bd fe 48 c1 bc 60 10 1f 3d
       -0.0023885572 -0.050848894 -0.023594376 0.038833976
000280 97 f0 5d bd 3e 84 1f 3d 9b 4b c9 3d 5e be fc 3c
       -0.054184522 0.038944475 0.09828874 0.030852493
000290 c0 2d 04 bd 2f 6a 6a bd b5 fd f6 bb 4c 2e bc bd
       -0.032270193 -0.05723017 -0.0075375685 -0.09188518
0002a0 9b 24 9b 3c 63 d1 d0 bd cf 66 da bd 7c b1 a8 bd
       0.018938353 -0.10196187 -0.106641404 -0.082369775
0002b0 b4 44 84 bc 03 b9 71 3d 3f db 34 bd 47 74 de 3d
       -0.016146041 0.05901433 -0.044154402 0.10862022
0002c0 25 c6 24 3b 03 81 57 bd 67 5d 95 bd 47 1d 1d be
       0.0025142517 -0.05261327 -0.07293206 -0.153432
0002d0 08 71 aa 3d f1 ef 70 3d 9e 89 c8 3d 03 ae a0 3c
       0.0832234 0.058822576 0.097918734 0.019614225
0002e0 f8 fc a4 bd e9 30 45 3d f8 e0 4e bd c2 99 6b bc
       -0.080560625 0.048142347 -0.050507516 -0.01437992
0002f0 bc 5e fe bd e6 ff 09 bc 81 7f 8b bd 22 a3 8c bc
       -0.12420413 -0.008422827 -0.06811429 -0.017167632
000300 8a fa 71 ba 85 d7 b0 bd c1 75 0f 3c ed 82 07 3e
       -0.00092307536 -0.08634857 0.008756102 0.13233538
000310 cb 50 cb 3d 54 5c f6 3c dc dd 84 3c 95 42 68 3d
       0.099275194 0.030073322 0.016219072 0.056704123
000320 d8 fe f7 3d 78 26 d9 3d 76 5c 90 3d 71 7e 35 3c
       0.121091545 0.106030405 0.070488855 0.011077509
000330 d5 bd 93 3b 26 8e e1 bd d2 92 cb bd 92 8d 95 3d
       0.0045087137 -0.11013441 -0.09940113 0.07302393
000340 5a cd 81 bc 4f 0c 98 3d e0 3f 87 bd 14 34 43 bd
       -0.01584499 0.07424223 -0.0660398 -0.047657087
000350 29 c5 9a bd 34 90 03 3e 11 d2 99 3d 9e d9 19 3e
       -0.075571366 0.12847978 0.0751077 0.1502442
000360 72 ac d2 3d 9e 82 c7 3d fa 50 57 3d 44 88 34 bd
       0.102867976 0.0974171 0.05256746 -0.044075266
000370 bc ca 14 bd 53 fd d4 bb 48 64 9c 3c 30 5f ab bd
       -0.036326155 -0.006499925 0.019090787 -0.08367765
000380 3e 41 48 3d aa d1 bc bc 3c b9 af bd 8f 72 77 bd
       0.048890345 -0.023049194 -0.085802525 -0.060411986
000390 07 c7 95 3d 76 74 9a 3d 11 59 aa bd 37 44 c5 3d
       0.07313352 0.075417444 -0.08317769 0.096321516
0003a0 b6 9a a1 3d 39 e8 b1 3d 70 b9 e6 3d 5e 52 b2 bb
       0.07890837 0.08686871 0.11265838 -0.005441948
0003b0 36 46 8f 3d 72 a4 a5 3c 22 06 24 bd 8f 6e 6c 3c
       0.069958135 0.020220015 -0.04004491 0.014430656
0003c0 b1 36 fd 3b 97 90 af 3d f0 ca 07 3c b6 6a 56 bc
       0.007727467 0.085725 0.00828813 -0.013086965
0003d0 7d 91 27 3d 45 d8 4c 3d d5 ac 94 bc 85 ea 00 3d
       0.040910233 0.05001094 -0.018148819 0.031473655
0003e0 ff f9 96 3d 8b 63 df bc 01 54 f7 3b 26 c6 21 bd
       0.07371902 -0.027269145 0.007547856 -0.03949561
0003f0 32 ff 4a 3c ce cc a3 bd 5e 30 8c bd 9f 79 e0 bc
       0.012389945 -0.07998048 -0.06845163 -0.027401743

weight_hh_l0 f4 [405, 135]
000000 e8 76 80 3d 24 fe a5 3d 5a ac 7b bd 49 7b 05 3e
       0.062726796 0.08105114 -0.061443664 0.13035311
000010 fb c1 9c bb bc f2 a2 3c 3a 08 1a 3d e2 8b 67 bd
       -0.0047838665 0.019891135 0.0376055 -0.056529887
000020 32 ce 42 bd 30 ec fc 3c 02 5e 94 3d 1e 24 1d bd
       -0.047559924 0.030874342 0.07244493 -0.038364522
000030 e8 8d cf bd c6 f9 00 3d e0 fa a1 3c 5c dc e6 3d
       -0.10134488 0.031488203 0.019772947 0.11272499
000040 7a c5 dd bd e8 d1 d8 bb ee 2d 64 bd df 82 b1 bd
       -0.10828681 -0.0066168196 -0.055707864 -0.0866754
000050 cc 1f 74 bc cd 9e 89 bd 79 39 90 3d 6a 7e 9f bd
       -0.014900159 -0.06719742 0.07042212 -0.077877834
000060 b9 91 a9 3d 97 a9 f0 bc f7 53 12 3d 8b 0e 11 be
       0.082797475 -0.029377742 0.035724606 -0.14165704
000070 36 35 8a bd ce b2 8d bc ec 6d 33 be 0b a0 be 3c
       -0.067484304 -0.017297175 -0.175224 0.023269674
000080 bc 0c 3c 3c c0 7f 3e 3b 7f 50 e9 bd 6c 52 cd 3d
       0.0114776455 0.0029067844 -0.113923065 0.10025486
000090 6c 55 4a 3d 4e d3 ac bc 37 d1 02 bd 44 17 66 3d
       0.04939787 -0.021096852 -0.031937804 0.05617453
0000a0 70 7e 2b 3e 2f 33 b6 bd 9c ad e9 bc 6e 2f 44 3c
       0.16747451 -0.08896481 -0.028525166 0.011974199
0000b0 bc d2 bc bd 75 c1 f6 3d e2 2c a7 bc 34 5e ad 3d
       -0.09219882 0.12048618 -0.020407144 0.084652334
0000c0 a3 2d f7 bc 9c 60 1d bd 2b d5 56 bd 60 25 4d bd
       -0.030173128 -0.038422212 -0.052449387 -0.05008447
0000d0 74 78 90 3d 00 67 af 3d 90 0a 56 bd cb 3a dc 3d
       0.070542246 0.085645676 -0.052256167 0.10753401
0000e0 22 fa d5 3c c6 c8 62 3d 8a 6a bb 3d b4 65 7a 3d
       0.02612025 0.055367254 0.0915118 0.061132148
0000f0 1a c0 67 3d ed 24 e4 bc 87 47 77 bd 8b 8d 55 3d
       0.056579687 -0.027849639 -0.06037095 0.05213694
000100 9b 6a 93 3c 65 b8 cd bc 56 57 a4 3c 81 8c 3a 3d
       0.01799517 -0.02511234 0.020061176 0.04554415
000110 53 48 66 bc be a4 c5 bd e0 62 ba bc a8 92 50 bd
       -0.014055329 -0.09650563 -0.022752225 -0.050921112
000120 ab b5 d2 bd 57 47 9a 3b 70 32 9e 3c 6f 4f a0 3c
       -0.10288557 0.0047082114 0.01931116 0.019569127
000130 21 98 7b 3d 85 d4 85 bd 4b fb 93 bd 0d 6d de 3d
       0.06142438 -0.065346755 -0.07225665 0.108606435
000140 11 dc f4 3b 47 2d 1e bd 60 e2 68 bd 5e e5 c5 bd
       0.007472523 -0.0386174 -0.056856513 -0.09662889
000150 3f 30 42 3c f7 d1 c9 bd 51 0f b6 3c 94 5d b0 3d
       0.011852323 -0.09854501 0.0222241 0.086115986
000160 a2 f8 bc bb 49 5b a7 bd a6 09 7b 3d 8e 25 b2 3d
       -0.005766944 -0.08171708 0.0612885 0.08698569
000170 d3 68 06 be be c3 5f 3d 7d af 14 3c ce 27 ab 3c
       -0.13125925 0.054630034 0.009075043 0.020893004
000180 21 d8 24 bc 84 2e 97 bd c0 20 cf 3c 70 7e 41 3d
       -0.010061295 -0.07381919 0.025284171 0.04723972
000190 6c 78 41 bd 10 07 91 bd 8d f6 31 3d 85 41 92 3d
       -0.047233984 -0.07081425 0.04344802 0.07141403
0001a0 65 f7 7d 3d 6a 90 a5 3a 37 7b 3f 3d ee bf 16 3b
       0.062003512 0.001263154 0.046748366 0.0023002583
0001b0 d5 51 97 3c 9d 47 8a 3d f2 30 b6 bc 98 92 08 bd
       0.018471638 0.067519404 -0.022240136 -0.033342928
0001c0 32 45 da bc 05 ff 59 bd d6 36 9a 3c 9a ea 75 bd
       -0.026644323 -0.05322172 0.018824976 -0.060038187
0001d0 5a d0 9c 3d bd 71 8e bc 84 e5 56 3d 01 e4 b2 3d
       0.076569274 -0.017388219 0.052464977 0.087348945
0001e0 f3 ca 0c 3c 9a 43 58 bc 85 7f 6b 3a 4e c3 84 bd
       0.008593309 -0.013199711 0.00089835405 -0.06482564
0001f0 88 d3 8c 3d 40 2d fd bb 0c e6 0e bd 0a 08 c3 bd
       0.06876284 -0.0077263415 -0.03488736 -0.09523018
000200 2d 85 73 3d b2 0e c6 bd f6 59 47 3c 5b 09 a9 3c
       0.05945318 -0.09670772 0.012167444 0.020634344
000210 70 de af bd 14 4e e6 bd 36 f4 84 bd 53 54 62 3d
       -0.085873485 -0.11245361 -0.06491892 0.0552562
000220 72 62 0d be bd 3f 0e be 28 3f a7 3c 46 90 6a bc
       -0.13807085 -0.13891502 0.020415857 -0.014316624
000230 e4 f5 b9 3d 06 24 ed 3c 2b f1 99 bc 14 73 1a 3b
       0.09080103 0.028947841 -0.018791756 0.0023567127
000240 69 25 c7 bc 96 13 c3 bd 74 98 66 bd 8a e9 91 3d
       -0.02430983 -0.0952522 -0.056297734 0.07124622
000250 86 63 4f bd 93 ee f4 bd 06 9b 28 be b2 64 5c 3d
       -0.050632022 -0.11959567 -0.16465387 0.053806968
000260 a8 39 49 3d 4a 3e 17 3e cd 88 a9 bc 33 49 c9 bc
       0.04912725 0.14769855 -0.020695115 -0.024571037
000270 91 67 09 be d1 d2 d5 bd 28 62 9b 3c 90 28 9d bc
       -0.13418414 -0.10440601 0.018967703 -0.01918438
000280 2d c4 3d bd f9 e8 a6 bd b3 a4 b2 3d be 3a 13 bd
       -0.046329666 -0.08149905 0.0872282 -0.035944693
000290 d6 1a 05 be 75 4b 62 bc ef d9 96 bd 90 8d 19 be
       -0.12998518 -0.013811936 -0.07365786 -0.14995408
0002a0 33 a8 04 be b9 8a 0c 3e 98 ec 9c bc 32 93 a5 3d
       -0.12954788 0.13724793 -0.019155785 0.08084716
0002b0 bb be 16 bb ba 52 ca bc 26 a9 fa 3d 60 40 d4 bd
       -0.0023001868 -0.02469765 0.12239294 -0.10363841
0002c0 b6 fd ff bd 39 53 92 3c 65 80 d2 3c 6e ed 5c 3d
       -0.124995634 0.01786195 0.025695989 0.053937368
0002d0 61 10 39 bb f0 59 13 be 78 4e cf 3b 37 03 84 3d
       -0.0028238522 -0.14389777 0.006326493 0.06445926
0002e0 cb 1c 32 3d 4d bf c2 3d 0e 9e eb 3d dc 2e 0a be
       0.04348449 0.09509144 0.11504756 -0.13494438
0002f0 c2 10 f8 bc a9 1e c8 3d 69 93 e1 bd 16 59 13 3c
       -0.030281428 0.09771473 -0.110144444 0.008993408
000300 e6 e9 fc bd f4 3f 9e bc 59 f4 85 bd 6f ee e4 bd
       -0.123493 -0.019317605 -0.06540746 -0.1117829
000310 f5 a6 7a 3c a8 9f 9d 3c a0 6e 1a be 08 53 aa bd
       0.015298595 0.01924117 -0.15081263 -0.08316618
000320 ce 59 14 be 86 b4 04 be bd 17 70 3b ab cb 0c bd
       -0.14487383 -0.12959489 0.0036635243 -0.03437392
000330 ba 01 98 39 ed d7 f5 3d 33 12 f6 3c d3 7b 4c bd
       0.00028992986 0.12004075 0.030037975 -0.049922775
000340 34 b9 07 be f1 8b 24 bc 53 f8 94 3d ab 96 11 3d
       -0.13254243 -0.01004313 0.072739266 0.03554408
000350 5a 02 fb 3d d1 ab 2e be d1 6f 32 ba 2a 67 b1 bc
       0.12256308 -0.1705773 -0.0006806823 -0.021655638
000360 6e 90 a3 ba 5a c5 4a 3d af b2 04 bc 77 46 25 bc
       -0.0012478956 0.049504615 -0.008099242 -0.010087601
000370 61 a4 18 be aa 5e ad 3c 6b 34 2b be 77 f6 4d bd
       -0.14906456 0.021163303 -0.16719215 -0.050283875
000380 bc 66 98 3d 45 1b e1 3c 28 f2 70 3d 5a a2 86 3d
       0.0744147 0.027478823 0.05882469 0.06573935
000390 89 ef ba bd c7 a0 32 3d c5 e4 0d 3c 67 8d bc 3c
       -0.09127719 0.04361036 0.0086605 0.023016645
0003a0 0d 63 b2 3d 37 57 01 3e 5c b0 18 be aa b7 21 3c
       0.08710299 0.12630926 -0.14911026 0.009870449
0003b0 17 70 ae 3c 25 6a 15 bc d1 c2 a1 bd 38 59 0c 3c
       0.021293683 -0.009119545 -0.078984864 0.008566193
0003c0 22 bd f3 bb 16 04 da 3d 15 e0 3a be 56 e2 6d bd
       -0.007438318 0.106453106 -0.18249543 -0.05807718
0003d0 14 01 f3 bc 32 45 8b 3d 47 15 dc 3c 37 b3 ed 3d
       -0.0296636 0.06800307 0.026865615 0.11606448
0003e0 f4 a3 69 3d e9 b3 d6 bc d3 a3 3c bd 5a 61 8d bc
       0.057041124 -0.026208835 -0.046054672 -0.017258335
0003f0 95 14 96 3c ea 4d d5 3b b6 0c ad 3c df 72 37 39
       0.018320361 0.006509532 0.021124225 0.00017495033

bias_ih_l0 f4 [405]
000000 e8 a7 bc bc 4f 11 e7 3d 88 47 02 bc 98 b9 a8 3d
       -0.023029283 0.11282598 -0.007951625 0.08238524
000010 f5 59 f8 bb 39 16 e7 3c 50 5b 1f bd 8e ec 31 bd
       -0.007579083 0.028208839 -0.03890544 -0.043438487
000020 27 35 f2 3d f0 20 7c 3d cc e0 c8 bc 71 66 1d 3d
       0.11826544 0.06155485 -0.024521254 0.038427774
000030 9e 50 1f 3d 76 41 6f bd 6f f0 1a be 8e cc f9 3c
       0.038895242 -0.058412038 -0.1513078 0.030493047
000040 87 c6 dd bd b1 c9 15 bd a9 e3 d7 bd a6 b8 b6 bd
       -0.10828882 -0.0365693 -0.105414696 -0.08921938
000050 0f d3 de bd 06 80 92 bc df a7 13 3c 68 f1 ee 3d
       -0.108801 -0.017883312 0.009012192 0.11667138
000060 5b 10 03 3d 5e fb a6 bc eb 98 e6 bd 76 eb d2 bd
       0.03199802 -0.020383533 -0.112596355 -0.10298817
000070 6b 42 a3 bd 2e a9 1a be 65 d4 11 3c 6d 36 65 3c
       -0.079716526 -0.151036 0.008900736 0.013990027
000080 1d 3b 6d 3d 2a 63 b1 bd 54 39 0d bc d1 be 5a 3d
       0.057917703 -0.08661492 -0.008619625 0.053404633
000090 2f 5e 44 bd d3 a5 d0 bd 26 55 6c bd 6c 7f 9e 3d
       -0.047941383 -0.101878785 -0.05769839 0.077391475
0000a0 e8 99 8a 3d 20 df 22 3d d0 e3 f0 bd 48 6e 92 3d
       0.067676365 0.03976357 -0.11762202 0.07149941
0000b0 dd e7 47 3d 57 ad 52 ba 86 3a 09 3c 13 9e b5 bd
       0.048805106 -0.0008036694 0.0083757695 -0.08868041
0000c0 d9 9a 65 3d d5 1d 74 3c 2b 68 9f 3c 16 63 26 bd
       0.056055877 0.014899691 0.01945885 -0.04062184
0000d0 82 89 9e 3d dd b3 3d 3c 7c f7 b6 3d e7 e4 a8 bd
       0.07741071 0.011578527 0.08933923 -0.08246785
0000e0 52 ea 85 3d c6 46 93 bd 41 a8 f0 bd f7 cc 92 3d
       0.06538834 -0.07191233 -0.11750842 0.07168
0000f0 ad fd d1 bc 9d 47 f1 bc c9 b7 bc bd 89 d8 d7 3d
       -0.025633657 -0.029453093 -0.09214742 0.10539348
000100 ec 65 86 3c 25 c5 a1 bd d8 79 bc bd b1 84 a6 bd
       0.016406022 -0.078989305 -0.09202927 -0.081307776
000110 0b 09 7a bd d1 9c 84 bc 32 24 63 bc 7e 6b d6 3d
       -0.06104378 -0.016188057 -0.01386361 0.10469721
000120 a0 ec 92 bd 62 2f 06 bd c4 5d 0d 3d d1 b3 0b 3d
       -0.07174039 -0.03276003 0.03451325 0.034107033
000130 27 57 22 be b6 08 ce 3c 2e a1 ae 3d d2 0a c2 bc
       -0.15853558 0.025150638 0.08526836 -0.0236868
000140 66 e9 c1 bd 04 f6 75 3c b1 8e c2 bd d9 f4 47 3d
       -0.09468345 0.015012268 -0.094998725 0.04881749
000150 73 f4 a7 bd 2a 10 51 bd 29 f2 b3 bd 0e f4 fe bd
       -0.08200922 -0.051040806 -0.08786423 -0.124488935
000160 f1 3f 4e bc 72 83 a9 3c 1f 1d 82 3d 78 d8 f5 3c
       -0.012588487 0.02069256 0.06353211 0.030010447
000170 cc 68 b6 3d 49 62 2f 3d 76 e0 2f 3c 39 91 97 3c
       0.08906707 0.04281834 0.010734668 0.018501865
000180 58 ec 76 3c 21 ad 93 bd 8e 31 37 bc b6 75 d6 3c
       0.015070997 -0.07210756 -0.011181248 0.026179176
000190 1e b8 0e 3c 70 b2 88 3c 7e 79 90 3d 63 60 d5 bd
       0.008710889 0.016686648 0.07054423 -0.10418775
0001a0 37 34 03 3e e2 6b 21 3d ec 73 b3 bd 2b 1f 4b 3d
       0.12812887 0.039409526 -0.08762345 0.04959027
0001b0 3f 44 20 3d ce 37 7f bd 43 ad 70 3c 0a 02 4f bd
       0.039127585 -0.06230908 0.014689746 -0.050539054
0001c0 57 c8 a9 3c 14 43 eb 3d 0a c9 e0 3d 2e 5d f4 3c
       0.020725412 0.114874035 0.10975845 0.029829588
0001d0 86 eb be bc d9 43 f0 3d 8f cc 12 3d a7 f8 05 3d
       -0.023305666 0.11731691 0.035839614 0.032707836
0001e0 fd 54 0e be 1d 3d 00 bd 0a 3a 69 3c 41 23 dc 3c
       -0.13899608 -0.031308282 0.014235029 0.02687228
0001f0 69 e9 28 3e 9f da 93 3c d5 e4 ac 3c 5e 7c 39 3e
       0.16495289 0.018048583 0.02110521 0.18113849
000200 88 0e 9c bd ce 6e 03 3d 5e d8 3c 3d a8 a0 f0 bc
       -0.07619959 0.032088093 0.04610478 -0.029373482
000210 21 00 25 bd 65 cd 0e 3e bf 9d 82 3d da 0d 1b 3e
       -0.040283326 0.1394554 0.06377744 0.15142003
000220 3b 8d 31 be 8b 6a b2 bd 58 ab 8f 3d 2e 6d ab bd
       -0.17339031 -0.08711728 0.07015103 -0.08370434
000230 b0 e3 ae 3d d7 7a 0d 3e 6c 1d ce 3d b7 f5 fe 3c
       0.08539522 0.13816391 0.100642055 0.031123025
000240 4d 2a 95 bd c8 8f 62 bd 91 51 c4 3c fc b7 85 3c
       -0.07283459 -0.0553129 0.023964675 0.016323082
000250 23 d5 71 bc 54 81 30 bb 13 2c 5f bd a0 3f 01 3e
       -0.014760288 -0.0026932554 -0.05448539 0.12621927
000260 34 99 0d 3d 4a f4 75 3d 12 f4 74 b9 bf 84 91 bc
       0.034569934 0.060047425 -0.00023360577 -0.017763494
000270 76 24 65 3d 26 4d a4 bc a2 1f 42 be 98 2c cc bd
       0.055942975 -0.020056318 -0.1895738 -0.09969443
000280 05 27 7e 3d fe ae ac bd 1b 2b 7f bc 98 be d7 3d
       0.06204893 -0.084318146 -0.015574242 0.105344
000290 f8 54 ba bd 45 22 89 3b 71 6a f2 3a c8 f2 b2 bb
       -0.09098238 0.0041849934 0.0018494857 -0.0054610707
0002a0 50 e6 c1 bd 5b 42 1c bd bd 43 74 bd df 49 30 bd
       -0.09467757 -0.03814922 -0.059634913 -0.0430392
0002b0 2f 3b d2 3d 59 e1 e0 3c 31 40 50 be f9 f9 88 bd
       0.102651946 0.027451204 -0.20336987 -0.066883035
0002c0 e6 06 4a bd b3 c8 a3 bd 66 0f ec 3d 07 70 37 be
       -0.049322985 -0.07997265 0.115263745 -0.17913829
0002d0 2c 9d d1 bc da b9 68 3d 00 51 89 bd 68 44 81 3c
       -0.02558764 0.056817867 -0.06704903 0.015779689
0002e0 b6 13 4d bd 0c 61 a0 bd 54 08 82 3d 90 18 08 be
       -0.050067626 -0.0783101 0.06349245 -0.1329062
0002f0 9d 56 42 bd 7e 2d f1 bc 3a 30 04 3d 9e eb cd bd
       -0.047445882 -0.029440638 0.032272555 -0.10054706
000300 9b 14 4a bd e3 b5 b0 bc 33 32 8d 3d 8e 23 d6 bc
       -0.049336057 -0.021571105 0.0689434 -0.02614
000310 b6 b4 19 bd 3b 17 e7 3b 62 3b 03 be 8c 85 d4 bd
       -0.037525855 0.00705233 -0.12815621 -0.103770345
000320 8d cc 8a bd 71 d2 b2 bd cb d8 29 3d 8d 7f 9a 3c
       -0.06777296 -0.08731545 0.041466516 0.01885965
000330 f8 f7 4d be 90 48 11 3d f5 39 80 3b 4f 8c 69 bd
       -0.20114124 0.03546959 0.003913159 -0.057018574
000340 36 4a 8f bc 03 cd 33 bc b4 41 1d 3d 2d e8 9b bc
       -0.017491441 -0.010974172 0.038392738 -0.019031608
000350 2b bd 15 be 22 51 88 bd fe eb 80 bd 48 e6 9d 3d
       -0.14622943 -0.066561 -0.06295012 0.07709938
000360 f9 b0 e0 bd 49 4c 93 bd 81 d3 fe bd 7f 44 d6 3d
       -0.10971255 -0.071922846 -0.12442685 0.10462283
000370 da aa 17 3d 1a 96 9f 3b 09 65 da bd 7b 9d 05 3d
       0.03702817 0.0048701884 -0.10663802 0.03262089
000380 6d 89 26 3d 7d ee c6 3c ce d2 85 bd ac b8 a9 bc
       0.040658403 0.024283642 -0.065343484 -0.020717941
000390 53 8b 90 bd 71 75 c4 bc c2 8d 13 bd f2 b3 8c 3d
       -0.07057824 -0.023981782 -0.036023863 0.06870259
0003a0 f9 3f 05 bc 66 1f 0d 3d 90 12 cb bd d3 e4 ac bd
       -0.008132928 0.034453772 -0.0991565 -0.08442082
0003b0 aa 61 14 bd 48 b7 c4 3d 73 e7 26 be 3b a1 69 bd
       -0.036225952 0.096052706 -0.16299228 -0.057038527
0003c0 ed a0 b0 3d 40 12 04 bb da 23 0c bd f5 b5 7e bd
       0.08624444 -0.002015248 -0.03421388 -0.062185246
0003d0 9e 30 c7 bd d4 c8 6a 3d 5e e2 1d bd b7 c6 a4 bd
       -0.0972607 0.05732043 -0.03854596 -0.08045714
0003e0 fa 5d 08 be 60 31 a1 bd bb 5b dd 3c 28 46 12 3d
       -0.13317099 -0.07870746 0.02702128 0.035711437
0003f0 35 c0 03 be 53 f2 67 bd f1 db a6 bc 63 b1 e3 bd
       -0.1286629 -0.056627583 -0.020368548 -0.11117818

bias_hh_l0 f4 [405]
000000 36 c3 c1 bc 5a 85 b9 3d c2 ed 93 bd 0b 26 e5 3c
       -0.023652654 0.09058638 -0.07223083 0.027972242
000010 5a 38 54 bd 5b 90 35 3c 1e 90 b2 bd aa 50 78 bc
       -0.051811554 0.01108178 -0.087188944 -0.015155951
000020 3b 2c 8b 3d 31 df aa 3d 39 0e c3 bd 63 67 b1 3c
       0.06795546 0.08343352 -0.09524197 0.021655744
000030 e6 d9 08 3d 8d a8 bd 3c 23 4b 25 be ce 4e af bc
       0.03341093 0.02315166 -0.16141944 -0.021399882
000040 b2 32 34 3c d0 bd c2 bd b7 16 3a bd 50 41 10 be
       0.010998415 -0.0950886 -0.04543182 -0.14087415
000050 f1 aa 6b bc fe f1 5e bd 64 4c df 3c e2 a5 c4 3d
       -0.014384017 -0.05443 0.027258106 0.09601952
000060 78 da bc 3d f8 44 95 bd 33 b3 a1 bd 3a dc 99 bd
       0.09221357 -0.07288545 -0.07895508 -0.07512708
000070 86 f7 65 bd 67 72 23 bd e9 64 e5 bd 18 1c 0b 3d
       -0.05614426 -0.039904024 -0.11200888 0.03396234
000080 56 a6 a4 bd fd ba 0d be 6c af 31 3b d0 17 04 3c
       -0.080395386 -0.13840862 0.0027112616 0.008062318
000090 65 fc 32 3d e7 a9 8f bd 72 d4 ee 3c 26 ee 5a 3a
       0.043697733 -0.07014828 0.029154036 0.0008351527
0000a0 f9 e1 ec 3d e0 15 9d bd fb ac b7 3c c2 24 a7 3d
       0.11566538 -0.07670188 0.02242135 0.08161308
0000b0 05 24 a2 3d d4 fc 97 3b b3 f1 9c bd e7 73 08 bc
       0.079170264 0.0046382938 -0.07663288 -0.0083284145
0000c0 7d 99 25 3d ca bc 12 3d e4 c7 0e bc 69 55 43 3d
       0.04042958 0.035824575 -0.00871465 0.047688875
0000d0 6c 36 61 3d 16 5f df 3c 3b 9e 66 3d fa 7a 0a 3d
       0.05498354 0.02726702 0.056303244 0.033808686
0000e0 d9 4b 84 3d 3e 23 12 be 8a bd fa bd ce 58 15 3d
       0.06459779 -0.14271256 -0.12243183 0.036461644
0000f0 1d 8d 57 3d 86 1e e3 bc 23 e2 3a bd 81 d5 89 3d
       0.05262481 -0.027724516 -0.045625817 0.06730176
000100 f7 e2 34 3c 23 8e 2b bd 2d 9d 00 bb 1f 00 f1 ba
       0.011040441 -0.0418836 -0.0019624934 -0.0018386877
000110 36 e9 b3 bd 5d 1a 93 bd 71 b2 27 bd 53 ae e0 3c
       -0.08784716 -0.07182763 -0.04094166 0.027426874
000120 3e 14 96 bd af 02 c0 3b 9c 10 e3 3c 8e 05 f4 3c
       -0.0732808 0.005859695 0.02771788 0.029787805
000130 17 3e 19 bb 00 a2 34 3c 37 d0 00 3d 24 59 5c bb
       -0.0023382956 0.011024952 0.03144857 -0.0033622468
000140 0e f4 91 bd 38 19 17 bd 10 0d ad bd 36 f4 04 bc
       -0.07126628 -0.036889285 -0.08449757 -0.008114865
000150 d5 67 c3 bd 61 12 e1 bc d5 2c 8f 3d 3e 5f c2 3a
       -0.09541289 -0.027474584 0.06990973 0.001482941
000160 27 14 82 bd ac db 56 3d e2 6a e9 3d 4f ab a7 bd
       -0.063515 0.05245559 0.113973394 -0.081869714
000170 f5 a2 45 3e e2 50 e8 3c 0c c1 8e bd b4 ee 96 bc
       0.19300444 0.02835888 -0.069704145 -0.01842437
000180 07 f7 90 3c 5e 48 2e bd 4b 06 19 3d 56 1f 8a bc
       0.017695917 -0.042549483 0.037359517 -0.016860645
000190 e7 f0 61 3d 04 73 a5 bd f5 2c 6b 3d 6a 4b 3b bd
       0.055161383 -0.08078578 0.05741592 -0.045726217
0001a0 6b 59 d3 bc af 62 29 bd 56 dc 50 3d 48 b8 45 bd
       -0.025799474 -0.041353878 0.05099138 -0.048271447
0001b0 67 71 ab 3d 7c 99 dd bd a9 bf f2 bc 2b 5c a2 3c
       0.08371239 -0.108202904 -0.029632406 0.01981934
0001c0 00 62 51 bc 3f c7 76 3d b1 16 8c 3d 78 f6 86 3c
       -0.012779713 0.06024861 0.068402655 0.016474947
0001d0 47 15 7f bd d4 77 cd 3d ac fe a4 bd a5 01 30 bd
       -0.06227615 0.10032621 -0.08056387 -0.04297032
0001e0 07 04 9b bc 08 78 45 bd 6d 51 d9 bd f1 f8 d0 3c
       -0.018922819 -0.048210174 -0.10611234 0.02550933
0001f0 fc 0b be 3d f2 60 95 bd ae 95 61 bd de 22 3b 3e
       0.092796296 -0.072938815 -0.055074386 0.1827502
000200 40 09 92 bd 91 64 a3 bd 1d 31 54 3c 4a 53 02 bd
       -0.071306705 -0.07978166 0.012951163 -0.031817712
000210 f0 6b bb bd ea c6 d8 3d 6e 38 c0 3d b2 35 e7 3d
       -0.09151447 0.10584815 0.09385763 0.112895384
000220 ed f2 34 be 91 4c 99 bd d7 b7 00 bd 4f 39 df bd
       -0.17670794 -0.07485307 -0.031425323 -0.108996026
000230 92 0e 01 bb e2 5f 16 3d e3 40 06 3e 01 1e f6 3c
       -0.0019692522 0.036712535 0.1311069 0.030043604
000240 5c 2b 98 bd c3 f0 36 bc 29 f0 4a bd 8f e5 d4 bc
       -0.07430145 -0.0111658005 -0.04954544 -0.025988368
000250 b6 e6 37 bd 1d 89 7b bd 20 fb 80 bc 4e e2 50 3d
       -0.044897757 -0.06141006 -0.015744746 0.05099707
000260 30 fa 53 bd d3 e1 ab bd 9c 4b 31 3d 91 51 fa bd
       -0.05175227 -0.08392682 0.043284997 -0.12222589
000270 62 35 bf 3c b0 24 df bd e9 3b 7d bd 1c 95 ef bd
       0.023340885 -0.108956695 -0.061824713 -0.11698362
000280 d7 e1 35 3d f4 b7 d6 3b b0 e1 ae bd fe 8b 81 3d
       0.04440483 0.0065526906 -0.0853914 0.063255295
000290 bf aa de 3b cd ad c3 b9 81 31 b3 bd a5 97 8b bd
       0.006795257 -0.0003732279 -0.087496765 -0.06816033
0002a0 98 98 04 bd 64 d7 5b bd 04 93 78 bd 3e 2f 2e 3d
       -0.032372087 -0.05367221 -0.06068708 0.042525522
0002b0 1b 81 b3 3d 7d 4c a6 3b 45 97 39 be fb 14 44 bc
       0.08764859 0.005075036 -0.18124111 -0.011967893
0002c0 0f bd dc 3c 1f f5 de bc 64 44 0a 3e 6a c5 63 be
       0.026945619 -0.027216492 0.13502651 -0.22243276
0002d0 99 67 95 bd 58 8f 76 3d 39 36 f7 bd f3 90 8d 3c
       -0.0729515 0.060195297 -0.12070889 0.017281031
0002e0 9d 8c c5 bd 22 c3 6e bd e0 23 17 3d 52 48 ee 3b
       -0.096459605 -0.058291562 0.036899447 0.007271805
0002f0 8f da af bd 61 13 09 bd c4 46 b3 bd 7d d9 b8 ba
       -0.085866086 -0.033465747 -0.08753732 -0.0014102902
000300 10 ec d2 bd 89 b8 2e bd 6f e4 27 3d af 71 a7 3d
       -0.102989316 -0.042656455 0.040989336 0.0817598
000310 b5 38 91 bd 1c ea 3b bb 2a 6e 7a bd f6 7b 3e 3d
       -0.07090894 -0.0028673476 -0.061140217 0.046504937
000320 85 15 16 3d 54 b9 b0 bc ae 8e ca bd c4 7e 97 3c
       0.036641616 -0.021572746 -0.09890495 0.018493064
000330 cc 9b fa bd 5a 7d 4d bd d4 cf 30 bc 2c e2 36 bc
       -0.12236747 -0.050168373 -0.010791738 -0.011162322
000340 8a 93 04 be b6 83 93 bd 36 75 8f 3d e6 65 8a 3d
       -0.12946907 -0.07202856 0.07004778 0.06757717
000350 36 95 32 be a8 aa f4 bc 04 18 98 3d 8f 75 aa ba
       -0.17439732 -0.029866531 0.074264556 -0.0013005006
000360 f9 42 ad bd 81 f1 aa 3a 68 46 c9 bd 17 bf 95 3d
       -0.0846004 0.0013041944 -0.09827882 0.07311838
000370 36 51 8c 3a 67 2b 27 3d bf a5 80 bd 6e 6c 1d bd
       0.0010705355 0.040812876 -0.062816136 -0.038433485
000380 49 e2 89 3a c3 64 09 be 61 c7 13 bd 88 99 15 be
       0.0010519709 -0.13417344 -0.036078814 -0.14609349
000390 e2 77 44 bd 78 6f d5 3d b4 47 a3 3d b5 d3 3f 3d
       -0.04796589 0.104216516 0.07972661 0.04683276
0003a0 82 b8 f3 3b 3f 0d c8 bd 9b 69 cb bd 2c 28 a8 3c
       0.0074377665 -0.097681515 -0.09932252 0.020526968
0003b0 50 d5 b2 bc f8 f3 c8 3d 9e fc 3a bd 52 5e 8f bd
       -0.021830231 0.09812158 -0.04565107 -0.07000412
0003c0 7f bc a5 3d fa 92 ec 3d c7 df e0 bc ec 16 a1 bd
       0.080925934 0.11551471 -0.027450455 -0.078657
0003d0 28 ef 80 bd 7d bb 8c bd 5f e5 f0 bd 07 5e f1 bc
       -0.062956154 -0.06871698 -0.11762499 -0.029463781
0003e0 40 90 3d be 5d e6 72 bd b2 28 62 3d d8 c7 7c bd
       -0.18512058 -0.059301723 0.05521459 -0.061714023
0003f0 30 fe 35 bd 9d b9 c3 bb 38 13 1b bd 3b 08 88 3c
       -0.044431865 -0.0059730546 -0.037860125 0.016605487

weight f4 [1, 4, 1, 12, 12]
000000 38 85 20 be a1 69 80 bc bc c6 47 3d 3e 85 99 3d
       -0.15675819 -0.015675368 0.048773512 0.07496117
000010 8c f4 0c be 82 62 da 3c 17 19 ee 3c 02 b4 24 3d
       -0.13765162 0.0266583 0.029064698 0.04021073
000020 82 88 16 3d 3a 2c 10 3d 70 05 8b bd 34 28 5b bd
       0.036751278 0.035198428 -0.067881465 -0.053505138
000030 dd 25 b2 bd 86 5a 0e 3d 8f 85 80 3c 12 69 b1 3d
       -0.08698628 0.0347543 0.015688686 0.08662619
000040 73 8f b3 3c ce 78 b2 bc 1a 1b d2 bc b7 5e c4 3c
       0.021918988 -0.02178612 -0.025647689 0.023970945
000050 04 2e 0a 3d 7a 54 8a bc 56 d3 32 3d 60 37 e0 bc
       0.03373529 -0.016885985 0.043658577 -0.027370155
000060 77 0e e2 bc 29 0f 4d 3d 97 d7 87 bc 5b 54 70 3d
       -0.027594788 0.050063286 -0.016582293 0.058674198
000070 27 ea 55 bd fd ca c9 3c 7e 22 81 3d fc c1 80 bd
       -0.05222526 0.024632925 0.06305407 -0.062869996
000080 cb 4a 08 3e f0 05 96 3d be fd 5c bd c4 bc 05 3e
       0.13309781 0.07325351 -0.053952925 0.1306029
000090 79 39 a1 bb e3 2f 1a bc e5 f1 eb bd b7 50 24 be
       -0.0049201814 -0.009410831 -0.11520747 -0.16046415
0000a0 50 92 03 bd 86 bc 51 3c 8e b2 f1 3b 18 e6 15 bd
       -0.032121956 0.012801295 0.0073760217 -0.036596388
0000b0 20 36 56 3d db ec a6 3d 40 71 79 3b b0 19 9a bd
       0.05229771 0.08150645 0.0038061887 -0.07524431
0000c0 32 05 19 bb 06 2d 7e bc 9d 2f 3e 3e 2f 81 1a 3e
       -0.0023349044 -0.015513664 0.1857285 0.15088342
0000d0 bd ca 00 bd 5d 96 cd 3c 20 66 74 3d 6a 88 a8 3d
       -0.031443346 0.025096113 0.059667706 0.08229144
0000e0 f7 59 bd bc 28 c4 01 be 2b 9a a9 3c e3 d8 79 3d
       -0.023114188 -0.12672484 0.020703396 0.060997855
0000f0 95 25 9a bd cc 55 98 bd 6d 39 17 3d d5 eb b8 3d
       -0.075266995 -0.074382395 0.03692 0.090293564
000100 64 8e 06 be 91 ee 18 bc 01 2a 52 3e 7d c3 db 3c
       -0.13140255 -0.009334222 0.20523836 0.026826615
000110 e1 4e 84 bd e4 a5 dd bc 96 44 a9 3b 5b 17 13 be
       -0.064603575 -0.027056642 0.005165647 -0.14364378
000120 be c3 36 3c 9b 25 80 3d 4b 45 cc 3d 7e 72 af 3d
       0.011155067 0.06257173 0.09974154 0.085667595
000130 97 33 c7 3d d5 a8 93 3d af f8 d8 bc 1b be 46 3d
       0.09726637 0.072099365 -0.02648577 0.048521142
000140 50 7d f3 bc 09 73 c0 bd ea f3 e7 3c 23 05 08 bd
       -0.02972284 -0.09396941 0.02831455 -0.033208024
000150 38 c4 37 3d aa f1 94 3d 3b 24 da 3d 9a 76 a6 3d
       0.044864863 0.07272656 0.10651442 0.0812809
000160 13 e2 44 3c e0 5e 16 be 5a 94 c3 bc 05 97 bb 3d
       0.012016791 -0.1468463 -0.02387445 0.09159664
000170 86 8f d3 bd 42 61 89 bc 44 49 9e 3d 6c c3 cd 3d
       -0.10330109 -0.016770009 0.07728818 0.100470394
000180 7b c7 41 bc 96 53 bd bc c2 0e cf 3d 2c 0d 0b 3e
       -0.011827345 -0.023111146 0.10110237 0.13579243
000190 46 99 c7 bc 07 70 90 3d a0 bb db 3c f9 ab a8 3d
       -0.024365079 0.070526175 0.026822865 0.08235926
0001a0 2e 86 e9 3c 20 3d 60 3d aa c0 10 bd 03 d2 57 3d
       0.028506365 0.054745793 -0.03533999 0.052690517
0001b0 28 6f ba 3d 5a 79 fe 3c 27 e1 c4 bd 8a 9a 07 be
       0.091032326 0.031063724 -0.09613257 -0.13242546
0001c0 f4 f3 ca 3d d4 0b 97 3d 1f aa 08 be 87 24 5b bd
       0.099098116 0.07375303 -0.13346146 -0.053501632
0001d0 f5 f9 cb 3d 99 8d 6b 3d e3 51 4b 3d 28 2a 85 bc
       0.09959785 0.057508085 0.04963864 -0.016255453
0001e0 42 b4 5a 3c c4 d7 ad 3d 67 de eb bc bb 95 e6 bc
       0.013348641 0.0848842 -0.028792573 -0.028147569
0001f0 8f 89 94 3c 5b ac 3f 3c fb 9c 98 3d e8 2c 51 bd
       0.018132 0.011698808 0.07451817 -0.051068217
000200 ef e6 79 3c 48 30 ab 3c a2 b5 dc bc 52 12 0c 3e
       0.015252813 0.020897046 -0.026942078 0.13678864
000210 fe 10 99 bd 6b 45 3b 3c 52 73 90 3b d4 2b 82 3d
       -0.07473944 0.011430125 0.0044082785 0.06356016
000220 26 ca 5a 3d 37 e6 30 bd c0 5f b2 3c 58 e1 ff bc
       0.05341544 -0.0431883 0.021774173 -0.031235382
000230 73 d6 6c bd 1b 81 c8 3a 02 97 1f 3d 7c 15 6d bd
       -0.057821702 0.0015297265 0.03896237 -0.057881817
000240 00 8d 63 3d 72 28 00 3d 0f 97 05 be 96 67 26 3c
       0.05555439 0.03128857 -0.13045906 0.010156533
000250 07 95 d4 3d 24 7e b9 bc a5 1c af bd d3 d7 4a bd
       0.10379987 -0.022643156 -0.085503854 -0.049522232
000260 b1 1c 67 3d 4d 52 e9 bc 08 d9 48 bd 58 13 3a 3d
       0.056423847 -0.028481627 -0.049035102 0.045428604
000270 43 7d f3 3d 32 ab 87 3a de 07 9a bc 63 89 6d 3d
       0.11889126 0.0010350703 -0.01880258 0.05799235
000280 9c c4 b1 bc db 4f 2c bc 21 af ad 3d 27 d9 0b bd
       -0.021700196 -0.010517086 0.08480669 -0.03414264
000290 c5 b5 2c 3d 02 21 aa 3d 61 e4 12 bd 1e 4e 1e 3e
       0.042165536 0.08307077 -0.03586233 0.15459487
0002a0 d3 4e a6 3d 0e 02 6b 3d fa 3a ec ba 39 fa 40 3c
       0.08120503 0.057375006 -0.0018022947 0.011778408
0002b0 5e 49 34 3d a5 24 99 bd 6c c2 8d 3c 4a 3f 4d 3c
       0.04401528 -0.074776925 0.017304622 0.012527296
0002c0 65 93 ff 3c 49 5e fa 3d cb 42 83 3d 79 de c0 bb
       0.031198213 0.12225015 0.06409224 -0.005885896
0002d0 0c 46 57 3d c6 be 51 be b1 fd d0 bd 20 91 42 bd
       0.052557036 -0.2048293 -0.10204638 -0.047501683
0002e0 35 f8 0f bc bf cc 1b bd 1d 4f 67 3d d9 66 ab bd
       -0.0087872045 -0.038037058 0.056471933 -0.08369226
0002f0 4e 2c 7a bd d2 c0 1d 3d 37 f0 87 bd b7 c1 5d bc
       -0.06107741 0.038513966 -0.06637614 -0.013534955
000300 c0 ac ed 3d b0 10 fc bc 0b 70 57 be e9 16 62 be
       0.11605215 -0.030769676 -0.21038835 -0.22079052
000310 91 5e b5 3c c0 a1 49 3d cc 61 d4 bd 9f db 45 be
       0.02213982 0.049226522 -0.10370216 -0.1932206
000320 98 91 2b 3e 58 78 4e 3e 7a 19 59 bc a0 59 db 3d
       0.16754758 0.20163095 -0.013250703 0.10710454
000330 33 76 c6 bd 51 26 05 bb 43 62 9b 3b 00 a4 2e 3d
       -0.096905135 -0.0020317028 0.0047419383 0.04263687
000340 31 f8 a1 3b 31 c8 29 3d ee 7e ae bd b4 96 69 bd
       0.004942917 0.041450683 -0.08520304 -0.057028487
000350 5a 1e 34 3b 98 e9 82 3d 0a ac a0 bd cb af b0 bb
       0.0027483911 0.06392211 -0.07845314 -0.00539205
000360 ff f9 a9 3d 79 a2 63 bd 92 12 cb bd 9c 29 f3 bd
       0.08299636 -0.055574868 -0.099156514 -0.11873171
000370 db 30 82 3d 55 d7 2a 3d ed 7a 90 bd 95 74 bd 3c
       0.06356975 0.041709263 -0.07054696 0.02312688
000380 e4 21 b5 3c 68 42 9c 3d 01 57 3c 3c b5 e2 e6 3c
       0.022110887 0.076298535 0.011495353 0.028184274
000390 9d 7a 7b bd c4 9a d9 bd 18 b3 08 bd a2 0f 76 3d
       -0.06139623 -0.10625222 -0.033373922 0.060073502
0003a0 d0 48 29 be 69 2e 8e 3c 08 a3 8b 3c 51 84 ad bc
       -0.16531682 0.017356114 0.017045513 -0.021181257
0003b0 b1 03 ac 3d 18 c2 2f 3d d9 97 8d 3c d9 e0 96 bc
       0.083991416 0.04290971 0.01728432 -0.018417763
0003c0 61 5f b6 3d 89 85 f1 3d ad 9d 3c be c7 2f 1a be
       0.08904911 0.11793048 -0.18419524 -0.15057288
0003d0 b5 68 0a 3e 56 90 6d 3e 30 e5 65 bd dc 10 5d be
       0.13516505 0.23199591 -0.056126773 -0.21588463
0003e0 94 a4 5a 3c a3 1c a4 3d 6c d0 43 bc 64 5a ba 3d
       0.013344903 0.080132745 -0.011951547 0.09099272
0003f0 23 2a 54 bd 7d 30 ae bc f3 3d a6 bd 07 4b 68 bd
       -0.051797997 -0.021263355 -0.081172846 -0.056712177

weight f4 [12, 12]
000000 11 04 94 3e f8 f9 61 be 8e 36 06 be 3a e5 bd bd
       0.28909352 -0.22068012 -0.13106748 -0.09272237
000010 f2 3d 20 3e 6f ed 04 3e 41 47 0a 3e 83 63 8c bd
       0.1564863 0.12981199 0.13503744 -0.06854918
000020 9b 16 42 be 7e 87 a2 3e 65 41 f9 3d 01 95 ce bc
       -0.18953936 0.31743997 0.12170676 -0.025217535
000030 9c dd 16 3e 0a 7c 38 be fd 7a 88 3e 50 bb 79 bc
       0.14732975 -0.18016067 0.26656333 -0.015242413
000040 fa 60 0d 3e 7f 9c 6b 3d 2c 35 65 3e 6b c9 9f 3d
       0.13806525 0.057522293 0.22383565 0.07802089
000050 a9 26 c0 be e5 bb b4 3d 7a 0e 73 3e 34 f3 c5 be
       -0.37529495 0.088249005 0.23735991 -0.38662112
000060 11 9f b2 bc 25 92 92 bd 40 01 82 3e 3e 30 96 3e
       -0.021804364 -0.07156781 0.2539158 0.2933368
000070 1d 5c 22 3e 1d a1 52 3e 3d 3b f3 bd 83 ab 67 be
       0.15855451 0.20569272 -0.11876533 -0.2262402
000080 71 d6 ba be 39 b6 55 be 64 22 37 3e 88 41 84 be
       -0.3649173 -0.20870294 0.17884213 -0.25831246
000090 22 b5 6d 3c fa 4b 15 be 12 7c 25 be b4 15 b8 bd
       0.014508517 -0.14579764 -0.1616061 -0.089885145
0000a0 31 27 99 3d 17 16 69 3d 7f 53 87 3d 36 26 0e be
       0.07478178 0.056905832 0.066077225 -0.13881764
0000b0 86 18 e4 3d e1 e2 8c bd ad 9e 72 3e c6 63 9f bd
       0.1113749 -0.06879211 0.23693343 -0.07782702
0000c0 1e a9 86 3e 55 2f 59 be 04 bf 17 be 9b be 84 be
       0.263009 -0.21209462 -0.1481896 -0.2592667
0000d0 7a a3 df bc 0a bb c1 3d bd 38 70 3d 2d 20 0a 3e
       -0.027299631 0.09459503 0.05864786 0.13488837
0000e0 c5 b6 6b 3d 53 fa 03 3e 26 84 54 be b7 cd 32 3e
       0.05754735 0.1288846 -0.20753536 0.17461286
0000f0 cf 9c 82 bd ff 32 1a 3e 69 98 fc bd 54 53 7d 3d
       -0.06377565 0.15058516 -0.123337574 0.061847046
000100 fd 2c 8e 3e ec d6 64 3d e7 91 73 be 65 26 1f be
       0.27768698 0.055869028 -0.23786126 -0.1554199
000110 b9 64 4b be 76 01 5e 3e d6 8a 3b 3d e8 2a bb bd
       -0.19862641 0.21680245 0.0457867 -0.09139043
000120 22 41 66 3c 23 f8 f2 bb c3 71 91 3c d7 f2 2a be
       0.014053615 -0.007414834 0.017754441 -0.16694199
000130 9f 81 cb bd 77 a6 ba 3d f9 46 c5 3d dc 2a 38 be
       -0.09936833 0.09113782 0.096326776 -0.179851
000140 09 34 fc 3d 90 54 5b 3e fc 22 59 be f8 50 7f 3e
       0.123146124 0.21418977 -0.21204752 0.24933231
000150 38 11 c2 bd b3 be 24 be 95 b1 37 3e f1 52 24 be
       -0.094759405 -0.16088371 0.17938836 -0.16047265
000160 da b6 6d 3d 84 a9 33 be a0 e9 80 3e 45 f3 53 3e
       0.05803571 -0.17545134 0.25178242 0.20698269
000170 60 c2 bd 3c d5 86 ac bc 9b 64 94 3d 99 85 9b be
       0.023163974 -0.021060387 0.072457515 -0.30375364
000180 a9 88 26 3e cd cf 6d 3b 25 2a b0 3e 05 eb 96 bd
       0.16263069 0.003628719 0.34407154 -0.07369045
000190 49 9c dc 3d 1c 8f 88 be a2 84 5e be c7 09 2c be
       0.107719965 -0.26671684 -0.21730283 -0.16800605
0001a0 2d 02 71 be 1d cd 77 be 97 c1 28 3e 13 00 2d be
       -0.23535986 -0.24199338 0.16480099 -0.1689456
0001b0 cf 20 69 3c 2b c1 98 be 37 2c b4 bc c5 90 6c 3e
       0.014229014 -0.29834875 -0.02199374 0.231021
0001c0 4f ef 8d 3e 3f c9 0d bc c4 5d 3a 3e 68 1f 75 3e
       0.2772164 -0.008653938 0.18199831 0.23937762
0001d0 2e 4e 66 be 7b 28 32 be f5 42 38 be b5 a6 c9 3c
       -0.2249076 -0.17398255 -0.17994292 0.024615625
0001e0 dd d6 05 bd 70 ff 2d 3e f8 1d d6 3d 26 60 63 be
       -0.032675613 0.16991973 0.10454935 -0.22204646
0001f0 4f 7d 9a 3e 12 e2 7f be f1 1c 2d be 47 35 60 be
       0.30173728 -0.24988583 -0.16905572 -0.21895324
000200 11 ed f0 3c f2 1e 12 3e c4 56 31 be 68 aa ad bd
       0.029409917 0.14269617 -0.17318255 -0.08479768
000210 5a 77 8f bd 30 d4 e3 3d dc 07 c8 bd dc 1e 0c be
       -0.070051864 0.11124456 -0.09767124 -0.13683647
000220 3d a3 d5 bd e4 5e 12 3e b5 a5 f2 bb e0 dc e0 bd
       -0.10431526 0.1429401 -0.0074050077 -0.109796286
000230 6e ea 60 3d dd 50 0c 3e 60 b8 e1 3d d0 d1 9a 3e
       0.05491107 0.13702722 0.11021495 0.302382

bias f4 [12]
000000 b5 23 46 3e 6c 86 80 bd 44 f2 a3 3d 16 f2 82 3d
       0.19349559 -0.06275639 0.08005193 0.063938305
000010 ae 45 56 bd 36 06 80 3e 6b f1 16 3e cd 00 85 3e
       -0.052312545 0.2500474 0.14740531 0.25977173
000020 42 13 65 be f0 93 50 3d 5b 8b 19 3e 45 16 44 be
       -0.22370628 0.050922334 0.14994566 -0.1914912

weight f4 [3, 12]
000000 35 e3 8e bc 9f c7 ff bd 6f 7a b4 bd 3b 2f 8a be
       -0.017442325 -0.124892466 -0.08812415 -0.2698916
000010 69 8a 16 be a3 fb d5 be 8d b7 7d be 77 ee 6f 3e
       -0.14701237 -0.41793546 -0.2477705 0.23430811
000020 d0 b8 a2 be f3 a0 5a 3d 1e 9f a1 be 6f ea 42 bd
       -0.31781626 0.05337615 -0.3156671 -0.047586855
000030 50 9f e3 3e 1f ea b0 be 4f ba de be a6 5c 37 3e
       0.44457483 -0.3455362 -0.43501517 0.17906436
000040 44 07 c9 3e da a5 c1 3e 67 72 2d 3e b4 46 25 be
       0.39263356 0.37821847 0.16938172 -0.16140252
000050 4d c4 d0 be 03 59 c6 be c5 de a6 3e 53 dd e2 3e
       -0.40774766 -0.38739786 0.32591835 0.44309482
000060 22 60 b9 be 71 00 82 3e 9b 1b 0c 3e 02 3c ac be
       -0.36206156 0.25390962 0.13682406 -0.33639532
000070 40 67 2a 3b 82 81 f2 bc b8 4d 04 3b 82 9d ba 3c
       0.0026001483 -0.02960277 0.0020187926 0.022780184
000080 bf 89 91 bb 04 e6 9c 3e ae 9a 33 be 91 9e e2 be
       -0.0044414694 0.30644238 -0.17539474 -0.44261602

bias f4 [3]
000000 7d 05 95 be 9a 16 84 3d ea 0d 55 be
       -0.2910575 0.064496234 -0.20806089

weight f4 [3, 12]
000000 f3 68 88 be ad 89 41 be d2 8d 52 be 21 75 62 be
       -0.2664257 -0.18900175 -0.20561913 -0.22114994
000010 2b 44 75 3c 19 ac b2 bd b2 2b 80 bc 22 9a 09 be
       0.014969866 -0.08724231 -0.015645836 -0.13437703
000020 e8 2e 87 3e 5b cd 81 3e 70 e6 93 be 9b f6 8d be
       0.26402974 0.25351986 -0.28886747 -0.27727208
000030 91 de f1 bd 89 e1 16 be 0c 35 b9 bd 05 3f 04 bb
       -0.11810029 -0.14734472 -0.09043321 -0.0020179164
000040 e6 4e 0d be e2 1e 2b be 67 d0 da bd 8d f1 f2 bc
       -0.13799629 -0.16711 -0.10684281 -0.029656196
000050 96 34 3b be 0f ea e3 bc c5 05 53 be 0b d3 22 be
       -0.18281779 -0.027821569 -0.2060767 -0.15900819
000060 3b 7e 23 be db 72 0e 3e f8 84 0f 3e eb 22 ed 3b
       -0.15966122 0.13911001 0.14015567 0.0072368286
000070 fe 97 83 be 2d 66 f2 bc 9d 6a 50 3e bc a4 fb 3c
       -0.25701898 -0.029589737 0.2035317 0.0307182
000080 d6 4c 39 3e 43 4a 83 3e 65 24 6a be cb ab 47 3e
       0.18095717 0.25642595 -0.22865446 0.19499128

bias f4 [3]
000000 3c 30 af be b9 87 83 3e fc a9 90 3d
       -0.34216487 0.25689486 0.07063672

weight f4 [3, 3]
000000 89 bb d2 be 52 d0 d0 3e da 2d d3 3e 38 3c b1 be
       -0.41158703 0.40783936 0.4124592 -0.34616256
000010 66 ba 8b 3d 5d e8 ba 3e 1d 79 b3 bd 84 36 cb 3e
       0.06822662 0.36505404 -0.08763335 0.3969003
000020 26 31 fb 3e
       0.49060935

bias f4 [3]
000000 1a 61 e3 3e e4 21 09 3f b9 be 07 bf
       0.4441002 0.5356734 -0.53025395
