data/best/output/poster/train/14_stemgnn.pt (torch, 435920 bytes, 73 tensors)

weight_key f4 [135, 1]
00000000: 7b73 82bb 579d 213e 0bd3 7bbe 6864 60be
00000010: b582 e9bd f6c6 a33d 1739 b9bb 019f 713e
00000020: c1a0 d7bc bc36 9f3d 5568 b8bd 600a 71bd
00000030: 43a0 91be 166c 49be 8567 fabd e266 3a3c
00000040: fd9e f03d 4097 363e 43fe 4dbe 1044 04be
00000050: 4cbb dc3d 6a11 7c3e 38be 7dbd 5eea 623e
00000060: d13a 47bd 6385 ff3c b50c 8a3e 0bb2 8cbe
00000070: 2718 3fbe edf0 98bd 018c eabd f607 843e
00000080: 3626 44be 1592 0bbe 33df 53be 2438 8ebe
00000090: 9d98 31be c9b4 823e 82b7 073e fb35 143e
000000a0: a853 823c 3802 1cbe 1eae 4c3d d55b 8ebe
000000b0: e622 5dbe 8582 1ebe e867 3f3e f1d9 313e
000000c0: 30d5 07be 6b9a 38bc f7ce 413e a038 973e
000000d0: fa47 f03d e7b9 243d aab8 4c3e 2d20 33be
000000e0: 85d7 5f3d ea45 6dbe ad9f 53be 1c78 1dbe
000000f0: efcb 083e 6a52 f23d 8031 36be 5e40 b63d
00000100: 91aa 253e e277 21bd 76d1 1f3c 85dc 8a3d
00000110: 54e2 3b3e 6555 913e 55da 6bbe 0719 e2bd
00000120: 486d eb3d a9a9 7a3e c16e 833e d143 853e
00000130: 1bd6 6e3d f463 84be 0ca5 de3c 1130 3fbe
00000140: ceab 8ebe 8de6 863e 71c8 663e 46c2 97be
00000150: 4b82 643d b35e 4fbd 1c0a 4ebd e2fd 0bbe
00000160: 75e5 e63d 880d 35be 5db3 dd3d 44d6 183e
00000170: ecea 583e 14e2 e03d 6f47 97be 380e 47be
00000180: 1f5d 173e 68a2 7e3d 9c2e 6dbe d40d 2fbe
00000190: 0cc5 8e3e 721b 4b3e 9e21 06be 7152 99bd
000001a0: b463 90be 7bba 94bb ae1c 64be 7f8f 69be
000001b0: 4b75 80bc 23f4 383d 24e2 f7bd 7045 353e
000001c0: 6915 39be cdae 893e 060c 4f3e 6528 81be
000001d0: 0205 98bd 78ff 4a3c fc4f 2a3d 187f 8c3d
000001e0: b52f eb3d 90ec 823c 56ef 15be d40d 0f3e
000001f0: 1a78 92be cb45 35be afad 9bbd c1b5 15be
00000200: 4955 d6bd 193d 79be 9efb 80bd ca56 833d
00000210: 5cb6 45be da3a 81bc 9664 583e
-0.0039810515 0.15782677 -0.24592225 -0.21913302 -0.114018835 0.07996933 -0.0056525576 0.23595811
-0.02632177 0.07774112 -0.09004275 -0.058847785 -0.28442582 -0.19670138 -0.12226776 0.011377068
0.117490746 0.17831135 -0.20116524 -0.12916589 0.107779115 0.24616018 -0.061948985 0.22159716
-0.048640076 0.031191533 0.2696282 -0.27479586 -0.18661557 -0.07467828 -0.11452485 0.25787324
-0.19155201 -0.13629945 -0.20690612 -0.27777207 -0.17343374 0.25528553 0.13253596 0.14473717
0.015909031 -0.15235221 0.04997074 -0.27804437 -0.21595344 -0.15479477 0.18691981 0.17368294
-0.13264918 -0.011267285 0.18926607 0.2953539 0.117324784 0.040216353 0.19992319 -0.17492743
0.054648895 -0.23171201 -0.2066638 -0.1537785 0.13359044 0.118321255 -0.1779232 0.08898996
0.16178347 -0.03942097 0.009754529 0.06780342 0.18348056 0.28385463 -0.23032506 -0.1103993
0.11495453 0.24478783 0.25670436 0.26028302 0.058309656 -0.25857508 0.02717831 -0.1867068
-0.27865452 0.2634777 0.225374 -0.29640406 0.05578832 -0.05062742 -0.05030261 -0.13671067
0.11274234 -0.17680943 0.108252265 0.14925486 0.21183366 0.10980621 -0.29546687 -0.19439018
0.14781617 0.0621666 -0.23162311 -0.17095119 0.2788471 0.19834688 -0.13098761 -0.074864276
-0.28201067 -0.0045388318 -0.22276565 -0.22808646 -0.01568093 0.045154702 -0.1210368 0.1770227
-0.18074574 0.26891175 0.2021943 -0.2522613 -0.0742283 0.01239001 0.041580185 0.06860179
0.11483709 0.015981942 -0.1464208 0.13970119 -0.28607255 -0.17702405 -0.07601487 -0.14620115
-0.104654856 -0.24339713 -0.06297992 0.06413038 -0.19307846 -0.015775133 0.2113212

weight_query f4 [135, 1]
00000000: bf76 91bd 4c0f a139 9ba7 953d e089 3f3e
00000010: d231 a43e 70a2 d23e 5480 a13e 000a d03e
00000020: 465b ce3d 149d 15be 1eff adbc 6083 a43e
00000030: b1f2 ee3d cb88 f0bc 4ae1 e0bd 2e5a 24be
00000040: 59b9 08be 3576 673d df2b 8f3e a7f7 8d3e
00000050: 506d 2dbe 06da 9a3e b8b6 eabd 134d 613d
00000060: fffc 1bbb 0ee8 7a3d 04a9 763d b5ba 17be
00000070: 50c8 0dbe 30c7 913d 1518 f83d 2836 91bc
00000080: 2843 6a3e 0d48 19be 250c c73d cfb2 c13e
00000090: bd62 77bb 1832 c53e 76ab 663e d78b 19be
000000a0: b5db 9c3e 851a ac3d b808 64bc b851 b63e
000000b0: 6742 f8bd 9843 1a3e 5d2d 683d 9893 a93e
000000c0: 847f 4e3e 15e4 853e 575a 653e a18a 423d
000000d0: f510 673d 4a52 01be 3405 8f3e c27c b53e
000000e0: 3ac8 a43e 6c1e babd af0d 073e 07fc b9bd
000000f0: 50af 38bd 98a9 5fbd e251 613e 4308 70bd
00000100: f0b2 e53d ce5a 063e 00bb 9e3e 8a17 d9bd
00000110: 4902 aebd 6e9a 5bbd 873a a73e e3a2 493c
00000120: 4e33 bd3e 057d 683e edc7 203e 1777 ef3d
00000130: b32e 763d 0d3a 1f3e cbca 4f3d 6b96 ee3d
00000140: 6247 203e 7af8 e8bd ea17 19bd 4185 b73e
00000150: aec5 f9bd 7e3d c73d bd16 d33e f99c 673e
00000160: e663 023e 9a2a 0ebe f250 883e 2f55 bcbd
00000170: edaa 0e3d 8c97 9f3c ad90 993d 9385 fa3d
00000180: 461e ba3e ad02 1f3e b2c0 c43e 2375 993e
00000190: 6a83 8ebd ccbd 803e 3015 bcbd 185b f2bb
000001a0: 3111 533e c16c 5e3e 42c3 ae3e 521d ba3c
000001b0: 2324 f43d 6012 8b3e 0bda 2cbe 0b74 aa3e
000001c0: 7a51 02be e418 fb3d f22c 8b3d 6f70 1bbd
000001d0: c762 213e 5186 ba3e af7f 023d bcb6 6cbd
000001e0: 41a5 103c cc90 33be f64d 813e 2638 c2bc
000001f0: 6f05 a3bd beca 58bd fc05 943e 2b03 8d3e
00000200: ea1d b13e 546c 673e 4e14 9d3c 9822 113d
00000210: da77 533e f376 bb3e 70ba 503e
-0.07102727 0.0003071971 0.07307359 0.18704939 0.3206926 0.41139555 0.3154322 0.4063263
0.10076003 -0.14610702 -0.021239813 0.3213148 0.116673835 -0.029362103 -0.109804705 -0.16050026
-0.13351955 0.056509215 0.27963158 0.27728006 -0.1693623 0.30244464 -0.11460632 0.055005144
-0.002380192 0.06125646 0.06021978 -0.14817317 -0.13845944 0.0711807 0.12113968 -0.017726019
0.2287718 -0.14968891 0.09719113 0.37831733 -0.0037748062 0.3851478 0.22526345 -0.14994751
0.30636373 0.08403496 -0.013918094 0.3560922 -0.1212204 0.15064847 0.056683887 0.33120418
0.20165831 0.26150575 0.22397743 0.047495488 0.056412656 -0.12629047 0.27933657 0.35446745
0.3218401 -0.09087834 0.13188814 -0.090812735 -0.045089066 -0.054605097 0.22003892 -0.05860163
0.1121577 0.13120577 0.31002045 -0.10600193 -0.084965296 -0.053614073 0.3266184 0.012306902
0.36953205 0.22703941 0.15701266 0.116926365 0.06010313 0.15549488 0.050730508 0.11649784
0.1565223 -0.11375518 -0.03737632 0.35843852 -0.121959075 0.097285256 0.41228285 0.22618474
0.1273342 -0.13883439 0.26624256 -0.09195935 0.034830976 0.019481443 0.07498298 0.122325085
0.36351222 0.15528364 0.38428265 0.2997218 -0.06958659 0.25144804 -0.09183729 -0.007396113
0.20612027 0.21721174 0.34133345 0.02271906 0.11920955 0.27162457 -0.16880052 0.3329166
-0.12726393 0.12260607 0.06795682 -0.037949022 0.15760337 0.364306 0.03186005 -0.057791457
0.008828462 -0.17535704 0.25254792 -0.023708414 -0.07960021 -0.052927725 0.28910816 0.2754148
0.34593135 0.22599918 0.019174721 0.03543338 0.20651188 0.3661419 0.2038362

weight_ih_l0 f4 [405, 3]
00000000: ba25 81bd dcdc 80bd afe6 d4bd afaf 7b3d
00000010: 8cb3 abbb 9382 09bd a5ae 923d 1358 71bd
00000020: c31c 44bc 770e 5c3c 4014 0abc ed58 8dbd
00000030: 8ee4 20bb 2b3b 0b3e 103c a73d f90d f73d
00000040: 2fad a43c 20e7 9a3d b354 e6bc 5fef 48bc
00000050: 44e4 79bd 94bc e13c fce3 d63c 47c5 39bb
00000060: c666 45bd dc89 a7bd 9369 fd3c b06c 22bd
00000070: bfe6 6f3d fb81 d2bb 816f 18bd fb5b a33c
00000080: 4115 25bd dd95 e53d 6b96 e03d c0d9 ee3c
00000090: a416 fb3c b2b1 5a3d 6b14 513d fafa 23bd
000000a0: dcd9 ccbd 7002 30bd 8f10 c73d 42db 123d
000000b0: faad cc3d ed37 753d a38f 2bbd 70a7 893b
000000c0: ef4b 91bd fa35 cdbd 76dd ccbd 0bc8 c03d
000000d0: 0ac6 813c 5be9 b83d 3012 bf3d b51f e63d
000000e0: e224 b13d b68c cf3d b44c 053e c47c 453d
000000f0: 6be3 a93c 434d 9b3c 83cb 373e 7b3e 4a3d
00000100: 1036 84bd 59bd e93c cd12 ac3d 64c2 d73d
00000110: 5506 c23d b83d 3c3d a858 25bd 5cd2 4fbd
00000120: bf4e e43d ecd1 b63d 9bcb 2fbc c12d 9c3d
00000130: a7aa 263d 18e3 3b3d 36c0 9abd 0236 313b
00000140: fb50 57bd d6bb 8e3d b851 50bc d43a 153d
00000150: e11b eb3a c8e8 bd3c bb8e 2ebd 6f82 21bd
00000160: a37b 10be f244 7cbd 3a0d ffbd 5be0 1abe
00000170: 77dd 0abe 546d 123e 8b73 f93d 40fc 1f3e
00000180: af4e 0e3e 57b0 d6bb cb6a 3f3c 7bc9 1d3b
00000190: 3cbf 22bd 9d1f 9b3d 5f5c 44bd 1dde cfbc
000001a0: 7759 88bd b666 04bd 9c1e b33d 91af b23d
000001b0: a3e6 63bc 55f3 10bc 0faf b43a 8c5b e1bd
000001c0: 8551 4ebd e062 3dbc 6557 903a 56c4 703d
000001d0: ff11 903c 5d28 ae3d 6b2c 173b 8d38 973d
000001e0: 3c1f dd3c a3c7 5dbb cb01 01bd de2e d5bd
000001f0: a870 fabd 4c32 9b3a 4ab6 563d f03f 9abc
00000200: 3b7e 72bd a171 5f3d 03f3 2d3d e99a ddbb
00000210: e16c f7bc f082 b73d cdac 3b3d d91f 893c
00000220: ed80 283e f752 173e 7024 46bc 1e69 8a3d
00000230: 096a f3bc c221 f33b dd1e c03d 75ad c53c
00000240: 5c92 6dbb 68bf fe3c b874 153d c84d 413c
00000250: dd94 123d d882 db3d 6916 183c 41b8 46bd
00000260: dd8a 133c 84a4 353d cdfb 3b3d d464 9abd
00000270: 9699 22bb b2a8 50bd 5e09 c2bc fe4b 223d
00000280: 5bb6 5abd a5a5 223d d0fa c83d 0f92 fb3c
00000290: 75b5 04bd 58f9 6cbd e07b 05bc 0263 bdbd
000002a0: 34db 9c3c fd65 d0bd e2fd d9bd cead a9bd
000002b0: e222 88bc 87d8 6f3d 98e9 35bd 16ed dd3d
000002c0: 2510 143b 315d 56bd a5cf 94bd f5d8 1cbe
000002d0: 51ae aa3d 4469 713d 9fc4 c83d c174 9d3c
000002e0: 0fc6 a5bd ddb3 433d fa17 4ebd 2575 68bc
000002f0: 86fc fdbd ae0b 08bc cb43 8bbd 47bf 8bbc
00000300: d888 f5ba 9bc3 b2bd fa5d 003c 3d99 063e
00000310: 948a c93d 608a ef3c 8ba9 7f3c 68cb 653d
00000320: 02cd f63d 9ea9 d83d 00e1 8f3d 99c2 313c
00000330: 692d 863b 3e65 e2bd 8167 ccbd 7160 953d
00000340: 1098 82bc 0dda 973d 0b49 87bd e346 43bd
00000350: 57ce 9abd f3a5 033e a5fe 993d 1ef0 193e
00000360: 9c8f d23d 9266 c73d 441a 573d 8bf1 34bd
00000370: c536 15bd 8b39 d8bb c274 9e3c b0dd aabd
00000380: ea39 493d 3c9d bcbc 45ac afbd 2358 77bd
00000390: b31d 953d ebcd 993d 40fb aabd 4b0b c43d
000003a0: d168 a03d d5c6 b03d 9bf4 e63d fc94 aebb
000003b0: 6983 8f3d 4b30 a33c f73d 25bd 34a4 673c
000003c0: 3717 fe3b 249e af3d 4d31 083c 50ce 56bc
000003d0: a17f 273d 22cd 4c3d c8a3 94bc 5aee 003d
000003e0: 7cfb 963d f7c7 d7bc 1ae7 0a3c 34e8 1dbd
000003f0: 310f 463c ca6b a4bd 15cb 8cbd 9601 e1bc
-0.06306024 -0.062921256 -0.10395562 0.06144684 -0.0052399095 -0.03357179 0.07162217 -0.058921885
-0.011969748 0.013431183 -0.00842768 -0.06901727 -0.0024550292 0.1359679 0.08165753 0.12063212
0.020102112 0.07563615 -0.02811656 -0.012264102 -0.061008707 0.027555741 0.026231758 -0.0028346346
-0.048193716 -0.081805915 0.03093413 -0.039654434 0.058569666 -0.0064241863 -0.037215713 0.01994132
-0.040303472 0.11210225 0.1096619 0.029156566 0.030650444 0.05339212 0.051044863 -0.04003427
-0.10002491 -0.042971075 0.09719955 0.03585363 0.09994121 0.059867788 -0.04188503 0.0042008683
-0.07094561 -0.10020061 -0.10003178 0.09413155 0.015841503 0.09028884 0.09329641 0.112365164
0.08649613 0.1013426 0.13017541 0.04821469 0.020738324 0.01895774 0.17948727 0.049375992
-0.06455624 0.02853267 0.084020235 0.10535124 0.09473864 0.045957297 -0.040367752 -0.050737724
0.11147832 0.08926758 -0.010729696 0.07625914 0.04069009 0.04587087 -0.075561926 0.0027040248
-0.052567463 0.069694206 -0.012714796 0.036433056 0.0017937386 0.023182288 -0.042616587 -0.03943103
-0.14109664 -0.06158919 -0.12453695 -0.15124647 -0.13561045 0.14299518 0.12180241 0.1562357
0.13897203 -0.006551783 0.011683176 0.002407639 -0.039733157 0.07574389 -0.047939654 -0.025374467
-0.06657689 -0.032324515 0.08746073 0.08724893 -0.013909969 -0.008847077 0.0013785082 -0.11003789
-0.05037071 -0.011559218 0.0011012374 0.05878099 0.017586706 0.085037924 0.0023067247 0.07383833
0.026992433 -0.0033840917 -0.03149585 -0.1040933 -0.12228519 0.0011840551 0.05241994 -0.018829316
-0.059202414 0.054551724 0.042468082 -0.0067628515 -0.030203285 0.08960521 0.045819093 0.016738819
0.16455431 0.14777742 -0.012093648 0.06758331 -0.029713647 0.0074197957 0.09380887 0.024130562
-0.0036250567 0.031097129 0.036488265 0.01179833 0.0357865 0.10718316 0.009282687 -0.048515562
0.009005276 0.044346347 0.045894433 -0.07538763 -0.0024810783 -0.05094213 -0.023686107 0.039623253
-0.053396564 0.039708752 0.09813464 0.030709295 -0.032399613 -0.05785498 -0.00814721 -0.092474
0.019147493 -0.10175703 -0.106441274 -0.08285104 -0.016618196 0.058556106 -0.044412225 0.10836236
0.002259263 -0.052334968 -0.072661676 -0.15317138 0.083340295 0.05893828 0.098031275 0.019220712
-0.08094417 0.047778953 -0.050315835 -0.014188086 -0.12401681 -0.008303566 -0.0680004 -0.017058982
-0.0018732799 -0.08728715 0.007834906 0.13144393 0.09840885 0.029240787 0.015604387 0.056102186
0.12050821 0.10579227 0.07025337 0.010849618 0.004094769 -0.11054467 -0.09980679 0.07293785
-0.01594165 0.07414637 -0.06605729 -0.047675025 -0.075588875 0.12856273 0.07519273 0.15033004
0.102812976 0.097363606 0.052515283 -0.044175666 -0.036429185 -0.0065986565 0.019342784 -0.08343065
0.049127497 -0.023024194 -0.0857778 -0.060386788 0.07281055 0.07509979 -0.083487034 0.095724665
0.07832492 0.08631674 0.112771235 -0.005327819 0.070074864 0.019920489 -0.040342297 0.01413827
0.0077542323 0.08575085 0.0083125355 -0.013110712 0.0408932 0.050000317 -0.018144503 0.03147731
0.073721856 -0.026340468 0.0084779505 -0.038551524 0.012088583 -0.08028372 -0.06874672 -0.027466577

weight_hh_l0 f4 [405, 135]
00000000: 1675 803d 7216 a63d f08f 7bbd 678d 053e
00000010: 3c1c 9cbb 0aa2 a23c 9b18 1a3d c78c 67bd
00000020: 1b6d 42bd 4e31 fd3c f46e 943d e809 1dbd
00000030: fa9d cfbd d1f6 003d 5c3b a23c e2f7 e63d
00000040: 7ccc ddbd 1086 d8bb 6f3e 64bd 8794 b1bd
00000050: a7b9 73bc 799b 89bd 8140 903d b498 9fbd
00000060: 769c a93d f5ae f0bc f77c 123d 7921 11be
00000070: f835 8abd 6a97 8dbc 9a6f 33be c3e9 be3c
00000080: 1576 3c3c 785d 413b 2f74 e9bd 6864 cd3d
00000090: 2e18 4a3d 60e6 acbc 07c4 02bd b3b4 653d
000000a0: b785 2b3e f632 b6bd 5969 e9bc 7e44 443c
000000b0: c8ed bcbd 77df f63d 1ddb a6bc 5b70 ad3d
000000c0: 9448 f7bc ddcf 1dbd 38e0 56bd 664f 4dbd
000000d0: cf8d 903d 8c7e af3d 7036 56bd 4a52 dc3d
000000e0: 9449 d63c 80e7 623d 5664 bb3d 307d 7a3d
000000f0: fbaf 673d df14 e4bc 054e 77bd 69e0 553d
00000100: 5c7a 933c 1a8e cdbc 9484 a43c d2a3 3a3d
00000110: 4c06 67bc 6dcd c5bd 6a8f babc 3ca7 50bd
00000120: f7a9 d2bd ddc9 9b3b 4b7a 9e3c e433 a03c
00000130: 0096 7b3d 8efe 85bd edf4 93bd c46a de3d
00000140: 9da4 f53b 7148 1ebd 25bd 68bd c20a c6bd
00000150: d905 423c 80c1 c9bd c77d b63c 338c b03d
00000160: 5978 bcbb bb7a a7bd ab41 7b3d a72a b23d
00000170: a075 06be 63ef 5f3d abaf 143c c636 ab3c
00000180: 004e 24bc 2b33 97bd 3312 cf3c 95d6 413d
00000190: e083 41bd 480c 91bd 74ed 313d e659 923d
000001a0: 7627 7e3d e80b a13a aa8c 3f3d 6aee 193b
000001b0: 8db5 973c 3d44 8a3d 445b b6bc 5b66 08bd
000001c0: f096 dabc c84c 5abd 8d8b 9a3c 7cea 75bd
000001d0: 74d2 9c3d 15eb 8ebc c72e 573d 43ec b23d
000001e0: ab6b 0c3c bcec 59bc c0ad 713a adb2 84bd
000001f0: 20ea 8c3d 5699 febb 1b0a 0fbd 5a21 c3bd
00000200: f2ad 733d c401 c6bd 3ac5 473c 8fa0 a83c
00000210: 27e8 afbd 6061 e6bd 4f09 85bd f349 623d
00000220: d99f 0dbe 4077 0ebe bbde a53c 9b6c 6cbc
00000230: 4e76 ba3d 6083 ec3c 0a2a 99bc 688a 153b
00000240: 45db c8bc a1a9 c3bd c800 67bd 1d50 923d
00000250: 5859 4fbd 7e3c f5bd dce6 28be b08f 5c3d
00000260: 2e18 493d 7276 173e 38c4 a7bc c460 cabc
00000270: ec6f 09be 100d d6bd 19e5 9c3c 7f6b 9ebc
00000280: 2a95 3dbd 7487 a7bd ee32 b33d ee14 13bd
00000290: b525 05be 848f 61bc d651 97bd 50ab 19be
000002a0: b4d5 04be 12de 0c3e 24e8 a0bc 05f3 a53d
000002b0: cdc4 16bb 419c cabc ff82 fb3d 50c1 d4bd
000002c0: 86f3 ffbd 2ef8 913c 7661 d23c f808 5e3d
000002d0: efb4 49bb 956f 13be e1db c93b a139 843d
000002e0: 5d94 323d 30c7 c23d 8ffa eb3d e599 0abe
000002f0: 883c fabc b957 c83d 8e30 e2bd e280 0e3c
00000300: 914b fdbd abd1 9dbc a549 86bd 92c3 e4bd
00000310: 399e 7a3c 97b9 9d3c ece5 1abe 3d59 aabd
00000320: cc72 14be 33d2 04be 043d 683b aa10 0cbd
00000330: d128 273a d802 f63d c67e f63c fe31 4dbd
00000340: 7ee8 07be b98a 29bc e30c 953d 9289 113d
00000350: f792 fb3d 26b9 2ebe d2d3 2dba 01b1 b2bc
00000360: 5d19 a2ba 2858 4a3d 1003 ffbb fab0 24bc
00000370: f8dc 18be 07cd ab3c e797 2bbe 64dd 4dbd
00000380: bdf0 983d 8123 de3c a7c9 703d 5502 873d
00000390: bd5a bbbd 95cc 323d ae57 0d3c 4674 bc3c
000003a0: 1564 b23d 1159 013e 13f8 18be d441 223c
000003b0: 6393 ae3c 4a9c 15bc 510f a2bd a9a0 093c
000003c0: 0b7e ecbb 8bf0 d93d dc53 3bbe 2187 6ebd
000003d0: 18d8 f2bc f053 8b3d 201c d93c 5fc3 ed3d
000003e0: 1335 6b3d 7cf2 d7bc 1d8b 3cbd 9c64 8dbc
000003f0: b6cb 973c d47c cf3b 5326 ac3c 71a7 b139
0.06272332 0.0810975 -0.061416566 0.13042222 -0.004764108 0.019852657 0.03762112 -0.05653074
-0.047467332 0.0309073 0.07247725 -0.038339525 -0.101375535 0.031485382 0.019803695 0.11277749
-0.10830018 -0.0066077784 -0.055723604 -0.086709075 -0.014875806 -0.06719107 0.07043553 -0.07792798
0.08281796 -0.029380301 0.035763707 -0.14172925 -0.06748575 -0.017284114 -0.17523041 0.023304826
0.011502762 0.0029505175 -0.113991134 0.100289166 0.049339466 -0.021105945 -0.031925227 0.05608053
0.16750227 -0.08896439 -0.028492616 0.01197922 -0.09225041 0.12054341 -0.020368153 0.08468696
-0.030185975 -0.038528312 -0.052459925 -0.05012455 0.07058298 0.08569059 -0.05229801 0.10757883
0.026158132 0.055396557 0.09149997 0.061154544 0.056564312 -0.027841983 -0.06037714 0.052215967
0.018002681 -0.025092173 0.02008275 0.045566387 -0.014100622 -0.096583225 -0.022773463 -0.050940737
-0.102863245 0.0047542886 0.019345423 0.019555993 0.061422348 -0.06542693 -0.0722445 0.10860208
0.00749643 -0.038643304 -0.056821007 -0.09670021 0.0118422145 -0.0985136 0.022276772 0.08620491
-0.0057516512 -0.08177706 0.061341923 0.086995415 -0.13130808 0.054671656 0.009075086 0.020900141
-0.010028362 -0.073828064 0.025277233 0.047323782 -0.047244906 -0.070824206 0.043439344 0.07146053
0.06204935 0.0012286874 0.046765007 0.0023488053 0.018519187 0.06751297 -0.022260316 -0.03330074
-0.0266833 -0.05329588 0.018865371 -0.060038075 0.07657328 -0.01744608 0.052534845 0.087364696
0.008570592 -0.013301071 0.0009219311 -0.06479392 0.06880593 -0.007769744 -0.034921747 -0.09527846
0.05949206 -0.096683055 0.012193019 0.020584373 -0.085892014 -0.112490416 -0.06495916 0.055246305
-0.13830508 -0.13912678 0.020247808 -0.01443019 0.09104596 0.028871238 -0.018696804 0.0022818092
-0.024518618 -0.095538385 -0.05639723 0.07144187 -0.050622314 -0.119744286 -0.16494316 0.05384797
0.049095325 0.14791277 -0.020479307 -0.024704345 -0.13421601 -0.1045171 0.019152211 -0.019338368
-0.046284832 -0.081801325 0.087499484 -0.035908632 -0.13002665 -0.013767127 -0.07388656 -0.15006757
-0.12972146 0.13756588 -0.019641943 0.08102993 -0.0023005486 -0.02473271 0.12280845 -0.10388434
-0.1249762 0.017818537 0.025681239 0.054207772 -0.003077801 -0.14398034 0.006160245 0.06456304
0.04359852 0.09510648 0.115224 -0.13535269 -0.030546442 0.09782357 -0.11044417 0.00869772
-0.12367929 -0.019265017 -0.06557015 -0.111701146 0.015296512 0.019253535 -0.1512677 -0.08317802
-0.14496917 -0.1297081 0.0035436759 -0.03419558 0.00063766266 0.12012261 0.030089747 -0.050096504
-0.13272282 -0.010348015 0.072778486 0.035531588 0.12283891 -0.17062816 -0.000663099 -0.021812918
-0.0012367178 0.04940048 -0.0077823475 -0.01005196 -0.14928043 0.020971788 -0.16757165 -0.050259963
0.07467792 0.027116539 0.05878606 0.06592242 -0.09148166 0.043652136 0.0086268615 0.023004662
0.087104954 0.12631632 -0.14938383 0.00990339 0.021310514 -0.0091315005 -0.079130776 0.008400121
-0.007217174 0.10641583 -0.18293709 -0.058234338 -0.029644057 0.06803119 0.026502669 0.1160953
0.057423662 -0.026360743 -0.046031106 -0.017259888 0.018529754 0.0063320193 0.021014368 0.00033884824

bias_ih_l0 f4 [405]
00000000: 8535 bdbc 67af e73d a968 f1bb 5724 a93d
00000010: 89db e5bb 4439 eb3c a1af 1fbd 595b 32bd
00000020: a902 f33d a6bf 7a3d 403d c5bc 2bdb 1e3d
00000030: 489c 1f3d c29e 6fbd 9d56 1abe d1ca fe3c
00000040: ddc1 ddbd be53 15bd 109b d7bd eb38 b6bd
00000050: 3e51 ddbd f677 8ebc 2563 153c 3e39 ef3d
00000060: e343 043d f6eb a3bc df7b e5bd bea9 d1bd
00000070: cc41 a3bd 3276 1abe 58c8 103c e6d7 703c
00000080: 52ed 6e3d 66cc afbd 3faa 06bc 0490 5d3d
00000090: b810 43bd 47a7 d0bd 1b4c 6cbd 3574 a03d
000000a0: b255 8a3d f411 233d 95ec f0bd ca5c 923d
000000b0: 8810 473d 7214 4eb9 3f58 173c 642b b4bd
000000c0: c999 653d 2134 793c 60f5 a03c f7b4 25bd
000000d0: 871b 9f3d a984 373c b84e b73d 0666 a7bd
000000e0: 3be9 853d f15e 92bd 8cf0 efbd 8e66 923d
000000f0: e8f7 d2bc 484c efbc cbf3 bcbd 3dbd d83d
00000100: 6456 8b3c d6b1 a0bd af6f bbbd 054c a6bd
00000110: 2e1d 78bd c199 86bc 1549 63bc d54e d63d
00000120: aac0 92bd 685d 05bd 82b5 0c3d c4a9 0b3d
00000130: a5fe 21be 0182 d43c ea72 ae3d 3444 c1bc
00000140: f3ff c1bd bbc7 753c d398 c2bd 1625 4c3d
00000150: ebc7 a7bd f3b6 50bd b0ab b3bd d3d4 fcbd
00000160: 0de2 42bc 6853 ac3c 7d16 833d a73b f43c
00000170: a757 b63d 5a53 313d 4adf 2c3c 00f3 963c
00000180: 6f1e 763c b0ce 93bd f876 38bc 1101 de3c
00000190: b65f 0c3c bcb7 873c d84b 903d eee9 d3bd
000001a0: 3021 033e 9b94 223d bf6e b3bd d48f 4e3d
000001b0: cf9f 233d c81b 80bd 0661 703c 40f7 4dbd
000001c0: 45b5 a93c ec31 eb3d e92d e13d e35e f53c
000001d0: 9220 bebc 3f53 f03d 2196 143d e60d 053d
000001e0: 49ee 0dbe e5fb fabc 3343 6e3c 0983 da3c
000001f0: 0239 293e 5f04 983c 10e6 ae3c d871 393e
00000200: fa04 9bbd 9cd7 033d 1b09 3c3d 9c1e ecbc
00000210: 7b87 25bd 89a4 0f3e 44a5 833d 1e9b 1c3e
00000220: f474 33be 4e03 b5bd 7cb6 8f3d a57a adbd
00000230: 0b5e ad3d b69b 0d3e 5235 ce3d 993e fa3c
00000240: c7a3 94bd 4d3f 67bd be13 be3c 311e 823c
00000250: e15c 68bc 5e3d 94bb 05c4 63bd aa3e 013e
00000260: a0cc 0e3d ce97 733d 1e1a 8cba bae1 98bc
00000270: 945d 663d b5f1 a6bc 2ff2 42be c546 cdbd
00000280: dcbc 813d 2cde afbd 898f 87bc 36a7 d73d
00000290: 986d babd 39e8 8c3b 19f6 8e3a 32bb cdbb
000002a0: 3a3d c4bd 23be 1fbd d12f 7abd 1350 33bd
000002b0: 8a28 d23d b434 e23c 4c99 51be 66be 88bd
000002c0: 7d3e 45bd e06b a4bd cf36 ec3d 26a3 36be
000002d0: f21a dbbc 7037 653d 19ba 8bbd ae4e 813c
000002e0: 099c 4dbd 4f67 a0bd b4dd 813d 7406 09be
000002f0: 8ff9 41bd 43ba f2bc 9394 ff3c 2fc6 cdbd
00000300: a897 4cbd 6d9a b4bc f279 8d3d 2fd6 d6bc
00000310: 7046 18bd ed8b e93b b032 04be 27a8 d2bd
00000320: 1dec 8bbd c178 b4bd 63c6 263d fbd6 973c
00000330: 75b4 4dbe f89f 113d 678e 863b c151 66bd
00000340: bbe2 99bc aead 32bc 7a5a 1d3d 19bd 99bc
00000350: 21f0 16be 6192 88bd e4c2 80bd 80d9 9f3d
00000360: a771 e0bd d37d 94bd b457 01be 6442 d63d
00000370: ee7b 153d 2a54 8e3b 4cce debd 434a 063d
00000380: b1f0 243d 42ec b73c 23f7 85bd 24eb a7bc
00000390: f7ac 93bd 8220 c3bc 6a6f 13bd 8260 8d3d
000003a0: a6b6 04bc 1683 0d3d e7a1 cebd b29c aabd
000003b0: 3463 12bd 12d2 c43d abcf 28be b1fc 68bd
000003c0: 54d9 af3d 2ae6 02bb 4258 12bd b190 81bd
000003d0: b44e c5bd 2da6 6a3d 14e8 21bd 0cc5 a4bd
000003e0: 6467 08be fdf7 a3bd 92d8 dd3c 3646 143d
000003f0: a69e 03be 9d6a 6fbd 1bd4 a5bc c2fa e4bd
-0.02309681 0.11312752 -0.007367213 0.082588844 -0.007014696 0.02871383 -0.038985852 -0.043544147
0.11865742 0.061217926 -0.024077058 0.038783234 0.0389674 -0.058501013 -0.15072103 0.03110257
-0.10827992 -0.036456816 -0.10527623 -0.08897575 -0.10806511 -0.017391186 0.009117876 0.1168084
0.032291304 -0.020009976 -0.11205267 -0.10237454 -0.07971534 -0.1508415 0.008836828 0.014699912
0.058331795 -0.08583908 -0.008219301 0.054092422 -0.047623366 -0.101881556 -0.057689767 0.07834665
0.06754626 0.039812043 -0.117638744 0.07146604 0.04859975 -0.00019653307 0.009237348 -0.087973386
0.056054864 0.015210182 0.019648254 -0.040455785 0.07768922 0.011201062 0.08950561 -0.08173756
0.06538626 -0.07147015 -0.117158026 0.07148467 -0.025752977 -0.029211178 -0.09226187 0.10582969
0.017008968 -0.078464195 -0.09152161 -0.08119968 -0.060574703 -0.016430737 -0.013872405 0.10464255
-0.07165654 -0.032559782 0.034352787 0.034097448 -0.15819795 0.025940897 0.08518012 -0.023592092
-0.094726466 0.015001233 -0.09501805 0.049840055 -0.08192428 -0.050955724 -0.08772981 -0.123452805
-0.011894715 0.021035865 0.06400774 0.0298136 0.08903437 0.04329238 0.010551283 0.018426418
0.015021904 -0.07217157 -0.011258833 0.027100118 0.008567741 0.016567104 0.07045716 -0.10347353
0.12805629 0.039692502 -0.087613575 0.050430134 0.039947327 -0.06255299 0.01467157 -0.050284624
0.020716319 0.11484131 0.10995085 0.029952472 -0.02320889 0.11734628 0.036275987 0.032483958
-0.1386043 -0.03063769 0.014542389 0.02667381 0.16525653 0.018556772 0.021349937 0.18109834
-0.075693086 0.032188043 0.04590712 -0.02882319 -0.040412407 0.14027609 0.06428006 0.15293548
-0.17525083 -0.08838521 0.07017228 -0.08470658 0.08465203 0.1382893 0.10068764 0.030547427
-0.072578005 -0.056456853 0.023202773 0.015883537 -0.0141823 -0.004523917 -0.05560686 0.1262156
0.034863114 0.059470944 -0.0010688936 -0.018662322 0.056241587 -0.020378927 -0.19037698 -0.10023264
0.0633485 -0.08587298 -0.016547935 0.1052994 -0.091029346 0.004300144 0.0010907083 -0.006278419
-0.095819905 -0.038999688 -0.061080758 -0.043777537 0.102616385 0.027613021 -0.20468634 -0.066769406
-0.048155297 -0.08028388 0.115338914 -0.17835674 -0.026746247 0.055961072 -0.06822605 0.015784588
-0.050197635 -0.078322046 0.06341115 -0.13381368 -0.04735714 -0.029629832 0.031198775 -0.10047566
-0.04994932 -0.022046292 0.06908025 -0.026225178 -0.03717655 0.007127276 -0.12909961 -0.10285979
-0.068321444 -0.088120945 0.04071654 0.018535128 -0.2008837 0.03555295 0.004106331 -0.05623031
-0.018784871 -0.010905666 0.038416363 -0.018766927 -0.1474004 -0.066685446 -0.062871724 0.07805157
-0.109591775 -0.072505616 -0.12631112 0.10461882 0.03649514 0.004343529 -0.10879192 0.032785665
0.040268604 0.022451524 -0.06541278 -0.020497866 -0.07210725 -0.023819212 -0.035994925 0.06903173
-0.008100187 0.03454884 -0.10089474 -0.083306685 -0.03573914 0.0961038 -0.16485469 -0.05688161
0.08586374 -0.0019973614 -0.0357287 -0.06326426 -0.09634152 0.057287384 -0.039527968 -0.08045396
-0.1332069 -0.080062844 0.027080808 0.03619977 -0.12853488 -0.058451284 -0.020242741 -0.11180641

bias_hh_l0 f4 [405]
00000000: d350 c2bc 7223 ba3d 5cbb 92bd 07d1 e63c
00000010: 8fe8 51bd 73d6 3d3c 45ba b2bd e40b 7abc
00000020: bdf9 8b3d 8a2e aa3d 5725 c2bd d650 b43c
00000030: 9025 093d faed bc3c 51b1 24be 8d50 aabc
00000040: 0258 343c d882 c2bd 8985 39bd 7001 10be
00000050: 6b9c 5fbc f6ed 5cbd 082a e03c b8ed c43d
00000060: 3974 bd3d 1f81 94bd 2796 a0bd 829a 98bd
00000070: 4bf6 65bd 6ca6 22bd 6786 e5bd 7704 0e3d
00000080: 3ccd a3bd 9aef 0cbe c7eb 4b3b 9f5c 0f3c
00000090: dc49 343d 5bab 8fbd 88e6 ee3c eaa8 ea3a
000000a0: c39d ec3d 78fc 9cbd e689 b73c 4413 a73d
000000b0: 5ab8 a13d dae1 ab3b fb2d 9bbd c6bc f9bb
000000c0: 6d98 253d 5f02 143d 78ad 0bbc 8803 443d
000000d0: 705a 623d 7947 dc3c b24c 673d bc78 0d3d
000000e0: c24a 843d 53af 11be d505 fabd fa8b 143d
000000f0: 0310 573d 3123 e1bc 255a 3bbd 35ba 8a3d
00000100: e9c3 3e3c 8367 29bd f3af beba 78d5 e2ba
00000110: 4af3 b2bd 9999 93bd a9bb 27bd aa3b e03c
00000120: 48e8 95bd 8792 c63b 19c0 e13c 75f1 f33c
00000130: e81d 03bb 9694 413c b573 003d 2924 56bb
00000140: 9b0a 92bd cf24 17bd 3217 adbd 8566 e8bb
00000150: 4d3b c3bd f05f e0bc 4e73 8f3d 2917 253b
00000160: 6ba8 80bd a943 583d 4064 ea3d 8212 a8bd
00000170: 659a 453e 0633 ec3c 3121 8fbd ed8c 97bc
00000180: 1290 903c 798b 2ebd f2b4 183d fc93 82bc
00000190: cb5a 613d b1b1 a5bd add1 6a3d 825e 38bd
000001a0: acf1 d3bc f639 28bd b1e6 503d 9f47 42bd
000001b0: 2c1f ad3d 5d19 debd c9e5 f2bc c471 a43c
000001c0: 2488 51bc eea4 763d 907b 8c3d 2df8 873c
000001d0: cdaf 7ebd 3a87 cd3d e219 a4bd 66ec 30bd
000001e0: 61ce 97bc deb8 42bd 4ab0 d8bd b958 cf3c
000001f0: 2bab be3d 7f56 94bd 1195 60bd 5818 3b3e
00000200: b2ff 90bd 2e30 a3bd 12f4 503c 4612 00bd
00000210: 9daf bbbd 3175 da3d f33f c13d 3850 ea3d
00000220: a6da 36be 54e5 9bbd 8fa1 00bd c646 e1bd
00000230: 45c3 31bb 57e3 163d d84c 063e e466 f13c
00000240: d6a4 97bd d5ae 49bc 0f0f 4ebd 5b7f d8bc
00000250: a888 35bd 5984 81bd 042b 8abc 74de 503d
00000260: c4c6 52bd 1010 adbd bddf 2d3d d028 fcbd
00000270: 9ea7 c13c d4cd dfbd 0d43 80bd 49af f0bd
00000280: 8d34 3b3d 2fc5 a33b 30e0 b0bd 9c74 813d
00000290: a320 dd3b 7b4e 87b9 51bf b4bd 2b44 8dbd
000002a0: 6846 09bd 2c53 5fbd 187f 7ebd 0a29 2b3d
000002b0: 766e b33d e899 ab3b 60f0 3abe 5438 42bc
000002c0: de4d e63c d581 e1bc 1758 0a3e 89f8 62be
000002d0: 0bc7 97bd ee0c 733d 529f f9bd 399b 8d3c
000002e0: c8d0 c5bd abcf 6ebd a1ce 163d ca8b d03b
000002f0: 07ac afbd c2d9 09bd ba79 b5bd c97d afba
00000300: 942d d4bd cdaa 30bd ee73 283d 0845 a73d
00000310: 9381 90bd b900 37bb 614b 7ebd c036 423d
00000320: 65d6 133d 9652 b7bc e017 ccbd 32d6 943c
00000330: c614 fabd f225 4dbd 9ea5 2dbc f4f7 29bc
00000340: 9be6 05be ce5f 93bd 9981 8f3d aaf0 8a3d
00000350: 2cc8 33be a1af f5bc 1e41 983d 569e b6b9
00000360: a703 adbd 321e 3d3a 4e22 cdbd fcbc 953d
00000370: 2de7 0c3a 2803 253d 020f 85bd a6bf 1cbd
00000380: b595 2d3a 0d45 0bbe 0f10 14bd d75f 15be
00000390: 29bb 4abd b4c4 d53d df56 a33d d42c 413d
000003a0: 2acb f43b 68db c7bd f2f8 cebd ae48 b13c
000003b0: 63d8 aebc c20e c93d 899d 42bd 0e0c 8fbd
000003c0: e6f4 a43d 5b9c ec3d 9748 edbc a24c a3bd
000003d0: 811a 7ebd d3cc 8cbd 39e8 f2bd 5657 f1bc
000003e0: aa99 3dbe 9873 78bd 1c67 623d cac7 7abd
000003f0: fe77 35bd de7b ffbb 4f8f 1abd bee2 823c
-0.02372018 0.09088792 -0.07164642 0.028175844 -0.051247176 0.011586773 -0.08726934 -0.015261624
0.06834743 0.08309658 -0.09479778 0.022011202 0.033483088 0.023062695 -0.16083266 -0.020790363
0.011007311 -0.09497613 -0.045293365 -0.14063048 -0.013648133 -0.053937875 0.027363792 0.09615654
0.09250683 -0.072511904 -0.07841139 -0.07451345 -0.056143086 -0.039709494 -0.11207276 0.034672227
-0.0799813 -0.13763276 0.0031115876 0.00875011 0.04401575 -0.07015105 0.02916266 0.0017903124
0.11553528 -0.07665342 0.022404622 0.081579715 0.078964904 0.0052454295 -0.075771295 -0.0076213805
0.040428568 0.036135074 -0.008525245 0.04785493 0.05526203 0.02688955 0.056469627 0.03453897
0.064595714 -0.14227037 -0.122081436 0.036266305 0.052505504 -0.0274826 -0.045740265 0.067737974
0.011643388 -0.041358482 -0.0014548287 -0.001730605 -0.0873781 -0.07207031 -0.04095045 0.0273722
-0.07319695 0.006059948 0.02755742 0.029778222 -0.002000684 0.011815211 0.031360347 -0.0032675362
-0.07130929 -0.036900338 -0.0845169 -0.0070922994 -0.09532795 -0.027389497 0.070044145 0.0025190806
-0.06282123 0.0527989 0.114449024 -0.08206655 0.19297178 0.028832924 -0.06988753 -0.018499816
0.017646823 -0.04261348 0.037281938 -0.015939705 0.055018228 -0.080905326 0.05732887 -0.045012005
-0.025872074 -0.0410709 0.051001254 -0.047431584 0.08453211 -0.108446814 -0.029650586 0.020073779
-0.012788806 0.060215883 0.06859505 0.016597832 -0.062179375 0.10035558 -0.08012749 -0.043194197
-0.018531026 -0.047539584 -0.105804995 0.025310861 0.093099914 -0.0724306 -0.05482966 0.18271005
-0.0708002 -0.07968174 0.012753503 -0.031267427 -0.09164355 0.10666884 0.094360255 0.11441082
-0.17856845 -0.076121 -0.031404074 -0.10999827 -0.0027124446 0.036837902 0.13115251 0.029468007
-0.07404487 -0.01230975 -0.05030733 -0.026427915 -0.04431978 -0.063240714 -0.016866215 0.050993398
-0.05145909 -0.08450329 0.0424497 -0.12312472 0.023639496 -0.109279305 -0.06262789 -0.11752183
0.045704413 0.0049978714 -0.0863651 0.063210696 0.0067482754 -0.0002580768 -0.08825553 -0.06897768
-0.03351441 -0.05452268 -0.062132925 0.041787185 0.08761303 0.005236853 -0.18255758 -0.01185425
0.028113302 -0.027527729 0.13510166 -0.22165121 -0.07411011 0.059338503 -0.12188591 0.01728593
-0.096589625 -0.058303516 0.03681815 0.0063643204 -0.085777335 -0.033654936 -0.08861108 -0.0013388927
-0.10360256 -0.04313164 0.041126184 0.081674635 -0.07055964 -0.0027924015 -0.062083606 0.047415495
0.036093134 -0.022378247 -0.09965491 0.018168543 -0.122109935 -0.050085016 -0.010598568 -0.010374058
-0.1307625 -0.07196008 0.07007141 0.06784184 -0.17556828 -0.029990973 0.07434295 -0.00034831715
-0.08447962 0.0007214277 -0.10016309 0.073114365 0.0005375024 0.040286213 -0.06497003 -0.038268708
0.00066217344 -0.1360056 -0.036148127 -0.14587341 -0.049494896 0.10437909 0.07975554 0.047161892
0.007470508 -0.09758645 -0.10106076 0.021641102 -0.021343416 0.09817268 -0.04751352 -0.06984721
0.08054523 0.1155326 -0.028965278 -0.07973601 -0.062036995 -0.068750046 -0.11860699 -0.02946059
-0.1851565 -0.060657114 0.055274114 -0.06122569 -0.044303887 -0.0077967485 -0.037734326 0.01597726

weight f4 [1, 4, 1, 12, 12]
00000000: 7e05 20be 7148 7fbc eb8f 463d 920c 993d
00000010: ba6c 0cbe 93fc db3c 4c34 eb3c 65a3 233d
00000020: 901d 173d cf50 103d 74bf 89bd 41bc 5abd
00000030: 702b b2bd 6225 0c3d ce1f 7d3c bcf1 b03d
00000040: ef17 b73c 9a94 b1bc ceb2 d4bc 397c c13c
00000050: 080c 0b3d d0b6 89bc 328d 333d 7d9d e7bc
00000060: 1501 debc eb2b 4d3d 44f0 8cbc e041 6e3d
00000070: dd67 53bd 8750 ce3c 5a34 803d cbbb 81bd
00000080: 56d0 083e 318c 963d 1b18 5bbd 3ade 053e
00000090: 107e 97bb dbfb 0bbc 7f04 ebbd 46d9 23be
000000a0: 6258 05bd ac1f 513c 82f8 f73b 886f 14bd
000000b0: 2dfc 533d 9096 a63d 03db 7d3b 8547 98bd
000000c0: 5b1b 27bb 8ddd 7bbc b357 3e3e 7a8b 1a3e
000000d0: db2b 01bd f3ad cd3c 2311 753d 0bb4 a83d
000000e0: 4f43 bbbc e5ca 01be c419 a93c f0c3 793d
000000f0: e435 9abd 8dda 98bd 392d 183d 7557 b93d
00000100: 60cc 06be 7064 19bc b586 523e 21e9 de3c
00000110: ac79 84bd 4775 dfbc 1073 ab3b 135f 13be
00000120: 987e 303c 0bb0 7f3d f2d6 cc3d 48d7 af3d
00000130: ea88 c63d 6780 933d 542c d6bc b5bd 473d
00000140: 2566 f3bc 179a c0bd 79ea e53c 70ef 08bd
00000150: 8899 373d 7375 943d d3cf da3d 4016 a73d
00000160: 2c79 3e3c 77a3 16be 9832 c0bc 6b8c bc3d
00000170: 4c0d d4bd ebe6 8bbc d665 9e3d 1133 cd3d
00000180: 6264 44bc ada0 bbbc 9146 cf3d 0e0b 0b3e
00000190: 835c c8bc 3695 903d 43c8 dc3c 16c2 a83d
000001a0: 650a ec3c 1451 603d 5703 11bd 461a 583d
000001b0: fb07 bb3d c2b7 023d fa0e c4bd dc2f 07be
000001c0: 2418 ca3d 4dfd 963d 9b7f 08be 36d4 59bd
000001d0: 25f7 ca3d 58fe 6a3d 9294 4b3d dee5 7bbc
000001e0: 2eeb 613c 25bf ad3d a022 f0bc cbf8 e9bc
000001f0: 834d 993c ac37 473c 07cc 973d ffcf 52bd
00000200: 093c 803c a19c ac3c eafa d8bc 2414 0c3e
00000210: 5f10 99bd 1cb0 323c f918 893b 2fbc 813d
00000220: 2083 5c3d 4d7a 30bd 18dc af3c ec52 01bd
00000230: d30b 6cbd 6ad5 cf3a 0e57 203d 0cb0 70bd
00000240: 0706 623d 50fc fc3c 6285 04be 7c69 373c
00000250: 977a d33d df72 bebc a01d adbd 039c 45bd
00000260: f975 633d e50e f4bc be84 48bd 4fa2 363d
00000270: 05ce f43d 4475 df3a 34dd a3bc 8410 693d
00000280: 78b5 b1bc a59d 20bc 8098 ac3d 9b9e 0fbd
00000290: fbbf 303d d723 ac3d d0b0 13bd 9625 203e
000002a0: d524 a53d 7825 693d 399f 8aba 4a39 4c3c
000002b0: 4f9d 323d ccdf 9abd 0770 923c 4691 5a3c
000002c0: 87e1 fa3c 10db f83d 0822 833d e170 ddbb
000002d0: 18f0 573d 0079 51be db7b d0bd 9b9b 41bd
000002e0: 50f6 16bc ec47 1cbd c9e4 673d 92fc aabd
000002f0: 2849 7cbd 2d51 1d3d 46cd 87bd 1a5c 59bc
00000300: 7906 ee3d fe32 fcbc 0bee 57be 527b 62be
00000310: 47b3 b83c 6a67 4b3d d219 d5bd 5e4f 46be
00000320: 45f5 2b3e bcc8 4e3e 46d7 57bc 23a2 db3d
00000330: 2903 c9bd cadc 50bb 8356 bd3b 1246 323d
00000340: 7e16 a43b ebf2 233d cd58 adbd 5f3e 66bd
00000350: 06ec fb3a 760a 813d c87f a0bd 8f38 fbbb
00000360: 746b ab3d d3ba 60bd d2ab ccbd 7ea2 f4bd
00000370: 195a 833d 98ca 2e3d e8fa 91bd 0167 b63c
00000380: eac2 ba3c abc3 9d3d c74a 3c3c 692f f03c
00000390: 421b 80bd 01d2 dbbd 15b0 05bd 61a1 783d
000003a0: 99f8 28be 1dde 853c 3be7 8e3c 5ed3 a8bc
000003b0: 7b03 ab3d 64e6 2c3d ba78 8e3c 2fe6 a7bc
000003c0: 6f96 b63d f45a f13d 01f5 3cbe 6272 1abe
000003d0: 98b8 0a3e 86d1 6d3e 82fb 66bd 2664 5dbe
000003e0: 8432 5e3c 657c a43d 7cd9 42bc cf63 ba3d
000003f0: 0b63 53bd 22a2 abbc 5be1 a5bd 298f 67bd
-0.15627095 -0.015581236 0.048477095 0.07473101 -0.13713351 0.026853835 0.02871146 0.039950747
0.036893427 0.035233315 -0.0672597 -0.05340219 -0.08699691 0.03421534 0.015449477 0.08639857
0.02235028 -0.021677304 -0.025964167 0.023618804 0.03394702 -0.016810805 0.043835826 -0.028273338
-0.027100125 0.05009071 -0.017204411 0.058168292 -0.051612724 0.025184883 0.06259985 -0.06334647
0.13360724 0.07350958 -0.053489786 0.13073054 -0.004623182 -0.008543934 -0.11475467 -0.16000852
-0.03255499 0.012763899 0.0075674662 -0.036239177 0.051754165 0.08134186 0.0038735277 -0.07435516
-0.0025498483 -0.015372646 0.18588142 0.15092269 -0.031535964 0.02510736 0.059830796 0.082374655
-0.022859244 -0.12675054 0.020642169 0.060977876 -0.0752981 -0.0746356 0.037152503 0.09049884
-0.131639 -0.009362325 0.20559199 0.027210774 -0.064685196 -0.027277602 0.0052322224 -0.14391737
0.01077237 0.062423747 0.10001935 0.085859835 0.09694083 0.07202225 -0.026144184 0.048764903
-0.029711792 -0.0940439 0.028065907 -0.03343147 0.044824153 0.07248964 0.106841706 0.08158541
0.011625569 -0.14710794 -0.023461625 0.0920647 -0.10354099 -0.017077884 0.077342674 0.10019506
-0.011986824 -0.022903765 0.10120881 0.13578436 -0.024458176 0.0705971 0.026950961 0.08240144
0.02881355 0.054764822 -0.035403576 0.05275943 0.091323815 0.031913526 -0.09573169 -0.1320185
0.09867886 0.07372532 -0.13329928 -0.053180896 0.0991042 0.057371467 0.049702235 -0.015374629
0.013788981 0.084837236 -0.029313385 -0.028561017 0.018713718 0.012159269 0.07411962 -0.05146789
0.015653627 0.02107078 -0.026486833 0.13679558 -0.07473826 0.010906246 0.004183885 0.06334721
0.053835988 -0.043085385 0.021467254 -0.03157322 -0.057628464 0.0015856449 0.03914552 -0.05876164
0.05518153 0.03088203 -0.12941507 0.011194583 0.103261165 -0.023248134 -0.08452916 -0.048244487
0.05553243 -0.029792259 -0.048954718 0.044588383 0.119533576 0.0017048498 -0.020002939 0.056900516
-0.021692976 -0.00980321 0.084275246 -0.035063367 0.043151837 0.084052734 -0.036057293 0.15639338
0.08063666 0.0569205 -0.0010576017 0.012464831 0.043607052 -0.07562217 0.017875684 0.0133403
0.030625118 0.12151158 0.06402975 -0.006757841 0.052719206 -0.20456314 -0.101798736 -0.047267538
-0.009213999 -0.038154528 0.05661467 -0.08348955 -0.061593205 0.038407493 -0.0663095 -0.013266588
0.11622328 -0.030786034 -0.210869 -0.22117355 0.022546424 0.04965917 -0.104053155 -0.19366214
0.16792782 0.20193762 -0.013173884 0.107242845 -0.09815056 -0.0031869882 0.0057781353 0.043523856
0.005007564 0.040026587 -0.08464203 -0.056211825 0.0019220121 0.063008234 -0.07836872 -0.0076666544
0.083701044 -0.05486567 -0.099937096 -0.119450554 0.06413669 0.042673677 -0.07127935 0.022265913
0.02279802 0.07703336 0.011492438 0.029319482 -0.06255199 -0.107334144 -0.032638628 0.060700778
-0.16501082 0.016341263 0.017444244 -0.0206086 0.08350273 0.042211905 0.017391551 -0.020495502
0.08915412 0.11784926 -0.18452837 -0.15082696 0.1354698 0.23224458 -0.0563922 -0.21620235
0.013561849 0.08031539 -0.011892673 0.09101068 -0.051608127 -0.020951334 -0.08099624 -0.056533013

weight f4 [12, 12]
00000000: c236 943e f8df 61be 582f 06be fb16 bebd
00000010: d119 203e 98f5 043e 495c 0a3e 1a29 8cbd
00000020: c82f 42be 7a80 a23e 0e56 f93d 256a c5bc
00000030: 739a 163e 45e0 38be a26c 883e 9d15 79bc
00000040: b790 0d3e 7d85 6b3d eb23 653e 125d 9f3d
00000050: ab1b c0be 50d5 b43d 41de 723e 24c3 c6be
00000060: cab8 b4bc e2e7 92bd 2dec 813e ba2e 963e
00000070: 54a4 223e 37b9 523e 6ba2 f3bd 64f2 67be
00000080: 67bb babe 798e 55be 1322 373e b4f5 84be
00000090: 7e0c 733c 9e01 15be fad8 25be 11eb b8bd
000000a0: 71b0 993d 921f 6b3d 03b5 863d a26c 0ebe
000000b0: c8e6 e43d 2f1b 8cbd b9db 723e 056c 9ebd
000000c0: 07f2 863e 44c3 58be 93cc 17be 28d9 84be
000000d0: 580c e0bc ea04 c23d 331b 703d e42b 0a3e
000000e0: 5cd7 6b3d c314 043e 824b 54be 1b22 343e
000000f0: b748 82bd a037 1a3e 2fb6 fcbd 7dcb 7c3d
00000100: 6929 8e3e 0e20 653d 34a4 73be a62c 1fbe
00000110: 4a56 4bbe cc1f 5e3e 1395 3b3d 724f b9bd
00000120: 5903 683c 75f5 e9bb e13c 933c 5bdc 2abe
00000130: 0c0c ccbd f077 ba3d 12a7 c53d e0d9 37be
00000140: 03d1 fb3d 462e 5b3e 81f6 58be 496a 803e
00000150: c966 c3bd 922a 25be d1e4 373e 40f6 23be
00000160: e457 6d3d 22f1 33be 4907 813e 8e10 543e
00000170: 2b19 bc3c 3dcb aebc 25f5 933d 6431 9cbe
00000180: 6b33 263e ff1b 6d3b 7234 b03e 8281 96bd
00000190: 5c9c dc3d 21a7 88be c25f 5ebe 8707 2cbe
000001a0: a917 71be a4da 77be 7ab8 283e f47e 2ebe
000001b0: 42f4 633c ccda 98be 36bb b4bc eda5 6c3e
000001c0: b501 8e3e 14ac 0ebc 8c57 3a3e 56f4 743e
000001d0: e03d 66be e51e 32be 9a64 38be 037b c03c
000001e0: d003 04bd 346c 2e3e 9fbb d53d efb5 63be
000001f0: 258e 9a3e 718f 7fbe d265 2dbe 3255 60be
00000200: ec11 f33c dc70 123e b510 31be 480b abbd
00000210: 14af 8ebd 992b e43d 9a13 c8bd 534d 0cbe
00000220: 8fd4 d5bd 187c 123e cea4 f3bb 03b6 e0bd
00000230: 5ce7 603d 105b 0c3e 78db e13d bd96 9b3e
0.28948027 -0.22058094 -0.13103998 -0.09281727 0.15634848 0.12984312 0.13511766 -0.06843777
-0.1896354 0.31738645 0.12174617 -0.024098465 0.14707355 -0.18054302 0.2664538 -0.015202907
0.13824736 0.05750035 0.22376983 0.07781424 -0.3752111 0.08829749 0.23717596 -0.38820755
-0.02206077 -0.071731344 0.253755 0.29332525 0.15882999 0.20578466 -0.11896213 -0.22651058
-0.36471102 -0.2085513 0.17884092 -0.25968707 0.014834521 -0.14551398 -0.16196051 -0.0902921
0.07504357 0.057403155 0.06577494 -0.13908628 0.111768305 -0.06841122 0.2371663 -0.07735447
0.26356527 -0.21168238 -0.14824133 -0.25946927 -0.027349636 0.094735935 0.05861969 0.13493305
0.05757843 0.12898545 -0.20731929 0.17591135 -0.063615255 0.15060282 -0.12339436 0.0617175
0.27765968 0.055938773 -0.23793107 -0.15544376 -0.19857135 0.21691817 0.045796465 -0.09048356
0.014160954 -0.0071398565 0.017973365 -0.16685621 -0.09963235 0.091049075 0.09651007 -0.17954206
0.12295725 0.2140437 -0.21187784 0.2508109 -0.09541089 -0.1612952 0.1795838 -0.16011906
0.057945147 -0.17572454 0.2520087 0.2070944 0.02296122 -0.021337146 0.07224492 -0.30506432
0.16230552 0.0036180017 0.34415013 -0.073489204 0.10772011 -0.2669001 -0.21716216 -0.16799746
-0.23544182 -0.24204499 0.16476622 -0.17040616 0.013913216 -0.2985443 -0.022061925 0.2311017
0.27735677 -0.008708019 0.18197459 0.23921332 -0.22484541 -0.17394598 -0.18007126 0.023496157
-0.0322302 0.17033464 0.104361765 -0.22237371 0.30186573 -0.24957062 -0.16933373 -0.219075
0.029671632 0.14300865 -0.1729153 -0.08351761 -0.06966987 0.11141128 -0.09769364 -0.13701372
-0.10440933 0.1430515 -0.0074354177 -0.10972216 0.05490814 0.13706613 0.110281885 0.30388442

bias f4 [12]
00000000: 9e52 463e f045 81bd eda2 a33d 69fc 833d
00000010: e386 55bd 843d 803e 7450 173e 41d0 843e
00000020: 826b 65be aa31 4f3d 4110 1a3e 20cf 43be
0.19367453 -0.06312168 0.0799006 0.06444628 -0.05213059 0.25046933 0.14776784 0.25940135
-0.22404292 0.050584473 0.15045263 -0.1912198

weight f4 [3, 12]
00000000: fd93 98bc e81d 01be 87c0 b6bd 47d3 8abe
00000010: 6be8 17be 5d95 d6be dafb 7ebe 37d1 6e3e
00000020: 8259 a3be 05ea 553d f340 a2be 164d 48bd
00000030: d257 e43e d195 b1be 445f dfbe 01e2 383e
00000040: 29d8 c93e 5d5a c23e cdf8 2e3e 6c7c 26be
00000050: b974 d1be 7dfd c6be 599d a73e b3aa e33e
00000060: 2d14 babe 3d08 823e ad30 0c3e 84fa acbe
00000070: 52df 883a a092 fdbc 4e01 143a facb ba3c
00000080: 8b34 8fbb b3eb 9c3e 9010 35be 8f67 e3be
-0.018625254 -0.12609065 -0.089234404 -0.27114317 -0.14834754 -0.4191083 -0.24900761 0.23321997
-0.31904227 0.05222513 -0.31690177 -0.04890164 0.44598252 -0.34684613 -0.4362737 0.18054964
0.3942273 0.37959567 0.17087097 -0.162584 -0.40909365 -0.3886527 0.32737234 0.4446617
-0.36343518 0.2539691 0.13690443 -0.33784878 0.0010442531 -0.030953705 0.00056459464 0.022802342
-0.0043702773 0.30648574 -0.176821 -0.44414946

bias f4 [3]
00000000: 86c1 95be b4c4 843d 310c 56be
-0.2924921 0.06482831 -0.20903088

weight f4 [3, 12]
00000000: c943 88be 3d08 41be c1ce 52be 02a9 62be
00000010: d82d 7b3c fa12 b2bd 57ef 80bc ffe8 09be
00000020: 5a5f 873e 5201 823e 0d8e 93be deb1 8dbe
00000030: 4b15 f2bd 3818 17be 3ae8 b8bd 1e8f 04bb
00000040: 1b8a 0dbe 044e 2bbe 23e8 dabd 128d f1bc
00000050: f97a 3bbe e0e7 e5bc e046 53be 4a14 23be
00000060: 98cc 23be 9019 0e3e e1d0 0f3e ecc2 f53b
00000070: 4cbd 83be d3b7 f4bc bf99 503e 5eec fd3c
00000080: 57fa 383e e61f 833e 0d75 6abe 6042 473e
-0.26614216 -0.18850799 -0.20586683 -0.22134784 0.015330754 -0.08695026 -0.015739126 -0.13467787
0.26439935 0.25391632 -0.28819314 -0.27674764 -0.118204676 -0.14755332 -0.09028669 -0.0020226906
-0.13822214 -0.1672898 -0.10688808 -0.029486213 -0.18308629 -0.028064668 -0.20632505 -0.15925708
-0.15996015 0.13876939 0.14044525 0.007500043 -0.2573036 -0.02987281 0.2037115 0.030996498
0.18064247 0.25610274 -0.22896214 0.19458914

bias f4 [3]
00000000: badb aebe 643b 833e 60b5 8f3d
-0.34152013 0.2563125 0.070170164

weight f4 [3, 3]
00000000: 26f2 d2be 9597 d03e 1ce2 d23e 8c12 b1be
00000010: 526b 8c3d 262d bb3e 8eb2 b2bd 1b6b cb3e
00000020: c075 fb3e
-0.4120037 0.40740648 0.41188133 -0.34584463 0.06856407 0.36557883 -0.08725463 0.39730152
0.49113274

bias f4 [3]
00000000: 980c e33e 0f48 093f 26a0 07bf
0.44345546 0.5362558 -0.5297874
