data/best/output/poster/train/15_stemgnn.pt (torch, 435920 bytes, 73 tensors)

weight_key f4 [135, 1]
000000 bb a8 82 bb 90 9c 21 3e 3f d4 7b be 2e 66 60 be
       -0.0039873994 0.1578238 -0.24592684 -0.21913978
000010 1e 86 e9 bd ee c3 a3 3d 66 64 b9 bb c8 9d 71 3e
       -0.11402534 0.07996355 -0.0056577204 0.23595345
000020 c8 a9 d7 bc 9d 34 9f 3d 58 6a b8 bd 4a 0e 71 bd
       -0.026326075 0.07773707 -0.090046585 -0.058851518
000030 bd a0 91 be 06 6d 49 be 60 69 fa bd 29 58 3a 3c
       -0.28442946 -0.19670495 -0.1222713 0.011373558
000040 28 9d f0 3d 55 96 36 3e 2c ff 4d be f8 44 04 be
       0.11748725 0.17830785 -0.20116872 -0.12916934
000050 7d b9 dc 3d 80 10 7c 3e da c1 7d bd 77 e9 62 3e
       0.107775666 0.24615669 -0.06195245 0.22159372
000060 71 3e 47 bd 23 7e ff 3c 42 0c 8a 3e 7f b2 8c be
       -0.048643533 0.031188076 0.26962477 -0.27479932
000070 0e 19 3f be bd f2 98 bd d3 8d ea bd 84 07 84 3e
       -0.18661901 -0.07468174 -0.11452832 0.25786984
000080 1f 27 44 be ff 92 0b be 1b e0 53 be 96 38 8e be
       -0.19155549 -0.13630293 -0.20690958 -0.27777547
000090 86 99 31 be 57 b4 82 3e 99 b6 07 3e 14 35 14 3e
       -0.17343721 0.25528213 0.13253249 0.14473373
0000a0 68 4c 82 3c 1f 03 1c be 7e aa 4c 3d 4a 5c 8e be
       0.015905574 -0.15235566 0.04996728 -0.27804786
0000b0 d1 23 5d be 71 83 1e be 00 67 3f 3e 08 d9 31 3e
       -0.21595694 -0.15479828 0.18691635 0.17367947
0000c0 1b d6 07 be f1 a8 38 bc 0d ce 41 3e 2b 38 97 3e
       -0.13265269 -0.0112707475 0.18926258 0.2953504
0000d0 28 46 f0 3d 46 b6 24 3d c2 b7 4c 3e 15 21 33 be
       0.11732131 0.040212892 0.19991973 -0.17493089
0000e0 e1 d3 5f 3d d3 46 6d be 99 a0 53 be 05 79 1d be
       0.054645423 -0.23171549 -0.20666732 -0.15378197
0000f0 07 cb 08 3e 98 50 f2 3d 68 32 36 be 8c 3e b6 3d
       0.13358699 0.11831778 -0.17792666 0.088986486
000100 a9 a9 25 3e 88 7b 21 bd df c2 1f 3c b1 da 8a 3d
       0.16178001 -0.03942445 0.009751051 0.06779993
000110 6d e1 3b 3e f0 54 91 3e 40 db 6b be d9 1a e2 bd
       0.18347712 0.28385115 -0.23032856 -0.11040277
000120 77 6b eb 3d be a8 7a 3e 4a 6e 83 3e 5b 43 85 3e
       0.11495107 0.24478433 0.2567008 0.2602795
000130 77 d2 6e 3d 69 64 84 be c6 9d de 3c f9 30 3f be
       0.058306184 -0.25857857 0.027174842 -0.18671025
000140 43 ac 8e be 17 e6 86 3e 89 c7 66 3e bd c2 97 be
       -0.278658 0.2634742 0.22537054 -0.2964076
000150 a9 7e 64 3d 54 62 4f bd be 0d 4e bd cb fe 0b be
       0.055784855 -0.050630882 -0.050306074 -0.13671415
000160 a6 e3 e6 3d 70 0e 35 be 8c b1 dd 3d 5c d5 18 3e
       0.11273889 -0.17681289 0.1082488 0.1492514
000170 02 ea 58 3e 40 e0 e0 3d e3 47 97 be 22 0f 47 be
       0.21183017 0.10980272 -0.29547033 -0.19439366
000180 35 5c 17 3e c7 9e 7e 3d 84 2f 6d be bc 0e 2f be
       0.14781268 0.06216314 -0.23162657 -0.17095464
000190 98 c4 8e 3e 89 1a 4b 3e 89 22 06 be 44 54 99 bd
       0.27884364 0.19834341 -0.13099112 -0.074867755
0001a0 27 64 90 be 83 d7 94 bb 96 1d 64 be 67 90 69 be
       -0.2820141 -0.0045422926 -0.22276911 -0.22808991
0001b0 86 7c 80 bc 84 f0 38 3d f7 e3 f7 bd 8a 44 35 3e
       -0.015684377 0.04515125 -0.12104028 0.17701927
0001c0 52 16 39 be 5a ae 89 3e 1c 0b 4f 3e d9 28 81 be
       -0.18074921 0.26890832 0.20219082 -0.25226477
0001d0 d5 06 98 bd e9 f0 4a 3c 57 4c 2a 3d 45 7d 8c 3d
       -0.07423178 0.012386539 0.04157671 0.06859831
0001e0 e2 2d eb 3d 46 e5 82 3c 3f f0 15 be e8 0c 0f 3e
       0.11483361 0.015978467 -0.14642428 0.13969767
0001f0 8e 78 92 be b5 46 35 be 85 af 9b bd aa b6 15 be
       -0.286076 -0.17702754 -0.07601837 -0.14620462
000200 1b 57 d6 bd 06 3e 79 be 73 fd 80 bd f6 54 83 3d
       -0.10465833 -0.24340066 -0.062983416 0.064126894
000210 46 b7 45 be 1a 42 81 bc ad 63 58 3e
       -0.19308195 -0.01577859 0.21131773

weight_query f4 [135, 1]
000000 0f 1c 8f bd 01 27 c1 3a 25 12 95 3d 78 c3 3e 3e
       -0.069877736 0.0014736356 0.072788514 0.18629253
000010 9e ce a3 3e 65 4a d2 3e 91 33 a1 3e a5 c4 cf 3e
       0.31993574 0.41072384 0.31484655 0.40579715
000020 3d 56 cd 3d 13 1b 16 be 39 d4 b1 bc 5e 47 a4 3e
       0.10026214 -0.14658765 -0.021707641 0.320857
000030 2c 03 ee 3d c8 4c f4 bc c0 d0 e1 bd d8 d1 24 be
       0.11621699 -0.029821768 -0.11026144 -0.16095674
000040 bd 2f 09 be 56 9c 65 3d cd ef 8e 3e 41 ba 8d 3e
       -0.13397117 0.056057297 0.27917328 0.27681163
000050 c5 ea 2d be 86 9a 9a 3e 15 b5 eb bd 95 4f 5f 3d
       -0.16984089 0.30196017 -0.11509148 0.054519255
000060 75 cf 3b bb 0c ee 78 3d 47 b8 74 3d 6f 34 18 be
       -0.002865759 0.060773894 0.059746053 -0.14863752
000070 0b 40 0e be f5 da 90 3d ad 2c f7 3d cd db 94 bc
       -0.13891618 0.07073013 0.12069068 -0.018171215
000080 ce cf 69 3e 09 bc 19 be 57 1f c6 3d bc 77 c1 3e
       0.22833177 -0.15013136 0.09673946 0.37786663
000090 d2 7a 8a bb 7c f6 c4 3e cd 34 66 3e 00 01 1a be
       -0.004226067 0.38469303 0.2248108 -0.15039444
0000a0 6a a1 9c 3e 3c 30 ab 3d be 71 6b bc 7f 15 b6 3e
       0.305919 0.08358809 -0.01437038 0.35563275
0000b0 b6 33 f9 bd 73 cb 19 3e ed 4f 66 3d 33 58 a9 3e
       -0.12168066 0.15019016 0.056228567 0.33075103
0000c0 85 08 4e 3e a7 a8 85 3e 41 e4 64 3e be b5 40 3d
       0.20120437 0.26105234 0.22352697 0.047048323
0000d0 ea 3e 65 3d 7c c7 01 be 97 ca 8e 3e 79 42 b5 3e
       0.055968203 -0.12673753 0.2788894 0.35402277
0000e0 db 8d a4 3e 0a 08 bb bd 29 9b 06 3e 0e df ba bd
       0.32139477 -0.09132393 0.13145126 -0.091245756
0000f0 a6 75 3a bd 74 75 61 bd 1f de 60 3e 9a da 71 bd
       -0.045522355 -0.055043653 0.21959732 -0.059046365
000100 34 c9 e4 3d 33 e5 05 3e a3 7f 9e 3e 57 07 da bd
       0.11171189 0.13075714 0.30956754 -0.10645931
000110 3c f1 ae bd 9b 74 5d bd 51 ff a6 3e af 38 42 3c
       -0.085421056 -0.05406628 0.32616666 0.011854335
000120 d8 f7 bc 3e db 09 68 3e b9 56 20 3e ef 93 ee 3d
       0.3690784 0.2266001 0.15658082 0.1164931
000130 cd 64 74 3d 48 c7 1e 3e 2d fe 4d 3d 00 ae ed 3d
       0.059666444 0.15505707 0.05029123 0.116054535
000140 ce d2 1f 3e a6 e2 e9 bd 14 e4 1a bd 5d 4c b7 3e
       0.1560776 -0.11420183 -0.03781517 0.35800448
000150 a4 ac fa bd ea 51 c6 3d 85 db d2 3e 59 25 67 3e
       -0.1223996 0.096835926 0.41183105 0.22572841
000160 4b ec 01 3e b6 a1 0e be e6 15 88 3e fc 3e bd bd
       0.12687795 -0.13928875 0.26579207 -0.09240529
000170 96 ea 0c 3d 9d 37 9c 3c 3f ba 98 3d 85 ad f9 3d
       0.034403406 0.019069487 0.074573986 0.12191299
000180 e9 e7 b9 3e bb 95 1e 3e 8d 8a c4 3e 87 3e 99 3e
       0.36309746 0.15486805 0.38386956 0.29930517
000190 65 5f 8f bd 62 86 80 3e 18 f4 bc bd d2 14 00 bc
       -0.07000617 0.25102526 -0.09226245 -0.007817464
0001a0 4a a5 52 3e 00 02 5e 3e 68 8d ae 3e be b2 b6 3c
       0.20570865 0.2168045 0.3409226 0.022302028
0001b0 93 48 f3 3d ba da 8a 3e 09 4b 2d be 2e 3b aa 3e
       0.11879077 0.2712 -0.16923155 0.33248276
0001c0 d2 c3 02 be 43 31 fa 3d 97 43 8a 3d a1 44 1d bd
       -0.12770012 0.12216427 0.06751173 -0.038395528
0001d0 05 ed 20 3e 63 4b ba 3e dd a7 00 3d 8c 90 6e bd
       0.15715416 0.3638564 0.031410087 -0.05824332
0001e0 39 35 09 3c f8 07 34 be 67 12 81 3e dc f2 c5 bc
       0.008374506 -0.17581165 0.25209352 -0.024163656
0001f0 2b f6 a3 bd 70 af 5a bd 51 c9 93 3e 54 c6 8c 3e
       -0.08005937 -0.053389966 0.2886453 0.27495062
000200 68 e1 b0 3e df f5 66 3e 28 64 99 3c 92 4c 0f 3d
       0.3454697 0.2255473 0.018724516 0.034985133
000210 7c 03 53 3e af 43 bb 3e de 66 50 3e
       0.20606798 0.36575076 0.2035174

weight_ih_l0 f4 [405, 3]
000000 45 25 81 bd b7 db 80 bd 3e e5 d4 bd 9f ed 7a 3d
       -0.06305937 -0.06291907 -0.10395287 0.06126177
000010 cf be b1 bb 07 42 0a bd 64 ad 8f 3d c6 62 77 bd
       -0.0054243575 -0.033754375 0.070154935 -0.060396932
000020 9a 30 5c bc cb 1e 50 3c a5 f0 15 bc 58 d3 8e bd
       -0.013439322 0.012702654 -0.009151612 -0.06973904
000030 dc d8 5f bb e3 40 0a 3e 06 4c a5 3d c4 b7 f4 3d
       -0.0034156358 0.13501315 0.08071141 0.11949113
000040 a0 51 9b 3c 69 91 98 3d 01 08 e6 bc a4 57 48 bc
       0.01895982 0.0744961 -0.028079988 -0.012227926
000050 a2 be 79 bd c8 8a e3 3c 43 ac d8 3c d2 a7 2b bb
       -0.060972817 0.027776137 0.026449328 -0.0026192558
000060 d5 c5 49 bd 45 b9 a9 bd 4a ae f4 3c b8 6a 1f bd
       -0.049260933 -0.082872905 0.029868264 -0.038920134
000070 22 ef 72 3d 51 49 ba bb 14 58 1b bd f4 94 9d 3c
       0.059310086 -0.0056850095 -0.037925795 0.019236065
000080 92 f2 27 bd 8c fb e3 3d 3f fd de 3d 9c 80 e8 3c
       -0.041002817 0.11131963 0.108881466 0.028381638
000090 6a b9 f9 3c 04 03 5a 3d 30 66 50 3d 0e f2 23 bd
       0.03048392 0.053225532 0.050878704 -0.040025763
0000a0 7d d5 cc bd db fb 2f bd 8a 1f c5 3d 1c 00 0f 3d
       -0.10001657 -0.042964797 0.09625156 0.034912214
0000b0 0f c4 ca 3d a2 31 71 3d a5 95 2f bd 06 47 53 3b
       0.099006765 0.058885224 -0.04286732 0.0032238378
0000c0 cd 11 91 bd 85 fb cc bd f7 a2 cc bd d1 81 c0 3d
       -0.07083473 -0.10008911 -0.099920206 0.093997605
0000d0 46 af 80 3c a4 a4 b8 3d de 9d be 3d 21 ac e5 3d
       0.015708577 0.09015778 0.093074545 0.112144716
0000e0 5a b2 b0 3d d2 f1 ce 3d c2 ff 04 3e 6a 4b 44 3d
       0.08627768 0.10104717 0.12988189 0.047923483
0000f0 24 51 9d 3c c9 bc 8e 3c 95 3b 36 3e f3 24 47 3d
       0.01920373 0.017424004 0.17796166 0.048619222
000100 6f c2 85 bd 03 91 e3 3c 0b 9a ab 3d 31 49 d7 3d
       -0.06531226 0.027779108 0.08378991 0.10512007
000110 fc 8d c1 3d 16 6b 3c 3d 8e 29 25 bd 38 a5 4f bd
       0.094509095 0.046000563 -0.040322833 -0.050694674
000120 06 b2 e3 3d 74 36 b6 3d 2e 9a 34 bc bc dc 9a 3d
       0.1111794 0.08897105 -0.011023087 0.07561633
000130 4c 0c 24 3d e8 48 39 3d 29 aa 9c bd 9b a6 e8 3a
       0.04005079 0.045235544 -0.07649643 0.0017749848
000140 c6 17 5b bd 5a d2 8c 3d ce ac 5f bc 19 67 11 3d
       -0.05348947 0.06876059 -0.01365204 0.035498712
000150 ba fd eb 3a b6 f6 bd 3c cc 87 2e bd 36 4b 24 bd
       0.0018004694 0.02318893 -0.042609975 -0.04011079
000160 74 2d 11 be 2b 06 7f bd 09 35 ff bd 10 f4 1a be
       -0.14177495 -0.06226174 -0.124612875 -0.15132165
000170 ab f0 0a be 75 ed 10 3e 5f 76 f6 3d bc 7f 1e 3e
       -0.1356837 0.14153083 0.12034296 0.15478414
000180 bb 91 0d 3e 40 22 ee bb 12 cb 33 3c 28 e8 ac 3a
       0.13825123 -0.0072672665 0.010973709 0.0013191747
000190 c1 2e 27 bd dc ec 98 3d 86 d8 42 bd 26 c5 cc bc
       -0.040816072 0.07467052 -0.047569774 -0.024996351
0001a0 fb 9b 87 bd 0e 7e 08 bd 28 16 b1 3d 0e ab b0 3d
       -0.06621548 -0.03332334 0.08646804 0.08626376
0001b0 02 b2 78 bc 73 9f 25 bc 93 28 05 39 4e 7a e1 bd
       -0.015179159 -0.010108816 0.00012698983 -0.11009656
0001c0 8b 8e 4e bd 14 55 3e bc 0e 0c 84 3a 05 64 70 3d
       -0.05042891 -0.011616964 0.0010074393 0.058689136
0001d0 4b 56 8f 3c 54 b4 ac 3d 98 87 d2 3a 8e bf 95 3d
       0.017497202 0.08432832 0.0016062139 0.07311927
0001e0 1d 7e dd 3c e2 b6 5a bb e0 d1 00 bd 2a 3e d6 bd
       0.027037675 -0.0033373167 -0.031450152 -0.104610756
0001f0 80 83 fb bd 20 d1 2d 3a 58 a8 56 3d 7e 5b 9a bc
       -0.12280941 0.00066305883 0.05240664 -0.018842455
000200 fc 8b 72 bd 1b 95 5f 3d 07 16 2e 3d 0e 98 dc bb
       -0.05921553 0.054585557 0.042501476 -0.0067319935
000210 85 83 f8 bc 9e 3d b7 3d c2 23 3b 3d 9d 65 7f 3c
       -0.03033615 0.089472994 0.0456884 0.015588191
000220 ab 54 27 3e bf 28 16 3e 74 7b 5c bc ae a0 87 3d
       0.16340892 0.14663981 -0.013457168 0.06622444
000230 b4 7a fe bc 7c cc d0 3b b0 fc bd 3d 77 32 bd 3c
       -0.031064369 0.0063720327 0.09276712 0.023095353
000240 8f 0d 6e bb 13 b1 fe 3c 2f 6d 15 3d f9 3c 39 3c
       -0.0036324 0.031090295 0.03648108 0.011306041
000250 69 94 10 3d ee 83 da 3d f0 4f 12 3c 92 2d 48 bd
       0.035297785 0.10669695 0.008930191 -0.048871584
000260 b9 c8 0d 3c fe ad 34 3d b2 06 3b 3d 5b de 9a bd
       0.008653813 0.044111244 0.045660682 -0.07561942
000270 e8 11 2c bb e3 3f 51 bd 7b 35 c3 bc 74 6f 25 3d
       -0.002625579 -0.051086318 -0.023829212 0.040389493
000280 b0 8c 57 bd 6b c7 25 3d bd 0e c8 3d 0c ed f7 3c
       -0.052624404 0.040473383 0.09768436 0.0302644
000290 9d 82 06 bd 43 e1 71 bd c3 0b 19 bc 4a d1 bf bd
       -0.032839406 -0.059052717 -0.009341183 -0.093660906
0002a0 42 e3 9b 3c 21 a3 d0 bd 19 3a da bd 94 6c ab bd
       0.019029263 -0.10187364 -0.106556125 -0.08370319
0002b0 f7 13 8f bc 59 66 6c 3d c5 a6 37 bd 53 0c dd 3d
       -0.017465575 0.057714794 -0.04483678 0.10793366
0002c0 b0 e2 ef 3a 0b c6 55 bd 1c 84 94 bd 48 b3 1c be
       0.0018301811 -0.05219082 -0.0725176 -0.15302765
0002d0 54 da aa 3d 41 c1 71 3d 5f f0 c8 3d 59 87 98 3c
       0.08342424 0.059022192 0.09811472 0.018619226
0002e0 76 01 a7 bd e1 43 41 3d 5e 38 4d bd 19 eb 64 bc
       -0.081545755 0.047183875 -0.050102584 -0.013972067
0002f0 04 8c fd bd e9 04 0b bc f7 a2 8b bd d4 3f 8d bc
       -0.123802215 -0.008485057 -0.068181925 -0.01724235
000300 62 ce 5e bb 37 e4 b5 bd 83 e4 ce 3b d5 54 05 3e
       -0.0033997525 -0.08881419 0.006313862 0.13020642
000310 63 03 c7 3d 82 82 e5 3c aa ea 71 3c ac 61 62 3d
       0.09717443 0.028016333 0.014765421 0.05526893
000320 67 1c f5 3d 4d 8e d7 3d 1e c2 8e 3d 29 d6 28 3c
       0.11968308 0.105251886 0.06970619 0.010304966
000330 5b 90 54 3b 9d 26 e4 bd d3 28 ce bd 5e fa 97 3d
       0.0032434675 -0.111401774 -0.1006638 0.074208006
000340 13 37 70 bc 6e 79 9a 3d ca 51 87 bd f8 57 43 bd
       -0.014661568 0.07542692 -0.06607397 -0.047691315
000350 68 d6 9a bd 64 c7 03 3e 39 42 9a 3d a7 11 1a 3e
       -0.07560426 0.1286903 0.07532162 0.15045796
000360 49 63 d2 3d 66 3a c7 3d b0 c2 56 3d 7e 97 35 bd
       0.102728434 0.097279355 0.052431762 -0.044333927
000370 cc de 15 bd c1 72 dd bb cd 36 9d 3c 1e 2c ab bd
       -0.03658943 -0.0067580645 0.01919117 -0.08358024
000380 01 9f 48 3d f9 5d bc bc bf 9c af bd 11 39 77 bd
       0.048979763 -0.022994028 -0.08574819 -0.060357157
000390 d4 1c 94 3d d4 cd 98 3d 39 f9 ab bd b9 f5 c1 3d
       0.07232061 0.074611336 -0.08397145 0.09470696
0003a0 98 53 9e 3d 79 b2 ae 3d 61 3d e7 3d c6 0e aa bb
       0.07730788 0.08530135 0.11291004 -0.0051897494
0003b0 b3 cb 8f 3d f1 e1 9f 3c ad e3 26 bd ed 22 61 3c
       0.070212744 0.019516917 -0.040744472 0.013741237
0003c0 ee 90 fd 3b 0a 96 af 3d 68 f0 07 3c 9f 3b 50 bc
       0.007738224 0.085735396 0.008297063 -0.012709527
0003d0 b1 21 29 3d 27 6f 4e 3d b6 d9 94 bc 91 d3 00 3d
       0.041291896 0.050398972 -0.018170219 0.031451765
0003e0 44 ee 96 3d 47 05 d9 bc 96 8c 08 3c 2a 81 1e bd
       0.07369664 -0.026491774 0.0083343 -0.0386974
0003f0 75 d2 3b 3c 6a ba a5 bd 21 18 8e bd 08 3e e2 bc
       0.011463751 -0.08092196 -0.06938196 -0.02761747

weight_hh_l0 f4 [405, 135]
000000 66 7d 80 3d 4b e1 a5 3d f4 b4 7b bd 96 5c 05 3e
       0.06273918 0.08099612 -0.061451867 0.130236
000010 95 15 9d bb bb fc a2 3c a8 03 1a 3d b1 7e 67 bd
       -0.0047938325 0.019895902 0.037601143 -0.056517307
000020 2c 00 43 bd e8 cf fb 3c ca 5c 94 3d a7 30 1d bd
       -0.047607586 0.030738786 0.072442606 -0.038376477
000030 ce 8d cf bd 8d 0d 01 3d 28 c5 a1 3c 5a 73 e6 3d
       -0.10134469 0.031507064 0.019747332 0.1125247
000040 64 b5 dd bd 25 8d d8 bb c4 27 64 bd f1 80 b1 bd
       -0.10825613 -0.0066086226 -0.055701986 -0.08667172
000050 e2 6e 74 bc 0b a1 89 bd 49 35 90 3d 01 6c 9f bd
       -0.014919015 -0.0672017 0.07041413 -0.07784272
000060 bf 93 a9 3d b5 bd f0 bc 43 44 12 3d a3 f4 10 be
       0.082801335 -0.029387334 0.03570963 -0.14155822
000070 b7 2f 8a bd ce d1 8d bc 8d 6a 33 be 62 7d be 3c
       -0.06747382 -0.017311957 -0.17521115 0.023253147
000080 18 00 3c 3c 24 e9 3c 3b 76 16 e9 bd 33 4a cd 3d
       0.011474632 0.0028825486 -0.11381237 0.10023918
000090 7b 76 4a 3d ac cd ac bc a0 dc 02 bd 72 71 66 3d
       0.049429398 -0.021094166 -0.031948686 0.056260534
0000a0 c8 6b 2b 3e 04 37 b6 bd 44 9c e9 bc 1d ef 43 3c
       0.16740334 -0.08897212 -0.028516896 0.0119588645
0000b0 1a bb bc bd 9c b7 f6 3d 2f 6d a7 bc d8 55 ad 3d
       -0.09215374 0.120467395 -0.020437805 0.08463639
0000c0 11 33 f7 bc c8 64 1d bd bb cd 56 bd 91 2f 4d bd
       -0.030175718 -0.03842619 -0.052442294 -0.05009419
0000d0 9d 4c 90 3d 21 20 af 3d fb 0b 56 bd 55 31 dc 3d
       0.07045863 0.0855105 -0.05225752 0.10751597
0000e0 b8 5c d5 3c 5a b5 62 3d 19 71 bb 3d 12 13 7a 3d
       0.026045188 0.05534873 0.09152431 0.061053343
0000f0 63 bd 67 3d 9a 2d e4 bc 13 50 77 bd 97 13 55 3d
       0.056577098 -0.027853776 -0.0603791 0.052020635
000100 10 62 93 3c 90 e5 cd bc b4 44 a4 3c c1 7a 3a 3d
       0.017991096 -0.025133878 0.020052291 0.045527223
000110 b6 65 65 bc d2 50 c5 bd d8 52 ba bc 5d a1 50 bd
       -0.014001301 -0.09634556 -0.022744581 -0.050935138
000120 2b b0 d2 bd c5 e1 97 3b 05 74 9d 3c 85 08 a0 3c
       -0.102875076 0.004635068 0.019220361 0.019535312
000130 d5 b6 7b 3d 6c c5 85 bd db fc 93 bd 26 6f de 3d
       0.06145366 -0.06531796 -0.07225963 0.10861044
000140 a4 e1 f4 3b 10 44 1e bd 92 df 68 bd dd b8 c5 bd
       0.0074731875 -0.03863913 -0.05685384 -0.096544005
000150 4d 4e 42 3c ea d0 c9 bd b8 a6 b5 3c 3b 4b b0 3d
       0.011859489 -0.098543 0.022174224 0.08608099
000160 33 de bd bb ef 36 a7 bd 80 8f 7a 3d ef 1f b2 3d
       -0.0057943105 -0.081647746 0.06117201 0.08697497
000170 2a 5d 06 be 5f 73 5f 3d 53 02 15 3c e6 55 ab 3c
       -0.13121477 0.054553386 0.009094792 0.020914983
000180 ac 3c 24 bc 45 39 97 bd d5 20 cf 3c 73 3b 41 3d
       -0.010024231 -0.0738397 0.02528421 0.047175836
000190 37 87 41 bd cf 09 91 bd 01 d7 31 3d 0e 38 92 3d
       -0.04724809 -0.07081949 0.043417934 0.07139598
0001a0 7a b5 7d 3d b6 1a a8 3a 5e 86 3f 3d 20 6d 10 3b
       0.061940648 0.0012825343 0.046759002 0.00220377
0001b0 fb f5 96 3c 7d 54 8a 3d 41 4c b6 bc 32 99 08 bd
       0.01842784 0.06754396 -0.022253158 -0.033349223
0001c0 00 71 da bc d2 8d 59 bd 56 9d 99 3c e8 f9 75 bd
       -0.02666521 -0.053113766 0.018751781 -0.060052782
0001d0 0c d0 9c 3d a8 ac 8d bc ba 3d 56 3d 53 d6 b2 3d
       0.07656869 -0.017294243 0.05230496 0.08732285
0001e0 3f 3b 0d 3c 63 a2 57 bc 8f 34 6b 3a a8 c1 84 bd
       0.008620082 -0.013161275 0.00089723704 -0.064822495
0001f0 65 b2 8c 3d 2c eb fb bb 56 db 0e bd 78 f7 c2 bd
       0.068699636 -0.007687947 -0.034877144 -0.09519857
000200 02 80 73 3d 09 0f c6 bd b0 6d 47 3c 74 5b a9 3c
       0.05944825 -0.096708365 0.012172148 0.020673491
000210 a9 d6 af bd 18 22 e6 bd 96 d1 84 bd 68 25 62 3d
       -0.08585865 -0.112369716 -0.06485288 0.055211455
000220 66 dc 0d be 41 90 0e be f2 4a a4 3c f8 fd 6b bc
       -0.13853607 -0.13922216 0.020055268 -0.014403813
000230 1a fd ba 3d 34 71 eb 3c d8 4b 98 bc 48 ea 0f 3b
       0.091303065 0.028740503 -0.018590853 0.002195971
000240 31 e6 ca bc 9c f6 c3 bd ba 01 67 bd 66 b3 92 3d
       -0.024767967 -0.095685214 -0.05639813 0.07163124
000250 e1 25 4f bd 48 56 f5 bd 69 24 29 be bf b3 5c 3d
       -0.050573234 -0.119793475 -0.16517796 0.053882357
000260 a4 48 49 3d 2e 8c 17 3e 66 3d a6 bc 3b 48 ca bc
       0.04914154 0.14799568 -0.020292949 -0.024692645
000270 b5 63 09 be be 09 d6 bd f1 7c 9e 3c 30 eb 9e bc
       -0.13416941 -0.10451077 0.019346686 -0.019399256
000280 38 21 3d bd 0b f5 a7 bd 49 a5 b3 3d 97 ed 12 bd
       -0.046174258 -0.08201035 0.0877176 -0.035871115
000290 41 19 05 be 34 c7 60 bc 08 85 97 bd ac b3 19 be
       -0.12997915 -0.013719369 -0.073984206 -0.15009946
0002a0 58 ec 04 be b8 33 0d 3e 3c 6a a3 bc 6e 2c a6 3d
       -0.12980783 0.1378926 -0.019948117 0.08113943
0002b0 8a 79 17 bb 32 59 ca bc 42 47 fc 3d 1b 4f d5 bd
       -0.0023113214 -0.024700735 0.12318279 -0.10415479
0002c0 f7 c4 ff bd 6f ae 91 3c 78 55 d2 3c a0 18 5f 3d
       -0.1248874 0.017783372 0.02567552 0.054466844
0002d0 fd 3d 58 bb 2f 7c 13 be 66 59 c7 3b fd 73 84 3d
       -0.0032995932 -0.14402841 0.006083655 0.064674355
0002e0 c4 29 33 3d f2 b5 c2 3d 97 59 ec 3d 46 00 0b be
       0.043741003 0.095073596 0.115405254 -0.13574323
0002f0 59 3d fc bc d3 92 c8 3d 93 85 e2 bd a4 43 08 3c
       -0.030790972 0.097936295 -0.110606335 0.008316908
000300 ff 74 fd bd cf d6 9d bc db a3 86 bd 4b b4 e4 bd
       -0.12375831 -0.019267468 -0.06574222 -0.11167201
000310 bb 74 7b 3c 9d 7e 9d 3c f4 55 1b be c9 3d aa bd
       0.015347655 0.019225413 -0.15169507 -0.08312566
000320 26 72 14 be 37 d5 04 be 55 cf 68 3b 10 3e 0b bd
       -0.14496669 -0.1297196 0.003552397 -0.033994734
000330 17 74 82 3a e7 31 f6 3d 63 2a f7 3c e4 0b 4e bd
       0.000995281 0.12021237 0.030171579 -0.05030431
000340 b5 18 08 be 6e 76 2f bc d3 27 95 3d 98 13 11 3d
       -0.13290675 -0.010709388 0.072829865 0.035419077
000350 70 14 fc 3d bc b6 2e be a9 73 38 ba 2b 3a b5 bc
       0.12308586 -0.17061895 -0.00070362777 -0.022122463
000360 2c 29 a3 ba 28 46 4a 3d 2e 0f f4 bb b1 2f 26 bc
       -0.0012448183 0.049383312 -0.0074480986 -0.010143206
000370 30 14 19 be 1b 14 aa 3c d1 e3 2b be f3 7c 4d bd
       -0.14949107 0.02076154 -0.16786124 -0.05016799
000380 2b 86 99 3d 5f 0d db 3c 46 8b 70 3d e3 59 87 3d
       0.07496294 0.026739774 0.05872657 0.066089414
000390 d1 c4 bb bd dd fd 32 3d a1 36 0d 3c 38 47 bc 3c
       -0.09168399 0.043699134 0.008618982 0.022983178
0003a0 cf 61 b2 3d fd 54 01 3e bb 2c 19 be 61 d4 23 3c
       0.08710062 0.12630077 -0.1495847 0.009999366
0003b0 1c 4b ae 3c 8d ec 15 bc 28 4e a2 bd 74 54 06 3c
       0.02127605 -0.009150636 -0.07925063 0.008198846
0003c0 11 79 e4 bb bc cc d9 3d d4 b1 3b be 1e e0 6e bd
       -0.00697244 0.10634753 -0.18329555 -0.058319204
0003d0 67 87 f1 bc 07 5b 8b 3d 41 8b d6 3c ce cc ed 3d
       -0.02948351 0.068044715 0.026189448 0.11611329
0003e0 a7 b5 6c 3d c1 03 d9 bc 51 40 3c bd 41 2a 8d bc
       0.057790425 -0.026491048 -0.045959774 -0.017232062
0003f0 3d aa 99 3c 88 36 c9 3b ec 23 ab 3c 06 51 94 39
       0.018757934 0.006140534 0.020891152 0.00028289127

bias_ih_l0 f4 [405]
000000 09 c3 bc bc 25 08 e8 3d 1a 28 db bb 71 75 a9 3d
       -0.023042219 0.113296784 -0.00668813 0.08274353
000010 e8 48 cf bb cd 7c f0 3c 68 de 1f bd 86 cc 32 bd
       -0.00632583 0.029356385 -0.039030463 -0.04365208
000020 9c 21 f4 3d e4 8b 78 3d 2c 97 c0 bc d4 2f 21 3d
       0.11920473 0.060680285 -0.023509584 0.039352253
000030 f3 18 20 3d a7 b0 70 bd 27 83 19 be 0e cc 01 3d
       0.039086293 -0.05876222 -0.14991437 0.031688742
000040 7c fe dd bd 90 ac 14 bd c6 3d d7 bd 7a 84 b5 bd
       -0.10839555 -0.03629738 -0.10509829 -0.088631585
000050 b5 a1 db bd 9a 2a 88 bc ee d7 17 3c 2e 1c ef 3d
       -0.107242025 -0.016621877 0.00926779 0.11675297
000060 43 24 06 3d 64 93 9f bc c1 c3 e3 bd 8b 4e d0 bd
       0.032749426 -0.019479461 -0.111213215 -0.10171231
000070 73 41 a3 bd 6f 14 1a be cd fd 10 3c e8 b4 7e 3c
       -0.07971468 -0.15046857 0.008849573 0.015546061
000080 27 28 71 3d b0 de ad bd 9a 65 0c bc d7 bd 60 3d
       0.058876183 -0.0848974 -0.008569146 0.054868545
000090 ab 65 41 bd b8 8e d0 bd e0 07 6c bd bd 9e a1 3d
       -0.0472161 -0.101834714 -0.057624698 0.07891605
0000a0 28 af 89 3d 2d b1 23 3d d3 ec f0 bd fd 4a 92 3d
       0.067228615 0.03996389 -0.11763921 0.07143209
0000b0 58 18 47 3d 15 56 16 3a 95 e0 27 3c a4 45 b2 bd
       0.0486072 0.0005734873 0.010246416 -0.08704689
0000c0 25 9e 65 3d 28 42 7e 3c ca 2f a3 3c de b9 24 bd
       0.05605902 0.015518703 0.019920249 -0.04021632
0000d0 9b 4d 9f 3d e5 07 2f 3c 88 96 b7 3d e2 5f a5 bd
       0.07778474 0.010683035 0.089642584 -0.08074929
0000e0 33 71 85 3d c1 04 91 bd b8 f2 ee bd 87 fb 91 3d
       0.06515732 -0.07080985 -0.11667389 0.07128053
0000f0 22 ea d3 bc 34 23 ec bc c7 2e bd bd 1a 57 d8 3d
       -0.02586848 -0.02882538 -0.09237438 0.10563488
000100 4d 8f 92 3c 06 52 9f bd 44 2a ba bd c1 e2 a5 bd
       0.017890597 -0.077793166 -0.09090093 -0.080998905
000110 a3 bd 75 bd 82 4a 8c bc 06 33 63 bc f5 22 d6 3d
       -0.059995305 -0.017125372 -0.013867145 0.10455886
000120 75 98 92 bd e0 1e 05 bd 6d bd 0b 3d 4a 95 0b 3d
       -0.07157985 -0.032500148 0.034116197 0.03407792
000130 70 83 21 be cf f9 d9 3c a0 47 ae 3d 70 2c c0 bc
       -0.15772796 0.026608376 0.08509755 -0.02345869
000140 05 1e c2 bd df 4d 78 3c f1 9c c2 bd 6e 76 4a 3d
       -0.09478382 0.015155285 -0.095025904 0.04942935
000150 ba 77 a7 bd 51 17 50 bd f2 26 b4 bd 00 96 fa bd
       -0.08177133 -0.050803486 -0.08796491 -0.122356415
000160 2a f7 36 bc 5e d6 ae 3c dc 71 83 3d a4 76 f2 3c
       -0.011167327 0.021342453 0.06418201 0.029597588
000170 5e b6 b6 3d 3c fa 32 3d 22 01 2b 3c 4b dc 95 3c
       0.089215025 0.043695673 0.010437282 0.01829352
000180 1a d4 75 3c 26 f7 93 bd a5 57 39 bc 86 34 e5 3c
       0.015004182 -0.07224874 -0.0113124 0.027979147
000190 1b 23 0a 3c 9d 2f 87 3c b3 1c 90 3d 79 5f d2 bd
       0.008431221 0.016502196 0.07036724 -0.10272116
0001a0 c7 d3 02 3e d2 65 24 3d 69 69 b3 bd 3b ef 51 3d
       0.12776099 0.040136166 -0.0876034 0.05125354
0001b0 33 4b 27 3d 01 c9 80 bd 0d 77 70 3c 5e c1 4c bd
       0.0408432 -0.062883385 0.014676821 -0.049989097
0001c0 b4 b9 a9 3c fa 83 ea 3d 86 8c e1 3d 5a c7 f6 3c
       0.020718433 0.11450954 0.11013131 0.030124355
0001d0 29 9b bc bc d7 05 f0 3d 2f d2 15 3d 9f d5 03 3d
       -0.023023205 0.11719864 0.0365774 0.032186147
0001e0 73 5e 0d be 1b a8 f8 bc b4 7a 77 3c 48 e7 d8 3c
       -0.13805561 -0.030353596 0.015104938 0.026477471
0001f0 3f 89 29 3e 72 90 9c 3c f8 4c b2 3c fc 72 39 3e
       0.16556261 0.019111846 0.021765217 0.1811027
000200 ad a4 99 bd 7b 40 04 3d 14 5e 3b 3d a9 99 e7 bc
       -0.075021125 0.032288056 0.045744017 -0.028271513
000210 6b 08 26 bd 9f 64 10 3e b5 18 85 3d d9 8e 1d 3e
       -0.04053537 0.14100884 0.06498853 0.15386523
000220 51 35 34 be 9f e3 b6 bd 3f 5e 90 3d 54 3f ae bd
       -0.17598464 -0.08930134 0.07049226 -0.08508173
000230 80 db ab 3d ab 83 0d 3e a5 4d ce 3d 92 94 f5 3c
       0.08391476 0.13819759 0.10073403 0.02997807
000240 1a 25 92 bd c9 16 6b bd f3 d1 b8 3c a7 87 7c 3c
       -0.07135983 -0.057394776 0.02256105 0.015413201
000250 28 68 5f bc 8a 4b af bb 33 fa 67 bd 48 72 01 3e
       -0.013635673 -0.005349581 -0.056635093 0.12641251
000260 39 64 10 3d 80 64 71 3d 9a 77 fa ba 1e 7a 9d bc
       0.03525183 0.058933735 -0.001910913 -0.01922327
000270 0a 5b 67 3d a6 be a9 bc 69 b5 42 be d5 26 cf bd
       0.056483306 -0.020720791 -0.19014515 -0.101148285
000280 cb 82 84 3d 50 88 b1 bd a1 ca 8b bc 65 86 d7 3d
       0.06470259 -0.08668578 -0.017064394 0.105236806
000290 22 91 b9 bd 24 3e 90 3b 8a 8c 24 39 07 1d e4 bb
       -0.09060885 0.004401939 0.00015692614 -0.006961468
0002a0 b1 13 c6 bd 85 6f 1c bd da 5d 7d bd 70 3a 36 bd
       -0.096717246 -0.03819229 -0.061857082 -0.044489324
0002b0 45 00 d2 3d be 4a e7 3c 21 f9 51 be 9a 26 87 bd
       0.10253958 0.028233882 -0.20505191 -0.065991595
0002c0 50 45 3f bd 1b 89 a5 bd f4 63 ec 3d 2b cb 36 be
       -0.04669696 -0.080827914 0.11542502 -0.1785094
0002d0 10 6b e3 bc a8 e9 61 3d 73 92 8d bd 0a 32 81 3c
       -0.027761012 0.055154473 -0.069126986 0.01577093
0002e0 18 7b 49 bd 5d 9d 9f bd b3 59 81 3d cf a9 08 be
       -0.049189657 -0.077936865 0.06315937 -0.13346027
0002f0 dc 60 3f bd 1a 8d f4 bc 61 d1 f8 3c af 85 cc bd
       -0.04672323 -0.029852439 0.030373277 -0.099864356
000300 76 51 4f bd a4 f8 b8 bc 7a 8e 8e 3d 14 bd d9 bc
       -0.050614797 -0.022579499 0.06960769 -0.026579417
000310 c3 42 17 bd b2 2b ed 3b b2 a8 03 be 97 bf ce bd
       -0.036928903 0.007237875 -0.12857321 -0.100951366
000320 58 0a 8d bd f7 7c b5 bd 95 23 26 3d af a0 96 3c
       -0.068867385 -0.08861726 0.040561277 0.018387167
000330 a1 63 4c be c8 6d 11 3d 28 c8 84 3b 27 ef 64 bd
       -0.1995988 0.035505086 0.004052181 -0.055892136
000340 d0 4f 96 bc 8e 9c 29 bc 0e a5 1d 3d 3a 06 92 bc
       -0.018348604 -0.010352267 0.038487487 -0.017825235
000350 68 c2 16 be 08 72 88 bd fa c2 80 bd 46 16 a3 3d
       -0.14722598 -0.06662375 -0.06287189 0.07963233
000360 13 b8 e0 bd 59 f6 94 bd 1e ab 00 be 41 66 d6 3d
       -0.10972609 -0.072735496 -0.12565276 0.10468722
000370 3b 8a 0e 3d 0e af a7 3b 19 0b e1 bd 42 94 0d 3d
       0.034799796 0.0051173037 -0.10988445 0.034565218
000380 c7 bf 23 3d 5a b9 bb 3c fe b3 84 bd 1d cb b2 bc
       0.039977815 0.022915531 -0.06479643 -0.021825368
000390 4c 50 95 bd 7c bf c2 bc ff 48 13 bd 7f ca 8d 3d
       -0.07290706 -0.023772947 -0.035958286 0.06923389
0003a0 ac 79 04 bc 0c e1 0d 3d 42 7a d0 bd 26 0e a7 bd
       -0.008085649 0.03463845 -0.10179569 -0.081569955
0003b0 13 2d 10 bd 51 e8 c4 3d 9f ac 29 be bd 35 65 bd
       -0.035199236 0.09614623 -0.16569756 -0.055959452
0003c0 c5 36 af 3d e8 fa 01 bb 8d 7c 16 bd 46 6d 83 bd
       0.08555368 -0.001983339 -0.036739875 -0.06417327
0003d0 ce a7 c3 bd 90 1c 6a 3d 1e cb 24 bd b2 d9 a4 bd
       -0.095534906 0.057156146 -0.04023277 -0.080493346
0003e0 05 9b 07 be cd 0c a5 bd 96 e1 e0 3c ba 1d 17 3d
       -0.13242729 -0.08059082 0.027451318 0.036893584
0003f0 37 6d 03 be 7c 12 71 bd f6 79 9f bc ea 10 e5 bd
       -0.12834631 -0.05885552 -0.019467335 -0.11184867

bias_hh_l0 f4 [405]
000000 57 de c1 bc 30 7c ba 3d 55 57 91 bd 6a 15 e8 3c
       -0.02366559 0.09105718 -0.070967354 0.028330524
000010 3e 16 4f bd 8a 5d 48 3c ab d1 b2 bd 9b d0 7b bc
       -0.05055832 0.012229333 -0.08731397 -0.01536956
000020 b0 18 8d 3d aa 14 a9 3d d4 fb c0 bd 2a fa b8 3c
       0.068894744 0.082558945 -0.094230324 0.022580225
000030 3b a2 09 3d 2e ca ba 3c db dd 23 be 3c 83 a5 bc
       0.03360198 0.022801485 -0.160026 -0.020204179
000040 19 73 32 3c 42 2f c2 bd f5 ca 38 bd 3a a7 0f be
       0.010891699 -0.0948167 -0.04511543 -0.14028636
000050 1f 20 52 bc 49 c7 59 bd 6c 64 e1 3c a8 d0 c4 3d
       -0.012825041 -0.05316857 0.027513705 0.096101105
000060 67 64 be 3d fb 6a 93 bd 09 de 9e bd 4f 3f 97 bd
       0.09296494 -0.07198139 -0.077571936 -0.07385122
000070 98 f5 65 bd 5e 1f 21 bd b9 7f e5 bd b6 7b 11 3d
       -0.05614242 -0.039336555 -0.11206002 0.03551837
000080 d3 af a2 bd bf f8 0b be 5f fe 34 3b eb 13 1c 3c
       -0.07943692 -0.13669108 0.0027617437 0.009526233
000090 e9 f4 35 3d cc 92 8f bd 01 6f ef 3c 9f a5 1a 3b
       0.044423018 -0.07010421 0.029227735 0.0023597253
0000a0 39 f7 eb 3d d9 ac 9c bd ed 88 b7 3c 77 01 a7 3d
       0.11521763 -0.076501556 0.022404158 0.08154576
0000b0 42 bc a1 3d 43 1d c5 3b f0 1c 99 bd eb 60 db bb
       0.078972355 0.006015451 -0.074762225 -0.006694903
0000c0 c9 9c 25 3d e3 45 15 3d a2 38 07 bc a1 fe 44 3d
       0.040432725 0.036443602 -0.008253248 0.048094396
0000d0 96 be 62 3d 17 09 d8 3c 51 dc 67 3d 03 85 11 3d
       0.05535754 0.026371522 0.056606594 0.03552724
0000e0 ba d2 83 3d 38 02 11 be 01 08 f9 bd ee b5 13 3d
       0.06436677 -0.14161003 -0.1215973 0.036062174
0000f0 e7 96 56 3d 1d fa dd bc 19 d0 3b bd 12 54 8a 3d
       0.052390005 -0.027096802 -0.045852754 0.067543164
000100 bc 35 4d 3c e3 a7 26 bd ee a9 5a ba d6 84 c8 ba
       0.012525018 -0.040687453 -0.00083413615 -0.0015298377
000110 86 c3 b1 bd c7 05 95 bd 27 b6 27 bd 34 8c df 3c
       -0.08679871 -0.072764926 -0.0409452 0.027288534
000120 13 c0 95 bd be 86 c8 3b ed cf df 3c 83 c8 f3 3c
       -0.07312026 0.006119578 0.027320826 0.029758697
000130 6c a0 c8 ba 32 84 4c 3c 24 1d 00 3d 0d 66 4d bb
       -0.0015306599 0.01248269 0.03127779 -0.0031341345
000140 ad 28 92 bd 48 83 16 bd 50 1b ad bd c3 db f5 bb
       -0.071366645 -0.036746293 -0.08452475 -0.0075030043
000150 1c eb c2 bd b0 20 df bc 0c f8 8e 3d b0 f1 6c 3b
       -0.095175 -0.027237266 0.06980905 0.00361548
000160 1b 56 7e bd 25 85 59 3d 9f bf ea 3d c2 83 a8 bd
       -0.062093835 0.053105492 0.1146233 -0.08228256
000170 c3 c9 45 3e c9 80 ef 3c f7 5c 8f bd a2 a3 98 bc
       0.19315247 0.029236214 -0.070001535 -0.018632714
000180 e8 6a 90 3c 60 dc 2e bd c8 7c 18 3d 0d c1 76 bc
       0.017629102 -0.042690635 0.037228376 -0.015060675
000190 a5 cb 60 3d b6 d3 a5 bd 62 73 6a 3d 98 49 35 bd
       0.05488171 -0.08097021 0.057238944 -0.044259638
0001a0 f0 5c d6 bc bf 68 26 bd 60 f1 50 3d 38 e8 3e bd
       -0.026167363 -0.040627237 0.051011443 -0.04660818
0001b0 de f4 ae 3d 96 c6 de bd c7 da f2 bc 8c dd a6 3c
       0.085427985 -0.10877721 -0.029645337 0.020369314
0001c0 45 7f 51 bc 04 49 75 3d 2d da 8c 3d a4 60 89 3c
       -0.012786691 0.059884086 0.06877551 0.016769715
0001d0 19 ed 7d bd d2 39 cd 3d db 7b a3 bd ad 24 32 bd
       -0.061993692 0.10020794 -0.07982608 -0.043492008
0001e0 be 4f 93 bc fc 8e 41 bd 5a 89 d7 bd f8 bc cd 3c
       -0.01798236 -0.0472555 -0.105242446 0.025114521
0001f0 a8 4b bf 3d 7a 33 93 bd 9d e1 5e bd 7c 19 3b 3e
       0.09340602 -0.07187553 -0.05441438 0.1827144
000200 65 9f 8f bd be fb a2 bd fc 47 4e 3c 98 9f fb bc
       -0.07012824 -0.07958172 0.012590405 -0.030715749
000210 14 f0 bb bd 5b f5 db 3d 64 b3 c2 3d b5 37 ec 3d
       -0.09176651 0.10740157 0.09506872 0.11534063
000220 03 9b 37 be a5 c5 9d bd 0e a4 fe bc 75 0b e2 bd
       -0.17930226 -0.07703713 -0.031084087 -0.110373415
000230 9c 14 62 bb 29 83 16 3d 03 59 06 3e dd bc ec 3c
       -0.0034497147 0.036746178 0.13119893 0.02889865
000240 29 26 95 bd cb 0c 59 bc f6 af 50 bd b8 59 dc bc
       -0.07282669 -0.013247679 -0.05094906 -0.02689825
000250 78 4b 33 bd 3a 35 83 bd 58 97 92 bc ee ac 51 3d
       -0.043773144 -0.064066365 -0.017894432 0.05119031
000260 2b 2f 51 bd b7 29 ae bd d1 6c 2a 3d e9 4e fd bd
       -0.051070374 -0.0850405 0.04160768 -0.123685665
000270 83 a2 c3 3c 11 81 e0 bd 05 93 7f bd 59 8f f2 bd
       0.023881203 -0.109621175 -0.062396068 -0.11843748
000280 72 c0 40 3d f8 22 89 3b f7 ee b1 bd cb 53 81 3d
       0.04705853 0.004185077 -0.08688157 0.0631481
000290 f3 e7 ea 3b 6b df 23 b9 e4 a8 b6 bd 49 aa 8e bd
       0.007168764 -0.00015628121 -0.08918932 -0.06966073
0002a0 58 f3 0c bd 8e 04 5c bd 91 d6 80 bd ad 3e 28 3d
       -0.03441176 -0.05371528 -0.06290925 0.041075397
0002b0 31 46 b3 3d 09 f2 bf 3b 35 50 3b be d7 79 35 bc
       0.08753622 0.0058577103 -0.18292315 -0.011076412
0002c0 37 40 f2 3c c6 f6 e5 bc a8 6e 0a 3e 8e 20 63 be
       0.029571636 -0.028071772 0.13518775 -0.22180387
0002d0 10 db 99 bd 26 bf 6f 3d ac 77 fb bd 95 7e 8d 3c
       -0.07512486 0.058531903 -0.12278685 0.017272273
0002e0 50 c0 c3 bd cb 3b 6d bd 9d c6 15 3d 5f 20 dc 3b
       -0.09558165 -0.05791835 0.036566366 0.006717726
0002f0 ab 5f ae bd 2e c3 0a bd 88 2a b7 bd c0 bb 3e ba
       -0.08514341 -0.033877544 -0.08943659 -0.0007275902
000300 7b 8a d5 bd e7 d9 32 bd ff 9c 2a 3d 4d 8b a6 3d
       -0.10426804 -0.04366484 0.04165363 0.08132038
000310 bd ff 8f bd 30 c1 2f bb 66 23 7c bd e1 07 4a 3d
       -0.070312 -0.002681803 -0.061557196 0.04932392
000320 f1 99 11 3d 6d 63 bb bc 47 69 cc bd e6 9f 93 3c
       0.0355472 -0.022874558 -0.099810176 0.018020581
000330 1f 73 f7 bd 22 58 4d bd bf 88 2e bc 85 6d 24 bc
       -0.120825045 -0.050132878 -0.01065272 -0.010035877
000340 3e 74 05 be ac 3d 92 bd e3 a6 8f 3d 61 de 8c 3d
       -0.13032624 -0.07140669 0.07014253 0.06878353
000350 73 9a 33 be 42 2e f5 bc 08 41 98 3d e8 89 a1 3a
       -0.17539386 -0.029929284 0.07434279 0.0012324424
000360 13 4a ad bd 75 da 00 3a 25 c9 cb bd d9 e0 95 3d
       -0.08461394 0.0004915365 -0.09950475 0.07318277
000370 87 c2 97 ba 83 2e 28 3d cf 4b 87 bd a7 75 15 bd
       -0.0011578359 0.041059982 -0.06606256 -0.036489155
000380 01 b6 c2 39 69 cb 0a be c3 89 11 bd d9 bb 16 be
       0.00037138167 -0.13554157 -0.03553177 -0.14720096
000390 ce 01 4e bd f6 dc d5 3d 16 6a a3 3d ca 00 42 3d
       -0.05029469 0.104425356 0.07979219 0.047364034
0003a0 1d 45 f5 3b 70 ac c7 bd 4d d1 d0 bd df 82 bf 3c
       0.0074850456 -0.09749687 -0.10196171 0.023377834
0003b0 23 6c aa bc 01 25 c9 3d 58 11 46 bd 96 28 8d bd
       -0.020803517 0.09821511 -0.048356384 -0.06892507
0003c0 57 52 a4 3d b7 a3 ec 3d 2e 91 f5 bc 37 29 a5 bd
       0.080235176 0.11554664 -0.029976454 -0.08064502
0003d0 b3 cc 7a bd 9f 11 8d bd bb 59 f4 bd eb a9 f1 bc
       -0.061230373 -0.068881266 -0.11931177 -0.029499969
0003e0 4b cd 3c be 38 9d 7a bd 9a eb 63 3d 46 f0 77 bd
       -0.18437688 -0.06118509 0.05564461 -0.060531877
0003f0 4a b2 34 bd 6b 5d 06 bc 3f 62 17 bd 16 8a 82 3c
       -0.044115342 -0.0082009835 -0.03695893 0.015934985

weight f4 [1, 4, 1, 12, 12]
000000 30 2b 20 be f3 91 83 bc 57 5f 46 3d 5c 13 99 3d
       -0.15641475 -0.016060805 0.048430767 0.07474396
000010 a0 20 0c be 73 2c d9 3c d7 c5 e9 3c ae 86 23 3d
       -0.1368432 0.026510453 0.02853672 0.039923362
000020 e3 46 16 3d 6b 9c 0f 3d 89 ba 89 bd 78 fc 5c bd
       0.036688697 0.03506128 -0.06725032 -0.05395171
000030 6a c9 b0 bd 57 85 0b 3d fa 03 78 3c 5e 6c b0 3d
       -0.08632167 0.03406271 0.015137667 0.086144194
000040 32 bd bb 3c 9a 7d ad bc 8c 52 d8 bc dd c7 be 3c
       0.022917364 -0.021178056 -0.026406549 0.023288662
000050 11 e8 0b 3d 7f 08 8a bc b8 c5 36 3d a3 ae e9 bc
       0.034156863 -0.016849754 0.044622153 -0.028525656
000060 4f af d9 bc ff 88 4c 3d f3 ef 8f bc 1f 1f 6d 3d
       -0.026572851 0.049935337 -0.017570471 0.057891008
000070 13 39 51 bd f7 e6 d1 3c 9b fc 7e 3d 79 49 82 bd
       -0.05107982 0.025622828 0.062252622 -0.0636167
000080 ca 07 09 3e 6e 97 96 3d b9 a8 58 bd 8c b9 05 3e
       0.13381878 0.07353102 -0.05289528 0.13059062
000090 8e cb b4 bb 23 fc 10 bc ea 41 ea bd 87 77 23 be
       -0.0055174297 -0.008849177 -0.11438353 -0.15963565
0000a0 39 b8 08 bd 79 3c 43 3c f6 ee 03 3c 4b d7 12 bd
       -0.033378813 0.011916273 0.008052578 -0.03584985
0000b0 ea 08 52 3d 00 b6 a6 3d 0c f9 49 3b 6e 89 98 bd
       0.051278032 0.081401825 0.003081861 -0.07448088
0000c0 b6 a6 26 bb a1 e4 78 bc c1 8f 3e 3e a8 b2 1a 3e
       -0.0025428957 -0.015191228 0.18609525 0.15107214
0000d0 b5 bf 01 bd 05 3e ce 3c 8f f9 75 3d 47 02 a9 3d
       -0.031676967 0.025176058 0.06005245 0.082523875
0000e0 68 18 bb bc e1 e0 01 be 38 02 aa 3c f8 0e 7a 3d
       -0.022838786 -0.1268344 0.020753011 0.06104943
0000f0 6c fc 99 bd 70 04 98 bd ad f9 18 3d 83 9a b9 3d
       -0.07518849 -0.074227214 0.037347484 0.09062674
000100 1a 1a 07 be c6 b5 12 bc db d7 52 3e e3 69 e0 3c
       -0.1319355 -0.008954471 0.20590155 0.02739424
000110 e6 6d 84 bd c2 27 df bc 6a ff ae 3b f0 da 12 be
       -0.06466274 -0.027240638 0.0053405063 -0.1434133
000120 e7 01 33 3c 76 b5 80 3d 3a 05 cd 3d 4c e0 af 3d
       0.0109257465 0.06284611 0.100107625 0.08587703
000130 7e 0f c6 3d 22 2d 94 3d f4 98 d4 bc 09 fb 47 3d
       0.09670924 0.07235171 -0.02595184 0.04882339
000140 bf 6e f1 bc f0 63 c0 bd 56 a8 e6 3c 42 09 07 bd
       -0.029471753 -0.093940616 0.02815644 -0.032967813
000150 76 62 38 3d 4b 61 95 3d 3c 4e db 3d cc 72 a7 3d
       0.045015775 0.07293948 0.107082814 0.08176193
000160 50 f7 38 3c 22 3e 16 be af 7d bd bc 5d 00 bd 3d
       0.011289433 -0.1467214 -0.02313122 0.09228585
000170 22 2a d4 bd 57 00 8c bc 31 be 9e 3d 7f 4a ce 3d
       -0.10359599 -0.017090006 0.0775112 0.10072803
000180 71 2c 44 bc 57 f8 b9 bc b4 a9 cf 3d a5 2b 0b 3e
       -0.011973486 -0.022701425 0.1013979 0.13590868
000190 5e 95 c9 bc ab c1 90 3d 80 79 de 3c 21 06 a9 3d
       -0.024607357 0.07068189 0.027157545 0.08253122
0001a0 5d 74 ec 3c cc 11 60 3d b3 a2 10 bd 6e 89 58 3d
       0.02886408 0.054704472 -0.035311412 0.05286544
0001b0 85 32 b9 3d 7e 77 01 3d 36 5f c3 bd 25 d7 06 be
       0.09042839 0.031608097 -0.095396444 -0.13168009
0001c0 c4 6b c8 3d 77 43 95 3d fa 05 08 be 10 58 58 bd
       0.0978618 0.072882585 -0.1328353 -0.052818358
0001d0 4c 10 ca 3d 65 52 6b 3d 19 52 48 3d e4 eb 7d bc
       0.0986639 0.057451624 0.04890642 -0.015498135
0001e0 fc bb 6a 3c cf 6b ad 3d b5 d6 f2 bc c0 f8 eb bc
       0.0143270455 0.084678285 -0.029643396 -0.028805137
0001f0 c7 a8 9d 3c b1 3c 4e 3c 2c 1e 97 3d ba d2 53 bd
       0.019245518 0.012587712 0.07378802 -0.051714636
000200 d8 a1 81 3c 76 8c ac 3c 38 df d3 bc 96 e9 0b 3e
       0.015824243 0.02106307 -0.025863275 0.13663325
000210 eb ab 97 bd b3 5b 30 3c c0 06 7e 3b 15 39 81 3d
       -0.074058376 0.01076405 0.0038761348 0.06309716
000220 6a d1 5e 3d 82 6f 2e bd 94 41 ac 3c 32 a9 02 bd
       0.05439893 -0.04258681 0.021027364 -0.03189964
000230 24 36 6b bd ef 03 ca 3a d1 8f 23 3d c5 a8 71 bd
       -0.05742468 0.0015412549 0.039932076 -0.05899884
000240 da 6a 5e 3d 26 55 fd 3c cf dc 03 be a7 02 41 3c
       0.05430112 0.030924391 -0.128772 0.0117804175
000250 01 17 d2 3d be 84 c4 bc de a6 ab bd cc c9 42 bd
       0.10258294 -0.023989078 -0.08381437 -0.04755573
000260 22 7f 61 3d ec e8 f6 bc ae 9f 4b bd 8a 0b 36 3d
       0.055052884 -0.030140363 -0.04971283 0.0444446
000270 e2 55 f6 3d 6e 47 21 3b 90 df a9 bc 35 1b 66 3d
       0.120280996 0.0024609226 -0.020736486 0.05617829
000280 fa ef ae bc f5 52 10 bc dc f9 ab 3d 31 2a 12 bd
       -0.021354664 -0.008808841 0.08397266 -0.035684768
000290 cb 4a 34 3d 0a 6f ad 3d 20 78 12 bd 36 85 21 3e
       0.04401664 0.08468445 -0.03575909 0.15773472
0002a0 70 48 a4 3d 08 70 69 3d 7e 08 1b ba f0 95 52 3c
       0.08021629 0.056991607 -0.0005914046 0.012853131
0002b0 01 fc 30 3d 18 d2 9b bd 2f b1 95 3c 21 76 61 3c
       0.04320908 -0.076084316 0.018272964 0.013761074
0002c0 a2 71 f8 3c 3e 5a f8 3d f7 a4 82 3d b1 e9 e0 bb
       0.030327622 0.12126587 0.06379121 -0.0068637957
0002d0 98 02 56 3d 8d 8b 51 be 3f 65 d0 bd bf 61 41 bd
       0.052248567 -0.2046339 -0.10175561 -0.04721236
0002e0 f1 6b 21 bc 3a 73 1e bd fc 41 68 3d 10 e2 aa bd
       -0.009852395 -0.038684107 0.056703553 -0.08343899
0002f0 50 3c 7d bd e9 af 1d 3d 51 13 89 bd 4d f8 58 bc
       -0.061825097 0.03849784 -0.066931374 -0.013242793
000300 9f e9 ee 3d cb 65 fc bc 7c 50 58 be fb c5 62 be
       0.116656534 -0.030810257 -0.21124452 -0.22145836
000310 d7 b3 bc 3c aa 8f 4d 3d bf c2 d5 bd 6b a0 46 be
       0.023034973 0.050185837 -0.104375355 -0.19397132
000320 6f 3e 2c 3e 4a ed 4e 3e c9 a3 50 bc 13 cb db 3d
       0.16820692 0.20207706 -0.012734362 0.10732093
000330 d6 d3 c9 bd d1 c1 76 bb a1 20 d0 3b 56 73 34 3d
       -0.098548576 -0.0037652145 0.006351546 0.044055305
000340 b4 ec a5 3b a3 d9 20 3d 18 e3 ac bd c9 4d 64 bd
       0.0050636176 0.039270055 -0.08441752 -0.055738244
000350 b2 15 ae 3a 7f a1 7f 3d 5b ed 9f bd 32 75 10 bc
       0.0013281612 0.062409874 -0.07808944 -0.008817004
000360 61 29 ac 3d b7 32 61 bd 0b bf cd bd d8 8a f5 bd
       0.0840633 -0.054980006 -0.10046204 -0.11989373
000370 d0 7a 84 3d a6 87 30 3d 0f 0b 93 bd 35 82 b2 3c
       0.06468737 0.043098114 -0.07179844 0.021790603
000380 8d 06 be 3c eb 63 9e 3d 26 a2 3c 3c 41 84 f1 3c
       0.023196483 0.077339016 0.011513269 0.029482009
000390 ef 1c 81 bd f7 17 dd bd db d1 03 bd b0 61 7a 3d
       -0.06304347 -0.107955866 -0.032182556 0.06112832
0003a0 ae dd 28 be 80 00 80 3c 62 54 90 3c 5c a9 a5 bc
       -0.16490814 0.015625238 0.017618362 -0.020222358
0003b0 24 13 aa 3d b0 d3 2a 3d 26 96 8f 3c f8 3b b1 bc
       0.08304432 0.041705787 0.017527651 -0.02163504
0003c0 82 94 b7 3d ab 53 f1 3d 0a 45 3d be d6 ac 1a be
       0.089638725 0.117835365 -0.18483368 -0.15104994
0003d0 5a 33 0b 3e be 54 6e 3e ca 2e 68 bd 48 a7 5d be
       0.13593808 0.23274514 -0.056685247 -0.21645844
0003e0 d3 70 61 3c 16 a3 a4 3d f8 36 3a bc 13 82 ba 3d
       0.01375981 0.08038919 -0.011365645 0.09106841
0003f0 26 61 55 bd 0b 47 ac bc 68 d5 a5 bd 8e 65 67 bd
       -0.0520946 -0.02102997 -0.08097345 -0.056493334

weight f4 [12, 12]
000000 2f 72 94 3e 57 b1 61 be 1d 54 06 be 54 71 be bd
       0.28993365 -0.22040306 -0.13118024 -0.092989594
000010 23 42 20 3e 81 1f 05 3e f5 62 0a 3e 80 6d 8c bd
       0.15650229 0.13000299 0.13514312 -0.06856823
000020 08 1b 42 be 38 91 a2 3e 17 aa f9 3d fd 72 bf bc
       -0.18955624 0.31751418 0.12190645 -0.02337026
000030 8a 2d 16 3e 89 3c 39 be a5 80 88 3e c6 a4 75 bc
       0.1466581 -0.18089499 0.26660648 -0.014992898
000040 cd 63 0d 3e 6e a0 6a 3d 6b 39 65 3e c9 a0 9f 3d
       0.13807602 0.057281904 0.22385184 0.07794339
000050 b0 2e c0 be 3d 78 b4 3d 30 82 72 3e 27 42 c7 be
       -0.3753562 0.08811996 0.23682475 -0.38917658
000060 01 cb b7 bc 69 56 93 bd 9d fa 81 3e 63 45 96 3e
       -0.022435667 -0.07194216 0.25386515 0.29349813
000070 b1 88 22 3e 45 91 52 3e 09 a0 f3 bd 18 de 67 be
       0.15872456 0.20563228 -0.11895759 -0.22643316
000080 d9 c4 ba be 63 ac 55 be dd e5 36 3e 69 69 85 be
       -0.36478308 -0.20866542 0.17861123 -0.26056984
000090 6f ad 77 3c ef cb 14 be 35 2f 26 be 33 90 b9 bd
       0.015117033 -0.1453092 -0.16228946 -0.09060707
0000a0 50 67 9a 3d c2 c6 6c 3d 36 49 86 3d 53 bb 0e be
       0.075392365 0.057806738 0.06556933 -0.13938646
0000b0 a4 94 e5 3d 11 76 8b bd e3 1f 73 3e 31 de 9d bd
       0.112099916 -0.06809629 0.23742633 -0.07708395
0000c0 32 38 87 3e 42 73 58 be ed 06 18 be 9e ff 84 be
       0.2641006 -0.21137717 -0.14846392 -0.2597627
0000d0 51 47 de bc 2e 8c c2 3d 99 8a 6f 3d 5a f7 09 3e
       -0.027133616 0.094993934 0.058481786 0.13473263
0000e0 eb ab 6c 3d b0 55 04 3e 01 fe 53 be 64 f4 34 3e
       0.05778114 0.12923312 -0.20702364 0.17671353
0000f0 05 bd 81 bd d3 41 1a 3e 8c f9 fc bd cf 35 7c 3d
       -0.06334881 0.15064172 -0.12352285 0.061574753
000100 67 41 8e 3e 4a 87 65 3d 2b b2 73 be 7e 52 1f be
       0.27784273 0.056037225 -0.23798434 -0.15558812
000110 94 3f 4b be c9 4c 5e 3e 40 36 3c 3d b4 35 b8 bd
       -0.19848472 0.21708979 0.045950174 -0.08994618
000120 f6 f5 6c 3c 98 ab e1 bb a3 75 92 3c 22 02 2b be
       0.0144629385 -0.0068869106 0.01787836 -0.16700032
000130 3f cc cb bd f5 cb ba 3d 8c a2 c5 3d eb ed 37 be
       -0.09951066 0.09120933 0.09650144 -0.17961852
000140 e6 ff fb 3d d3 50 5b 3e 1f a8 58 be e0 e4 80 3e
       0.12304668 0.2141755 -0.21157883 0.25174618
000150 cb 8f c4 bd e6 8f 25 be 0b 26 38 3e f9 a4 23 be
       -0.09597739 -0.16168174 0.17983262 -0.15980901
000160 f2 41 6c 3d 21 3b 34 be 43 1f 81 3e d4 50 54 3e
       0.057680078 -0.17600681 0.25219163 0.20733958
000170 7d 08 ba 3c c9 59 b1 bc c5 52 93 3d 6d 9f 9c be
       0.022709126 -0.021649258 0.071935214 -0.30590382
000180 23 d1 25 3e 6f c1 65 3b 2c 52 b0 3e 32 f8 95 bd
       0.1619306 0.0035057922 0.34437692 -0.0732273
000190 f2 1e dc 3d 20 cd 88 be 0d 38 5e be e4 cf 2b be
       0.1074809 -0.26718998 -0.21701069 -0.16778523
0001a0 ac 4d 71 be a8 13 78 be af 7c 28 3e e2 60 2f be
       -0.23564786 -0.24226248 0.16453813 -0.17126802
0001b0 f7 00 5d 3c 15 fa 98 be 1a 90 b3 bc e1 d9 6c 3e
       0.013489 -0.29878297 -0.021919299 0.23129989
0001c0 38 ec 8d 3e 19 db 11 bc 9b 66 3a 3e 07 15 75 3e
       0.27719283 -0.008902335 0.18203203 0.23933803
0001d0 a2 5e 66 be 5d 48 32 be 7f a7 38 be 79 9e ba 3c
       -0.22497037 -0.17410417 -0.18032645 0.022780644
0001e0 9a 1f 02 bd 42 bc 2e 3e 90 32 d5 3d c9 07 64 be
       -0.03176842 0.17064002 0.10410035 -0.22268595
0001f0 fc b2 9a 3e e7 3f 7f be fa 9c 2d be 95 98 60 be
       0.3021468 -0.2492672 -0.16954413 -0.21933205
000200 93 56 f5 3c 87 c5 12 3e 23 c8 30 be ee 85 a9 bd
       0.029948508 0.14333163 -0.17263846 -0.08277498
000210 1b dd 8d bd 2c ab e4 3d ee 6c c8 bd 32 88 0c be
       -0.06926938 0.11165461 -0.09786402 -0.1372383
000220 5e 79 d5 bd ad b5 12 3e fe d7 f5 bb ee 08 e1 bd
       -0.104235396 0.14327116 -0.007502555 -0.10988031
000230 14 83 61 3d 0c 8e 0c 3e 26 59 e2 3d 0d 1a 9c 3e
       0.055056646 0.13726062 0.1105216 0.30488625

bias f4 [12]
000000 0a 10 46 3e 29 eb 80 bd f1 24 a4 3d d2 ea 83 3d
       0.19342056 -0.06294853 0.080148585 0.06441273
000010 84 3a 56 bd bd 2a 80 3e 08 24 17 3e f4 db 84 3e
       -0.0523019 0.25032607 0.14759839 0.2594906
000020 f0 2b 65 be af ea 4f 3d d3 fe 19 3e a3 00 44 be
       -0.22380042 0.05076092 0.15038614 -0.19140868

weight f4 [3, 12]
000000 7a 24 9d bc 78 74 01 be 4b 56 b7 bd 0c 1f 8b be
       -0.019182432 -0.12642086 -0.08952006 -0.27172124
000010 0d 8b 18 be 20 dc d6 be 21 8f 7f be 6c 89 6e 3e
       -0.14896794 -0.41964817 -0.24956943 0.2329461
000020 52 85 a3 be 8b ad 54 3d 0d 8b a2 be 35 da 4a bd
       -0.31937653 0.051923316 -0.31746712 -0.049524505
000030 bb ae e4 3e 8d 11 b2 be ea d7 df be d2 95 39 3e
       0.4466456 -0.34779015 -0.43719417 0.18123558
000040 1a 39 ca 3e 7d ad c2 3e 86 a9 2f 3e 7f 69 27 be
       0.3949669 0.38022986 0.17154512 -0.16348837
000050 7b f3 d1 be 86 77 c7 be 6e f4 a7 3e dd 0b e4 3e
       -0.41006073 -0.38958377 0.32803673 0.445403
000060 35 69 ba be 9c 35 82 3e f1 8d 0c 3e bb 52 ad be
       -0.36408392 0.25431526 0.13726021 -0.3385218
000070 89 c7 a7 39 4f 57 01 bd 94 1c ca b8 c5 98 bd 3c
       0.00032001387 -0.031577405 -9.637434e-05 0.023144135
000080 19 70 83 bb 75 19 9d 3e 07 bc 35 be f4 c6 e3 be
       -0.004011166 0.30683485 -0.17747508 -0.44487727

bias f4 [3]
000000 c0 08 96 be 95 ac 84 3d bf 54 56 be
       -0.2930355 0.0647823 -0.20930766

weight f4 [3, 12]
000000 66 2a 88 be 09 df 40 be 91 10 53 be e2 f3 62 be
       -0.26594847 -0.18835081 -0.20611788 -0.22163346
000010 64 21 7f 3c 24 88 b1 bd 7b 51 82 bc 8d 2d 0a be
       0.015571926 -0.08668545 -0.015907994 -0.13493939
000020 71 86 87 3e b9 29 82 3e 59 67 93 be 5a 87 8d be
       0.26469758 0.25422457 -0.28789786 -0.27642328
000030 93 23 f3 bd 6e 9b 17 be 11 e0 b7 bd d6 7d c7 ba
       -0.118720196 -0.14805385 -0.08978284 -0.0015219997
000040 4e 22 0e be e9 de 2b be a0 75 da bd fc d0 ec bc
       -0.13880274 -0.16784252 -0.106669664 -0.028908245
000050 33 14 3c be 81 bd ea bc 5b e9 53 be a0 a5 23 be
       -0.1836708 -0.028654816 -0.20694487 -0.1598115
000060 0e 4b 24 be 24 8b 0d 3e 34 69 10 3e 2f 8b 04 3c
       -0.16044256 0.13822609 0.14102632 0.008089825
000070 87 0b 84 be 8f 90 f9 bc b3 1d 51 3e 35 75 01 3d
       -0.25790045 -0.030464439 0.20421486 0.031605918
000080 92 58 38 3e ed cd 82 3e 2f 14 6b be 3b a2 46 3e
       0.18002537 0.25547734 -0.22956918 0.19397824

bias f4 [3]
000000 b1 ce ae be aa 13 83 3e 32 d9 8e 3d
       -0.34142068 0.2560094 0.069750205

weight f4 [3, 3]
000000 0d 14 d3 be 61 76 d0 3e d7 b6 d2 3e a2 c6 b0 be
       -0.41226235 0.40715316 0.4115512 -0.34526545
000010 8b 9a 8d 3d 9f 84 bb 3e c6 52 b1 bd 2d c3 cb 3e
       0.06914242 0.3662462 -0.08658366 0.39797345
000020 54 d5 fb 3e
       0.49186194

bias f4 [3]
000000 8f ff e2 3e ee 5b 09 3f a3 84 07 bf
       0.443356 0.536559 -0.5293676
