data/best/output/poster/train/16_stemgnn.pt (torch, 435920 bytes, 73 tensors)

weight_key f4 [135, 1]
0	0xbb82dcf2	-0.003993624
1	0x3e219ac3	0.15781693
2	0xbe7bd6d9	-0.24593677
3	0xbe6068d3	-0.21914987
4	0xbde98ab6	-0.1140341
5	0x3da3bffc	0.079956025
6	0xbbb99bdf	-0.0056643332
7	0x3e719c3b	0.23594753
8	0xbcd7b524	-0.026331492
9	0x3d9f31f3	0.07773199
10	0xbdb86ce1	-0.09005142
11	0xbd71132d	-0.058856178
12	0xbe91a157	-0.28443405
13	0xbe496e30	-0.1967094
14	0xbdfa6bad	-0.12227569
15	0x3c3a45ed	0.011369211
16	0x3df09ae5	0.11748294
17	0x3e369534	0.17830354
18	0xbe4e004c	-0.20117301
19	0xbe044619	-0.12917365
20	0x3ddcb73e	0.10777138
21	0x3e7c0f61	0.24615242
22	0xbd7dc659	-0.061956737
23	0x3e62e858	0.22158945
24	0xbd4742eb	-0.048647802
25	0x3cff752c	0.031183802
26	0x3e8a0bb3	0.2696205
27	0xbe8cb30e	-0.27480358
28	0xbe3f1a2b	-0.18662326
29	0xbd98f4fd	-0.07468603
30	0xbdea900f	-0.11453258
31	0x3e8406f5	0.25786558
32	0xbe44283f	-0.19155978
33	0xbe0b941e	-0.13630721
34	0xbe53e13c	-0.20691389
35	0xbe8e3925	-0.27777973
36	0xbe319aa6	-0.1734415
37	0x3e82b3c8	0.25527787
38	0x3e07b579	0.1325282
39	0x3e1433f2	0.1447294
40	0x3c824373	0.015901303
41	0xbe1c043d	-0.15235992
42	0x3d4ca605	0.049963016
43	0xbe8e5cd7	-0.27805206
44	0xbe5d24f1	-0.21596123
45	0xbe1e8490	-0.15480256
46	0x3e3f65e1	0.18691207
47	0x3e31d7ea	0.17367521
48	0xbe07d73b	-0.13265698
49	0xbc38bae1	-0.011275024
50	0x3e41cced	0.18925829
51	0x3e97379c	0.29534614
52	0x3df043eb	0.11731704
53	0x3d24b1cc	0.040208623
54	0x3e4cb6a4	0.19991547
55	0xbe332233	-0.17493515
56	0x3d5fcf68	0.054641157
57	0xbe6d47f2	-0.23171976
58	0xbe53a1b9	-0.20667161
59	0xbe1d7a23	-0.15378623
60	0x3e08c9e7	0.1335827
61	0x3df24e5c	0.11831352
62	0xbe363387	-0.17793094
63	0x3db63c4e	0.08898221
64	0x3e25a889	0.16177572
65	0xbd218003	-0.039428722
66	0x3c1fb0f1	0.009746776
67	0x3d8ad875	0.06779567
68	0x3e3be04d	0.18347283
69	0x3e915460	0.28384686
70	0xbe6bdc5e	-0.23033282
71	0xbde21d15	-0.11040703
72	0x3deb6939	0.11494679
73	0x3e7aa79c	0.24478
74	0x3e836dba	0.25669652
75	0x3e8542cd	0.26027527
76	0x3d6ecdf8	0.058301896
77	0xbe8464f7	-0.2585828
78	0x3cde94cf	0.027170567
79	0xbe3f3218	-0.18671453
80	0xbe8eacd2	-0.27866226
81	0x3e86e589	0.26346996
82	0x3e66c66c	0.2253663
83	0xbe97c34c	-0.29641187
84	0x3d647a2a	0.055780567
85	0xbd4f66d2	-0.050635166
86	0xbd4e123b	-0.050310355
87	0xbe0bffe9	-0.1367184
88	0x3de6e168	0.112734616
89	0xbe350f8e	-0.17681715
90	0x3dddaf4f	0.10824453
91	0x3e18d440	0.14924717
92	0x3e58e8e1	0.21182586
93	0x3de0de01	0.10979844
94	0xbe974872	-0.2954746
95	0xbe471041	-0.19439794
96	0x3e175b15	0.14780839
97	0x3d7e9a4b	0.062158864
98	0xbe6d30a2	-0.23163083
99	0xbe2f0fda	-0.1709589
100	0x3e8ec407	0.27883932
101	0x3e4b196c	0.19833916
102	0xbe0623a8	-0.1309954
103	0xbd995684	-0.07487205
104	0xbe9064b6	-0.28201836
105	0xbb94fb5e	-0.004546567
106	0xbe641eb5	-0.22277339
107	0xbe699186	-0.22809419
108	0xbc80857c	-0.01568865
109	0x3d38ec0b	0.045146983
110	0xbdf7e636	-0.12104456
111	0x3e354368	0.17701495
112	0xbe391771	-0.18075348
113	0x3e89adcc	0.2689041
114	0x3e4f09fc	0.20218652
115	0xbe812969	-0.25226906
116	0xbd980913	-0.07423606
117	0x3c4adefa	0.012382263
118	0x3d2a47da	0.04157243
119	0x3d8c7b07	0.06859403
120	0x3deb2ba7	0.114829354
121	0x3c82dc4b	0.015974184
122	0xbe15f15d	-0.14642854
123	0x3e0f0bc7	0.13969336
124	0xbe92791f	-0.28608033
125	0xbe3547d5	-0.17703183
126	0xbd9bb1c2	-0.07602264
127	0xbe15b7c9	-0.1462089
128	0xbdd65957	-0.10466259
129	0xbe793f26	-0.24340495
130	0xbd80ffb1	-0.06298769
131	0x3d8352b9	0.064122625
132	0xbe45b863	-0.19308619
133	0xbc814b2e	-0.015782919
134	0x3e586285	0.21131332

weight_query f4 [135, 1]
0	0xbd8fb2c2	-0.07016517
1	0x3a23a12c	0.0006241973
2	0x3d94503b	0.07241865
3	0x3e3ea007	0.18615733
4	0x3ea3b856	0.31976575
5	0x3ed233f4	0.41055262
6	0x3ea12025	0.31469837
7	0x3ecfb3fe	0.4056701
8	0x3dcd1916	0.100145504
9	0xbe1637a1	-0.14669658
10	0xbcb2c26c	-0.021821223
11	0x3ea437eb	0.32073912
12	0x3dedc398	0.11609572
13	0xbcf54ae9	-0.029942947
14	0xbde20b25	-0.11037282
15	0xbe24ecd0	-0.16105962
16	0xbe09490e	-0.13406774
17	0x3d65358e	0.055959277
18	0x3e8ee2f2	0.2790752
19	0x3e8dada5	0.27671543
20	0xbe2e046c	-0.16993874
21	0x3e9a8d7f	0.30186078
22	0xbdebe8ac	-0.11518988
23	0x3d5eeb2b	0.054423492
24	0xbb41e1ab	-0.0029583971
25	0x3d788b8d	0.06067996
26	0x3d74536a	0.059649862
27	0xbe184d77	-0.148733
28	0xbe0e5882	-0.1390095
29	0x3d90aa75	0.07063762
30	0x3df6fbb2	0.12059726
31	0xbc95a220	-0.018265784
32	0x3e69b7c3	0.22824006
33	0xbe19d3f7	-0.15022264
34	0x3dc5edf6	0.09664528
35	0x3ec16b38	0.37777114
36	0xbb8d7aae	-0.004317603
37	0x3ec4ea20	0.38459873
38	0x3e661aad	0.22471114
39	0xbe1a1d20	-0.15050173
40	0x3e9c9355	0.30581155
41	0x3daaf9d5	0.08348433
42	0xbc6d16f1	-0.014470802
43	0x3eb60877	0.35553333
44	0xbdf96686	-0.12177758
45	0x3e19b26a	0.15009466
46	0x3d65e824	0.05612959
47	0x3ea94b7a	0.33065397
48	0x3e4deff5	0.20111068
49	0x3e859c29	0.26095703
50	0x3e64caa1	0.22342922
51	0x3d404875	0.0469441
52	0x3d64d5ce	0.055867963
53	0xbe01e20b	-0.12683885
54	0x3e8ebd6f	0.278789
55	0x3eb5360d	0.353928
56	0x3ea481fd	0.32130423
57	0xbdbb3598	-0.091410816
58	0x3e068412	0.13136318
59	0xbdbb0991	-0.09132684
60	0xbd3ac79b	-0.045600515
61	0xbd61c689	-0.05512098
62	0x3e60ca88	0.2195226
63	0xbd722c83	-0.05912448
64	0x3de49fef	0.111633174
65	0x3e05d0f3	0.13067989
66	0x3e9e7570	0.30948973
67	0xbdda31ca	-0.10654028
68	0xbdaf1d4b	-0.08550509
69	0xbd5dce85	-0.05415203
70	0x3ea6f431	0.32608178
71	0x3c40d5c7	0.0117697185
72	0x3ebcecbe	0.3689937
73	0x3e67f4a8	0.22651923
74	0x3e2042e0	0.15650511
75	0x3dee6c96	0.11641805
76	0x3d741427	0.05958953
77	0x3e1eb343	0.1549807
78	0x3d4dac0d	0.05021291
79	0x3ded8440	0.1159749
80	0x3e1fbf33	0.1560028
81	0xbdea09cf	-0.11427652
82	0xbd1b334d	-0.03789072
83	0x3eb74126	0.35791892
84	0xbdfadc33	-0.12249031
85	0x3dc62467	0.09674912
86	0x3ed2d0c8	0.41174912
87	0x3e670fa5	0.22564562
88	0x3e01d682	0.12679484
89	0xbe0eb684	-0.13936812
90	0x3e880bd1	0.26571515
91	0xbdbd5d69	-0.09246332
92	0x3d0cb11e	0.0343486
93	0x3c9bcb79	0.019017922
94	0x3d989e80	0.074521065
95	0x3df990f3	0.1218585
96	0x3eb9e013	0.36303768
97	0x3e1e8140	0.15478992
98	0x3ec47f01	0.38378146
99	0x3e99325f	0.29921243
100	0xbd8f8ed2	-0.07009663
101	0x3e807b6d	0.25094166
102	0xbdbd1d09	-0.09234054
103	0xbc0150f7	-0.007892839
104	0x3e5291dc	0.20563453
105	0x3e5df02c	0.2167365
106	0x3eae843d	0.34085265
107	0x3cb617a7	0.022228075
108	0x3df31e92	0.11871065
109	0x3e8acfc4	0.27111638
110	0xbe2d6203	-0.1693192
111	0x3eaa2f52	0.33239228
112	0xbe02db25	-0.1277891
113	0x3dfa0308	0.122076094
114	0x3d8a1702	0.0674267
115	0xbd1d99d0	-0.038476765
116	0x3e20d753	0.1570714
117	0x3eba410e	0.36377758
118	0x3d0058f2	0.031334825
119	0xbd6ede10	-0.058317244
120	0x3c07f89b	0.008299018
121	0xbe341caa	-0.1758906
122	0x3e81071e	0.25200742
123	0xbcc6afd3	-0.024253761
124	0xbda425c1	-0.080150135
125	0xbd5b109f	-0.053482648
126	0x3e93bdae	0.28855652
127	0x3e8cba90	0.27486086
128	0x3eb0d5ca	0.34538108
129	0x3e66dfcc	0.22546309
130	0x3c98ba53	0.018643534
131	0x3d0ef6ec	0.03490345
132	0x3e52ef55	0.2059911
133	0x3ebb3b5b	0.36568722
134	0x3e505b74	0.20347387

weight_ih_l0 f4 [405, 3]
0	0xbd8140db	-0.06311198
1	0xbd80f798	-0.06297225
2	0xbdd50151	-0.10400642
3	0x3d7aeda9	0.061261807
4	0xbbb1b1e4	-0.0054228175
5	0xbd0a3ef9	-0.03375146
6	0x3d8f4e3f	0.06997346
7	0xbd78190a	-0.060570754
8	0xbc5efea0	-0.013610512
9	0x3c50e702	0.012750389
10	0xbc14f878	-0.009092443
11	0xbd8eaf1c	-0.06966993
12	0xbb6debd0	-0.0036303885
13	0x3e0a09e1	0.13480331
14	0x3da4dfa1	0.08050466
15	0x3df423a2	0.11920859
16	0x3c9909f4	0.018681504
17	0x3d980125	0.07422093
18	0xbce5e949	-0.02806534
19	0xbc481ac2	-0.012213411
20	0xbd79af95	-0.060958464
21	0x3ce3fae5	0.027829597
22	0x3cd91837	0.026500804
23	0xbb285f5c	-0.0025691604
24	0xbd4b36f1	-0.049612943
25	0xbdaa7099	-0.083222575
26	0x3cf1de1e	0.029524859
27	0xbd1e565d	-0.03865658
28	0x3d740531	0.059575263
29	0xbbb18b74	-0.0054182354
30	0xbd1bd614	-0.038045958
31	0x3c9ca327	0.019120766
32	0xbd286806	-0.04111483
33	0x3de351a0	0.11099553
34	0x3dde53c4	0.10855821
35	0x3ce5e52d	0.028063381
36	0x3cf907ff	0.03039932
37	0x3d59a9c5	0.05314042
38	0x3d500c74	0.050793126
39	0xbd232bf4	-0.03983684
40	0xbdcc7111	-0.09982503
41	0xbd2f32a8	-0.04277292
42	0x3dc4985e	0.09599374
43	0x3d0df6c1	0.03465915
44	0x3dca421b	0.0987589
45	0x3d704721	0.058661584
46	0xbd307b64	-0.043086424
47	0x3b451438	0.0030071866
48	0xbd909956	-0.070604965
49	0xbdcc810e	-0.09985553
50	0xbdcc2b32	-0.09969176
51	0x3dc0705a	0.09396429
52	0x3c806836	0.015674692
53	0x3db89321	0.090124376
54	0x3dbe7620	0.09299874
55	0x3de584b6	0.11206953
56	0x3db08b15	0.08620278
57	0x3dceb879	0.10093779
58	0x3e04e328	0.12977278
59	0x3d43d960	0.047814727
60	0x3c9a474c	0.018832825
61	0x3c8bbb00	0.017056942
62	0x3e35db8e	0.17759535
63	0x3d46de3b	0.04855178
64	0xbd85e316	-0.06537454
65	0x3ce318b9	0.02772175
66	0x3dab6ef0	0.08370769
67	0x3dd71dfd	0.10503767
68	0x3dc162af	0.094426505
69	0x3d3c64f3	0.04599471
70	0xbd2530a9	-0.04032961
71	0xbd4faa28	-0.050699383
72	0x3de36bb1	0.11104525
73	0x3db5f01a	0.08883686
74	0xbc36cd63	-0.011157366
75	0x3d9aabfc	0.07552335
76	0x3d23afe6	0.03996267
77	0x3d38f14f	0.045152005
78	0xbd9cf882	-0.076645866
79	0x3ad6038f	0.0016327965
80	0xbd5ba5dc	-0.053624973
81	0x3d8cd414	0.06876388
82	0xbc5f7545	-0.013638799
83	0x3d117dda	0.035520412
84	0x3aebd3ff	0.0017992257
85	0x3cbdf3ff	0.023187635
86	0xbd2e8968	-0.04261151
87	0xbd248133	-0.040162276
88	0xbe113982	-0.14182094
89	0xbd7f323f	-0.062303778
90	0xbdff2648	-0.124584734
91	0xbe1aec11	-0.15129115
92	0xbe0ae7d0	-0.13564992
93	0x3e10a98b	0.14127176
94	0x3df5f2da	0.12009211
95	0x3e1e3ec7	0.15453635
96	0x3e0d477d	0.13796802
97	0xbbf75fd6	-0.0075492663
98	0x3c2f2fe3	0.010692569
99	0x3a97b827	0.0011575267
100	0xbd27cfbe	-0.040969603
101	0x3d989eee	0.074521884
102	0xbd447015	-0.047958452
103	0xbcd00bfe	-0.025396343
104	0xbd887213	-0.06662383
105	0xbd0959bf	-0.033532854
106	0x3db0abca	0.08626516
107	0x3db04359	0.086065955
108	0xbc7ed28b	-0.015553127
109	0xbc2bac7b	-0.010478134
110	0xb97bab4b	-0.00024001037
111	0xbde1807b	-0.11010834
112	0xbd4e9a2c	-0.05044
113	0xbc3e81cc	-0.011627626
114	0x3a7d1ea5	0.00096557505
115	0x3d703657	0.058645573
116	0x3c8efc0d	0.017454172
117	0x3dabd856	0.08390872
118	0x3a9c24e5	0.0011912851
119	0x3d94edf9	0.07271952
120	0x3cdf16f2	0.02723262
121	0xbb4da6f9	-0.003138004
122	0xbcfff7fe	-0.031246182
123	0xbdd6800d	-0.104736425
124	0xbdfbc41b	-0.122932635
125	0x3a0e50a1	0.0005428885
126	0x3d56a78a	0.05240587
127	0xbc9a5de2	-0.018843595
128	0xbd728d79	-0.05921695
129	0x3d5f6d3e	0.05454754
130	0x3d2deda2	0.042462952
131	0xbbdde0cc	-0.0067711826
132	0xbcf603f3	-0.03003118
133	0x3db7de08	0.08977896
134	0x3d3c60d6	0.045990787
135	0x3c7aed01	0.015315295
136	0x3e270ecd	0.1631424
137	0x3e15e443	0.14637856
138	0xbc5ef86d	-0.013609034
139	0x3d8756a2	0.06608321
140	0xbcff9540	-0.031199098
141	0x3bcab420	0.0061860234
142	0x3dbd9f9c	0.09258959
143	0x3cbbcc53	0.022924578
144	0xbb6dec22	-0.0036304076
145	0x3cfeb309	0.03109123
146	0x3d156df0	0.036481798
147	0x3c36f3b3	0.011166501
148	0x3d1009ce	0.0351656
149	0x3dda41aa	0.10657056
150	0x3c0ff3d5	0.008786161
151	0xbd48c5aa	-0.049016632
152	0x3c0b6934	0.008508969
153	0x3d3476ec	0.044058725
154	0x3d3ad194	0.045610026
155	0xbd9af825	-0.07566861
156	0xbb297eef	-0.0025863012
157	0xbd5114e6	-0.05104532
158	0xbcc2de04	-0.023787506
159	0x3d263c65	0.04058494
160	0xbd56c5fe	-0.052434914
161	0x3d268cb7	0.04066154
162	0x3dc786c4	0.097425014
163	0x3cf5ca67	0.03000374
164	0xbd0797ef	-0.03310388
165	0xbd728a68	-0.059214026
166	0xbc1b8da9	-0.009494224
167	0xbdc01e42	-0.09380771
168	0x3c9d9110	0.01923421
169	0xbdd03425	-0.10166196
170	0xbdd9ca27	-0.106342606
171	0xbdabb4bb	-0.08384081
172	0xbc902768	-0.017596915
173	0x3d6be205	0.057588596
174	0xbd37e869	-0.044899378
175	0x3ddcecd5	0.107873596
176	0x3ae84450	0.0017720554
177	0xbd550de8	-0.052015215
178	0xbd9425d4	-0.07233778
179	0xbe1c8268	-0.15284121
180	0x3daaec7a	0.083458856
181	0x3d71e562	0.059056647
182	0x3dc902d4	0.098149925
183	0x3c96499a	0.018345643
184	0xbda790d6	-0.08181922
185	0x3d402913	0.04691417
186	0xbd4d0015	-0.050048906
187	0xbc640bf8	-0.013918869
188	0xbdfd7090	-0.12374985
189	0xbc07947c	-0.0082751475
190	0xbd8b3249	-0.067967005
191	0xbc8b7c0f	-0.01702693
192	0xbb6eb4f8	-0.0036423784
193	0xbdb66025	-0.08905057
194	0x3bc75790	0.0060834363
195	0x3e04f4e1	0.12984039
196	0x3dc6461b	0.0968134
197	0x3ce294e4	0.027658887
198	0x3c6ee4a5	0.01458088
199	0x3d61a4fc	0.055088982
200	0x3df4bf6e	0.11950575
201	0x3dd74b03	0.10512354
202	0x3d8e7f98	0.0695793
203	0x3c26d3aa	0.010182301
204	0x3b615426	0.0034382432
205	0xbde3b98b	-0.11119374
206	0xbdcdb94c	-0.10045108
207	0x3d997cd5	0.07494513
208	0xbc6423e1	-0.01392457
209	0x3d9c020f	0.0761758
210	0xbd874eb1	-0.06606806
211	0xbd434f63	-0.04768313
212	0xbd9ad10d	-0.075594045
213	0x3e03bb8a	0.12864509
214	0x3d9a2a27	0.07527571
215	0x3e1a05b1	0.15041234
216	0x3dd25bfd	0.102714516
217	0x3dc733c9	0.09726674
218	0x3d56b686	0.05242016
219	0xbd3597f6	-0.044334374
220	0xbd15db6a	-0.036586203
221	0xbbdd5aad	-0.006755194
222	0x3c9f6dfd	0.019461626
223	0xbdaa9914	-0.083299786
224	0x3d49ce9b	0.0492693
225	0xbcbc11d1	-0.022957714
226	0xbdaf8965	-0.08571128
227	0xbd7712cf	-0.06032067
228	0x3d93ed0e	0.07222949
229	0x3d98a00a	0.074524
230	0xbdac2602	-0.08405687
231	0x3dc15d26	0.09441595
232	0x3d9dbd54	0.07702127
233	0x3dae1d76	0.08501713
234	0x3de72b36	0.11287539
235	0xbbab47e0	-0.005227074
236	0x3d8fb710	0.07017338
237	0x3c9f395d	0.019436533
238	0xbd27367f	-0.040823456
239	0x3c5fe16e	0.0136645865
240	0x3bfe8633	0.0077674626
241	0x3dafa5d0	0.08576548
242	0x3c087242	0.008328022
243	0xbc52f3a4	-0.012875471
244	0x3d286594	0.041112497
245	0x3d4da33d	0.050204504
246	0xbc94d025	-0.018165657
247	0x3d00d8d1	0.031456772
248	0x3d96f131	0.07370222
249	0xbcd8a80c	-0.026447318
250	0x3c09603e	0.008384762
251	0xbd1e50b3	-0.03865118
252	0x3c39e8f8	0.011347048
253	0xbda5f690	-0.08103669
254	0xbd8e527d	-0.06949327
255	0xbce26a10	-0.027638465

weight_hh_l0 f4 [405, 135]
0	0x3d80725f	0.062718146
1	0x3da5bb30	0.08092344
2	0xbd7bc41b	-0.061466318
3	0x3e0539fd	0.13010402
4	0xbb9cea30	-0.0047886595
5	0x3ca35ea0	0.019942582
6	0x3d19b926	0.037530087
7	0xbd676a99	-0.056498144
8	0xbd435d28	-0.047696263
9	0x3cfae1b9	0.030625211
10	0x3d945532	0.07242812
11	0xbd1d333b	-0.038378935
12	0xbdcf7c21	-0.101310976
13	0x3d0126c8	0.031531125
14	0x3ca1a5e8	0.01973243
15	0x3de6236d	0.11237226
16	0xbddda55d	-0.10822556
17	0xbbd7e238	-0.0065882467
18	0xbd6422e6	-0.055697344
19	0xbdb16f41	-0.08663798
20	0xbc74798d	-0.014921558
21	0xbd899843	-0.06718495
22	0x3d9035a3	0.070414804
23	0xbd9f484d	-0.07777462
24	0x3da9924f	0.08279859
25	0xbcf08b3d	-0.029363269
26	0x3d122315	0.035677988
27	0xbe10d8a0	-0.14145136
28	0xbd8a249d	-0.06745265
29	0xbc8da3f9	-0.017290102
30	0xbe3361d5	-0.17517789
31	0x3cbe56ce	0.023234751
32	0x3c3bf658	0.011472307
33	0x3b3afa6f	0.0028530618
34	0xbde8d6de	-0.11369108
35	0x3dcd3c5b	0.100212775
36	0x3d4aa817	0.04947671
37	0xbcacd1bc	-0.021096103
38	0xbd02c70d	-0.03192811
39	0x3d66f93d	0.056390036
40	0x3e2b5a99	0.16733779
41	0xbdb627dc	-0.08894321
42	0xbce9d64c	-0.028544568
43	0x3c43cca8	0.011950649
44	0xbdbc95f9	-0.092082925
45	0x3df697e0	0.120406866
46	0xbca7b877	-0.020473702
47	0x3dad4bce	0.08461724
48	0xbcf70ed8	-0.030158445
49	0xbd1d1a90	-0.03835541
50	0xbd56df5c	-0.052459106
51	0xbd4d0e32	-0.050062366
52	0x3d9021e4	0.07037714
53	0x3daee375	0.08539478
54	0xbd55eeac	-0.05222957
55	0x3ddc21cf	0.10748636
56	0x3cd47f51	0.025939615
57	0x3d62a5da	0.05533395
58	0x3dbb71b1	0.09152544
59	0x3d79b5d1	0.06096441
60	0x3d67be2f	0.056577858
61	0xbce4003b	-0.027832141
62	0xbd776a81	-0.060404304
63	0x3d548753	0.051886868
64	0x3c939cda	0.018019129
65	0xbccdef22	-0.025138441
66	0x3ca44876	0.020054083
67	0x3d3a7c47	0.045528676
68	0xbc63fed8	-0.01391574
69	0xbdc4ff87	-0.096190505
70	0xbcba0fbc	-0.02271258
71	0xbd509c05	-0.05093004
72	0xbdd2c2eb	-0.10291084
73	0x3b952d67	0.0045525315
74	0x3c9ca20b	0.019120237
75	0x3ca00c2a	0.01953705
76	0x3d7b9db6	0.0614297
77	0xbd859ecb	-0.06524428
78	0xbd93f859	-0.07225103
79	0x3dde6edd	0.10860989
80	0x3bf2f901	0.0074149375
81	0xbd1e5cdb	-0.038662773
82	0xbd68dcea	-0.056851305
83	0xbdc57c1b	-0.09642812
84	0x3c4221d8	0.011848889
85	0xbdc9e4fa	-0.09858127
86	0x3cb4dc45	0.022077689
87	0x3db02165	0.086001195
88	0xbbbcbee8	-0.0057600625
89	0xbda70a38	-0.08156246
90	0x3d7a1a4b	0.06106023
91	0x3db21335	0.0869507
92	0xbe064b58	-0.13114679
93	0x3d5f2084	0.05447437
94	0x3c156a01	0.009119512
95	0x3cab636c	0.020921431
96	0xbc247798	-0.010038279
97	0xbd973fdb	-0.07385226
98	0x3ccf093b	0.025272956
99	0x3d40ddcf	0.047086533
100	0xbd41520c	-0.047197387
101	0xbd9116b4	-0.070844084
102	0x3d31c09c	0.043396577
103	0x3d922413	0.07135787
104	0x3d7d59ea	0.061853327
105	0x3aaf1d85	0.0013360238
106	0x3d3f43c8	0.0466955
107	0x3b0aed7c	0.002119868
108	0x3c969be8	0.018384889
109	0x3d8a62b8	0.0675711
110	0xbcb65463	-0.022257036
111	0xbd08c924	-0.033394948
112	0xbcda7a84	-0.026669748
113	0xbd590c5a	-0.052990295
114	0x3c9902ec	0.018678151
115	0xbd75e267	-0.060030367
116	0x3d9cd950	0.076586366
117	0xbc8ccc1e	-0.017187174
118	0x3d559ecb	0.05215339
119	0x3db2c073	0.08728113
120	0x3c0d345d	0.008618441
121	0xbc564c89	-0.013079771
122	0x3a67cf74	0.00088428636
123	0xbd84c420	-0.064827204
124	0x3d8c8ad2	0.068624154
125	0xbbfa1c0e	-0.007632739
126	0xbd0eae76	-0.034834348
127	0xbdc2d4fb	-0.09513279
128	0x3d734c14	0.059398726
129	0xbdc61757	-0.096724205
130	0x3c476c02	0.012171747
131	0x3ca9cab0	0.020726532
132	0xbdafbd89	-0.08581073
133	0xbde5fc86	-0.11229806
134	0xbd84acb1	-0.06478251
135	0x3d622a62	0.0552162
136	0xbe0dee3a	-0.13860407
137	0xbe0ea90b	-0.13931672
138	0x3ca3fb26	0.020017218
139	0xbc6d2b3b	-0.014475639
140	0x3dbb21ef	0.09137332
141	0x3ceb60ae	0.028732624
142	0xbc981d84	-0.018568762
143	0x3b0e8095	0.0021744121
144	0xbccb367b	-0.024806252
145	0xbdc43761	-0.09580875
146	0xbd673ada	-0.05645261
147	0x3d92d34d	0.07169209
148	0xbd4f2e61	-0.05058134
149	0xbdf57baf	-0.119864814
150	0xbe293a81	-0.16526224
151	0x3d5cbf7d	0.053893555
152	0x3d4927c8	0.049110204
153	0x3e17a69f	0.14809655
154	0xbca5a69e	-0.02022105
155	0xbccaee01	-0.024771692
156	0xbe096bda	-0.13420048
157	0xbdd62cee	-0.104577884
158	0x3c9eebff	0.019399641
159	0xbc9f8311	-0.019471677
160	0xbd3d2570	-0.04617828
161	0xbda83262	-0.08212735
162	0x3db3cf2e	0.08779751
163	0xbd12e33c	-0.03586124
164	0xbe0522cd	-0.13001557
165	0xbc60a5bc	-0.013711389
166	0xbd97b9fd	-0.07408521
167	0xbe19c277	-0.15015589
168	0xbe05006e	-0.12988445
169	0x3e0d48b4	0.13797265
170	0xbca4f156	-0.02013461
171	0x3da65154	0.08120981
172	0xbb1744ab	-0.00230817
173	0xbcca96b4	-0.024730064
174	0x3dfc8a8a	0.12331112
175	0xbdd56c42	-0.10421039
176	0xbdffcba4	-0.12490013
177	0x3c918ce6	0.01776738
178	0x3cd2477d	0.025668854
179	0x3d5f6d57	0.054547634
180	0xbb5dc013	-0.003383641
181	0xbe1384ac	-0.14406079
182	0x3bc4ed9a	0.0060097696
183	0x3d84838a	0.064704016
184	0x3d33468c	0.04376845
185	0x3dc2bf1a	0.09509106
186	0x3dec76cb	0.115460955
187	0xbe0b1cc9	-0.135852
188	0xbcfccd76	-0.03085969
189	0x3dc8a44d	0.09796963
190	0xbde2c648	-0.110729754
191	0x3c076db3	0.0082659
192	0xbdfda19e	-0.12384342
193	0xbc9d994a	-0.019238133
194	0xbd86b842	-0.06578113
195	0xbde49ef5	-0.11163131
196	0x3c7b3476	0.015332332
197	0x3c9d9f6a	0.019241054
198	0xbe1b774f	-0.15182231
199	0xbdaa4883	-0.08314612
200	0xbe148033	-0.14502029
201	0xbe04e59a	-0.12978211
202	0x3b641177	0.003480045
203	0xbd0b1367	-0.03395405
204	0x3a8d54c6	0.0010782711
205	0x3df63d4d	0.12023411
206	0x3cf7414b	0.030182501
207	0xbd4e393e	-0.05034756
208	0xbe08256f	-0.1329553
209	0xbc3079bb	-0.01077121
210	0x3d952da6	0.072840974
211	0x3d112c4e	0.035442643
212	0x3dfc4360	0.12317538
213	0xbe2ebf44	-0.1706515
214	0xba3257f9	-0.000680327
215	0xbcb54ae0	-0.02213043
216	0xbaa18965	-0.0012324272
217	0x3d4a0d3a	0.04932902
218	0xbbf15349	-0.0073646647
219	0xbc25762e	-0.010098977
220	0xbe192682	-0.14956096
221	0x3ca9b04d	0.02071395
222	0xbe2c07c9	-0.16799845
223	0xbd4d87e7	-0.050178435
224	0x3d99a622	0.075023904
225	0x3cda53d4	0.0266513
226	0x3d708596	0.058721147
227	0x3d877814	0.066147
228	0xbdbbe29f	-0.09174084
229	0x3d3306ff	0.043707844
230	0x3c0cea2a	0.008600751
231	0x3cbc40c5	0.022980103
232	0x3db26472	0.08710565
233	0x3e015781	0.12631036
234	0xbe19462a	-0.14968172
235	0x3c23b014	0.009990711
236	0x3cae753e	0.02129614
237	0xbc15df2d	-0.0091474475
238	0xbda26945	-0.07930235
239	0x3c05b872	0.008161651
240	0xbbe29c9d	-0.0069156424
241	0x3dd9cb01	0.10634423
242	0xbe3bd5d2	-0.18343285
243	0xbd6f2357	-0.058383312
244	0xbcf1c8ff	-0.029514788
245	0x3d8b62b3	0.06805935
246	0x3cd58bfd	0.026067728
247	0x3dedd4be	0.11612843
248	0x3d6d2426	0.057895802
249	0xbcd96591	-0.026537688
250	0xbd3c4678	-0.04596564
251	0xbc8d3d9c	-0.017241292
252	0x3c9a1596	0.018809121
253	0x3bc7cfed	0.0060977847
254	0x3caaf2a7	0.020867659
255	0x39ccb59c	0.00039045222

bias_ih_l0 f4 [405]
0	0xbcbc5529	-0.022989826
1	0x3de843c3	0.113410495
2	0xbbd492f0	-0.006487243
3	0x3da992c7	0.08279949
4	0xbbc95161	-0.0061437343
5	0x3cf20e05	0.0295477
6	0xbd1fef61	-0.03904665
7	0xbd32ecc2	-0.04368282
8	0x3df48323	0.11939075
9	0x3d781954	0.06057103
10	0xbcbf3a8c	-0.023343347
11	0x3d21b24a	0.03947667
12	0x3d203c98	0.039120287
13	0xbd70b2fb	-0.05876444
14	0xbe194b8d	-0.14970227
15	0x3d027d61	0.031857852
16	0xbdde189c	-0.108445376
17	0xbd149da3	-0.036283147
18	0xbdd723fd	-0.10504911
19	0xbdb55df9	-0.088558145
20	0xbddb2c20	-0.107017756
21	0xbc866a3d	-0.01640808
22	0x3c188c37	0.009310774
23	0x3def2d1e	0.11678527
24	0x3d068ab0	0.032847106
25	0xbc9e2efa	-0.01930951
26	0xbde359fa	-0.11101146
27	0xbdd0339a	-0.10166092
28	0xbda34050	-0.07971251
29	0xbe1a014a	-0.15039554
30	0x3c10fa51	0.008848743
31	0x3c811a2b	0.015759548
32	0x3d71c035	0.059021194
33	0xbdad6714	-0.08466926
34	0xbc06d4a1	-0.008229406
35	0x3d61a425	0.05508818
36	0xbd40d961	-0.04708231
37	0xbdd08689	-0.101819105
38	0xbd6bdc2e	-0.057583027
39	0x3da259e5	0.07927302
40	0x3d89a16e	0.067202434
41	0x3d23e343	0.040011656
42	0xbdf0f03e	-0.117645726
43	0x3d926247	0.07147651
44	0x3d46adf8	0.048505753
45	0x3a4286c8	0.00074205967
46	0x3c2b9d73	0.010474551
47	0xbdb1ca28	-0.08681136
48	0x3d659b85	0.056056518
49	0x3c7d7523	0.015469822
50	0x3ca3c20b	0.019989988
51	0xbd245d06	-0.040127777
52	0x3d9f7535	0.07786027
53	0x3c2d457b	0.0105756475
54	0x3db7a24c	0.089665025
55	0xbda4f66d	-0.080548145
56	0x3d857369	0.06516153
57	0xbd90b2d3	-0.07065358
58	0xbdeeb01f	-0.11654686
59	0x3d91e8ea	0.07124503
60	0xbcd4351a	-0.025904227
61	0xbceb9010	-0.028755218
62	0xbdbd41fe	-0.09241103
63	0x3dd89608	0.10575491
64	0x3c945e1a	0.018111277
65	0xbd9ef755	-0.077620186
66	0xbdb9cb87	-0.09072023
67	0xbda5c7b3	-0.0809473
68	0xbd75d25c	-0.060015067
69	0xbc933343	-0.01796878
70	0xbc62fa2c	-0.013853591
71	0x3dd61dbb	0.104548894
72	0xbd928bc0	-0.071555614
73	0xbd04d874	-0.03243299
74	0x3d0b8dfc	0.034070954
75	0x3d0b8a17	0.03406724
76	0xbe216473	-0.15760975
77	0x3cdbaede	0.026816782
78	0x3dae3f96	0.08508222
79	0xbcbfd7fd	-0.02341842
80	0xbdc22254	-0.09479204
81	0x3c760338	0.015015416
82	0xbdc29403	-0.09500887
83	0x3d4ca19d	0.049958814
84	0xbda762a3	-0.0817311
85	0xbd4fe4cd	-0.05075531
86	0xbdb445e6	-0.088023946
87	0xbdf9dfa7	-0.122008614
88	0xbc325146	-0.010883635
89	0x3caec67c	0.02133488
90	0x3d83ce04	0.06435779
91	0x3cf1f520	0.02953583
92	0x3db6b8be	0.089219555
93	0x3d338fe8	0.04383841
94	0x3c2aed17	0.010432503
95	0x3c95ac99	0.018270778
96	0x3c75ee1b	0.015010382
97	0xbd9401f6	-0.072269365
98	0xbc399cdd	-0.011328903
99	0x3ce6cb0e	0.028172996
100	0x3c09e60a	0.008416662
101	0x3c86f5ce	0.01647463
102	0x3d90148f	0.07035171
103	0xbdd1d25d	-0.10245202
104	0x3e02cc8f	0.12773345
105	0x3d24b540	0.040211916
106	0xbdb367e9	-0.08760054
107	0x3d530865	0.051521678
108	0x3d286851	0.04111511
109	0xbd80f790	-0.06297219
110	0x3c707cd9	0.0146782035
111	0xbd4c6bfd	-0.049907673
112	0x3ca9c1f5	0.020722369
113	0x3dea1711	0.11430181
114	0x3de1a0da	0.11017008
115	0x3cf6dc1d	0.030134255
116	0xbcbbfdf4	-0.022948243
117	0x3defd7ae	0.117110595
118	0x3d165953	0.03670628
119	0x3d03876b	0.032111567
120	0xbe0d41ea	-0.13794675
121	0xbcf8c0c2	-0.030365352
122	0x3c796b8c	0.015223395
123	0x3cd861ca	0.026413817
124	0x3e299e9b	0.1656441
125	0x3c9ddbbf	0.019269822
126	0x3cb333dd	0.021875316
127	0x3e396ef1	0.18108727
128	0xbd993234	-0.074802786
129	0x3d0454c3	0.032307398
130	0x3d3b1f85	0.045684356
131	0xbce72605	-0.028216371
132	0xbd264213	-0.040590357
133	0x3e10ab40	0.14127827
134	0x3d857ca2	0.065179124
135	0x3e1d9cc3	0.15391831
136	0xbe34e417	-0.17665134
137	0xbdb82f16	-0.08993356
138	0x3d90d533	0.070719145
139	0xbdaf1b04	-0.08550075
140	0x3dab44f4	0.08362761
141	0x3e0dbbed	0.13841219
142	0x3dce5a47	0.10075813
143	0x3cf465a0	0.029833615
144	0xbd91a4dd	-0.07111523
145	0xbd6cab6e	-0.057780676
146	0x3cb92172	0.022598956
147	0x3c78cc4c	0.015185427
148	0xbc58e3eb	-0.013237934
149	0xbbc20854	-0.005921403
150	0xbd6910c9	-0.056900773
151	0x3e018362	0.12647775
152	0x3d1109c7	0.035409715
153	0x3d70a7c2	0.058753736
154	0xbb0cfd48	-0.0021513272
155	0xbc9fdce7	-0.019514514
156	0x3d687adf	0.056757804
157	0xbca9f4ef	-0.020746676
158	0xbe42e431	-0.1903236
159	0xbdcf6a46	-0.10127692
160	0x3d85d642	0.06535007
161	0xbdb29411	-0.08719648
162	0xbc8cf9e2	-0.017208997
163	0x3dd78346	0.10523085
164	0xbdb98aad	-0.090596534
165	0x3b94f235	0.004545475
166	0xb84039c3	-4.5830162e-05
167	0xbbeb76f1	-0.00718581
168	0xbdc6adc8	-0.09701115
169	0xbd1f9b75	-0.038966615
170	0xbd7f0821	-0.06226361
171	0xbd37410a	-0.04473976
172	0x3dd23512	0.102640286
173	0x3ce69443	0.028146869
174	0xbe520212	-0.20508602
175	0xbd870b66	-0.06593971
176	0xbd3dc0a4	-0.046326295
177	0xbda5ef87	-0.08102327
178	0x3dec3ad3	0.11534657
179	0xbe363b4e	-0.1779606
180	0xbce561c4	-0.02800072
181	0x3d613737	0.054984298
182	0xbd8df4eb	-0.0693148
183	0x3c8147d1	0.015781315
184	0xbd47585c	-0.04866825
185	0xbd9f887b	-0.077897035
186	0x3d8140cf	0.063111894
187	0xbe08dfc2	-0.13366607
188	0xbd3f534d	-0.0467103
189	0xbcf4a843	-0.02986539
190	0x3cf70cfa	0.030157555
191	0xbdcbfc96	-0.09960286
192	0xbd4f9f35	-0.05068894
193	0xbcb9fa40	-0.022702336
194	0x3d8ec389	0.06970889
195	0xbcd97377	-0.026544316
196	0xbd156c55	-0.036480267
197	0x3bef360e	0.007300145
198	0xbe03f424	-0.12886101
199	0xbdce6ff2	-0.100799456
200	0xbd8d5044	-0.06900075
201	0xbdb62b74	-0.08895007
202	0x3d2594a7	0.04042497
203	0x3c97b4f2	0.018518899
204	0xbe4b46d7	-0.19851242
205	0x3d11fb79	0.035640214
206	0x3b89d929	0.0042067957
207	0xbd62f112	-0.055405684
208	0xbc99925f	-0.018746553
209	0xbc25a901	-0.010111094
210	0x3d1d9394	0.03847082
211	0xbc90e1df	-0.017685829
212	0xbe172e0c	-0.14763659
213	0xbd88bc90	-0.066765904
214	0xbd809e36	-0.06280176
215	0x3da4655e	0.08027147
216	0xbde069ec	-0.10957703
217	0xbd953bf6	-0.07286827
218	0xbe019407	-0.12654124
219	0x3dd66889	0.10469157
220	0x3d0e11cf	0.034684952
221	0x3ba337c7	0.0049810144
222	0xbde2b6af	-0.110700004
223	0x3d0bce84	0.034132496
224	0x3d23c10b	0.039979022
225	0x3cb4cd45	0.022070536
226	0xbd84950b	-0.0647374
227	0xbcb33d33	-0.021879768
228	0xbd9635eb	-0.07334503
229	0xbcc222eb	-0.02369829
230	0xbd132aae	-0.035929374
231	0x3d8ddfbe	0.06927441
232	0xbc0458a5	-0.008077775
233	0x3d0e289d	0.0347067
234	0xbdd1166f	-0.10209357
235	0xbda66969	-0.08125574
236	0xbd0fa690	-0.035070956
237	0x3dc4eeb0	0.096158385
238	0xbe2a5d86	-0.16637239
239	0xbd6472bc	-0.05577348
240	0x3daf285f	0.08552622
241	0xbb021497	-0.0019848698
242	0xbd187850	-0.037224114
243	0xbd8430ac	-0.06454596
244	0xbdc27440	-0.09494829
245	0x3d6a20cb	0.05716018
246	0xbd261064	-0.040542975
247	0xbda4dcab	-0.080499016
248	0xbe0734cb	-0.13203733
249	0xbda56f12	-0.080778256
250	0x3ce2e3d8	0.027696535
251	0x3d174c08	0.036937743
252	0xbe033bef	-0.12815832
253	0xbd72fd12	-0.059323378
254	0xbc9f05f0	-0.01941201
255	0xbde61c3f	-0.11235856

bias_hh_l0 f4 [405]
0	0xbcc17077	-0.023613198
1	0x3dbab7ce	0.09117089
2	0xbd90ee05	-0.070766486
3	0x3ce88ac2	0.028386477
4	0xbd4e574e	-0.05037623
5	0x3c4b7ff8	0.012420647
6	0xbdb2da27	-0.087330155
7	0xbc7c518d	-0.015400303
8	0x3d8d7a37	0.06908076
9	0x3da8db5d	0.08244965
10	0xbdc0a4ac	-0.09406409
11	0x3cb9ff0f	0.02270463
12	0x3d09c5e0	0.033635974
13	0x3cbac588	0.022799268
14	0xbe23a641	-0.1598139
15	0xbca42092	-0.020035062
16	0x3c31a224	0.01084188
17	0xbdc227cc	-0.09480247
18	0xbd38975f	-0.045066234
19	0xbe0f93f8	-0.1402129
20	0xbc4e7370	-0.012600765
21	0xbd58e719	-0.052954767
22	0x3ce1be91	0.02755669
23	0x3dc4e198	0.09613341
24	0x3dbe97a0	0.09306264
25	0xbd9311e0	-0.07181144
26	0xbd9e7442	-0.07737018
27	0xbd97245e	-0.07379983
28	0xbd65f352	-0.05614025
29	0xbd20d2c1	-0.03926349
30	0xbde58028	-0.112060845
31	0x3d125b92	0.03573186
32	0xbda263cb	-0.0792919
33	0xbe0bbcf5	-0.136463
34	0x3b4b4241	0.0031014832
35	0x3c1fad1d	0.009745863
36	0x3d368133	0.044556808
37	0xbd8f8a9d	-0.0700886
38	0x3cefc664	0.029269405
39	0x3b320a83	0.002716691
40	0x3debe97f	0.11519145
41	0xbd9c93d0	-0.076453805
42	0x3cb77b38	0.022397622
43	0x3da718c1	0.08159018
44	0x3da18712	0.07887091
45	0x3bcaa35a	0.006184024
46	0xbd98a556	-0.0745341
47	0xbbd3a923	-0.0064593717
48	0x3d259a29	0.04043022
49	0x3d15129f	0.03639471
50	0xbc06141d	-0.008183506
51	0x3d455b79	0.04818294
52	0x3d630dca	0.055433072
53	0x3cd727df	0.02626413
54	0x3d67f3d7	0.05662903
55	0x3d1257ea	0.035728373
56	0x3d83d4f0	0.06437099
57	0xbe10d93f	-0.14145373
58	0xbdf8c568	-0.12147027
59	0x3d1390b2	0.036026664
60	0x3d56716a	0.052354254
61	0xbcdd66f9	-0.02702664
62	0xbd3bf68a	-0.045889415
63	0x3d8a9300	0.06766319
64	0x3c50d354	0.012745697
65	0xbd25f281	-0.040514473
66	0xba2b4c19	-0.0006534472
67	0xbac1c173	-0.0014782384
68	0xbdb1cde3	-0.08681848
69	0xbd96bff5	-0.07360832
70	0xbd27a7ef	-0.04093164
71	0x3cdf7745	0.027278552
72	0xbd95b35e	-0.07309602
73	0x3bcaba27	0.006186742
74	0x3cdf7108	0.027275577
75	0x3cf3b21a	0.029748011
76	0xbab920fa	-0.0014124208
77	0x3c4fee50	0.0126910955
78	0x3d000d0f	0.031262454
79	0xbb4ac263	-0.0030938617
80	0xbd922cfc	-0.07137486
81	0xbd1715ef	-0.036886152
82	0xbdad1262	-0.08450772
83	0xbbe4825e	-0.006973549
84	0xbdc2d605	-0.09513477
85	0xbcdebba6	-0.027189087
86	0x3d8ed918	0.06975001
87	0x3b81de4a	0.0039632665
88	0xbd7d2ca1	-0.06181014
89	0x3d597d35	0.053097922
90	0x3deb1bc7	0.114799075
91	0xbda8a423	-0.082344316
92	0x3e45caf3	0.193157
93	0x3cf0ac23	0.029378956
94	0xbd8f5f79	-0.07000632
95	0xbc98d354	-0.018655457
96	0x3c9077e8	0.0176353
97	0xbd2ef1ff	-0.042711254
98	0x3d186b7b	0.037211876
99	0xbc7393f6	-0.01486682
100	0x3d60bc5e	0.05486714
101	0xbda5e22b	-0.08099779
102	0x3d6a631c	0.057223424
103	0xbd342f5f	-0.04399049
104	0xbcd696bb	-0.02619492
105	0xbd261951	-0.040551487
106	0x3d50f460	0.051014304
107	0xbd3dcf0e	-0.04634004
108	0x3daf836e	0.0856999
109	0xbddef525	-0.10886601
110	0xbcf2d7e3	-0.029643958
111	0x3ca7884a	0.02045073
112	0xbc516ec6	-0.012782758
113	0x3d746f34	0.059676364
114	0x3d8cee81	0.068814285
115	0x3c897567	0.016779615
116	0xbd7d9e80	-0.061918736
117	0x3dcd0ba9	0.100119896
118	0xbda33848	-0.07969719
119	0xbd3272e1	-0.04356659
120	0xbc926b6d	-0.01787349
121	0xbd419b4f	-0.047267254
122	0xbdd74b40	-0.105124
123	0x3ccd377a	0.025050867
124	0x3dbf765b	0.093487464
125	0xbd92e0a8	-0.07171756
126	0xbd5e6e2a	-0.05430428
127	0x3e3b1571	0.18269898
128	0xbd8f2cec	-0.0699099
129	0xbda2f19a	-0.07956238
130	0x3c4d4dc0	0.012530744
131	0xbcfb2bf4	-0.030660607
132	0xbdbc0ce7	-0.091821484
133	0x3ddc829a	0.10767098
134	0x3dc31751	0.095259316
135	0x3dec538d	0.115393735
136	0xbe3849c9	-0.17996897
137	0xbd9f111c	-0.07766935
138	0xbcfcc842	-0.03085721
139	0xbde2e725	-0.110792436
140	0xbb74e5bb	-0.0037368375
141	0x3d17643a	0.036960818
142	0x3e065f57	0.13122307
143	0x3ceb8deb	0.028754195
144	0xbd94a5ec	-0.072582096
145	0xbc5f5f66	-0.013633585
146	0xbd508839	-0.050911162
147	0xbcde3766	-0.027126025
148	0xbd31aa6b	-0.043375414
149	0xbd846107	-0.06463819
150	0xbc94c481	-0.018160107
151	0x3d51f156	0.051255547
152	0xbd50899d	-0.05091249
153	0xbdae8819	-0.08522052
154	0x3d2970b9	0.041367266
155	0xbdfde79a	-0.1239769
156	0x3cc5e230	0.024155706
157	0xbde08ea2	-0.10964705
158	0xbd802718	-0.062574565
159	0xbdf2d2ca	-0.11856611
160	0x3d43675d	0.047705997
161	0x3b70cdc8	0.003674375
162	0xbdb23ac6	-0.087026164
163	0x3d8150ac	0.06314215
164	0x3beb4f2b	0.0071810684
165	0xb755d659	-1.2745696e-05
166	0xbdb71332	-0.08939208
167	0xbd8f1fe8	-0.069885075
168	0xbd0e2789	-0.034705672
169	0xbd5f307e	-0.054489605
170	0xbd81abb4	-0.06331578
171	0x3d273813	0.04082496
172	0x3db37afe	0.08763693
173	0x3bbd1821	0.0057706987
174	0xbe3b5926	-0.18295726
175	0xbc34a039	-0.011024528
176	0x3cf54990	0.029942304
177	0xbce79073	-0.028267121
178	0x3e0a5a17	0.13510929
179	0xbe6290b1	-0.22125508
180	0xbd9a58be	-0.075364575
181	0x3d6f0cb5	0.058361728
182	0xbdfbda24	-0.122974664
183	0x3c8d945c	0.017282657
184	0xbdc2aef1	-0.09506024
185	0xbd6d1200	-0.057878494
186	0x3d1594ce	0.036518864
187	0x3bd561f8	0.006511923
188	0xbdae58e7	-0.085130505
189	0xbd0ad0c4	-0.0338905
190	0xbdb79ba5	-0.08965234
191	0xb9f45f17	-0.00046610154
192	0xbdd5b158	-0.10434216
193	0xbd335ab5	-0.043787677
194	0x3d2b071c	0.041754827
195	0x3da69db4	0.08135548
196	0xbd8f1485	-0.06986336
197	0xbb2bac7a	-0.0026195333
198	0xbd7d512d	-0.061844993
199	0x3d4aa727	0.049475815
200	0x3d110e18	0.03541383
201	0xbcbe1d65	-0.023207376
202	0xbdccb0c0	-0.0999465
203	0x3c94b429	0.018152313
204	0xbdf53988	-0.11973864
205	0xbd4cca71	-0.04999775
206	0xbc2c0042	-0.010498108
207	0xbc1c752b	-0.009549419
208	0xbe05dc8f	-0.13072418
209	0xbd91bf3a	-0.07116552
210	0x3d8f9e29	0.070125885
211	0x3d8d2778	0.06892294
212	0xbe340617	-0.17580448
213	0xbcf6585f	-0.030071435
214	0x3d9865cc	0.07441291
215	0x3af54fff	0.0018715857
216	0xbdacfbec	-0.08446488
217	0x39bc1592	0.00035874225
218	0xbdcd9af8	-0.100393236
219	0x3d95e321	0.07318712
220	0xbaa6d055	-0.0012726883
221	0x3d279f98	0.040923685
222	0xbd88f765	-0.06687812
223	0xbd173b65	-0.036921877
224	0x39c3581e	0.0003725895
225	0xbe0ba8eb	-0.13638656
226	0xbd114bdb	-0.035472732
227	0xbe16ca1d	-0.14725538
228	0xbd4fcd0d	-0.05073266
229	0x3dd6041a	0.10450001
230	0x3da37944	0.07982114
231	0x3d422b4b	0.04740457
232	0x3bf58730	0.0074929222
233	0xbdc788a7	-0.09742861
234	0xbdd16d7a	-0.10225959
235	0x3cc215cc	0.023692034
236	0xbca95f1d	-0.020675236
237	0x3dc92b60	0.09822726
238	0xbd48d4f9	-0.04903123
239	0xbd8cc714	-0.06873909
240	0x3da443f1	0.08020771
241	0x3deca2e9	0.1155451
242	0xbcf988ae	-0.030460682
243	0xbda5ec9d	-0.08101771
244	0xbd786592	-0.06064374
245	0xbd8d0f80	-0.06887722
246	0xbdf4fc60	-0.11962199
247	0xbcf1b5d1	-0.029505642
248	0xbe3c6711	-0.18398692
249	0xbd7b61bd	-0.061372507
250	0x3d64ecba	0.055889823
251	0xbd77c1f8	-0.060487717
252	0xbd33ed29	-0.043927345
253	0xbc0e07c1	-0.008668841
254	0xbd17283a	-0.036903597
255	0x3c7cb981	0.015425087

weight f4 [1, 4, 1, 12, 12]
0	0xbe2064be	-0.1566343
1	0xbc8531f2	-0.016259167
2	0x3d463a36	0.048395358
3	0x3d990d18	0.074732006
4	0xbe0be253	-0.13660555
5	0x3cd7d467	0.026346399
6	0x3ce8abff	0.028402327
7	0x3d2320e7	0.0398263
8	0x3d15eba0	0.036601663
9	0x3d0f7581	0.03502417
10	0xbd89c34b	-0.06726702
11	0xbd5e43b9	-0.054263804
12	0xbdb0d422	-0.08634211
13	0x3d0b97ac	0.034080192
14	0x3c7381e2	0.014862509
15	0x3dafdcbe	0.08587025
16	0x3cbcbbcd	0.02303877
17	0xbcacbaac	-0.021085106
18	0xbcda3d36	-0.026640516
19	0x3cbc111a	0.022957373
20	0x3d0ceac7	0.03440359
21	0xbc86d634	-0.016459562
22	0x3d362fa8	0.044479042
23	0xbce85c92	-0.028364453
24	0xbcd9ebba	-0.026601661
25	0x3d4c93b4	0.04994555
26	0xbc92596a	-0.017864902
27	0x3d6c1b11	0.057643
28	0xbd508fd0	-0.0509184
29	0x3cd2c460	0.025728405
30	0x3d7e1b29	0.06203762
31	0xbd82d281	-0.06387807
32	0x3e093e1d	0.134026
33	0x3d9700c3	0.07373192
34	0xbd58f001	-0.05296326
35	0x3e05ca31	0.13065411
36	0xbbb6005d	-0.0055542425
37	0xbc0e7ee1	-0.0086972425
38	0xbde99164	-0.11404684
39	0xbe232067	-0.1593033
40	0xbd09b417	-0.033619013
41	0x3c40f942	0.011778178
42	0x3c06f159	0.008236253
43	0xbd11d740	-0.03560567
44	0x3d509c82	0.050930507
45	0x3da65e3c	0.081234425
46	0x3b45df6c	0.0030192984
47	0xbd983bd4	-0.07433286
48	0xbb28e4fb	-0.0025771249
49	0xbc791915	-0.015203734
50	0x3e3eac11	0.18620326
51	0x3e1ac181	0.15112878
52	0xbd01c56f	-0.031682428
53	0x3cce1c4c	0.025159977
54	0x3d765dcd	0.06014805
55	0x3da93d04	0.08263591
56	0xbcb9f4fa	-0.022699822
57	0xbe01ff70	-0.12695098
58	0x3caaa292	0.020829473
59	0x3d79b4ed	0.06096356
60	0xbd99898e	-0.074969396
61	0xbd984a67	-0.07436066
62	0x3d19bf81	0.037536148
63	0x3db9f999	0.0908081
64	0xbe071b77	-0.13194071
65	0xbc11b19f	-0.008892446
66	0x3e530d3e	0.2061052
67	0x3ce2af0c	0.02767136
68	0xbd84b18f	-0.06479179
69	0xbce16061	-0.027511777
70	0x3bb911a5	0.0056478553
71	0xbe1321d8	-0.14368379
72	0x3c3618a5	0.011114274
73	0x3d81054c	0.062998384
74	0x3dcd1a06	0.10014729
75	0x3dafdfe7	0.08587628
76	0x3dc5a64f	0.096508615
77	0x3d947974	0.07249728
78	0xbcd383ea	-0.025819737
79	0x3d4868c6	0.048928045
80	0xbcefcb85	-0.02927185
81	0xbdc06465	-0.09394149
82	0x3ce6fb7f	0.028196095
83	0xbd06013f	-0.032716032
84	0x3d394539	0.04523203
85	0x3d95219d	0.07281802
86	0x3ddbe0d3	0.10736241
87	0x3da80433	0.08203926
88	0x3c36eefe	0.011165379
89	0xbe166011	-0.14685084
90	0xbcbb6c63	-0.022878831
91	0x3dbdbaf3	0.09264173
92	0xbdd4ba50	-0.10387099
93	0xbc8f0815	-0.017459909
94	0x3d9f6931	0.077837355
95	0x3dcdaf09	0.10043151
96	0xbc4448d6	-0.011980256
97	0xbcb9d3b9	-0.022683965
98	0x3dcfcd1b	0.10146543
99	0x3e0b2fa3	0.1359239
100	0xbcc9816d	-0.024597848
101	0x3d90cfb8	0.07070869
102	0x3cdf0b54	0.027227081
103	0x3da93090	0.08261216
104	0x3cee0aad	0.029057825
105	0x3d5fbb17	0.054621782
106	0xbd105b1e	-0.035243146
107	0x3d5861fa	0.052827813
108	0x3db91f8c	0.0903922
109	0x3d021874	0.0317616
110	0xbdc2cf17	-0.095121555
111	0xbe068f2a	-0.1314055
112	0x3dc7f54d	0.09763584
113	0x3d950315	0.072759785
114	0xbe07df54	-0.13268787
115	0xbd578723	-0.05261911
116	0x3dc97694	0.0983707
117	0x3d6acdf8	0.057325333
118	0x3d480bcf	0.048839387
119	0xbc7b4eb6	-0.01533859
120	0x3c69ea33	0.014277029
121	0x3dad6312	0.08466162
122	0xbcf4b73b	-0.029872527
123	0xbced81af	-0.028992502
124	0x3c9ecc2a	0.019384462
125	0x3c4f197f	0.012640356
126	0x3d96bda4	0.0736039
127	0xbd54b66e	-0.05193179
128	0x3c82b18c	0.015953802
129	0x3cadc89e	0.021213826
130	0xbcd45b90	-0.025922567
131	0x3e0beb23	0.13663916
132	0xbd97b539	-0.07407612
133	0x3c30affa	0.010784144
134	0x3b6d12c2	0.003617451
135	0x3d80b213	0.06283965
136	0x3d5f4641	0.05451036
137	0xbd2e18bd	-0.04250406
138	0x3caa6cc7	0.020803822
139	0xbd03f3c7	-0.032214906
140	0xbd6a471e	-0.05719673
141	0x3afa1aca	0.001908147
142	0x3d22fe78	0.03979346
143	0xbd7101c5	-0.05883958
144	0x3d5e2d1f	0.05424225
145	0x3cfcbc68	0.030851558
146	0xbe0356ab	-0.1282603
147	0x3c4974fa	0.012295956
148	0x3dd18dab	0.10232099
149	0xbcc6a5ed	-0.024249041
150	0xbdaab686	-0.08335595
151	0xbd4043bd	-0.0469396
152	0x3d5f8db6	0.054578505
153	0xbcfc1bc1	-0.030774953
154	0xbd4b2d9c	-0.049604043
155	0x3d34e9f6	0.044168435
156	0x3df70bd6	0.120628044
157	0x3b2fcb42	0.0026824032
158	0xbcac7ef9	-0.021056639
159	0x3d64da24	0.055872098
160	0xbcaec869	-0.021335797
161	0xbc0b5313	-0.008503693
162	0x3dabadeb	0.083827816
163	0xbd1304ac	-0.035893127
164	0x3d3582b9	0.04431412
165	0x3dadd9d4	0.08488813
166	0xbd123072	-0.035690732
167	0x3e222445	0.15834148
168	0x3da41c3d	0.080131985
169	0x3d69476b	0.056952875
170	0xb98ab83e	-0.00026458682
171	0x3c578b5c	0.013155784
172	0x3d300da2	0.04298175
173	0xbd9c72c1	-0.07639075
174	0x3c97b688	0.018519655
175	0x3c671278	0.014103524
176	0x3cf6055e	0.030031856
177	0x3df7c91c	0.120989054
178	0x3d82bcdc	0.06383678
179	0xbbe6497b	-0.0070278025
180	0x3d562496	0.052280985
181	0xbe51793e	-0.20456406
182	0xbdd033ba	-0.10166116
183	0xbd40f906	-0.047112487
184	0xbc239443	-0.009984079
185	0xbd1eaf9e	-0.0387417
186	0x3d68747b	0.05675171
187	0xbdaac2f7	-0.08337968
188	0xbd7e427d	-0.062075127
189	0x3d1d94da	0.038472034
190	0xbd890eaf	-0.06692254
191	0xbc5806e1	-0.013185234
192	0x3deef4aa	0.1166776
193	0xbcfcbd90	-0.03085211
194	0xbe589010	-0.21148705
195	0xbe62fa62	-0.22165826
196	0x3cbe5f50	0.023238808
197	0x3d4e777b	0.050406914
198	0xbdd6161d	-0.104534365
199	0xbe46d98e	-0.19418928
200	0x3e2c7a4e	0.1684353
201	0x3e4f1801	0.20224
202	0xbc50c217	-0.012741587
203	0x3ddbdf85	0.10735992
204	0xbdcacedd	-0.09902737
205	0xbb82250d	-0.003971702
206	0x3bd9859d	0.0066382424
207	0x3d3570a5	0.04429688
208	0x3ba0f262	0.004911707
209	0x3d1ec3c3	0.03876091
210	0xbdac85ee	-0.084239826
211	0xbd63805d	-0.05554234
212	0x3a8e4a39	0.001085586
213	0x3d7efc58	0.062252373
214	0xbda079e4	-0.07835749
215	0xbc185ed2	-0.009299951
216	0x3dac74eb	0.08420738
217	0xbd609f8f	-0.054839667
218	0xbdce872e	-0.10084377
219	0xbdf64578	-0.12024969
220	0x3d8520ce	0.065003976
221	0x3d3223a7	0.043491032
222	0xbd93baac	-0.07213339
223	0x3caf340c	0.021387123
224	0x3cc13e96	0.023589414
225	0x3d9f17c2	0.07768203
226	0x3c3a0f3d	0.011356172
227	0x3cf45303	0.02982474
228	0xbd820613	-0.06348815
229	0xbddd790a	-0.10814102
230	0xbd039867	-0.032127764
231	0x3d7a8bb6	0.061168395
232	0xbe28d831	-0.1648872
233	0x3c7c2aa7	0.0153910285
234	0x3c90e876	0.017688971
235	0xbca57f38	-0.020202264
236	0x3daa2023	0.08306911
237	0x3d2ae550	0.041722596
238	0x3c8cfddd	0.017210895
239	0xbcb445af	-0.022005884
240	0x3db790b7	0.08963149
241	0x3df13190	0.117770314
242	0xbe3d62b6	-0.18494686
243	0xbe1ac358	-0.1511358
244	0x3e0b52d6	0.13605818
245	0x3e6e6a4d	0.23282738
246	0xbd6892b9	-0.05678055
247	0xbe5dc5a9	-0.21657433
248	0x3c62caa7	0.013842261
249	0x3da4bce3	0.0804384
250	0xbc39eea4	-0.0113484
251	0x3dba6e0f	0.09103023
252	0xbd553630	-0.05205363
253	0xbcab9b3c	-0.020948045
254	0xbda5be5e	-0.0809295
255	0xbd6726a3	-0.05643333

weight f4 [12, 12]
0	0x3e948c91	0.29013494
1	0xbe61ae25	-0.22039087
2	0xbe06769c	-0.13131183
3	0xbdbeb7d4	-0.09312406
4	0x3e20647d	0.15663333
5	0x3e053c4a	0.1301128
6	0x3e0a5f53	0.13512926
7	0xbd8cab75	-0.0686864
8	0xbe41fb77	-0.18943582
9	0x3ea2a151	0.317637
10	0x3df9d736	0.12199251
11	0xbcbd9cb9	-0.02314602
12	0x3e1602e8	0.14649546
13	0xbe397bdd	-0.18113656
14	0x3e888707	0.26665518
15	0xbc746ab1	-0.014918015
16	0x3e0d4da7	0.13799153
17	0x3d6a3772	0.057181783
18	0x3e653e9d	0.22387166
19	0x3d9faed6	0.07797019
20	0xbec03b71	-0.3754535
21	0x3db446b2	0.088025466
22	0x3e722f11	0.23650767
23	0xbec78a62	-0.38972765
24	0xbcb9398c	-0.022610448
25	0xbd93a159	-0.07208509
26	0x3e81ff74	0.25390208
27	0x3e964d9d	0.2935609
28	0x3e227a92	0.1586707
29	0x3e52819f	0.20557259
30	0xbdf3b3a3	-0.11899497
31	0xbe67dbc5	-0.22642429
32	0xbebacbaa	-0.36483508
33	0xbe55bc35	-0.20872577
34	0x3e36ac03	0.17839055
35	0xbe85ab0d	-0.26107064
36	0x3c7a42fd	0.01527476
37	0xbe14b04c	-0.14520377
38	0xbe26751d	-0.16255613
39	0xbdba1314	-0.0908567
40	0x3d9af009	0.07565314
41	0x3d6e08f9	0.058114026
42	0x3d85e798	0.065383136
43	0xbe0efadf	-0.13962887
44	0x3de62f9d	0.1123955
45	0xbd8aeb82	-0.06783201
46	0x3e73472b	0.23757617
47	0xbd9d80f4	-0.076906115
48	0x3e875ff3	0.2644039
49	0xbe583ede	-0.21117732
50	0xbe182c51	-0.14860655
51	0xbe8516d9	-0.25993994
52	0xbcdd0daa	-0.026984055
53	0x3dc2e020	0.09515405
54	0x3d6f2fe7	0.058395293
55	0x3e09d87a	0.13461486
56	0x3d6d5410	0.057941496
57	0x3e04832d	0.12940665
58	0xbe53ba6a	-0.2067658
59	0x3e357274	0.17719442
60	0xbd819434	-0.06327096
61	0x3e1a404e	0.15063593
62	0xbdfd3558	-0.1236369
63	0x3d7bb89d	0.061455358
64	0x3e8e513a	0.27796346
65	0x3d65d066	0.056106947
66	0xbe73c47c	-0.23805422
67	0xbe1f7443	-0.15571694
68	0xbe4b26c5	-0.19839008
69	0x3e5e75eb	0.2172467
70	0x3d3c47dc	0.045966968
71	0xbdb7ba66	-0.089710996
72	0x3c6e3f70	0.014541492
73	0xbbdbd44d	-0.006708658
74	0x3c92806e	0.017883506
75	0xbe2b0634	-0.16701585
76	0xbdcbbabc	-0.09947726
77	0x3dbae2e9	0.09125311
78	0x3dc5bbb8	0.09654945
79	0xbe37e7a3	-0.17959456
80	0x3dfc17cb	0.12309226
81	0x3e5b5dfb	0.2142257
82	0xbe586409	-0.2113191
83	0x3e81281f	0.25225922
84	0xbdc538c3	-0.09629967
85	0xbe25bef5	-0.16186126
86	0x3e385da4	0.18004471
87	0xbe235ffa	-0.15954581
88	0x3d6b7552	0.057484932
89	0xbe347670	-0.17623305
90	0x3e8138de	0.252387
91	0x3e5483ef	0.20753454
92	0x3cb80ad2	0.022466097
93	0xbcb3803d	-0.021911735
94	0x3d92f3f9	0.0717544
95	0xbe9ce3ae	-0.30642456
96	0x3e259e28	0.16173613
97	0x3b63b148	0.003474312
98	0x3eb064ad	0.3445181
99	0xbd95a967	-0.073077016
100	0x3ddbc800	0.10731506
101	0xbe88e3bf	-0.26736256
102	0xbe5e1d64	-0.21690899
103	0xbe2bacdf	-0.16765164
104	0xbe717b81	-0.23582269
105	0xbe783aa6	-0.24241123
106	0x3e2849f2	0.16434458
107	0xbe2fd093	-0.17169409
108	0x3c5a176c	0.013311248
109	0xbe990b6c	-0.29891527
110	0xbcb2ff43	-0.021850234
111	0x3e6cf2ad	0.23139448
112	0x3e8ddfe0	0.27709866
113	0xbc139045	-0.0090065645
114	0x3e3a6d52	0.18205765
115	0x3e75227e	0.23938939
116	0xbe6679bb	-0.22507374
117	0xbe326292	-0.17420414
118	0xbe38dcd9	-0.18052997
119	0x3cb77caf	0.022398321
120	0xbd013ca8	-0.031551987
121	0x3e2ee592	0.17079762
122	0x3dd4d025	0.10391263
123	0xbe644109	-0.22290434
124	0x3e9accba	0.3023432
125	0xbe7f0739	-0.24905099
126	0xbe2dcd15	-0.16972764
127	0xbe60c7a9	-0.21951164
128	0x3cf750b6	0.030189853
129	0x3e1307e0	0.14358473
130	0xbe30972b	-0.17245166
131	0xbda89e16	-0.082332775
132	0xbd8d71db	-0.06906482
133	0x3de4def3	0.11175337
134	0xbdc8b331	-0.09799803
135	0xbe0cb4d8	-0.13740861
136	0xbdd53c3d	-0.1041188
137	0x3e12decc	0.14342803
138	0xbbf85ede	-0.0075796684
139	0xbde14581	-0.10999585
140	0x3d62242a	0.05521027
141	0x3e0cb79f	0.13741921
142	0x3de2a1d9	0.11066026
143	0x3e9c6531	0.30545953

bias f4 [12]
0	0x3e46302e	0.19354317
1	0xbd815e9b	-0.06316873
2	0x3da3e25a	0.080021575
3	0x3d847bde	0.06468938
4	0xbd559a63	-0.052149188
5	0x3e8046c3	0.25053987
6	0x3e175f7e	0.14782521
7	0x3e84bc90	0.25925112
8	0xbe655c1f	-0.22398423
9	0x3d4f2227	0.05056968
10	0x3e1a466c	0.15065926
11	0xbe43d23e	-0.1912317

weight f4 [3, 12]
0	0xbca26500	-0.019823551
1	0xbe0208f2	-0.12698725
2	0xbdb86b08	-0.090047896
3	0xbe8b77b5	-0.27239767
4	0xbe19422a	-0.14966646
5	0xbed72fd4	-0.42028677
6	0xbe801d4f	-0.2502236
7	0x3e6dffdc	0.23242134
8	0xbea3cf4d	-0.31994095
9	0x3d52774e	0.05138331
10	0xbea2e2ae	-0.31813568
11	0xbd4db18b	-0.050218146
12	0x3ee5128a	0.44740707
13	0xbeb2755a	-0.34855157
14	0xbee03705	-0.43791977
15	0x3e3a67c8	0.18203652
16	0x3ecaa62c	0.39579904
17	0x3ec30f91	0.38097814
18	0x3e307753	0.17233019
19	0xbe281ddf	-0.16417645
20	0xbed25bc2	-0.4108563
21	0xbec7d87d	-0.39032355
22	0x3ea85b63	0.32882223
23	0x3ee477f6	0.44622773
24	0xbebacb18	-0.36483073
25	0x3e8244a2	0.25442988
26	0x3e0cac30	0.1373756
27	0xbeadb9f9	-0.33930948
28	0xba0219fe	-0.00049629796
29	0xbd045d07	-0.03231528
30	0xba635116	-0.00086714455
31	0x3cbe44ef	0.02322623
32	0xbb7dd1c6	-0.003872977
33	0x3e9d2806	0.30694598
34	0xbe368713	-0.17824964
35	0xbee43149	-0.44568852

bias f4 [3]
0	0xbe966807	-0.29376242
1	0x3d84ecf0	0.06490505
2	0xbe56cf32	-0.20977476

weight f4 [3, 12]
0	0xbe88186e	-0.26581138
1	0xbe40beac	-0.18822736
2	0xbe533d09	-0.20628752
3	0xbe63227c	-0.22181123
4	0x3c812283	0.015763527
5	0xbdb11a2d	-0.08647571
6	0xbc833d31	-0.01602039
7	0xbe0a5bf8	-0.13511646
8	0x3e87a5eb	0.26493773
9	0x3e824a31	0.2544723
10	0xbe934052	-0.2876001
11	0xbe8d6558	-0.27616382
12	0xbdf37f93	-0.11889567
13	0xbe17aede	-0.148128
14	0xbdb7d6cb	-0.089765154
15	0xbac849f3	-0.0015280828
16	0xbe0e37c6	-0.13888463
17	0xbe2bfa62	-0.16794732
18	0xbdda8987	-0.106707625
19	0xbceca3a1	-0.028886618
20	0xbe3c2bb1	-0.18376042
21	0xbceb78d0	-0.028744131
22	0xbe5412f2	-0.20710352
23	0xbe23cc17	-0.15995823
24	0xbe247781	-0.16061212
25	0x3e0d6e91	0.13811709
26	0x3e107bbe	0.14109704
27	0x3c05d2d6	0.008167943
28	0xbe84171e	-0.25798887
29	0xbcfa8024	-0.03057868
30	0x3e5129bb	0.20426075
31	0x3d01b60e	0.03166776
32	0x3e383ea3	0.17992644
33	0x3e82bfc5	0.25536934
34	0xbe6b405c	-0.2297377
35	0x3e466fd3	0.19378595

bias f4 [3]
0	0xbeaea686	-0.34111422
1	0x3e82f077	0.25574085
2	0x3d8e6fd1	0.06954921

weight f4 [3, 3]
0	0xbed32bff	-0.41244504
1	0x3ed05cc3	0.40695772
2	0x3ed2905e	0.41125768
3	0xbeb0bfec	-0.34521425
4	0x3d8dbec8	0.06921154
5	0x3ebb9d09	0.36643246
6	0xbdb124a1	-0.086495645
7	0x3ecbd059	0.39807394
8	0x3efbec66	0.49203795

bias f4 [3]
0	0x3ee2d764	0.44304955
1	0x3f096d84	0.5368273
2	0xbf077776	-0.5291666
