data/best/output/poster/train/17_stemgnn.pt (torch, 435920 bytes, 73 tensors)

weight_key f4 [135, 1]
000000 ae c7 82 bb 65 9b 21 3e 85 d6 7b be 80 68 60 be
       -0.003991089 0.15781935 -0.24593551 -0.21914864
000010 e2 89 e9 bd d5 c0 a3 3d bc 8e b9 bb 9d 9c 71 3e
       -0.11403252 0.07995764 -0.005662767 0.235949
000020 34 b2 d7 bc a8 32 9f 3d 34 6c b8 bd da 11 71 bd
       -0.026330091 0.07773334 -0.09005013 -0.058854915
000030 2f a1 91 be dd 6d 49 be 0d 6b fa bd f3 4a 3a 3c
       -0.28443286 -0.19670816 -0.122274496 0.011370408
000040 87 9b f0 3d 85 95 36 3e 00 00 4e be cc 45 04 be
       0.117484145 0.17830475 -0.20117188 -0.1291725
000050 da b7 dc 3d b0 0f 7c 3e 1d c5 7d bd a8 e8 62 3e
       0.107772544 0.2461536 -0.06195556 0.22159064
000060 af 41 47 bd a3 77 ff 3c d9 0b 8a 3e e3 b2 8c be
       -0.048646625 0.031184977 0.26962164 -0.2748023
000070 dd 19 3f be 5f f4 98 bd 6e 8f ea bd 1c 07 84 3e
       -0.1866221 -0.07468485 -0.11453138 0.25786674
000080 ee 27 44 be cf 93 0b be eb e0 53 be fd 38 8e be
       -0.19155857 -0.13630603 -0.20691268 -0.27777854
000090 55 9a 31 be f0 b3 82 3e c8 b5 07 3e 41 34 14 3e
       -0.17344029 0.25527906 0.13252938 0.14473058
0000a0 ef 45 82 3c eb 03 1c be 44 a7 4c 3d b1 5c 8e be
       0.015902488 -0.1523587 0.049964204 -0.27805093
0000b0 a1 24 5d be 3f 84 1e be 31 66 3f 3e 3a d8 31 3e
       -0.21596004 -0.15480135 0.18691327 0.1736764
0000c0 eb d6 07 be e4 b5 38 bc 3f cd 41 3e c3 37 97 3e
       -0.13265578 -0.011273835 0.18925951 0.2953473
0000d0 8d 44 f0 3d 0b b3 24 3d f5 b6 4c 3e e4 21 33 be
       0.11731825 0.04020981 0.19991668 -0.17493397
0000e0 ac d0 5f 3d a0 47 6d be 68 a1 53 be d4 79 1d be
       0.054642364 -0.23171854 -0.2066704 -0.15378505
0000f0 38 ca 08 3e fe 4e f2 3d 33 33 36 be ef 3c b6 3d
       0.1335839 0.11831473 -0.17792968 0.08898341
000100 d9 a8 25 3e be 7e 21 bd fe b5 1f 3c 16 d9 8a 3d
       0.16177692 -0.03942751 0.00974798 0.06779687
000110 9e e0 3b 3e 8a 54 91 3e 0b dc 6b be 75 1c e2 bd
       0.18347403 0.2838481 -0.23033158 -0.11040584
000120 da 69 eb 3d ed a7 7a 3e e4 6d 83 3e f4 42 85 3e
       0.11494799 0.24478121 0.25669777 0.26027644
000130 38 cf 6e 3d ce 64 84 be 4e 97 de 3c c8 31 3f be
       0.058303088 -0.25858158 0.027171757 -0.18671334
000140 a8 ac 8e be b0 e5 86 3e bc c6 66 3e 23 c3 97 be
       -0.278661 0.26347113 0.22536749 -0.29641065
000150 61 7b 64 3d 94 65 4f bd fd 10 4e bd 9a ff 0b be
       0.055781726 -0.05063398 -0.05030917 -0.13671723
000160 06 e2 e6 3d 41 0f 35 be ee af dd 3d 91 d4 18 3e
       0.11273579 -0.176816 0.108245715 0.14924838
000170 2c e9 58 3e 9d de e0 3d 4b 48 97 be f2 0f 47 be
       0.21182698 0.1097996 -0.29547343 -0.19439676
000180 62 5b 17 3e 85 9b 7e 3d 53 30 6d be 8a 0f 2f be
       0.14780954 0.062160034 -0.23162965 -0.17095771
000190 2d c4 8e 3e c0 19 4b 3e 58 23 06 be e4 55 99 bd
       0.27884045 0.19834042 -0.1309942 -0.074870855
0001a0 8f 64 90 be 99 f1 94 bb 68 1e 64 be 38 91 69 be
       -0.2820172 -0.0045454022 -0.22277224 -0.22809303
0001b0 07 83 80 bc 42 ed 38 3d 9b e5 f7 bd b5 43 35 3e
       -0.015687479 0.04514814 -0.12104341 0.1770161
0001c0 22 17 39 be f2 ad 89 3e 4b 0a 4f 3e 41 29 81 be
       -0.1807523 0.26890522 0.2021877 -0.25226787
0001d0 74 08 98 bd 03 e4 4a 3c 1d 49 2a 3d a8 7b 8c 3d
       -0.07423487 0.012383464 0.041573633 0.06859523
0001e0 49 2c eb 3d cd de 82 3c 0c f1 15 be 17 0c 0f 3e
       0.11483056 0.01597538 -0.14642733 0.13969456
0001f0 f6 78 92 be 84 47 35 be 1e b1 9b bd 76 b7 15 be
       -0.2860791 -0.17703062 -0.07602142 -0.14620766
000200 b5 58 d6 bd d7 3e 79 be 13 ff 80 bd 5b 53 83 3d
       -0.10466138 -0.24340378 -0.062986515 0.06412383
000210 11 b8 45 be ac 48 81 bc d5 62 58 3e
       -0.19308497 -0.015781723 0.21131451

weight_query f4 [135, 1]
000000 b1 47 8e bd 82 6b 68 3a b0 a5 94 3d 3d cc 3e 3e
       -0.06947268 0.00088661176 0.07258165 0.18632598
000010 df cb a3 3e 3f 45 d2 3e 08 2f a1 3e 60 c2 cf 3e
       0.3199148 0.41068456 0.31481194 0.40577984
000020 56 56 cd 3d 6c 13 16 be b1 9a b1 bc 11 4b a4 3e
       0.10026233 -0.14655846 -0.021680208 0.3208852
000030 74 12 ee 3d 79 16 f4 bc fd be e1 bd 4c c7 24 be
       0.116246134 -0.029795872 -0.11022756 -0.1609165
000040 db 24 09 be b9 c2 65 3d 3d f4 8e 3e 95 be 8d 3e
       -0.13392965 0.056093905 0.27920714 0.27684465
000050 8b e2 2d be 60 9f 9a 3e 34 9b eb bd 88 8d 5f 3d
       -0.1698095 0.30199718 -0.11504212 0.054578334
000060 42 bc 37 bb 9d 27 79 3d f1 e3 74 3d 85 2b 18 be
       -0.0028035794 0.060828794 0.059787694 -0.14860351
000070 30 35 0e be 7a f3 90 3d b3 42 f7 3d 37 94 94 bc
       -0.13887477 0.070776895 0.12073269 -0.01813708
000080 02 da 69 3e 57 af 19 be 9a 37 c6 3d cc 7d c1 3e
       0.2283707 -0.15008293 0.09678574 0.37791288
000090 8e a1 88 bb 77 fd c4 3e 48 3f 66 3e 52 fb 19 be
       -0.0041696494 0.38474628 0.22485077 -0.15037277
0000a0 7d a4 9c 3e 09 41 ab 3d cb b7 6a bc 9e 1c b6 3e
       0.30594245 0.08362014 -0.014326046 0.35568708
0000b0 89 0e f9 bd 9e e1 19 3e 3a 9e 66 3d 48 62 a9 3e
       -0.121609755 0.15027472 0.05630324 0.33082795
0000c0 dc 1f 4e 3e 66 b3 85 3e 18 f8 64 3e 98 f7 40 3d
       0.20129341 0.26113433 0.22360265 0.047111124
0000d0 02 8b 65 3d 6e b5 01 be cc d2 8e 3e 56 4c b5 3e
       0.05604077 -0.12666866 0.278952 0.35409802
0000e0 b9 99 a4 3e 32 cf ba bd 14 b7 06 3e 31 a7 ba bd
       0.3214853 -0.091215506 0.13155776 -0.091139205
0000f0 b8 01 3a bd 17 f8 60 bd 23 02 61 3e f0 4f 71 bd
       -0.045411795 -0.054924097 0.21973471 -0.058914125
000100 cb 0e e5 3d 8a 0a 06 3e 24 92 9e 3e 9e c3 d9 bd
       0.11184462 0.13089958 0.3097087 -0.10633014
000110 70 b1 ae bd eb f1 5c bd 6f 10 a7 3e 31 5f 44 3c
       -0.08529937 -0.05394165 0.32629725 0.011985586
000120 e9 08 bd 3e 63 29 68 3e e8 79 20 3e 64 db ee 3d
       0.3692086 0.22672038 0.15671504 0.11662939
000130 53 e4 74 3d 7a e4 1e 3e 51 6e 4e 3d aa e8 ed 3d
       0.05978806 0.15516844 0.050398175 0.11616643
000140 78 f6 1f 3e 32 9c e9 bd 0e 62 1a bd 98 59 b7 3e
       0.15621364 -0.11406745 -0.03769117 0.35810542
000150 30 85 fa bd 31 7a c6 3d ee e7 d2 3e f6 3c 67 3e
       -0.12232435 0.09691275 0.41192573 0.22581849
000160 fb 03 02 3e 6a 87 0e be cc 23 88 3e bd fb bc bd
       0.12696831 -0.13918844 0.2658981 -0.09227703
000170 14 5c 0d 3d 8b 06 9d 3c d9 ef 98 3d 1e e5 f9 3d
       0.03451164 0.019168159 0.07467622 0.12201904
000180 cd f4 b9 3e d8 a6 1e 3e ba 90 c4 3e b4 43 99 3e
       0.3631958 0.15493333 0.38391668 0.29934466
000190 a9 41 8f bd 08 92 80 3e d4 b7 bc bd 8a 69 fc bb
       -0.069949456 0.25111413 -0.0921475 -0.007703011
0001a0 67 c0 52 3e dc 1a 5e 3e 55 97 ae 3e 6a 31 b7 3c
       0.20581208 0.21689934 0.34099832 0.02236243
0001b0 74 61 f3 3d 1b e0 8a 3e c4 42 2d be 73 3e aa 3e
       0.11883822 0.27124104 -0.1692 0.3325077
0001c0 a4 ba 02 be 4d 4c fa 3d c0 6a 8a 3d a7 de 1c bd
       -0.1276651 0.122215845 0.06758642 -0.038298275
0001d0 ff 04 21 3e b0 58 ba 3e ca 25 01 3d f3 04 6e bd
       0.15724562 0.36395788 0.03153018 -0.05811019
0001e0 e1 64 0b 3c af e6 33 be b8 21 81 3e c8 11 c5 bc
       0.008507938 -0.17568468 0.25221038 -0.02405633
0001f0 2c bd a3 bd 63 3f 5a bd 0d d9 93 3e 9f d7 8c 3e
       -0.07995066 -0.053283107 0.28876534 0.27508256
000200 11 f2 b0 3e b3 15 67 3e 7e 52 9a 3c b4 af 0f 3d
       0.34559682 0.22566871 0.018838163 0.035079673
000210 86 1b 53 3e 99 50 bb 3e a8 87 50 3e
       0.20615968 0.3658493 0.20364249

weight_ih_l0 f4 [405, 3]
000000 f2 4b 81 bd 36 01 81 bd fb 08 d5 bd bd 5c 7b 3d
       -0.063133135 -0.06299059 -0.104021035 0.06136774
000010 3f 25 ae bb c5 ce 09 bd b6 39 8f 3d 4f 2b 78 bd
       -0.0053144987 -0.033644456 0.06993429 -0.060588177
000020 fb 27 5f bc 57 0e 5a 3c 2b c9 0b bc c1 89 8d bd
       -0.013620372 0.013309083 -0.008531849 -0.0691104
000030 ce 26 71 bb b1 01 0a 3e 01 d4 a4 3d 4b 1d f4 3d
       -0.003679681 0.13477208 0.08048249 0.1191965
000040 28 19 99 3c 6e 0a 98 3d 94 d2 e5 bc 68 ef 47 bc
       0.018688753 0.07423864 -0.028054513 -0.012203075
000050 0f a5 79 bd 76 03 e4 3c 20 1a d9 3c 5b 55 28 bb
       -0.060948428 0.027833682 0.026501715 -0.0025685641
000060 79 01 4b bd 73 4f aa bd 9a 63 f2 3c 2f 47 1d bd
       -0.04956195 -0.08315935 0.02958851 -0.038397964
000070 fa 07 75 3d 16 92 a9 bb 81 76 1b bd 7f 7d 9d 3c
       0.05982206 -0.0051748855 -0.03795481 0.01922488
000080 c4 f4 27 bd 9b 24 e3 3d dc 2c de 3d 64 4f e5 3c
       -0.04100491 0.11090966 0.108484 0.027991958
000090 8b c0 f8 3c ca 8a 59 3d d5 f0 4f 3d b5 35 22 bd
       0.03036525 0.053110875 0.050766785 -0.039602
0000a0 78 f9 cb bd 51 4e 2e bd db 94 c4 3d a4 fd 0d 3d
       -0.09959692 -0.042555157 0.095987044 0.03466572
0000b0 39 48 ca 3d 95 5b 70 3d 85 55 30 bd 82 e5 47 3b
       0.09877057 0.05868109 -0.043050308 0.0030501788
0000c0 3d 5d 90 bd b9 41 cc bd 8b e8 cb bd 59 6e c0 3d
       -0.07049034 -0.09973473 -0.099564634 0.09396047
0000d0 8b 68 80 3c f9 94 b8 3d 17 70 be 3d e7 81 e5 3d
       0.01567485 0.09012789 0.09298723 0.112064175
0000e0 aa 8a b0 3d cd 94 ce 3d 02 d3 04 3e 8f 9d 43 3d
       0.08620198 0.10086975 0.12971118 0.04775768
0000f0 78 f9 98 3c a3 a6 8a 3c c2 bc 35 3e c0 79 47 3d
       0.018673643 0.016925162 0.17747787 0.048700094
000100 f4 90 85 bd 6a 5e e4 3c c2 5c ab 3d 38 0f d7 3d
       -0.06521788 0.027877051 0.083673015 0.105009496
000110 2c 56 c1 3d f3 2e 3c 3d 61 60 25 bd 1b d8 4f bd
       0.09440264 0.04594321 -0.040375117 -0.050743204
000120 ad 44 e3 3d 9a ce b5 3d 6e ba 37 bc 16 cd 9a 3d
       0.11097083 0.08877297 -0.011213882 0.07558648
000130 88 f9 23 3d 0c 3c 39 3d ed a1 9c bd ca d3 ec 3a
       0.040032893 0.04522328 -0.076480724 0.0018068489
000140 30 ee 5a bd 13 28 8e 3d fe b1 54 bc f9 35 14 3d
       -0.05344981 0.06941237 -0.01298189 0.036184285
000150 d4 3e eb 3a b3 eb bd 3c 53 8d 2e bd 7c de 23 bd
       0.0017947801 0.02318368 -0.042615246 -0.0400071
000160 f9 0d 11 be 1f 82 7e bd e3 d9 fe bd ed c5 1a be
       -0.14165486 -0.062135812 -0.12443902 -0.15114565
000170 8d c1 0a be 53 ba 10 3e a5 21 f6 3d 21 5a 1e 3e
       -0.13550396 0.14133577 0.12018136 0.15464069
000180 00 32 0d 3e cc 73 f9 bb 25 5d 2e 3c 99 cf a3 3a
       0.13788605 -0.007612681 0.010642325 0.0012497782
000190 a7 5c 27 bd b5 db 98 3d d4 80 47 bd 8c 4b d6 bc
       -0.040859845 0.07463781 -0.048706844 -0.02615907
0001a0 c3 10 8a bd f4 e0 08 bd 3a f0 b0 3d 2f 8c b0 3d
       -0.06741478 -0.033417657 0.086395696 0.08620488
0001b0 92 2f 81 bc 09 e0 2e bc f0 4c df b9 47 75 e1 bd
       -0.015769754 -0.010673531 -0.00042591197 -0.11008697
0001c0 aa 82 4e bd 11 23 3e bc 17 52 81 3a ac 52 70 3d
       -0.05041758 -0.01160504 0.0009866384 0.058672592
0001d0 43 42 8f 3c e7 a4 ad 3d f0 f5 06 3b 72 ad 96 3d
       0.01748765 0.08478718 0.0020593368 0.07357301
0001e0 b0 43 e2 3c 1d ac 34 bb 5f e0 fc bc 81 36 d6 bd
       0.027620167 -0.0027568408 -0.030868707 -0.104596145
0001f0 72 72 fb bd c9 13 39 3a fe 93 56 3d 41 85 9a bc
       -0.12277688 0.0007060138 0.05238723 -0.018862369
000200 90 a1 72 bd b5 ac 5f 3d 6f 29 2e 3d 1d 3b dc bb
       -0.05923611 0.054608066 0.042519983 -0.006720914
000210 92 e7 f1 bc 29 e6 b8 3d cf 70 3e 3d c4 2e 7c 3c
       -0.029529367 0.090282746 0.0464943 0.015392009
000220 3a 28 27 3e a2 00 16 3e 8a 4e 5c bc 57 b6 87 3d
       0.16323939 0.14648679 -0.01344646 0.066265754
000230 6d 02 fe bc 23 02 d0 3b 5b fc bd 3d 6c 4a bd 3c
       -0.031007016 0.006347911 0.092766486 0.023106776
000240 aa e3 6c bb 2a d0 fe 3c b1 7c 15 3d 1a 0b 3a 3c
       -0.003614644 0.03110512 0.036495868 0.011355186
000250 3b d2 10 3d 4d a8 da 3d d3 bb 0e 3c b4 08 49 bd
       0.03535674 0.10676632 0.008711773 -0.049080566
000260 ec 7a 0a 3c 3b bd 34 3d 7f 1d 3b 3d 12 d0 9a bd
       0.008452158 0.044125777 0.045682427 -0.075592175
000270 0b 32 25 bb e6 cf 50 bd 51 56 c2 bc fc 5f 26 3d
       -0.002520683 -0.050979517 -0.0237228 0.04061888
000280 4d be 56 bd 0a 8b 26 3d 67 d7 c6 3d db 29 f3 3c
       -0.05242758 0.04065994 0.097090535 0.029683044
000290 02 dc 08 bd 00 d6 71 bd c1 7c 18 bc 6b b9 bf bd
       -0.03341294 -0.059041977 -0.009307087 -0.093615375
0002a0 de 98 a1 3c 8c 32 cf bd 8d c9 d8 bd 84 83 ab bd
       0.019726213 -0.10117063 -0.10585318 -0.08374694
0002b0 01 49 8f bc f3 54 6c 3d 45 b1 37 bd 5d 0c dd 3d
       -0.017490866 0.0576982 -0.04484679 0.10793374
0002c0 f6 89 f0 3a 25 87 53 bd ae 65 93 bd d9 23 1c be
       0.0018351662 -0.051642556 -0.07197128 -0.1524805
0002d0 23 0e ab 3d 29 26 72 3d a1 22 c9 3d 47 7e 95 3c
       0.08352306 0.059118424 0.09821058 0.01824869
0002e0 33 bb a7 bd 46 dd 3f 3d e0 eb 4c bd f1 c6 63 bc
       -0.08190002 0.046841882 -0.050029635 -0.013902412
0002f0 e9 68 fd bd b8 d7 fe bb 95 33 8a bd 87 90 87 bc
       -0.12373526 -0.0077771805 -0.0674812 -0.016548408
000300 48 65 69 bb 6e 2b b6 bd c0 ea ca 3b b6 e3 04 3e
       -0.0035613347 -0.08895002 0.006192535 0.1297749
000310 c3 31 c6 3d 41 68 e2 3c 36 f9 6e 3c 80 bf 61 3d
       0.0967746 0.027637603 0.014585784 0.05511427
000320 10 d3 f4 3d dc 68 d7 3d ad a1 8e 3d 21 f0 27 3c
       0.119543195 0.10518047 0.06964431 0.010250122
000330 85 de 82 3b 6e 93 e2 bd 64 91 cc bd 6d ba 9a 3d
       0.0039938116 -0.11063276 -0.099886686 0.07555089
000340 84 f3 59 bc 05 4f 9d 3d af 2e 87 bd 75 0c 43 bd
       -0.013302688 0.076810874 -0.06600701 -0.0476193
000350 47 af 9a bd 4b b6 03 3e 7b 1f 9a 3d fc 00 1a 3e
       -0.07552963 0.12862508 0.07525536 0.15039438
000360 7c 77 d2 3d dc 4f c7 3d 72 ef 56 3d db 0d 35 bd
       0.10276696 0.09732029 0.052474447 -0.044202667
000370 26 4c 15 bd 62 e8 d8 bb 59 ca a4 3c cc 43 a9 bd
       -0.036449574 -0.006619499 0.020116018 -0.08264884
000380 93 71 4c 3d 7a b7 bb bc ba 72 af bd ab e4 76 bd
       0.049913 -0.022914637 -0.08566804 -0.06027667
000390 95 f3 93 3d 8e ab 98 3d 85 17 ac bd 45 61 c1 3d
       0.07224194 0.074545965 -0.084029235 0.09442381
0003a0 6a c8 9d 3d 0d 2d ae 3d fd fc e6 3d 08 1a ae bb
       0.077042416 0.085046865 0.112787224 -0.0053131618
0003b0 f7 8b 8f 3d b6 f2 9e 3c 67 53 27 bd 45 78 5f 3c
       0.07009118 0.019402843 -0.040851023 0.013639514
0003c0 0b a9 00 3c b3 d1 af 3d a1 cc 09 3c b8 ec 5f bc
       0.007852803 0.08584919 0.008410604 -0.013667278
0003d0 e7 28 25 3d 6c 6b 4a 3d 8e 95 94 bc 01 f6 00 3d
       0.04032221 0.04941885 -0.01813772 0.031484608
0003e0 9a ff 96 3d 63 3d d4 bc e1 c4 11 3c ef 4e 1c bd
       0.07372971 -0.025908178 0.008897037 -0.038161214
0003f0 7c 78 3b 3c 5b be a5 bd 36 18 8e bd 7f c4 e1 bc
       0.0114423 -0.08092948 -0.069382116 -0.027559517

weight_hh_l0 f4 [405, 135]
000000 87 5c 80 3d 2e f5 a5 3d 5b 7f 7b bd d9 68 05 3e
       0.06267648 0.08103405 -0.061400753 0.13028277
000010 92 d0 9a bb 39 df a2 3c 24 a8 19 3d 15 6c 67 bd
       -0.0047245706 0.019881831 0.037513867 -0.05649956
000020 f2 8e 42 bd a1 0d fc 3c bf 78 94 3d 72 eb 1c bd
       -0.047499605 0.030768218 0.07249593 -0.038310476
000030 74 94 cf bd fa 1a 01 3d af 64 a2 3c 1c 91 e6 3d
       -0.10135737 0.031519867 0.0198234 0.11258146
000040 ea bc dd bd 28 e9 d6 bb 50 4e 64 bd 12 8e b1 bd
       -0.10827048 -0.006558556 -0.055738747 -0.08669676
000050 72 32 73 bc 02 85 89 bd 60 4c 90 3d ab 7d 9f bd
       -0.01484357 -0.06714822 0.070458174 -0.07787641
000060 9f a8 a9 3d 9f 4f f0 bc 5a 80 12 3d 6b 07 11 be
       0.08284115 -0.029334841 0.035766937 -0.14162986
000070 c0 24 8a bd ea 12 8d bc dc 63 33 be dd 10 bf 3c
       -0.06745291 -0.017220933 -0.17518562 0.02332347
000080 b6 f7 3c 3c 79 49 42 3b c7 2f e9 bd 15 66 cd 3d
       0.011533668 0.0029645844 -0.11386066 0.10029236
000090 8c 14 4a 3d 36 0a ad bc 5a 87 02 bd 6a 34 66 3d
       0.049336 -0.021123033 -0.031867363 0.05620233
0000a0 a5 74 2b 3e a0 13 b6 bd ed 6d e9 bc 06 28 44 3c
       0.16743715 -0.08890462 -0.0284948 0.011972433
0000b0 7c cf bc bd 4f d0 f6 3d 91 e1 a6 bc e9 77 ad 3d
       -0.09219262 0.120514505 -0.02037123 0.08470137
0000c0 9c 2d f7 bc 86 d9 1d bd 6b 12 57 bd 90 4c 4d bd
       -0.030173115 -0.038537525 -0.0525078 -0.050121844
0000d0 af 62 90 3d cb 36 af 3d c0 43 56 bd 4a 5a dc 3d
       0.070500724 0.08555373 -0.052310705 0.10759409
0000e0 91 32 d5 3c af f8 62 3d ec 5a bb 3d 4a 06 7a 3d
       0.026025089 0.055412944 0.09148201 0.061041154
0000f0 19 9d 67 3d 19 a9 e3 bc 3c 85 77 bd 2a 4b 55 3d
       0.056546304 -0.027790593 -0.060429797 0.052073635
000100 24 09 94 3c 57 56 cd bc ca ca a4 3c dc c9 3a 3d
       0.018070765 -0.025065584 0.020116229 0.045602664
000110 f4 a7 65 bc 21 6a c5 bd d0 5c ba bc 5e c4 50 bd
       -0.014017094 -0.09639383 -0.022749335 -0.05096852
000120 c9 bc d2 bd 63 36 99 3b aa 7f 9d 3c 49 1f a0 3c
       -0.10289914 0.004675673 0.019225914 0.019546168
000130 ab 5f 7b 3d 5c f0 85 bd 9a e3 93 bd 9e 66 de 3d
       0.061370533 -0.065399855 -0.07221146 0.108594164
000140 13 23 f3 3b d0 9b 1e bd e2 8a 68 bd 65 d0 c5 bd
       0.0074199527 -0.038722813 -0.056773074 -0.09658889
000150 be 5e 41 3c b7 cf c9 bd 85 ad b5 3c 83 7d b0 3d
       0.011802373 -0.098540716 0.022177467 0.086176895
000160 a8 30 b9 bb 68 57 a7 bd f7 c3 7a 3d 44 1b b2 3d
       -0.005651552 -0.08170968 0.061222043 0.08696607
000170 6b 67 06 be fb 9f 5f 3d 19 5e 15 3c c6 54 ab 3c
       -0.13125388 0.05459593 0.009116673 0.020914447
000180 54 23 24 bc b3 42 97 bd 6e d5 ce 3c 81 9e 41 3d
       -0.0100181885 -0.07385769 0.025248256 0.0472703
000190 f9 2d 41 bd dd 2a 91 bd 36 bb 31 3d cb 59 92 3d
       -0.047162984 -0.07088254 0.04339143 0.07146033
0001a0 e6 cf 7d 3d bb f8 a6 3a 36 27 3f 3d 0a 34 15 3b
       0.061965846 0.0012738922 0.046668254 0.0022766613
0001b0 1d a8 97 3c 4c 52 8a 3d ca 9a b6 bc c5 80 08 bd
       0.01851278 0.06753978 -0.022290606 -0.03332593
0001c0 ff 10 db bc 89 c4 59 bd c7 f6 99 3c 38 b8 75 bd
       -0.026741503 -0.053165946 0.01879443 -0.059990138
0001d0 b6 e6 9c 3d 11 05 8e bc a0 72 56 3d 0f d3 b2 3d
       0.07661192 -0.0173364 0.05235541 0.087316625
0001e0 8b c0 0b 3c 2d 84 59 bc ca 88 75 3a 0c 9f 84 bd
       0.008529793 -0.013276142 0.00093663915 -0.06475648
0001f0 ce c6 8c 3d 54 87 fd bb 0f ed 0e bd ee 07 c3 bd
       0.068738565 -0.0077370796 -0.034894045 -0.09522997
000200 01 8d 73 3d df ff c5 bd 12 58 48 3c 77 cc a8 3c
       0.059460644 -0.09667944 0.012228029 0.020605309
000210 4c c8 af bd 90 37 e6 bd 23 e6 84 bd 49 35 62 3d
       -0.085831255 -0.112410665 -0.064892076 0.055226598
000220 f3 e7 0d be 8b aa 0e be 56 28 a4 3c 4e ab 6d bc
       -0.13858013 -0.13932244 0.020038765 -0.014506174
000230 a5 03 bb 3d 5a ad eb 3c 30 46 98 bc 8a 7b 0f 3b
       0.091315545 0.028769184 -0.018588156 0.0021893703
000240 0e 11 cb bc 27 30 c4 bd 51 52 67 bd 92 bb 92 3d
       -0.024788406 -0.09579497 -0.056474987 0.071646824
000250 d5 3e 4f bd 7c 81 f5 bd 96 3c 29 be 8a be 5c 3d
       -0.05059703 -0.11987588 -0.16527018 0.05389265
000260 1e 1b 49 3d 1c a6 17 3e b0 fc a5 bc 14 36 cb bc
       0.049098127 0.1480946 -0.020262092 -0.02480606
000270 a6 71 09 be a3 32 d6 bd e3 ae 9e 3c b1 79 9f bc
       -0.1342226 -0.10458877 0.019370502 -0.019467207
000280 76 49 3d bd 3e 25 a8 bd b2 d3 b3 3d 87 ea 12 bd
       -0.046212636 -0.082102284 0.08780612 -0.035868194
000290 b3 29 05 be 2f bb 60 bc da bc 97 bd de c3 19 be
       -0.13004188 -0.013716503 -0.074090675 -0.15016124
0002a0 13 ff 04 be 1c 48 0d 3e 45 b5 a4 bc ae 55 a6 3d
       -0.12987928 0.13797039 -0.020105967 0.08121811
0002b0 9c 00 17 bb 60 b7 ca bc f6 7c fc 3d 1e 60 d5 bd
       -0.0023041135 -0.024745643 0.12328522 -0.104187235
0002c0 22 db ff bd 50 9e 91 3c 08 3e d2 3c 17 58 5f 3d
       -0.12492968 0.017775685 0.025664344 0.05452737
0002d0 57 1f 5b bb 00 85 13 be 27 b2 c4 3b 19 74 84 3d
       -0.0033435428 -0.14406204 0.0060026827 0.06467456
0002e0 15 26 33 3d c6 c7 c2 3d 56 5d ec 3d 2c 19 0b be
       0.04373749 0.0951076 0.1154124 -0.13583821
0002f0 b3 ce fc bc 7e 96 c8 3d 57 c5 e2 bd 9c 58 08 3c
       -0.03086028 0.09794329 -0.11072796 0.008321907
000300 c9 a5 fd bd 1e 7f 9d bc 63 ab 86 bd a2 a1 e4 bd
       -0.12385137 -0.019225653 -0.06575658 -0.111636415
000310 4e e5 7a 3c fa b6 9d 3c 68 72 1b be ec 52 aa bd
       0.01531346 0.01925229 -0.15180361 -0.08316597
000320 c2 84 14 be 34 e9 04 be e2 83 62 3b 61 32 0b bd
       -0.14503768 -0.12979585 0.0034563472 -0.033983592
000330 85 44 8d 3a 2e 32 f6 3d 03 04 f7 3c 55 ff 4d bd
       0.0010777867 0.1202129 0.03015328 -0.05029233
000340 92 21 08 be df b9 2f bc e1 22 95 3d ad 5a 11 3d
       -0.13294056 -0.0107254675 0.07282043 0.035486866
000350 6d 31 fc 3d 03 c2 2e be b8 e9 2d ba 46 9c b4 bc
       0.12314115 -0.17066197 -0.0006634253 -0.022047173
000360 db 25 a1 ba 94 01 4a 3d 55 8c f2 bb df ce 24 bc
       -0.0012294607 0.04931791 -0.007401983 -0.010059088
000370 0b 19 19 be aa fe a9 3c 05 01 2c be e5 a9 4d bd
       -0.1495096 0.020751316 -0.16797264 -0.050210852
000380 f6 93 99 3d 88 80 da 3c a1 8f 70 3d b6 6f 87 3d
       0.074989244 0.026672617 0.058730725 0.06613104
000390 17 d9 bb bd 34 06 33 3d ac 08 0d 3c 18 53 bc 3c
       -0.09172266 0.043707088 0.008608025 0.022988841
0003a0 42 63 b2 3d df 58 01 3e f9 44 19 be 23 39 23 3c
       0.08710338 0.12631558 -0.14967717 0.009962353
0003b0 1e 96 ae 3c 41 fe 15 bc 6e 5f a2 bd 55 4b 06 3c
       0.021311816 -0.009154857 -0.07928358 0.0081966715
0003c0 dd 4d e4 bb 20 d6 d9 3d 93 d3 3b be 88 26 6f bd
       -0.00696729 0.10636544 -0.18342428 -0.058386356
0003d0 99 1d f2 bc 95 61 8b 3d 23 0c d6 3c 6f d2 ed 3d
       -0.029555129 0.06805722 0.026128834 0.11612403
0003e0 95 1e 6d 3d 73 63 d9 bc 61 5e 3c bd ea 52 8d bc
       0.057890493 -0.026536679 -0.045988444 -0.01725145
0003f0 d0 f5 99 3c 33 49 c8 3b 5d 17 ab 3c f5 43 eb 39
       0.01879397 0.0061122417 0.020885164 0.00044873325

bias_ih_l0 f4 [405]
000000 19 26 bd bc 6c 2b e8 3d 57 5b d1 bb 74 90 a9 3d
       -0.023089455 0.11336407 -0.0063890624 0.08279505
000010 bb 70 ca bb a9 fc f1 3c 8e ef 1f bd aa ff 32 bd
       -0.0061779893 0.029539423 -0.039046817 -0.04370085
000020 b3 bb f4 3d e4 51 78 3d db 7c bf bc 1f 87 21 3d
       0.11949863 0.060624972 -0.023374965 0.039435502
000030 a7 1c 20 3d 87 b6 70 bd 5c 50 19 be 7a 90 02 3d
       0.039089825 -0.05876782 -0.14972061 0.031876065
000040 2a 5d de bd 68 c0 14 bd d5 32 d7 bd 56 8b b5 bd
       -0.108576134 -0.036316305 -0.10507742 -0.08864467
000050 ff 32 db bd 6d e2 86 bc 7c 6d 18 3c 30 3f ef 3d
       -0.10703086 -0.01646539 0.009303447 0.11681974
000060 ee 5c 06 3d dc 19 9e bc bd 8f e3 bd 1e 55 d1 bd
       0.03280347 -0.01929944 -0.111114 -0.10221313
000070 ef 42 a3 bd f4 13 1a be f3 b4 11 3c 9d 97 80 3c
       -0.07971751 -0.15046674 0.008893239 0.015697295
000080 c1 74 71 3d 1b 74 ad bd 05 08 04 bc ff 6a 61 3d
       0.058949236 -0.08469411 -0.008058553 0.05503368
000090 ea d9 40 bd ba 96 d0 bd 61 06 6c bd ee a5 a1 3d
       -0.04708282 -0.10184999 -0.05762327 0.07892977
0000a0 46 b6 89 3d 3b c5 23 3d 75 02 f1 bd 7e 8c 92 3d
       0.06724219 0.039983016 -0.11768047 0.07155703
0000b0 bd eb 45 3d 11 2d 2c 3a 6b e9 2a 3c 06 d3 b1 bd
       0.04832052 0.0006567995 0.010431628 -0.08682828
0000c0 86 99 65 3d ce 60 75 3c 1d 92 a3 3c a3 76 24 bd
       0.056054614 0.014976693 0.019967133 -0.040152203
0000d0 5f 89 9f 3d 7c 9d 2d 3c 8f 63 b7 3d 44 3b a5 bd
       0.07789873 0.010596629 0.08954536 -0.08067945
0000e0 5f 30 85 3d f9 c9 90 bd 53 b9 ee bd 00 0f 92 3d
       0.06503367 -0.07069773 -0.116564415 0.07131767
0000f0 12 37 d4 bc 44 d3 eb bc 9c 4a bd bd e2 84 d8 3d
       -0.025905166 -0.028787263 -0.09242746 0.105722204
000100 68 1d 94 3c 27 fe 9e bd 7a cf b9 bd 25 d4 a5 bd
       0.018080428 -0.077633195 -0.09072776 -0.08097104
000110 77 c9 77 bd 7d e7 95 bc ba af 62 bc 1f 23 d6 3d
       -0.060494866 -0.018298859 -0.013835842 0.104559176
000120 50 98 92 bd 08 e0 04 bd 74 06 0c 3d 4e 7c 0b 3d
       -0.071579576 -0.032440215 0.03418584 0.034054093
000130 bb 71 21 be 24 ba da 3c cd 1c ae 3d 18 c6 bf bc
       -0.15766041 0.026700087 0.08501587 -0.023409888
000140 0b 23 c2 bd 12 d7 6c 3c 5f 8a c2 bd 38 84 4f 3d
       -0.0947934 0.014455574 -0.094990484 0.050663203
000150 1d 6d a7 bd bd b5 4f bd 40 e0 b4 bd 37 a2 f9 bd
       -0.081751086 -0.05071043 -0.08831835 -0.12189143
000160 87 41 32 bc 0a a7 aa 3c ea e2 83 3d 4d 42 f2 3c
       -0.010879881 0.020831604 0.06439765 0.02957263
000170 54 db b6 3d fc 86 33 3d 92 92 2b 3c 07 b7 95 3c
       0.08928552 0.043829903 0.010471957 0.01827575
000180 d1 fc 75 3c 0e 0a 94 bd 1f 35 3a bc 93 a0 e5 3c
       0.015013889 -0.0722848 -0.011365204 0.02803067
000190 8d e2 09 3c e8 9e 86 3c 84 13 90 3d 83 c3 d1 bd
       0.00841583 0.016433194 0.07034972 -0.10242369
0001a0 b3 e9 02 3e 61 24 24 3d 45 68 b3 bd 77 4f 53 3d
       0.12784462 0.040073756 -0.08760122 0.051589455
0001b0 0d 79 28 3d ca 0f 81 bd 38 38 70 3c 80 7b 4c bd
       0.041131068 -0.0630184 0.014661841 -0.049922466
0001c0 3c ab a9 3c 48 94 e9 3d d9 8b e1 3d e6 3d f6 3c
       0.020711534 0.114052355 0.11013002 0.030058812
0001d0 9b e5 bb bc dc 30 ee 3d f8 4e 16 3d 98 47 03 3d
       -0.022936633 0.11630413 0.036696404 0.0320507
0001e0 f9 59 0d be b9 fc fb bc 62 59 78 3c 9b 17 d8 3c
       -0.13803853 -0.030760156 0.015158029 0.026378443
0001f0 91 a0 29 3e 0a 1f 9c 3c ab eb b2 3c 38 82 39 3e
       0.16565157 0.01905777 0.02184089 0.18116081
000200 2e 41 99 bd 1c 59 04 3d 25 ef 3a 3d 70 c4 e9 bc
       -0.07483135 0.032311544 0.045638222 -0.028536052
000210 19 5a 26 bd 12 c2 10 3e 52 6c 85 3d 44 86 1e 3e
       -0.040613268 0.14136532 0.06514801 0.15480906
000220 a0 ae 34 be 07 c3 b8 bd d2 cc 91 3d be 6f af bd
       -0.17644739 -0.090215735 0.071191445 -0.08566235
000230 f5 5c ab 3d 46 28 0e 3e 88 6b ce 3d 96 b6 fa 3c
       0.083673395 0.1388255 0.10079104 0.030604642
000240 0e 37 91 bd 9a 6a 6c bd 53 db ba 3c 38 48 7a 3c
       -0.07090579 -0.05771885 0.02280966 0.015276007
000250 08 0b 50 bc a3 00 c9 bb 93 14 69 bd a6 94 01 3e
       -0.012697943 -0.006134109 -0.056904387 0.12654361
000260 e4 ea 10 3d 92 8d 70 3d 05 74 02 bb 00 2a a1 bc
       0.03538026 0.058728762 -0.0019905579 -0.019673347
000270 9e 5a 69 3d 4d e0 a9 bc 67 01 43 be 2c 72 cf bd
       0.056971185 -0.020736838 -0.19043504 -0.101291984
000280 a4 23 86 3d f7 fb b1 bd 6b 2f 88 bc d2 8c d7 3d
       0.06549767 -0.086906366 -0.016624173 0.10524906
000290 13 79 b9 bd f1 19 98 3b 2f d3 a8 37 fc bc ec bb
       -0.09056296 0.0046417643 2.01255e-05 -0.007224677
0002a0 2c 91 c6 bd 96 fb 21 bd 97 0c 7f bd 97 d6 36 bd
       -0.09695658 -0.03954657 -0.062267866 -0.044638243
0002b0 4b 87 d2 3d ec f9 e6 3c 1d 63 51 be bc 55 87 bd
       0.10279711 0.028195344 -0.20447965 -0.066081494
0002c0 5d 19 3e bd 55 09 a6 bd 39 42 ec 3d aa 1b 35 be
       -0.046410907 -0.08107249 0.115360685 -0.17686334
0002d0 14 0a e4 bc 5b 97 61 3d 26 7f 8d bd 56 59 81 3c
       -0.027836837 0.055075984 -0.06909017 0.015789669
0002e0 98 e6 40 bd 50 f8 9f bd 48 55 81 3d 99 f7 08 be
       -0.04709491 -0.07811034 0.06315094 -0.13375701
0002f0 d8 c0 3f bd 17 46 f3 bc 93 82 f8 3c 43 5f ca bd
       -0.04681477 -0.029696507 0.0303357 -0.09881451
000300 e0 29 4f bd 14 67 ba bc 0d ee 8e 3d 10 29 d9 bc
       -0.050577044 -0.02275423 0.06978998 -0.026508838
000310 d7 15 14 bd 16 95 ef 3b d1 ed 03 be db 03 cf bd
       -0.03615364 0.0073114736 -0.12883689 -0.10108157
000320 81 6d 8d bd 53 7c b6 bd 09 09 24 3d f3 49 9c 3c
       -0.06905652 -0.08910432 0.04004768 0.01907823
000330 40 b6 4a be a2 1f 13 3d 61 5f 8f 3b 6a 57 62 bd
       -0.19796085 0.03591884 0.0043753837 -0.055259146
000340 5f c2 97 bc 5a f1 23 bc c6 6a 1d 3d b3 c8 95 bc
       -0.0185253 -0.010006273 0.038431905 -0.018284177
000350 5b 0b 17 be 0b 13 89 bd 5e 7c 80 bd 8d f1 a6 3d
       -0.14750426 -0.06693085 -0.06273721 0.08151541
000360 f7 70 df bd 6a 52 95 bd d4 bf 02 be 5d 4a d6 3d
       -0.10910218 -0.0729111 -0.12768489 0.104634024
000370 43 fc 0e 3d ba 96 a3 3b 78 17 e3 bd 5d db 07 3d
       0.034908544 0.0049923332 -0.11088461 0.033168186
000380 db fb 25 3d 3d 65 b2 3c 32 77 84 bd 67 fe b6 bc
       0.04052339 0.02177679 -0.06468047 -0.022338105
000390 fd e7 95 bd 97 91 c1 bc 42 1c 13 bd 10 9f 8d 3d
       -0.07319639 -0.023628993 -0.03591562 0.069151044
0003a0 7a 39 04 bc 69 9f 0e 3d c4 9e d0 bd 2d 82 a6 bd
       -0.008070344 0.034819994 -0.10186532 -0.08130298
0003b0 48 76 0f bd ef f3 c4 3d 95 97 2a be 64 c1 64 bd
       -0.03502491 0.09616839 -0.16659386 -0.055848494
0003c0 ae 7a af 3d d7 f6 01 bb e6 a4 18 bd dc 57 84 bd
       0.08568321 -0.0019830966 -0.037266634 -0.0646207
0003d0 1d 2e c1 bd f6 4e 6a 3d ae a2 25 bd 5e d7 a4 bd
       -0.094326235 0.05720421 -0.040438347 -0.080488905
0003e0 03 e7 06 be 0e 7e a4 bd 7d 9c e0 3c 86 db 17 3d
       -0.13174061 -0.080318555 0.02741837 0.03707459
0003f0 7d c0 01 be 66 34 72 bd 7b 1a 9e bc 32 a9 e6 bd
       -0.12671085 -0.059132002 -0.019299736 -0.1126274

bias_hh_l0 f4 [405]
000000 67 41 c2 bc 77 9f ba 3d 8b ba 90 bd 78 81 e8 3c
       -0.023712827 0.09112447 -0.0706683 0.028382048
000010 39 7b 4e bd 45 5d 4b 3c 3f da b2 bd 29 9d 7c bc
       -0.050410483 0.012412374 -0.087330334 -0.015418329
000020 c7 b2 8d 3d a8 f7 a8 3d 3f b5 c0 bd bb a8 b9 3c
       0.06918865 0.08250362 -0.0940957 0.022663465
000030 ef a5 09 3d 6b be ba 3c 10 ab 23 be 5b fa a3 bc
       0.033605512 0.022795876 -0.15983224 -0.02001684
000040 aa 7d 2f 3c 2f 39 c2 bd 0c b5 38 bd a4 aa 0f be
       0.010711113 -0.09483563 -0.045094535 -0.14029938
000050 77 aa 4e bc 2f 23 59 bd 34 af e1 3c aa f3 c4 3d
       -0.012613884 -0.05301207 0.027549364 0.09616788
000060 bf 80 be 3d 99 0c 93 bd 05 aa 9e bd e2 45 98 bd
       0.093019 -0.07180137 -0.077472724 -0.07435204
000070 8f f8 65 bd 68 1d 21 bd d6 68 e5 bd 4c 1a 12 3d
       -0.056145247 -0.039334685 -0.112016365 0.03566961
000080 83 89 a2 bd 79 c3 0b be ad 74 56 3b 89 c8 1e 3c
       -0.079363845 -0.13648786 0.0032723353 0.009691366
000090 aa 80 36 3d ce 9a 8f bd 00 72 ef 3c 9c 8b 1b 3b
       0.044556297 -0.070119485 0.029229164 0.0023734337
0000a0 57 fe eb 3d d4 a2 9c bd 5a 32 b7 3c f8 42 a7 3d
       0.11523121 -0.076482445 0.022362877 0.0816707
0000b0 f7 25 a1 3d 24 d8 c7 3b d9 bb 98 bd 2a 37 d4 bb
       0.07868569 0.006098764 -0.07457704 -0.0064763026
0000c0 2a 98 25 3d 87 0d 13 3d fc 73 06 bc dc 41 45 3d
       0.040428318 0.035901573 -0.008206364 0.04815851
0000d0 22 36 63 3d e0 53 d7 3c 5c 76 67 3d 3f ce 11 3d
       0.055471547 0.026285112 0.05650936 0.035597082
0000e0 e6 91 83 3d d1 e4 10 be 9c ce f8 bd e1 dc 13 3d
       0.06424312 -0.14149787 -0.121487826 0.03609932
0000f0 71 70 56 3d 2d aa dd bc c3 07 3c bd da 81 8a 3d
       0.052353326 -0.027058685 -0.04590584 0.067630485
000100 ef 51 50 3c 20 00 26 bd 3a 45 2d ba 22 de c4 ba
       0.012714847 -0.040527463 -0.0006609742 -0.0015019814
000110 72 c9 b2 bd 04 6d 97 bd 51 95 27 bd d2 8c df 3c
       -0.08729829 -0.0739384 -0.040913884 0.027288828
000120 ee bf 95 bd 93 7d ca 3b fa 61 e0 3c 8b 96 f3 3c
       -0.07311998 0.0061795204 0.027390469 0.02973487
000130 85 c6 bf ba da 04 4e 3c fe 8e ff 3c 33 33 4a bb
       -0.0014631307 0.012574399 0.031196114 -0.003085327
000140 b3 2d 92 bd f9 60 19 bd be 08 ad bd 92 6d cd bb
       -0.07137623 -0.037445996 -0.08448933 -0.0062691653
000150 7f e0 c2 bd 83 5d de bc be 3e 8e 3d 57 b5 85 3b
       -0.095154755 -0.0271442 0.06945561 0.0040804553
000160 b1 28 7d bd 7d 6d 57 3d ad 30 eb 3d d7 90 a8 bd
       -0.061806384 0.05259465 0.114838935 -0.08230751
000170 3d dc 45 3e 4e 9a f0 3c ca 4a 8f bd e6 c8 98 bc
       0.19322295 0.029370453 -0.06996687 -0.018650483
000180 45 7f 90 3c 2e 02 2f bd 6a 45 18 3d ea e8 75 bc
       0.017638812 -0.042726688 0.037175573 -0.015009144
000190 7e bb 60 3d e5 f7 a5 bd 08 61 6a 3d ac 11 34 bd
       0.054866306 -0.08103923 0.057221442 -0.043962166
0001a0 b2 ad d5 bc 30 aa 26 bd a4 f3 50 3d fc 87 3d bd
       -0.026083801 -0.040689647 0.051013604 -0.046272263
0001b0 cf 8b af 3d 5f 0d df bd 30 fa f2 bc 42 69 a7 3c
       0.08571588 -0.10891222 -0.029660314 0.020435933
0001c0 39 9c 51 bc a2 69 73 3d 80 d9 8c 3d 30 d7 88 3c
       -0.012793594 0.05942691 0.06877422 0.016704172
0001d0 54 92 7d bd d7 64 cb 3d 77 3d a3 bd b4 b2 32 bd
       -0.061907127 0.09931343 -0.07970708 -0.043627456
0001e0 eb 2b 93 bc 4c 39 43 bd 86 6d d7 bd 4b ed cc 3c
       -0.017965278 -0.047662064 -0.10518937 0.025015494
0001f0 46 7a bf 3d d7 4f 93 bd 44 92 5e bd b8 28 3b 3e
       0.09349494 -0.071929626 -0.05433871 0.18277252
000200 e6 3b 8f bd 6c ef a2 bd 45 8c 4c 3c 5f ca fd bc
       -0.069938466 -0.07955822 0.012484615 -0.030980287
000210 e9 18 bc bd 3a b0 dc 3d 01 07 c3 3d 8f 26 ee 3d
       -0.09184439 0.107758 0.0952282 0.11628448
000220 52 14 38 be 0d a5 9f bd c4 e9 f8 bc df 3b e3 bd
       -0.17976502 -0.07795153 -0.030384906 -0.11095404
000230 77 e5 71 bb 9f 15 19 3d f7 67 06 3e e1 de f1 3c
       -0.0036910453 0.037374135 0.13125597 0.029525222
000240 1d 38 94 bd 17 5c 5e bc 4d ab 4f bd 72 79 dd bc
       -0.07237265 -0.013571761 -0.050700475 -0.027035449
000250 33 74 2f bd 8c d0 84 bd 16 cc 94 bc 5f 36 52 3d
       -0.042835426 -0.0648509 -0.018163722 0.051321384
000260 80 a8 50 bd 2f 95 ae bd 4c 19 2a 3d df 3a fe bd
       -0.050941944 -0.08524548 0.04152803 -0.124135725
000270 b1 a1 c7 3c 7b 89 e0 bd 86 61 80 bd b0 da f2 bd
       0.024369093 -0.10963722 -0.06268601 -0.118581176
000280 23 02 44 3d 9b e8 81 3b 2a 08 b1 bd 38 5a 81 3d
       0.0478536 0.0039644963 -0.08644135 0.06316036
000290 e2 68 ec 3b 18 34 af 38 a0 f0 b6 bd 48 34 8f bd
       0.0072146514 8.3543535e-05 -0.08932614 -0.06992394
0002a0 57 ee 0d bd 9f 90 61 bd ed ad 81 bd 86 a2 27 3d
       -0.034651127 -0.055069562 -0.06332002 0.04092648
0002b0 37 cd b3 3d ca ae be 3b 31 ba 3a be f3 f2 36 bc
       0.08779376 0.0058191763 -0.18235089 -0.011166322
0002c0 1f 98 f4 3c b7 f7 e7 bc cb 5d 0a 3e 0d 71 61 be
       0.029857693 -0.028316362 0.13512342 -0.22015782
0002d0 d3 02 9a bd d9 6c 6f 3d 5f 64 fb bd e1 a5 8d 3c
       -0.0752007 0.058453415 -0.12275004 0.017291011
0002e0 12 76 bf bd aa f1 6d bd c1 bd 15 3d e9 66 d2 3b
       -0.09348692 -0.058091797 0.036557917 0.0064209593
0002f0 ad 8f ae bd ad 1f 0a bd 3f 3e b7 bd e5 f2 a8 39
       -0.08523498 -0.033721615 -0.089474194 0.00032224428
000300 af 76 d5 bd 1e 91 33 bd 25 5c 2b 3d 4e b0 a6 3d
       -0.10423028 -0.043839566 0.041835923 0.08139096
000310 49 69 8e bd 6a ee 2a bb e5 37 7d bd 52 7f 49 3d
       -0.06953675 -0.0026082047 -0.061820883 0.049193688
000320 98 d3 10 3d e2 60 bf bc 90 76 cd bd 2a 49 99 3c
       0.03535804 -0.023361627 -0.100323796 0.018711645
000330 60 18 f4 bd 48 a6 4b bd 26 3d 29 bc 83 0e 1a bc
       -0.11918712 -0.049719125 -0.01032952 -0.009402874
000340 8d a2 05 be 44 88 91 bd bf 89 8f 3d c4 ed 8b 3d
       -0.1305029 -0.07106069 0.07008695 0.068324596
000350 66 e3 33 be 48 b2 f7 bc a4 87 98 3d 06 2e 4c 3b
       -0.17567214 -0.030236378 0.074477464 0.0031155362
000360 f7 02 ac bd e8 a2 a5 39 96 f2 cf bd f5 c4 95 3d
       -0.08399003 0.00031592627 -0.101536915 0.07312957
000370 ec 81 89 ba 77 ab 27 3d 2e 58 89 bd 8c 2e 1b bd
       -0.001049099 0.040935006 -0.06706272 -0.037886187
000380 68 60 70 3a ea f5 0b be 20 10 11 bd 45 42 17 be
       0.0009169639 -0.13668028 -0.03541577 -0.14771374
000390 2a 31 4f bd 6d 28 d6 3d 7d 80 a3 3d f5 a9 41 3d
       -0.050583996 0.10456929 0.079834916 0.047281224
0003a0 88 c5 f5 3b 3f 4d c7 bd cf f5 d0 bd be b2 c1 3c
       0.007500354 -0.097315304 -0.10203134 0.023644801
0003b0 88 fe a8 bc 9f 30 c9 3d 48 bd 49 bd 69 ee 8c bd
       -0.020629182 0.09823727 -0.04925278 -0.06881411
0003c0 40 96 a4 3d d4 a3 ec 3d d9 e1 f9 bc cd 13 a6 bd
       0.080364704 0.11554685 -0.0305032 -0.081092454
0003d0 46 d9 75 bd 6b f8 8c bd 84 c5 f4 bd 9a a0 f1 bc
       -0.06002166 -0.068833195 -0.119517356 -0.029495526
0003e0 49 19 3c be b6 7f 79 bd 0d c9 63 3d 7a 32 77 bd
       -0.1836902 -0.06091281 0.05561166 -0.060350873
0003f0 60 ff 2d bd 12 e5 0a bc 7f b2 16 bd ef 51 78 3c
       -0.042479873 -0.008477466 -0.03679132 0.015156253

weight f4 [1, 4, 1, 12, 12]
000000 f0 8b 20 be 33 9a 82 bc 2f 97 44 3d 8b 36 98 3d
       -0.15678382 -0.015942669 0.047995742 0.07432278
000010 20 d8 0b be f6 6e d8 3c cb a2 e5 3c 1a c8 20 3d
       -0.13656664 0.026420098 0.028031727 0.03925333
000020 01 80 16 3d 27 af 11 3d c6 6f 8b bd 01 03 5d bd
       0.036743168 0.03556743 -0.068084285 -0.053957943
000030 34 66 b1 bd fd aa 0b 3d 31 73 72 3c c9 b0 af 3d
       -0.08662072 0.034098614 0.014797972 0.08578641
000040 29 f1 bb 3c 76 f2 ad bc de 57 da bc 7d 1d bb 3c
       0.022942143 -0.021233778 -0.026653226 0.02284121
000050 35 39 0d 3d b8 d9 84 bc ad 94 34 3d aa 88 e7 bc
       0.034478385 -0.016217098 0.0440871 -0.028263409
000060 db a1 db bc a1 05 4e 3d d0 13 95 bc 09 c3 6a 3d
       -0.026810577 0.050298337 -0.018197924 0.057314906
000070 05 1f 51 bd 81 3e d2 3c 45 d9 7c 3d 16 e4 83 bd
       -0.051054973 0.02566457 0.061730642 -0.06439988
000080 fd 3d 09 3e b7 15 98 3d aa 6a 5b bd 31 41 06 3e
       0.13402553 0.07426017 -0.05356852 0.13110806
000090 34 fb bf bb 97 f7 0d bc 09 e4 e8 bd 11 d3 22 be
       -0.005858803 -0.008664987 -0.11371619 -0.15900828
0000a0 a2 35 0b bd 05 14 3c 3c 0b fa 0c 3c b3 cb 10 bd
       -0.033986695 0.011479382 0.008604537 -0.035350513
0000b0 9a 6d 4f 3d 37 50 a6 3d d0 0f 34 3b d5 33 98 bd
       0.050641634 0.081207685 0.0027475245 -0.07431761
0000c0 c2 b1 10 bb 70 82 79 bc a8 88 3e 3e 85 9e 1a 3e
       -0.0022078608 -0.015228853 0.18606818 0.15099533
0000d0 3b f8 fd bc 44 32 d2 3c 62 1e 76 3d 86 4b a9 3d
       -0.031002155 0.025658734 0.06008757 0.08266358
0000e0 08 a4 b5 bc 87 15 02 be 1f 33 af 3c 00 7c 79 3d
       -0.022172943 -0.12703525 0.021386681 0.06090927
0000f0 04 17 97 bd d2 2a 98 bd 41 2f 19 3d 03 c2 b9 3d
       -0.07377437 -0.07430042 0.03739858 0.09070208
000100 9e 41 06 be 9d e5 f3 bb 00 e1 52 3e 5b d1 e1 3c
       -0.13110968 -0.0074431435 0.20593643 0.027565649
000110 45 82 84 bd 59 aa e1 bc f3 f8 d6 3b 6a 09 13 be
       -0.064701594 -0.027547048 0.006560439 -0.1435906
000120 58 71 38 3c fc 6a 80 3d e0 94 cd 3d e3 64 b0 3d
       0.011257492 0.06270406 0.10038161 0.086129926
000130 5a e2 c5 3d 3b 92 94 3d a2 4d d1 bc 05 27 4a 3d
       0.09662314 0.07254454 -0.025549714 0.04935362
000140 93 0d ef bc 86 39 c1 bd 25 fc eb 3c b0 24 07 bd
       -0.029181277 -0.094348 0.028806755 -0.032993972
000150 69 f8 3d 3d bd 35 95 3d d8 d1 db 3d 16 09 a8 3d
       0.04637948 0.072856404 0.10733384 0.08204858
000160 ca 67 42 3c cb 26 15 be 4d 45 bc bc 80 b8 bd 3d
       0.011865566 -0.1456558 -0.022982264 0.09263706
000170 8b e3 d4 bd 8e 58 90 bc f1 4c a1 3d 39 b0 cd 3d
       -0.10394963 -0.017620351 0.078760035 0.100433774
000180 03 49 3d bc 48 9d b9 bc 23 62 cf 3d 17 fa 0a 3e
       -0.011553052 -0.022658005 0.1012614 0.13571964
000190 93 9e c3 bc 82 fe 91 3d 3b 2c de 3c 95 23 a9 3d
       -0.023879325 0.07128622 0.0271207 0.0825874
0001a0 62 25 f3 3c fe 9c 5f 3d 28 14 0e bd 30 7c 58 3d
       0.029680911 0.05459308 -0.03468719 0.05285281
0001b0 54 81 b8 3d 94 42 02 3d 5b 49 c2 bd 4d 54 06 be
       0.090090424 0.031801775 -0.09486648 -0.13118096
0001c0 69 3d c7 3d de 70 94 3d 58 8b 07 be 8b b7 56 bd
       0.0972851 0.0724809 -0.13236749 -0.052421134
0001d0 26 01 c9 3d f6 e9 6a 3d bb e8 46 3d e2 b7 7a bc
       0.09814672 0.05735203 0.048561793 -0.01530263
0001e0 37 c4 65 3c 24 fe ad 3d ad b8 f6 bc 2f 83 ef bc
       0.014023832 0.08495739 -0.030117357 -0.029237358
0001f0 92 74 9d 3c f4 c0 4c 3c b7 33 96 3d a5 99 56 bd
       0.019220624 0.0124971755 0.073340826 -0.05239262
000200 f5 d5 81 3c 99 88 b1 3c 74 3e d9 bc 13 47 0c 3e
       0.015849093 0.02167158 -0.026519038 0.13698988
000210 0c 44 98 bd 88 13 31 3c be 43 6a 3b 55 91 80 3d
       -0.07434854 0.010807879 0.0035745944 0.0627772
000220 6e d4 5e 3d 93 c0 2e bd 4f 6d aa 3c 16 58 04 bd
       0.054401807 -0.04266412 0.020804076 -0.032310568
000230 94 12 6a bd 23 01 0b 3b d3 6c 21 3d 5d 98 70 bd
       -0.057146624 0.0021210394 0.039410423 -0.058739055
000240 57 97 5e 3d 60 c3 fa 3c 82 1b 03 be b3 da 4d 3c
       0.054343548 0.03061074 -0.12803462 0.012564349
000250 4c 7d d1 3d 9d 1a c7 bc 8f 4e aa bd d2 c5 3e bd
       0.102289766 -0.024304682 -0.08315765 -0.046575375
000260 40 76 5e 3d 93 af ff bc 4e 33 4a bd a4 74 33 3d
       0.05431199 -0.03121165 -0.049365334 0.04381241
000270 ef 69 f7 3d 37 c9 2d 3b d7 5e ab bc 40 72 65 3d
       0.12080752 0.0026517638 -0.020919247 0.05601716
000280 55 11 b0 bc ce 0d 0c bc 4b c5 ab 3d 62 31 12 bd
       -0.02149264 -0.008548213 0.0838724 -0.035691626
000290 ef b4 34 3d 11 58 ad 3d cc c0 11 bd 20 4a 22 3e
       0.044117864 0.08464063 -0.035584256 0.15848589
0002a0 f7 76 a4 3d a6 f1 68 3d ef ba 14 b9 c1 d2 59 3c
       0.08030503 0.05687108 -0.00014184018 0.013294877
0002b0 8b ed 2f 3d 97 85 9c bd bc 39 98 3c 37 ad 69 3c
       0.042951148 -0.07642668 0.018582217 0.014262489
0002c0 60 73 f4 3c 43 6a f7 3d 09 3b 83 3d d0 31 ea bb
       0.029840171 0.12080815 0.064077444 -0.0071470514
0002d0 7b 3d 56 3d fb 50 51 be 21 44 d0 bd 5d 0d 41 bd
       0.052304726 -0.20441048 -0.101692446 -0.047131885
0002e0 23 aa 25 bc 21 c9 1e bd 94 4d 68 3d 85 f9 aa bd
       -0.010111365 -0.03876603 0.05671461 -0.08348373
0002f0 a7 e5 7e bd e6 27 1e 3d 39 48 89 bd a0 bc 55 bc
       -0.062230732 0.03861227 -0.067032285 -0.01304546
000300 28 a2 ee 3d 5d d8 fc bc 6d 9b 58 be 89 06 63 be
       0.116520226 -0.030864889 -0.2115304 -0.22170462
000310 c9 0d be 3c 88 67 4e 3d ea 13 d6 bd ce e8 46 be
       0.023199933 0.050391704 -0.10453017 -0.19424745
000320 c0 8f 2c 3e 01 2a 4f 3e 58 bd 53 bc e8 e9 db 3d
       0.16851711 0.20230867 -0.012923561 0.107379735
000330 66 66 cc bd 1a 8d 8e bb ac 48 e4 3b 64 88 36 3d
       -0.099804685 -0.0043503167 0.006966671 0.044563666
000340 35 54 96 3b ad 7c 1b 3d 2a ee ab bd 16 20 62 bd
       0.004587675 0.037960697 -0.083950356 -0.05520638
000350 19 41 6a 3a 2c 2c 7e 3d 61 d3 a1 bd 8c 30 22 bc
       0.0008936092 0.062053844 -0.079016455 -0.00989927
000360 e9 ce ab 3d 43 f4 5f bd d2 c5 ce bd 06 8e f6 bd
       0.08389074 -0.054676306 -0.10096325 -0.120388076
000370 24 ca 84 3d e0 77 31 3d 8e da 93 bd 80 dd ad 3c
       0.06483868 0.043327212 -0.072194204 0.021223783
000380 b0 be c2 3c 3c 8e 9f 3d a4 f3 2f 3c b8 60 f6 3c
       0.023772568 0.07790801 0.010739241 0.030075416
000390 c6 5f 83 bd 7e 08 de bd 29 68 03 bd 28 9b 7a 3d
       -0.06414752 -0.108414635 -0.032081757 0.061183125
0003a0 d4 f8 28 be f5 15 75 3c be 0f 92 3c 31 a8 a4 bc
       -0.1650117 0.014958848 0.017829772 -0.020099731
0003b0 f7 60 aa 3d cb 08 2b 3d 17 7f 87 3c 8e 3c b7 bc
       0.08319276 0.041756433 0.016540093 -0.022367742
0003c0 38 0f b7 3d 8a ff f0 3d ba 3e 3d be 91 a5 1a be
       0.089384496 0.1176749 -0.1848096 -0.15102221
0003d0 7d 2c 0b 3e 96 2c 6e 3e e6 26 68 bd c5 ac 5d be
       0.1359119 0.23259196 -0.05667772 -0.21647938
0003e0 f3 fd 60 3c 72 88 a4 3d a8 e6 3c bc 72 20 ba 3d
       0.013732421 0.080338374 -0.011529602 0.0908822
0003f0 ce fb 54 bd e5 03 aa bc f0 f7 a5 bd 71 7d 67 bd
       -0.051997952 -0.02075381 -0.08103931 -0.056516115

weight f4 [12, 12]
000000 ee 66 94 3e a3 1a 62 be f9 74 06 be 9d a2 be bd
       0.2898478 -0.22080474 -0.13130559 -0.0930836
000010 1c 3b 20 3e d7 00 05 3e 08 b5 0a 3e a9 8a 8c bd
       0.15647548 0.12988602 0.1354562 -0.06862385
000020 9a 03 42 be d3 a7 a2 3e f9 4a f9 3d c3 44 bf bc
       -0.18946686 0.31768665 0.12172503 -0.023348218
000030 fb 30 16 3e bd 28 39 be 7b 7a 88 3e f7 05 76 bc
       0.14667122 -0.18081947 0.26655945 -0.015016071
000040 02 6f 0d 3e f3 bb 6a 3d 10 0d 65 3e 14 6a 9f 3d
       0.13811877 0.05730815 0.22368264 0.07783905
000050 cc 34 c0 be 26 5b b4 3d fa 50 72 3e 5a 8b c7 be
       -0.3754028 0.08806448 0.23663703 -0.38973504
000060 f1 59 b8 bc 92 4b 93 bd 0e ec 81 3e 1f 39 96 3e
       -0.022503825 -0.07192148 0.25375408 0.29340455
000070 15 9c 22 3e 0f a9 52 3e 0d 31 f4 bd fb 0c 68 be
       0.15879853 0.20572303 -0.11923418 -0.22661202
000080 c0 bc ba be 8a 9e 55 be bb a7 36 3e 8f a1 85 be
       -0.3647213 -0.20861259 0.17837422 -0.26099822
000090 7d 57 79 3c af c9 14 be 1d 89 26 be 7f 34 ba bd
       0.015218613 -0.14530061 -0.16263242 -0.09092044
0000a0 54 e6 9a 3d 5b fc 6d 3d 0c 06 86 3d 28 04 0f be
       0.07563463 0.058101993 0.06544122 -0.13966429
0000b0 58 66 e6 3d d8 a2 8a bd 99 25 73 3e 8c 56 9d bd
       0.11249989 -0.06769341 0.23744811 -0.07682523
0000c0 c0 54 87 3e 45 6c 58 be 76 26 18 be 3d 13 85 be
       0.26431847 -0.21135052 -0.14858422 -0.2599124
0000d0 d1 ac dd bc 2a b8 c2 3d ef d2 6f 3d a0 e8 09 3e
       -0.027059944 0.09507783 0.05855077 0.13467646
0000e0 ba 4c 6d 3d 43 8a 04 3e a4 d3 53 be 1c 89 35 3e
       0.0579345 0.12943368 -0.20686203 0.17728084
0000f0 8d 02 82 bd 99 2b 1a 3e cd 2c fd bd 45 d6 7b 3d
       -0.06348143 0.15055694 -0.12362061 0.06148364
000100 5d 41 8e 3e 12 7f 65 3d a3 a0 73 be ce 64 1f be
       0.27784243 0.056029387 -0.23791747 -0.15565798
000110 fb 26 4b be 11 83 5e 3e 73 79 3b 3d 83 cb b7 bd
       -0.19839089 0.21729685 0.04577012 -0.08974364
000120 70 ba 6a 3c 3d 01 e1 bb 23 d2 93 3c 0d d9 2a be
       0.014326677 -0.0068666027 0.018044537 -0.16684361
000130 e5 17 cc bd d8 7c ba 3d 2d 4c c6 3d 30 b5 37 be
       -0.09965495 0.09105843 0.09682498 -0.17940211
000140 89 dd fb 3d 70 46 5b 3e a3 78 58 be 42 29 81 3e
       0.12298114 0.21413589 -0.2113977 0.2522679
000150 ed 0d c5 bd 24 9d 25 be cb 62 38 3e f5 59 23 be
       -0.09621797 -0.16173226 0.18006437 -0.15952285
000160 35 ba 6b 3d 50 6b 34 be 39 27 81 3e e8 80 54 3e
       0.057550628 -0.17619061 0.25225237 0.20752299
000170 41 b4 b7 3c 57 47 b4 bc 5a 36 93 3d 7b 03 9d be
       0.022424819 -0.022006674 0.07188101 -0.30666718
000180 57 a7 25 3e ae 4c 80 3b e1 66 b0 3e 42 a5 95 bd
       0.16177116 0.003915391 0.3445349 -0.07306911
000190 3a d2 db 3d dc dd 88 be 4b 35 5e be be af 2b be
       0.10733457 -0.26731765 -0.21700017 -0.16766259
0001a0 04 89 71 be e3 44 78 be 31 75 28 3e a7 b9 2f be
       -0.23587424 -0.24245028 0.16450955 -0.17160664
0001b0 13 58 5d 3c d5 e4 98 be 79 82 b3 bc a1 e0 6c 3e
       0.013509768 -0.29862085 -0.0219128 0.23132564
0001c0 d5 f1 8d 3e dd 54 11 bc 24 38 3a 3e b6 08 75 3e
       0.27723566 -0.008870331 0.18185478 0.23929104
0001d0 05 70 66 be ee 60 32 be 1c a9 38 be 85 6c b7 3c
       -0.2250367 -0.17419788 -0.1803326 0.022390613
0001e0 a9 e8 01 bd 7b a9 2e 3e 0c bc d4 3d 3d 4a 64 be
       -0.031716023 0.17056839 0.103874296 -0.22293945
0001f0 6a c5 9a 3e 9c 14 7f be ba af 2d be b9 c8 60 be
       0.3022874 -0.24910206 -0.16961566 -0.2195157
000200 dd ea f7 3c 12 29 13 3e 07 c6 30 be b2 53 a8 bd
       0.030263359 0.14371136 -0.17263041 -0.082190886
000210 4b a8 8d bd d0 86 e4 3d ae 94 c8 bd a1 a4 0c be
       -0.06916865 0.11158526 -0.097939834 -0.13734676
000220 f7 7a d5 bd 26 be 12 3e b6 5a f1 bb 93 14 e1 bd
       -0.10423844 0.14330348 -0.00736555 -0.10990252
000230 54 fe 61 3d 19 b7 0c 3e 87 5f e2 3d 14 79 9c 3e
       0.055174187 0.13741721 0.11053377 0.30561125

bias f4 [12]
000000 44 45 46 3e 32 d7 81 bd 0c 86 a3 3d 59 da 84 3d
       0.1936236 -0.063398734 0.07984552 0.06486959
000010 e5 18 55 bd f4 5a 80 3e c8 9b 17 3e 89 ac 84 3e
       -0.052025694 0.25069392 0.1480552 0.25912884
000020 0d 94 65 be ff 73 4e 3d 5a 7a 1a 3e 3f b2 43 be
       -0.22419758 0.05040359 0.15085736 -0.19110964

weight f4 [3, 12]
000000 b0 e2 a5 bc 0d c0 02 be e7 c0 b9 bd 94 b3 8b be
       -0.020249695 -0.12768574 -0.09069996 -0.27285445
000010 b6 c0 19 be c8 66 d7 be ce 59 80 be fd 52 6d 3e
       -0.1501492 -0.42070603 -0.25068516 0.23176189
000020 46 2a a4 be f9 aa 4f 3d 86 1e a3 be a3 a0 4f bd
       -0.32063502 0.05070016 -0.31859225 -0.050690304
000030 24 55 e5 3e f9 ce b2 be 8a 8c e0 be 77 f5 3a 3e
       0.4479152 -0.34923533 -0.43857223 0.182577
000040 a5 f1 ca 3e e8 4f c3 3e af 07 31 3e 77 bb 28 be
       0.39637485 0.381469 0.17288087 -0.16477762
000050 ad ba d2 be 59 2d c8 be 5d a1 a8 3e 3f c1 e4 3e
       -0.41158047 -0.39097098 0.3293561 0.44678685
000060 24 0c bb be 95 45 82 3e 2b b0 0c 3e 7e ff ad be
       -0.365327 0.25443712 0.13739078 -0.33983988
000070 da ed 8a ba 5a 57 06 bd c8 92 b8 ba fd fe bd 3c
       -0.001059945 -0.03279815 -0.001408183 0.023192877
000080 6a 77 7b bb 7e 26 9d 3e 0b 11 37 be 62 79 e4 be
       -0.0038370737 0.3069343 -0.17877595 -0.44623858

bias f4 [3]
000000 de be 96 be fc e9 84 3d 0d 2d 57 be
       -0.29442495 0.064899415 -0.2101328

weight f4 [3, 12]
000000 be 25 88 be d4 c3 40 be 2b 2d 53 be a8 0b 63 be
       -0.26591295 -0.18824703 -0.20622699 -0.22172415
000010 16 32 81 3c 07 10 b1 bd 74 ce 82 bc e6 4c 0a be
       0.015770953 -0.08645635 -0.015967585 -0.13505897
000020 50 aa 87 3e 05 4d 82 3e 5a 2f 93 be 77 63 8d be
       0.26497126 0.25449386 -0.28747064 -0.27614948
000030 41 6e f3 bd 7f a9 17 be 23 eb b8 bd c1 ee 17 bb
       -0.11886264 -0.14810751 -0.09029224 -0.002318308
000040 e0 12 0e be 29 cb 2b be d4 66 db bd f4 07 f0 bc
       -0.13874388 -0.16776718 -0.10712972 -0.029300667
000050 05 dd 3b be 4b 60 e9 bc 89 30 54 be 88 c0 23 be
       -0.18346031 -0.028488299 -0.2072164 -0.15991414
000060 47 6a 24 be b3 6f 0d 3e af 26 10 3e 58 05 ff 3b
       -0.16056167 0.13812141 0.14077257 0.0077826194
000070 45 02 84 be e9 08 f9 bc 05 d7 50 3e 22 83 00 3d
       -0.25782982 -0.030399757 0.20394523 0.031375058
000080 c4 7d 38 3e c4 db 82 3e 8b 56 6b be de 7c 46 3e
       0.18016726 0.25558293 -0.22982232 0.1938357

bias f4 [3]
000000 9d 6c ae be 1e bc 82 3e a5 03 8e 3d
       -0.3406724 0.25534147 0.06934289

weight f4 [3, 3]
000000 05 32 d3 be 57 56 d0 3e c4 7b d2 3e 88 c1 b0 be
       -0.412491 0.40690872 0.4111005 -0.34522653
000010 70 b8 8d 3d ed ac bb 3e b8 5e b1 bd 60 c2 cb 3e
       0.06919944 0.3665537 -0.08660644 0.39796734
000020 67 e9 fb 3e
       0.4920151

bias f4 [3]
000000 7b 9d e2 3e b3 87 09 3f f1 69 07 bf
       0.44260773 0.53722686 -0.5289603
