data/best/output/poster/train/18_stemgnn.pt (torch, 435920 bytes, 73 tensors)

weight_key f4 [135, 1]
-0.0040118163 0.15778768 -0.24597947 -0.21919353 -0.11407187 0.079923704 -0.005692562 0.23592241
-0.026354432 0.07771052 -0.09007178 -0.058875807 -0.28445324 -0.19672816 -0.12229421 0.011350853
0.117464714 0.1782854 -0.20119122 -0.12919176 0.107753314 0.24613437 -0.06197479 0.22157145
-0.048665803 0.03116578 0.26960245 -0.27482137 -0.18664126 -0.07470402 -0.11455053 0.2578476
-0.19157767 -0.1363252 -0.20693187 -0.27779767 -0.17345944 0.25525996 0.1325102 0.14471142
0.015883302 -0.15237787 0.04994502 -0.27807012 -0.21597923 -0.15482056 0.18689407 0.1736572
-0.13267495 -0.011293018 0.1892403 0.29532814 0.11729905 0.040190663 0.19989753 -0.17495315
0.054623194 -0.23173775 -0.20668957 -0.15380424 0.13356468 0.11829554 -0.17794886 0.08896425
0.16175772 -0.0394467 0.009728809 0.06777771 0.18345487 0.28382894 -0.23035078 -0.11042504
0.11492882 0.24476188 0.25667846 0.26025724 0.058283903 -0.25860068 0.027152596 -0.18673253
-0.27868018 0.26345202 0.22534832 -0.29642984 0.05576252 -0.05065318 -0.05032837 -0.13673641
0.1127166 -0.17683521 0.10822653 0.14922914 0.21180762 0.10978032 -0.29549265 -0.19441596
0.14779034 0.062140886 -0.23164879 -0.17097688 0.27882126 0.19832121 -0.13101341 -0.074890025
-0.28203642 -0.0045645954 -0.22279136 -0.22811216 -0.015706623 0.04512897 -0.1210626 0.17699692
-0.18077146 0.26888606 0.20216852 -0.25228706 -0.074254036 0.0123642795 0.041554447 0.068576045
0.11481137 0.015956188 -0.14644651 0.1396754 -0.2860983 -0.17704977 -0.07604059 -0.14622681
-0.10468054 -0.24342296 -0.0630057 0.06410467 -0.19310415 -0.015801162 0.21129487
00000000: 8e75 83bb 1893 213e 0be2 7bbe 4574 60be
00000010: 839e e9bd 0aaf a33d ac88 babb a595 713e
00000020: 40e5 d7bc b126 9f3d 8e77 b8bd c227 71bd
00000030: dba3 91be 1b73 49be 6375 fabd eef8 393c
00000040: 5791 f03d 7390 363e 1205 4ebe d84a 04be
00000050: c5ad dc3d a60a 7c3e 47d9 7dbd a0e3 623e
00000060: cb55 47bd 614f ff3c 5509 8a3e 63b5 8cbe
00000070: e31e 3fbe 6cfe 98bd 7899 eabd 9a04 843e
00000080: f02c 44be d598 0bbe f3e5 53be 7f3b 8ebe
00000090: 5a9f 31be 6fb1 823e c1b0 073e 3b2f 143e
000000a0: b31d 823c f208 1cbe 2693 4c3d 355f 8ebe
000000b0: a929 5dbe 4889 1ebe 2961 3f3e 31d3 313e
000000c0: f1db 07be 5a06 39bc 36c8 413e 4035 973e
000000d0: 7c3a f03d f79e 243d f0b1 4c3e eb26 33be
000000e0: 92bc 5f3d a94c 6dbe 6ea6 53be dc7e 1dbe
000000f0: 2ec5 083e ef44 f23d 3a38 36be e432 b63d
00000100: d1a3 253e dd92 21bd 9565 1f3c 0acf 8a3d
00000110: 98db 3b3e 0752 913e 13e1 6bbe 8626 e2bd
00000120: cd5f eb3d dca2 7a3e 5c6b 833e 7040 853e
00000130: 1abb 6e3d 4f67 84be 1f6f de3c d036 3fbe
00000140: 2baf 8ebe 2fe3 863e b6c1 663e a7c5 97be
00000150: 3d67 643d b579 4fbd 1f25 4ebd a104 0cbe
00000160: f6d7 e63d 4a14 35be dfa5 dd3d 86cf 183e
00000170: 19e4 583e 81d4 e03d d04a 97be fa14 47be
00000180: 5a56 173e 7187 7e3d 5735 6dbe 9014 2fbe
00000190: a9c1 8e3e b714 4b3e 6128 06be f15f 99bd
000001a0: 1467 90be 9a92 95bb 6b23 64be 3c96 69be
000001b0: 2dab 80bc 28d9 383d abef f7bd ae3e 353e
000001c0: 271c 39be 6fab 893e 4405 4f3e c52b 81be
000001d0: 8012 98bd 8c93 4a3c ff34 2a3d 9971 8c3d
000001e0: 3922 eb3d 8db6 823c 13f6 15be 1107 0f3e
000001f0: 7a7b 92be 894c 35be 2bbb 9bbd 7bbc 15be
00000200: c062 d6bd de43 79be 2209 81bd 4f49 833d
00000210: 18bd 45be 7071 81bc af5d 583e

weight_query f4 [135, 1]
-0.070075355 -0.00037920347 0.07174253 0.18592373 0.31954587 0.41031677 0.31446585 0.4054667
0.09997407 -0.14682664 -0.02192134 0.32065654 0.11601406 -0.030029263 -0.110465325 -0.1611591
-0.13417828 0.055839855 0.27895203 0.27658793 -0.17006971 0.30173486 -0.115305275 0.054317527
-0.0030568605 0.060581688 0.059545536 -0.14884217 -0.13910984 0.07054289 0.12049982 -0.01836448
0.22815503 -0.1502981 0.09656372 0.37768647 -0.004398047 0.38451472 0.22462218 -0.15059805
0.30571654 0.08338936 -0.014563104 0.3554427 -0.12185441 0.15003125 0.056060318 0.33058837
0.20105468 0.26089466 0.22336328 0.046868507 0.05580285 -0.12690523 0.27872413 0.35387546
0.3212614 -0.09144017 0.13132936 -0.09137146 -0.045647167 -0.055162035 0.21950026 -0.059147898
0.111612864 0.13066794 0.30947652 -0.10656182 -0.08552939 -0.054170556 0.32606688 0.011747933
0.36896393 0.22648144 0.15648562 0.1164007 0.059555165 0.15493621 0.050170664 0.115941346
0.15599358 -0.11429174 -0.03792029 0.35787544 -0.122555636 0.09668632 0.41170102 0.22558752
0.12673768 -0.13942164 0.26566365 -0.092515774 0.034274433 0.018937744 0.074448995 0.121790536
0.3629678 0.15471707 0.38370427 0.29912663 -0.070168555 0.2508974 -0.09235704 -0.007909037
0.20560811 0.21669903 0.34079358 0.022151047 0.1186265 0.2710247 -0.1694224 0.33228493
-0.12788711 0.121990725 0.06736203 -0.038524017 0.15701748 0.36373255 0.03130692 -0.058334835
0.008276878 -0.17592457 0.2519624 -0.024309702 -0.08020551 -0.053536605 0.28851822 0.27483848
0.34535918 0.22544484 0.01862065 0.034863442 0.20594615 0.36569226 0.20356168
00000000: ab83 8fbd d4cf c6b9 bfed 923d ca62 3e3e
00000010: 849b a33e 0a15 d23e ab01 a13e 5599 cf3e
00000020: 35bf cc3d b959 16be 6294 b3bc 182d a43e
00000030: c898 ed3d eeff f5bc a53b e2bd e406 25be
00000040: 0866 09be 55b8 643d cdd2 8e3e ef9c 8d3e
00000050: c126 2ebe fe7c 9a3e 2c25 ecbd 0e7c 5e3d
00000060: 9c55 48bb 8124 783d 05e6 733d 156a 18be
00000070: cf72 0ebe ca78 903d 9cc8 f63d 1b71 96bc
00000080: 79a1 693e bfe7 19be 33c3 c53d 1f60 c13e
00000090: 7e1d 90bb 1ddf c43e 5b03 663e 6036 1abe
000000a0: e186 9c3e 0ac8 aa3d 169a 6ebc 96fc b53e
000000b0: ce8e f9bd cba1 193e 819f 653d e142 a93e
000000c0: 47e1 4d3e fc93 853e 58b9 643e 31f9 3f3d
000000d0: 8791 643d 72f3 01be eeb4 8e3e 2a2f b53e
000000e0: 607c a43e fc44 bbbd 347b 063e f620 bbbd
000000f0: 86f8 3abd 96f1 61bd adc4 603e 1145 72bd
00000100: 4995 e43d d1cd 053e b573 9e3e 153d dabd
00000110: 082a afbd f2e1 5dbd 3df2 a63e 677a 403c
00000120: d7e8 bc3e c0ea 673e c43d 203e 7d63 ee3d
00000130: 1ef0 733d 99a7 1e3e c17f 4d3d a872 ed3d
00000140: c8bc 1f3e ca11 eabd 4e52 1bbd 733b b73e
00000150: 73fe fabd 7a03 c63d 7aca d23e 6a00 673e
00000160: 86c7 013e 8cc4 0ebe 1105 883e e978 bdbd
00000170: 5963 0c3d 5423 9b3c b778 983d 516d f93d
00000180: ead6 b93e 276e 1e3e e374 c43e 2027 993e
00000190: 88b4 8fbd a075 803e b025 bdbd e894 01bc
000001a0: ef8a 523e 5ae6 5d3e 7f7c ae3e 1d76 b53c
000001b0: 73f2 f23d c0c3 8a3e 117d 2dbe 4021 aa3e
000001c0: d7f4 02be 46d6 f93d 1bf5 893d 5ccb 1dbd
000001d0: 31c9 203e 273b ba3e af3b 003d 82f0 6ebd
000001e0: be9b 073c 9225 34be 3701 813e 2425 c7bc
000001f0: c942 a4bd 3349 5bbd a9b8 933e a1b7 8c3e
00000200: ebd2 b03e 03db 663e 558a 983c f8cc 0e3d
00000210: 8ce3 523e 043c bb3e 7972 503e

weight_ih_l0 f4 [405, 3]
-0.063187554 -0.06304333 -0.1040725 0.06114887 -0.005533835 -0.03386031 0.06826593 -0.06226597
-0.015294059 0.013078404 -0.008761801 -0.06933584 -0.0049683345 0.13348524 0.07920133 0.11789879
0.017390748 0.07294305 -0.028003722 -0.012153134 -0.06089887 0.028099433 0.026764514 -0.0023069873
-0.0504898 -0.08409015 0.028655149 -0.037250597 0.060974397 -0.004021694 -0.03888867 0.018292964
-0.041930035 0.11003277 0.107605115 0.027112544 0.030090094 0.0528353 0.050491784 -0.039315343
-0.09931303 -0.042274125 0.09490139 0.03358434 0.0976914 0.057550527 -0.04418294 0.0019224274
-0.070794284 -0.100043915 -0.099869184 0.09376749 0.01548043 0.08993648 0.092617035 0.11169501
0.08583583 0.100363195 0.12920694 0.047256704 0.016857393 0.015106103 0.1756628 0.047852803
-0.06606856 0.027027106 0.08328322 0.10461684 0.09401075 0.045768492 -0.04054793 -0.05091584
0.11042834 0.088232554 -0.011750203 0.07486446 0.039312568 0.04450405 -0.07753319 0.00075708126
-0.0544963 0.068554826 -0.013833652 0.03534223 0.0017728026 0.023161788 -0.042636823 -0.040990945
-0.14263982 -0.06311531 -0.12436098 -0.1510678 -0.13542697 0.13982335 0.11867075 0.15313727
0.13682564 -0.008667816 0.00959465 -0.00011155816 -0.042219754 0.07328323 -0.048349023 -0.02579641
-0.0670601 -0.03455833 0.08525935 0.08507448 -0.01739351 -0.012295208 -0.0020386232 -0.11020068
-0.050530642 -0.011717433 0.0008272496 0.058512773 0.01733557 0.08529192 0.0025603927 0.074092254
0.027982315 -0.0023954771 -0.030508177 -0.1054625 -0.12365274 -0.00016760456 0.052324235 -0.018925453
-0.05929894 0.05482989 0.04274072 -0.006502375 -0.02930961 0.090495564 0.046703704 0.01421442
0.16206579 0.14532043 -0.014883758 0.064829685 -0.032438155 0.0052770986 0.091698654 0.022042317
-0.003586899 0.03113128 0.036522727 0.010776699 0.03478408 0.10620356 0.0078538675 -0.04994837
0.007589207 0.0438541 0.04541213 -0.0758593 -0.0026954652 -0.05115587 -0.023896439 0.041762862
-0.05127773 0.041805614 0.09592383 0.028531404 -0.03455213 -0.060296252 -0.010559716 -0.09486419
0.019891422 -0.1010075 -0.105687745 -0.084803514 -0.018544847 0.05664769 -0.04544922 0.107324675
0.0012239906 -0.05096175 -0.071292885 -0.15180583 0.08373477 0.059329674 0.09842219 0.017466312
-0.08268363 0.04606112 -0.049744647 -0.01361365 -0.12344764 -0.0078900745 -0.06760031 -0.016659992
-0.004995512 -0.090387665 0.004760383 0.12837793 0.09538055 0.026250126 0.01346769 0.053998552
0.11843568 0.104508825 0.06896501 0.0095709795 0.002865163 -0.11176314 -0.10101467 0.07591989
-0.0129674915 0.07715132 -0.06591797 -0.047527697 -0.075438015 0.12885888 0.07549279 0.1506311
0.10267176 0.09722605 0.05238114 -0.044438116 -0.03668657 -0.0068534813 0.020659905 -0.08210649
0.050450698 -0.022875462 -0.085628636 -0.060236935 0.07145456 0.07375986 -0.08481174 0.09286723
0.07548473 0.08349755 0.1128642 -0.0052355663 0.07017111 0.01874907 -0.04150666 0.012990147
0.007942216 0.08593791 0.008499328 -0.014363616 0.039627112 0.04872562 -0.01811726 0.031504516
0.07374922 -0.02661297 0.008178248 -0.0388994 0.010588797 -0.081798784 -0.07025042 -0.027682407
00000000: 7a68 81bd dd1c 81bd f623 d5bd 3d77 7a3d
00000010: 2c55 b5bb 1cb1 0abd 02cf 8b3d 9a0a 7fbd
00000020: ef93 7abc cd46 563c a88d 0fbc f3ff 8dbd
00000030: 69cd a2bb 5bb0 083e 4f34 a23d ec74 f13d
00000040: 0b77 8e3c 2a63 953d 1068 e5bc f01d 47bc
00000050: 1871 79bd c830 e63c 4141 db3c d330 17bb
00000060: 64ce 4ebd 7537 acbd 34be ea3c 1594 18bd
00000070: 4ac0 793d 6ac8 83bb ba49 1fbd 20db 953c
00000080: d4be 2bbd dc58 e13d 1260 dc3d 201b de3c
00000090: 807f f63c d469 583d 79d0 4e3d 2009 21bd
000000a0: a164 cbbd a227 2dbd a95b c23d bc8f 093d
000000b0: 6e12 c83d 1aba 6b3d 2cf9 34bd f6f9 fb3a
000000c0: 98fc 90bd d3e3 ccbd 3788 ccbd 2b09 c03d
000000d0: a1a1 7d3c 9e30 b83d 00ae bd3d 5ac0 e43d
000000e0: b2ca af3d 388b cd3d d34e 043e 3f90 413d
000000f0: 8418 8a3c 977f 773c f3e0 333e 4d01 443d
00000100: f44e 87bd f367 dd3c 6590 aa3d 5b41 d63d
00000110: b588 c03d be77 3b3d 9615 26bd 218d 50bd
00000120: 4128 e23d 45b3 b43d ec83 40bc 8a52 993d
00000130: 3706 213d e149 363d b9c9 9ebd dd76 463a
00000140: 8337 5fbd 7966 8c3d 8ba6 62bc 04c3 103d
00000150: 625d e83a cabd bd3c f3a3 2ebd 1fe6 27bd
00000160: 2c10 12be 9a42 81bd f8b0 febd 84b1 1abe
00000170: 5ead 0abe da2d 0f3e a609 f33d 04d0 1c3e
00000180: 051c 0c3e 7503 0ebc e132 1d3c 55f4 e9b8
00000190: 9fee 2cbd 8515 963d a009 46bd fe52 d3bc
000001a0: ce56 89bd 098d 0dbd 749c ae3d 873b ae3d
000001b0: d67c 8ebc d771 49bc 6c9a 05bb e5b0 e1bd
000001c0: 38f9 4ebd 7afa 3fbc c8db 583a 17ab 6f3d
000001d0: 5303 8e3c 88ad ae3d 43cc 273b aebd 973d
000001e0: 2b3b e53c 70fd 1cbb 49ec f9bc b9fc d7bd
000001f0: a63d fdbd 02bf 2fb9 f051 563d 8d09 9bbc
00000200: 72e3 72bd 4f95 603d e510 2f3d e011 d5bb
00000210: b51a f0bc bd55 b93d 624c 3f3d 99e3 683c
00000220: 93f4 253e e1ce 143e 01db 73bc 6dc5 843d
00000230: dfdd 04bd 83eb ac3b 81cc bb3d 1792 b43c
00000240: 2e12 6bbb 0707 ff3c db98 153d c090 303c
00000250: c079 0e3d 4181 d93d 82ad 003c a996 4cbd
00000260: e2ae f83b 5ba0 333d 1202 3a3d 1f5c 9bbd
00000270: 67a6 30bb d188 51bd 77c2 c3bc 890f 2b3d
00000280: 9908 52bd 5d3c 2b3d b773 c43d b1ba e93c
00000290: 8986 0dbd 34f9 76bd a902 2dbc 2848 c2bd
000002a0: 56f3 a23c 05dd cebd d172 d8bd 77ad adbd
000002b0: 5deb 97bc 6807 683d f628 3abd 0acd db3d
000002c0: 4f6e a03a 45bd 50bd 0102 92bd fd72 1bbe
000002d0: 237d ab3d ac03 733d 9391 c93d 8315 8f3c
000002e0: 0956 a9bd 96aa 3c3d 0bc1 4bbd c90b 5fbc
000002f0: 1ed2 fcbd 5f45 01bc 0872 8abd 897a 88bc
00000300: 64b1 a3bb 2b1d b9bd fdfc 9b3b 8175 033e
00000310: e156 c33d 810a d73c 96a7 5c3c 962d 5d3d
00000320: 688e f23d b908 d63d 873d 8d3d 99cf 1c3c
00000330: 75c5 3b3b 13e4 e4bd c8e0 cebd e37b 9b3d
00000340: 9a75 54bc 8301 9e3d 0000 87bd 67ac 42bd
00000350: 3f7f 9abd 95f3 033e f79b 9a3d 0a3f 1a3e
00000360: 9245 d23d 741e c73d 9b8d 563d be04 36bd
00000370: a844 16bd 2b93 e0bb f63e a93c 7327 a8bd
00000380: 64a5 4e3d 5265 bbbc 115e afbd 01bb 76bd
00000390: c556 923d 690f 973d c7b1 adbd 2d31 be3d
000003a0: bd97 9a3d c300 ab3d 5825 e73d 1d8f abbb
000003b0: dfb5 8f3d a697 993c e302 2abd a0d4 543c
000003c0: 1120 023c 3700 b03d c440 0b3c 5f55 6bbc
000003d0: 0a50 223d 8494 473d a66a 94bc e10a 013d
000003e0: d509 973d 7103 dabc 0ffe 053c fa54 1fbd
000003f0: a27c 2d3c 1f86 a7bd 74df 8fbd 37c6 e2bc

weight_hh_l0 f4 [405, 135]
0.06262452 0.08101713 -0.061390027 0.13023147 -0.0046840995 0.019894345 0.037420373 -0.056477234
-0.04748274 0.030714395 0.07252125 -0.03827019 -0.101350114 0.031521685 0.019855103 0.11248719
-0.10825447 -0.006518898 -0.055757843 -0.08669402 -0.014804303 -0.06710772 0.07048331 -0.07787105
0.0828632 -0.029290047 0.035774954 -0.14156562 -0.06742277 -0.017156405 -0.17510562 0.023352902
0.011569955 0.002983846 -0.113815434 0.100307286 0.04933966 -0.021135181 -0.031807005 0.05624197
0.16741922 -0.088848054 -0.028499093 0.011977861 -0.09217869 0.12050956 -0.02037182 0.084724136
-0.030166812 -0.038571246 -0.052557305 -0.050137196 0.070471056 0.08549725 -0.05233156 0.10760142
0.025963169 0.05543652 0.09146292 0.06097661 0.056528036 -0.027740952 -0.06047869 0.052022118
0.018132094 -0.025030222 0.02015528 0.045648877 -0.013969002 -0.09632024 -0.022737797 -0.050981395
-0.10292947 0.0046513868 0.019176336 0.019536724 0.061313514 -0.065407544 -0.07217847 0.10858807
0.00736916 -0.038787607 -0.056729216 -0.09655957 0.011763972 -0.09855793 0.02212779 0.08617128
-0.0055395127 -0.081682645 0.0611788 0.086953394 -0.13123977 0.05457176 0.009156268 0.020916192
-0.010008747 -0.07388893 0.025218531 0.047242463 -0.047091432 -0.07093725 0.04335888 0.0714781
0.06194852 0.0012986438 0.046585888 0.0022530048 0.01853033 0.06754528 -0.022325663 -0.033333145
-0.026807332 -0.05311837 0.018767055 -0.05994216 0.07664746 -0.017302517 0.052288916 0.087293416
0.008482828 -0.013287299 0.000948408 -0.06471783 0.06871999 -0.00772687 -0.034881853 -0.09522716
0.05944036 -0.09667036 0.012262411 0.020603808 -0.08579603 -0.112384744 -0.064875 0.055187434
-0.13888334 -0.13953905 0.01979045 -0.014548777 0.091677465 0.02860723 -0.018442245 0.0020693464
-0.025084505 -0.09607929 -0.056524176 0.071923725 -0.050556142 -0.1199962 -0.1656009 0.05393951
0.049116082 0.1482835 -0.019982064 -0.024865389 -0.13420734 -0.10464729 0.019625586 -0.019605529
-0.04608872 -0.08245901 0.08811557 -0.035814986 -0.13001902 -0.013648615 -0.07429308 -0.15024677
-0.13005745 0.1383781 -0.020608477 0.08142858 -0.0023135953 -0.024731422 0.12378447 -0.10452153
-0.12484124 0.017714798 0.025653329 0.054863196 -0.0036694952 -0.1441512 0.0058511444 0.064833015
0.043918706 0.095084034 0.115676865 -0.13633023 -0.031174524 0.098103 -0.11103329 0.0078612175
-0.12401831 -0.01920107 -0.06598378 -0.11155935 0.015361235 0.019231325 -0.15234785 -0.08312754
-0.14508568 -0.12986624 0.0034084674 -0.03372132 0.0014929159 0.12033736 0.030261325 -0.05057488
-0.13318019 -0.01116986 0.07289551 0.035374176 0.12349224 -0.17067778 -0.0006807182 -0.022385424
-0.0012347599 0.04924791 -0.006971746 -0.010116606 -0.14981768 0.020472318 -0.1684218 -0.050116595
0.075350344 0.026203005 0.05866285 0.06636039 -0.09199073 0.04377041 0.008573201 0.02296034
0.08710217 0.12630366 -0.14999495 0.010068468 0.021289209 -0.009171599 -0.07946327 0.0079407
-0.006628673 0.10628005 -0.18392251 -0.05853979 -0.029420953 0.0680835 0.025669333 0.116154544
0.058346868 -0.026716366 -0.04591045 -0.017227385 0.019076468 0.00586754 0.02073381 0.00048318785
00000000: 4941 803d 4fec a53d 1c74 7bbd 665b 053e
00000010: 137d 99bb 77f9 a23c 1b46 193d ac54 67bd
00000020: 437d 42bd c19c fb3c 0586 943d 34c1 1cbd
00000030: a690 cfbd e21c 013d 2ba7 a23c af5f e63d
00000040: 85b4 ddbd 7b9c d5bb 5662 64bd a28c b1bd
00000050: bf8d 72bc c66f 89bd 8e59 903d db7a 9fbd
00000060: 2eb4 a93d aef1 efbc c288 123d 94f6 10be
00000070: f314 8abd 978b 8cbc e34e 33be 964e bf3c
00000080: e98f 3d3c a18c 433b 1118 e9bd e86d cd3d
00000090: 6218 4a3d b023 adbc 1048 02bd fb5d 663d
000000a0: f26f 2b3e f8f5 b5bd ee76 e9bc ca3e 443c
000000b0: 2ec8 bcbd b7cd f63d cee2 a6bc d983 ad3d
000000c0: 6420 f7bc e2fc 1dbd 5446 57bd a95c 4dbd
000000d0: 2153 903d 2f19 af3d 9e59 56bd 225e dc3d
000000e0: b6b0 d43c 6811 633d e950 bb3d 9cc2 793d
000000f0: f189 673d fe40 e3bc 81b8 77bd 2515 553d
00000100: c289 943c 2e0c cdbc b01c a53c 51fa 3a3d
00000110: 3ede 64bc 8c43 c5bd 9e44 babc ded1 50bd
00000120: b0cc d2bd a96a 983b b117 9d3c 7b0b a03c
00000130: e123 7b3d 64f4 85bd 4ed2 93bd 6c63 de3d
00000140: ff78 f13b c1df 1ebd e55c 68bd 06c1 c5bd
00000150: adbd 403c bdd8 c9bd 5745 b53c 917a b03d
00000160: cd84 b5bb 3b49 a7bd 9f96 7a3d 9f14 b23d
00000170: b863 06be a386 5f3d 2c04 163c 6f58 ab3c
00000180: bafb 23bc 1453 97bd 1897 ce3c 5081 413d
00000190: f2e2 40bd 8d47 91bd 1599 313d 1c63 923d
000001a0: bbbd 7d3d 4137 aa3a d8d0 3e3d 26a7 133b
000001b0: ebcc 973c 2e55 8a3d 4fe4 b6bc 5688 08bd
000001c0: 0d9b dbbc a692 59bd 5ebd 993c e985 75bd
000001d0: 58f9 9c3d 02be 8dbc e72c 563d e4c6 b23d
000001e0: 8ffb 0a3c f9b2 59bc 959e 783a c88a 84bd
000001f0: 11bd 8c3d af31 fdbb 46e0 0ebd 7506 c3bd
00000200: bc77 733d 1cfb c5bd 48e8 483c 51c9 a83c
00000210: d4b5 afbd f929 e6bd 2fdd 84bd 380c 623d
00000220: 6f37 0ebe 53e3 0ebe 951f a23c fe5d 6ebc
00000230: 65c1 bb3d b659 ea3c 3114 97bc df9d 073b
00000240: 057e cdbc 38c5 c4bd e585 67bd bf4c 933d
00000250: f513 4fbd 91c0 f5bd 4893 29be adef 5c3d
00000260: f22d 493d a1d7 173e 6db1 a3bc 80b2 cbbc
00000270: a66d 09be 5251 d6bd d6c5 a03c c69b a0bc
00000280: 87c7 3cbd 45e0 a8bd f075 b43d bcb2 12bd
00000290: b523 05be 719e 5fbc f826 98bd 4ada 19be
000002a0: c82d 05be fdb2 0d3e 1cd3 a8bc 07c4 a63d
000002b0: b09f 17bb 8d99 cabc b682 fd3d 620f d6bd
000002c0: c4ac ffbd a01e 913c ee26 d23c 3bb8 603d
000002d0: ea7b 70bb 5f9c 13be f5ba bf3b 2cc7 843d
000002e0: 1ae4 333d 6bbb c23d fee7 ec3d 279a 0bbe
000002f0: b761 ffbc 3aea c83d 6c65 e3bd 56cc 003c
00000300: 50fd fdbd 904b 9dbc 8122 87bd 3a79 e4bd
00000310: b0ad 7b3c 038b 9d3c 1301 1cbe c63e aabd
00000320: 5791 14be a8fb 04be 9860 5f3b 5e1f 0abd
00000330: f2ad c33a 6f73 f63d 99e6 f73c 9b27 4fbd
00000340: 6360 08be ca01 37bc 3e4a 953d 83e4 103d
00000350: 80e9 fc3d 28c6 2ebe 3a72 32ba a361 b7bc
00000360: abd7 a1ba 2db8 493d 3f73 e4bb 1fc0 25bc
00000370: ce69 19be 90b5 a73c c476 2cbe 0f47 4dbd
00000380: 4851 9a3d afa7 d63c 7548 703d f5e7 873d
00000390: a365 bcbd 9a48 333d 9c76 0c3c 5317 bc3c
000003a0: 9f62 b23d bf55 013e 4798 19be 37f6 243c
000003b0: b566 ae3c 7944 16bc a4bd a2bd b619 023c
000003c0: 5735 d9bb 5ba9 d93d 2f56 3cbe 6bc7 6fbd
000003d0: 3604 f1bc 5d6f 8b3d 7e48 d23c 6fe2 ed3d
000003e0: 20fd 6e3d 48dc dabc 990c 3cbd 7220 8dbc
000003f0: 4146 9c3c 7e44 c03b f3d9 a93c 6054 fd39

bias_ih_l0 f4 [405]
-0.02309717 0.11370554 -0.00554353 0.08316512 -0.005583087 0.030044282 -0.039052457 -0.04380375
0.12020898 0.060329713 -0.022752808 0.03983954 0.0391539 -0.058711037 -0.14912258 0.032390304
-0.10853615 -0.03620405 -0.10494227 -0.08846498 -0.10637171 -0.015601423 0.009429609 0.11697223
0.03305946 -0.0187504 -0.11028412 -0.101903535 -0.079718664 -0.1499877 0.00906855 0.016378812
0.059243917 -0.08372853 -0.008217543 0.0557027 -0.046702094 -0.10177883 -0.057562675 0.07846714
0.06725908 0.04015257 -0.11765653 0.071737595 0.048256278 0.0011999147 0.011364236 -0.086006165
0.0560561 0.014888949 0.020146707 -0.039912816 0.078292385 0.010205596 0.089481995 -0.07989805
0.065198265 -0.07003945 -0.11602582 0.07129245 -0.026003074 -0.028595299 -0.092534035 0.106296144
0.018845603 -0.077187195 -0.09018698 -0.0807851 -0.059664812 -0.01791712 -0.013800901 0.10442867
-0.071507916 -0.032178234 0.034469485 0.034038156 -0.15719882 0.027288668 0.08474125 -0.023240583
-0.09475366 0.013839007 -0.094939314 0.05108522 -0.081581436 -0.05049581 -0.08823163 -0.12091278
-0.01027635 0.020744545 0.06482668 0.02944056 0.08925459 0.04428106 0.010212781 0.018216927
0.014982931 -0.07235599 -0.011458251 0.028779032 0.008206885 0.016386753 0.07022434 -0.101856686
0.12783432 0.040380083 -0.08758942 0.052374233 0.041914664 -0.063057326 0.014634978 -0.049623556
0.020695012 0.11390445 0.1103558 0.030019432 -0.02270847 0.117872134 0.03712077 0.03192012
-0.13767295 -0.030871443 0.01570836 0.026239263 0.16598551 0.01927587 0.022176461 0.18115404
-0.07394284 0.032343682 0.045401596 -0.028389957 -0.040669616 0.14220072 0.06558094 0.15525484
-0.17778683 -0.09122948 0.070466645 -0.085779496 0.08317137 0.13871832 0.10084557 0.029251521
-0.070302375 -0.058522124 0.022522788 0.01496175 -0.012034377 -0.0069962856 -0.057710152 0.12633653
0.036140125 0.058334887 -0.0024901098 -0.020033048 0.057888027 -0.020656312 -0.19130893 -0.10166448
0.06716469 -0.08830729 -0.01743298 0.1052639 -0.0898064 0.0047954954 -0.00056277675 -0.007410559
-0.09789837 -0.039178688 -0.06342416 -0.04509005 0.10310138 0.028766856 -0.20501752 -0.06597698
-0.04462442 -0.081239045 0.11500397 -0.17663251 -0.028553596 0.054384552 -0.06987008 0.015789516
-0.04687538 -0.077107005 0.062874764 -0.13505125 -0.046747603 -0.029594136 0.02974623 -0.09914169
-0.050954264 -0.022735305 0.069913566 -0.026537761 -0.035035577 0.0075455843 -0.1298608 -0.099065125
-0.06914142 -0.089380965 0.039740127 0.018189345 -0.19817923 0.035908468 0.004553449 -0.055053227
-0.019931085 -0.010286358 0.038509905 -0.016194582 -0.14915001 -0.06656604 -0.06263467 0.08231689
-0.1086011 -0.073282965 -0.12833133 0.10471329 0.033785492 0.004550467 -0.11198151 0.03484356
0.04057246 0.020426443 -0.0643363 -0.022183405 -0.07407952 -0.023326317 -0.035860933 0.069225
-0.008065604 0.035030335 -0.102829814 -0.07984622 -0.03444321 0.096218035 -0.1676557 -0.05574591
0.08536154 -0.0019438487 -0.038233016 -0.06540541 -0.09357789 0.057258148 -0.041369434 -0.08055654
-0.13142188 -0.08146119 0.028665936 0.037670903 -0.12872502 -0.06057033 -0.019166976 -0.113717385
00000000: 4736 bdbc 73de e83d 80a6 b5bb 7952 aa3d
00000010: 54f2 b6bb 6d1f f63c 78f5 1fbd 906b 33bd
00000020: 2030 f63d 4a1c 773d 1964 babc c92e 233d
00000030: d75f 203d fc7a 70bd 97b3 18be b2ab 043d
00000040: 3348 debd b34a 14bd f9eb d6bd 212d b5bd
00000050: 69d9 d9bd 1c9d 7fbc a67e 1a3c 238f ef3d
00000060: 5b69 073d 709a 99bc a4dc e1bd cdb2 d0bd
00000070: 8a43 a3bd 6096 19be 4194 143c dc2c 863c
00000080: c0a9 723d dd79 abbd e0a2 06bc 8428 643d
00000090: b24a 3fbd 6b71 d0bd d7c6 6bbd 61b3 a03d
000000a0: 21bf 893d 0577 243d e8f5 f0bd 29eb 923d
000000b0: 60a8 453d 7546 9d3a 0f31 3a3c 0024 b0bd
000000c0: 159b 653d c7f0 733c b50a a53c 9f7b 23bd
000000d0: c257 a03d 5f35 273c 5642 b73d 97a1 a3bd
000000e0: ab86 853d d870 8fbd f29e edbd c701 923d
000000f0: 6604 d5bc b040 eabc 7c82 bdbd cbb1 d93d
00000100: 1862 9a3c 5214 9ebd f4b3 b8bd a972 a5bd
00000110: 1763 74bd edc6 92bc 2d1d 62bc b3de d53d
00000120: be72 92bd 53cd 03bd e02f 0d3d 986b 0b3d
00000130: baf8 20be 7c8c df3c d28c ad3d 0963 bebc
00000140: 350e c2bd 01bd 623c 8b6f c2bd bc3e 513d
00000150: 2b14 a7bd b2d4 4ebd c9b2 b4bd 1fa1 f7bd
00000160: 235e 28bc 77f0 a93c dac3 843d 542d f13c
00000170: 1ccb b63d 0f60 353d 8253 273c aa3b 953c
00000180: f87a 753c 612f 94bd 63bb 3bbc 01c2 eb3c
00000190: 2c76 063c 833d 863c c7d1 8f3d 3d9a d0bd
000001a0: 00e7 023e 9665 253d 1562 b3bd 5d86 563d
000001b0: b6ae 2b3d 3324 81bd 8cc7 6f3c 1242 4bbd
000001c0: 9688 a93c bc46 e93d 3902 e23d 50eb f53c
000001d0: 1d07 babc f266 f13d f30b 183d acbe 023d
000001e0: 23fa 0cbe 1ce6 fcbc d2ae 803c b9f3 d63c
000001f0: 1bf8 293e 6ee8 9d3c 69ab b53c 7280 393e
00000200: 586f 97bd cf7a 043d 06f7 393d 0e92 e8bc
00000210: 2f95 26bd 119d 113e 4d4f 863d 20fb 1e3e
00000220: c00d 36be 86d6 babd d150 903d 29ad afbd
00000230: c055 aa3d 2d0c 0e3e 1f88 ce3d e3a0 ef3c
00000240: b1fa 8fbd e5b4 6fbd b681 b83c 2122 753c
00000250: d62b 45bc 1941 e5bb 7b61 6cbd 5d5e 013e
00000260: ab07 143d 90f0 6e3d 1c31 23bb 591c a4bc
00000270: ff1b 6d3d 6d37 a9bc 7de6 43be 7835 d0bd
00000280: a48d 893d 74da b4bd 9ccf 8ebc 9994 d73d
00000290: 6bec b7bd 8823 9d3b 4f87 13ba 46d4 f2bb
000002a0: f17e c8bd d579 20bd 87e4 81bd 58b0 38bd
000002b0: d126 d33d 78a8 eb3c 1df0 51be f01e 87bd
000002c0: 19c8 36bd a860 a6bd 3487 eb3d 27df 34be
000002d0: 3be9 e9bc 56c2 5e3d 0b18 8fbd 0459 813c
000002e0: 6600 40bd 47ea 9dbd 7cc4 803d e04a 0abe
000002f0: 6a7a 3fbd 676f f2bc 5eae f33c cc0a cbbd
00000300: 6bb5 50bd 643f babc d82e 8f3d b865 d9bc
00000310: 7781 0fbd f340 f73b 3bfa 04be a8e2 cabd
00000320: 049a 8dbd 5e0d b7bd 8bc6 223d d201 953c
00000330: 7fef 4abe c214 133d 1935 953b 7e7f 61bd
00000340: 8446 a3bc 1d88 28bc 90bc 1d3d 80aa 84bc
00000350: c8ba 18be c753 88bd 9b46 80bd c295 a83d
00000360: 416a debd 6115 96bd 4a69 03be ec73 d63d
00000370: a862 0a3d 151c 953b 9056 e5bd 1fb8 0e3d
00000380: 4f2f 263d 5b55 a73c c0c2 83bd f9b9 b5bc
00000390: 01b7 97bd d516 bfbc eae2 12bd d6c5 8d3d
000003a0: 9825 04bc f87b 0f3d 7098 d2bd 6a86 a3bd
000003b0: 5314 0dbd f60d c53d f0ad 2bbe d355 64bd
000003c0: 08d2 ae3d bdc8 feba 399a 1cbd 46f3 85bd
000003d0: c4a5 bfbd 8587 6a3d ff72 29bd d4fa a4bd
000003e0: 7593 06be 20d5 a6bd d3d4 ea3c ce4c 1a3d
000003f0: 7ed0 03be 9818 78bd 1004 9dbc a9e4 e8bd

bias_hh_l0 f4 [405]
-0.023720542 0.091465935 -0.069822766 0.028752103 -0.04981558 0.012917232 -0.08733598 -0.015521227
0.06989899 0.08220834 -0.09347353 0.023067508 0.033669587 0.022852667 -0.15923421 -0.019502606
0.010751097 -0.094723366 -0.044959377 -0.14011969 -0.011954749 -0.0521481 0.02767553 0.09632037
0.09327499 -0.07125234 -0.07664284 -0.07404245 -0.05614641 -0.03885563 -0.11184105 0.03635113
-0.07906917 -0.1355223 0.0031133436 0.010360385 0.044937022 -0.070048325 0.029289756 0.0019108059
0.1152481 -0.07631287 0.02238681 0.08185127 0.07862146 0.0066418787 -0.073644444 -0.00565418
0.040429804 0.035813823 -0.008026792 0.0483979 0.05586519 0.025894074 0.056446 0.036378473
0.06440772 -0.14083959 -0.12094923 0.03607411 0.052255414 -0.026866721 -0.04601241 0.068204425
0.013480024 -0.040081456 -0.00012018345 -0.001316022 -0.08646826 -0.073556654 -0.040878955 0.027158337
-0.07304832 0.0064415075 0.027674112 0.02971895 -0.0010015067 0.013162979 0.030921487 -0.0029160192
-0.071336485 -0.03806257 -0.08443816 -0.0058471384 -0.094985105 -0.026929582 0.069542326 0.005059105
-0.061202858 0.052507587 0.11526797 -0.082439564 0.193192 0.02982161 -0.070226036 -0.018709308
0.017607851 -0.04279787 0.03708252 -0.014260784 0.05465736 -0.08108566 0.057096068 -0.04339516
-0.026094109 -0.04038332 0.051025413 -0.045487486 0.08649949 -0.10895115 -0.029687177 0.020734841
-0.012810116 0.059279002 0.069000006 0.016664792 -0.061678957 0.100881435 -0.0792827 -0.043758035
-0.017599678 -0.047773354 -0.10463905 0.024876313 0.09382887 -0.07171152 -0.054003138 0.18276575
-0.069049954 -0.07952609 0.012247991 -0.030834192 -0.09190072 0.1085934 0.09566113 0.11673031
-0.18110445 -0.07896528 -0.031109696 -0.111071184 -0.0041930657 0.03726694 0.13131048 0.028172102
-0.07176924 -0.01437503 -0.05098735 -0.027349707 -0.042171847 -0.06571306 -0.018969484 0.05111433
-0.050182078 -0.08563938 0.04102848 -0.12449544 0.02528594 -0.10955669 -0.06355989 -0.118953675
0.04952063 0.0025635664 -0.08725015 0.063175194 0.0079712365 0.000237274 -0.08990905 -0.070109814
-0.03559292 -0.05470168 -0.06447631 0.040474672 0.08809803 0.0063906866 -0.18288876 -0.011061806
0.03164418 -0.028482918 0.1347667 -0.21992698 -0.07591747 0.057761982 -0.12352994 0.017290859
-0.093267396 -0.05708846 0.03628175 0.00512673 -0.08516779 -0.03361924 -0.09006367 -4.932067e-06
-0.1046075 -0.043820634 0.0419595 0.08136204 -0.0684187 -0.0023740942 -0.0628448 0.051210128
0.03527316 -0.023638276 -0.10063133 0.01782276 -0.11940546 -0.049729496 -0.010151453 -0.009196952
-0.13190868 -0.07134078 0.07016496 0.07041419 -0.1773179 -0.029871557 0.07458001 0.003917036
-0.08348895 -5.5941535e-05 -0.10218331 0.07320884 -0.002172153 0.040493134 -0.068159625 -0.036210813
0.00096603786 -0.1380306 -0.035071597 -0.14755902 -0.05146712 0.10487196 0.079889596 0.04735518
0.0075050946 -0.09710496 -0.102995835 0.025101574 -0.020047491 0.09828691 -0.050314646 -0.06871151
0.08004303 0.115586095 -0.031469587 -0.081877165 -0.059273314 -0.06877926 -0.12044844 -0.029563164
-0.18337147 -0.06205547 0.05685923 -0.059754558 -0.044494063 -0.009915788 -0.036658563 0.014066285
00000000: 9551 c2bc 7e52 bb3d 3dff 8ebd 8889 eb3c
00000010: 6c0b 4cbd cca2 533c 35dd b2bd bf4c 7ebc
00000020: 3427 8f3d d95c a83d 0d6f bfbd 12f8 bc3c
00000030: 1fe9 093d 8435 bb3c 4b0e 23be eec3 9fbc
00000040: 5f25 303c 53fe c1bd 5327 38bd 897b 0fbe
00000050: dadd 43bc 3f99 55bd cbb7 e23c 9d43 c53d
00000060: f506 bf3d bfec 91bd ecf6 9cbd 91a3 97bd
00000070: c7f9 65bd 1527 1fbd ec0c e5bd ece4 143d
00000080: 04ef a1bd 5cc6 0abe 3d09 4c3b 9bbe 293c
00000090: e20f 383d 7f75 8fbd 12f1 ef3c 0274 fa3a
000000a0: 3207 ec3d ec49 9cbd 8b64 b73c a3a1 a73d
000000b0: 4a04 a13d 1ea4 d93b e6d2 96bd b346 b9bb
000000c0: b999 253d 84b1 123d ce82 03bc e03c 463d
000000d0: e6d2 643d cf1f d43c ec33 673d 9801 153d
000000e0: 32e8 833d 4138 10be 3bb4 f7bd 72c2 133d
000000f0: c609 563d 9917 dcbc 8277 3cbd c3ae 8b3d
00000100: 52db 5c3c 742c 24bd 000b fcb8 5f7e acba
00000110: 4516 b1bd dfa4 96bd b170 27bd 297b de3c
00000120: 5c9a 95bd 4813 d33b d2b4 e23c 2875 f33c
00000130: fd44 83ba 89a9 573c 0f4f fd3c af1a 3fbb
00000140: dd18 92bd 7fe7 1bbd eaed acbd 5a99 bfbb
00000150: 8d87 c2bd 6d9b dcbc 356c 8e3d d9c6 a53b
00000160: d9af 7abd 3212 573d 9d11 ec3d 13d6 a8bd
00000170: 20d4 453e 734c f43c abd2 8fbd 4344 99bc
00000180: 573e 903c d24c 2fbd d7e3 173d 10a6 69bc
00000190: 65e0 5f3d 3d10 a6bd 91dd 693d 20bf 31bd
000001a0: 50c3 d5bc fb68 25bd 0600 513d 1651 3abd
000001b0: a526 b13d c821 dfbd 8632 f3bc 1ddc a93c
000001c0: 85e1 51bc 8ace 723d e04f 8d3d 9a84 883c
000001d0: 13a3 7cbd ed9a ce3d f85e a2bd a03b 33bd
000001e0: 332d 90bc fead 43bd 004d d6bd 69c9 cb3c
000001f0: 5a29 c03d 7ddd 92bd 6532 5dbd f226 3b3e
00000200: 106a 8dbd 93de a2bd ccab 483c fd97 fcbc
00000210: 7236 bcbd 3766 de3d fce9 c33d 4d10 ef3d
00000220: 7273 39be 8cb8 a1bd c3d9 febc 4a79 e3bd
00000230: fc65 89bb 38a5 183d 4176 063e 2ec9 e63c
00000240: c0fb 92bd 3f85 6bbc 1dd8 50bd 7e0c e0bc
00000250: 63bc 2cbd 9294 86bd e465 9bbc 425d 513d
00000260: b98b 4dbd b363 afbd 7b0d 283d 77f7 febd
00000270: 7624 cf3c 425f e0bd b02b 82bd fc9d f3bd
00000280: 25d6 4a3d 8201 283b 35b0 b2bd ff61 813d
00000290: ca99 023c c1cc 7839 3c22 b8bd bc95 8fbd
000002a0: e2c9 11bd de0e 60bd 280c 84bd c5c8 253d
000002b0: bd6c b43d f768 d13b 3147 3bbe 943c 35bc
000002c0: 549d 013d 0255 e9bc 4800 0a3e 8a34 61be
000002d0: 9e7a 9bbd d497 6c3d 44fd fcbd 8fa5 8d3c
000002e0: fa02 bfbd 97d5 69bd 2c9c 143d 21fe a73b
000002f0: 736c aebd 54b4 09bd 4d73 b8bd 227e a5b6
00000300: 753c d6bd 447d 33bd badd 2b3d 24a1 a63d
00000310: 1a1f 8cbd b196 1bbb c6b4 80bd b6c1 513d
00000320: 977a 103d 0fa5 c1bc cc17 cebd 0901 923c
00000330: da8a f4bd 28b1 4bbd 4852 26bc d0ae 16bc
00000340: 1213 07be 1d1b 92bd a6b2 8f3d 5135 903d
00000350: d392 35be 32b5 f4bc 67bd 983d 7b5a 803b
00000360: 41fc aabd c4a2 6ab8 7c45 d1bd 84ee 953d
00000370: ae5a 0ebb 21dc 253d 4697 8bbd ca51 14bd
00000380: b43d 7d3a e557 0dbe 3ca7 0fbd b619 17be
00000390: 30cf 52bd 1cc7 d63d 289d a33d 81f7 413d
000003a0: 4ced f53b f7de c6bd 7bef d2bd d1a1 cd3c
000003b0: a33a a4bc a64a c93d bb16 4ebd 9fb8 8cbd
000003c0: 9aed a33d 67b8 ec3d 41e6 00bd 37af a7bd
000003d0: 93c8 72bd 24dc 8cbd acad f6bd 732e f2bc
000003e0: bbc5 3bbe e02d 7ebd 39e5 683d 32c1 74bd
000003f0: 683f 36bd d475 22bc 4a27 16bd 4776 663c

weight f4 [1, 4, 1, 12, 12]
-0.15640487 -0.015570059 0.047739286 0.07402391 -0.1367091 0.026626786 0.027811531 0.039011322
0.037039634 0.035795067 -0.0682837 -0.053415786 -0.0867819 0.03391544 0.014845816 0.08584628
0.022958875 -0.021387126 -0.026702926 0.02281683 0.03437442 -0.016314372 0.04398878 -0.028628899
-0.026642548 0.050640747 -0.018509084 0.056964397 -0.051232275 0.025801454 0.061542783 -0.06463216
0.13443151 0.074504666 -0.053904742 0.13178101 -0.0056861416 -0.008271054 -0.11377122 -0.1590441
-0.03408872 0.011604574 0.008587125 -0.03547244 0.05055268 0.08143264 0.0027682337 -0.07387629
-0.0026426648 -0.015461466 0.18623003 0.15117367 -0.030872809 0.02540797 0.06017464 0.082767844
-0.022355873 -0.12716228 0.021376848 0.060482584 -0.07387498 -0.07443527 0.037297715 0.09057375
-0.13111924 -0.0073182844 0.20597702 0.027567798 -0.06444204 -0.027427956 0.006437454 -0.14359808
0.010805912 0.062312488 0.100649685 0.08643683 0.09670399 0.07226197 -0.025332186 0.04958943
-0.029561054 -0.09457334 0.028861549 -0.033560082 0.046310768 0.07272678 0.10730181 0.08199306
0.011782142 -0.14565217 -0.022904068 0.09270082 -0.103804134 -0.017578244 0.07867114 0.10039711
-0.01197005 -0.022856805 0.10136226 0.13583541 -0.023728725 0.07108497 0.027170375 0.08264783
0.02958745 0.054515168 -0.03472371 0.0524855 0.090262555 0.032202695 -0.094981246 -0.13127251
0.09719556 0.07262266 -0.13242358 -0.052588683 0.09811211 0.05762214 0.048575595 -0.014842334
0.0141883055 0.085279614 -0.030385254 -0.029546088 0.019036436 0.012606299 0.07317302 -0.052597705
0.016194088 0.021883491 -0.02682865 0.13761784 -0.07450629 0.010627015 0.0036324165 0.06284683
0.05441213 -0.04282353 0.020760939 -0.032325275 -0.05726265 0.002011266 0.0393138 -0.05910247
0.05423888 0.030599818 -0.1277331 0.0128736375 0.10210417 -0.024457116 -0.08283607 -0.04620457
0.054019134 -0.031476274 -0.04936489 0.043676883 0.12090425 0.0026474604 -0.021739611 0.055243436
-0.021321446 -0.0081604775 0.08353163 -0.036249958 0.045008488 0.085224874 -0.035806157 0.15905741
0.07997919 0.05675832 2.893775e-05 0.013442794 0.042752158 -0.076765105 0.01874956 0.014466535
0.029726308 0.12069925 0.06381831 -0.0073435004 0.052575037 -0.20412311 -0.10179219 -0.047222495
-0.01018986 -0.038558155 0.05668587 -0.08356266 -0.062170792 0.038746756 -0.06696466 -0.012679789
0.116597496 -0.030930733 -0.21161732 -0.22177143 0.023332782 0.05053407 -0.10459331 -0.19431439
0.16860852 0.20231107 -0.012811613 0.10735445 -0.100306 -0.0047136913 0.0077896654 0.045341875
0.0043849642 0.037091345 -0.083551705 -0.054601897 -2.7378199e-05 0.061382994 -0.078718744 -0.010960446
0.08431456 -0.05444005 -0.10123552 -0.120635144 0.065177314 0.043827273 -0.07245581 0.020915717
0.024006754 0.078149 0.010952607 0.030454049 -0.06467192 -0.108758666 -0.031397402 0.061831903
-0.16513944 0.014209174 0.018157769 -0.019606005 0.08243969 0.041202497 0.016749466 -0.023335677
0.089464664 0.11757664 -0.18477033 -0.15097664 0.13599196 0.2326233 -0.056680314 -0.21644567
0.0136799235 0.080221556 -0.011349242 0.09076321 -0.051731527 -0.020459179 -0.0811643 -0.056627728
00000000: 9928 20be 9019 7fbc 458a 433d d999 973d
00000010: 78fd 0bbe 6b20 da3c 02d5 e33c 56ca 1f3d
00000020: dfb6 173d d99d 123d 53d8 8bbd 83ca 5abd
00000030: b5ba b1bd ebea 0a3d de3b 733c 2dd0 af3d
00000040: 4014 bc3c 0e34 afbc 18c0 dabc 5cea ba3c
00000050: 31cc 0c3d b8a5 85bc 942d 343d 2787 eabc
00000060: 7941 dabc ac6c 4f3d 5da0 97bc 8053 693d
00000070: efd8 51bd 925d d33c 4914 7c3d de5d 84bd
00000080: 6aa8 093e e795 983d 38cb 5cbd 9af1 063e
00000090: d052 babb 5183 07bc e300 e9bd 75dc 22be
000000a0: 9da0 0bbd 1c21 3e3c 03b1 0c3c 8d4b 11bd
000000b0: 5410 4f3d 28c6 a63d 416b 353b 744c 97bd
000000c0: 8f30 2dbb 1752 7dbc 16b3 3e3e 45cd 1a3e
000000d0: f9e8 fcbc 6024 d03c af79 763d 3082 a93d
000000e0: aa23 b7bc d436 02be 801e af3c 96bc 773d
000000f0: c44b 97bd 8571 98bd 7dc5 183d bb7e b93d
00000100: 1f44 06be 38ce efbb a4eb 523e ddd5 e13c
00000110: 30fa 83bd 98b0 e0bc 47f1 d23b 600b 13be
00000120: 480b 313c 613b 7f3d 6c21 ce3d cb05 b13d
00000130: be0c c63d 15fe 933d 7285 cfbc 491e 4b3d
00000140: 062a f2bc abaf c1bd 0e6f ec3c 4c76 09bd
00000150: 5cb0 3d3d c7f1 943d 0dc1 db3d faeb a73d
00000160: e309 413c d825 15be 50a1 bbbc edd9 bd3d
00000170: 4397 d4bd 4000 90bc 561e a13d 009d cd3d
00000180: 071e 44bc 323e bbbc 0497 cf3d 7018 0b3e
00000190: be62 c2bc ff94 913d 6894 de3c 4443 a93d
000001a0: 6161 f23c 4c4b 5f3d 733a 0ebd 09fb 563d
000001b0: 93db b83d f9e6 033d 8785 c2bd 4d6c 06be
000001c0: 770e c73d 30bb 943d 0c9a 07be 3b67 57bd
000001d0: 00ef c83d 3105 6c3d 34f7 463d 432d 73bc
000001e0: 1176 683c 14a7 ae3d 7fea f8bc a30a f2bc
000001f0: 4df2 9b3c a68a 4e3c bcdb 953d b170 57bd
00000200: 77a9 843c 0245 b33c c2c7 dbbc b1eb 0c3e
00000210: c196 98bd ee1c 2e3c d60d 6e3b d7b5 803d
00000220: 41df 5e3d ba67 2fbd d812 aa3c 8267 04bd
00000230: 3e8c 6abd 72cf 033b 8207 213d 6e15 72bd
00000240: 9629 5e3d 78ac fa3c 77cc 02be f3eb 523c
00000250: fe1b d13d 4a5a c8bc f5a5 a9bd 0141 3dbd
00000260: 2b43 5d3d 44ed 00bd d732 4abd 88e6 323d
00000270: a69c f73d 0481 2d3b 4517 b2bc f146 623d
00000280: 50aa aebc 86b3 05bc a212 ab3d d67a 14bd
00000290: d25a 383d 618a ae3d 7aa9 12bd f2df 223e
000002a0: 21cc a33d 6a7b 683d 58bf f237 2a3f 5c3c
000002b0: e31c 2f3d 0637 9dbd ad98 993c 0c05 6d3c
000002c0: 9684 f33c 2b31 f73d 2db3 823d bfa1 f0bb
000002d0: ec58 573d a605 51be 6c78 d0bd 606c 41bd
000002e0: 5ff3 26bc 28ef 1dbd 712f 683d e622 abbd
000002f0: cda6 7ebd ebb4 1e3d c524 89bd e4be 4fbc
00000300: abca ee3d 7362 fdbc 36b2 58be 0d18 63be
00000310: 6424 bf3c d0fc 4e3d 0435 d6bd 5afa 46be
00000320: b6a7 2c3e a22a 4f3e cde7 51bc a6dc db3d
00000330: 3b6d cdbd 4f75 9abb 7340 ff3b 67b8 393d
00000340: bfaf 8f3b 18ed 173d 281d abbd 3da6 5fbd
00000350: 3caa e5b7 bc6c 7b3d 4b37 a1bd 7193 33bc
00000360: 1dad ac3d 88fc 5ebd 9154 cfbd 8f0f f7bd
00000370: af7b 853d 3a84 333d b663 94bd 7057 ab3c
00000380: d0a9 c43c 950c a03d 9072 333c c57a f93c
00000390: b672 84bd ddbc debd 909a 00bd 7343 7d3d
000003a0: 501a 29be 98cd 683c 9abf 943c c69c a0bc
000003b0: 24d6 a83d f3c3 283d 2d36 893c 762a bfbc
000003c0: 4039 b73d 05cc f03d 6f34 3dbe 9f99 1abe
000003d0: 7a41 0b3e cd34 6e3e 9e29 68bd efa3 5dbe
000003e0: c221 603c 334b a43d 2cf2 39bc 10e2 b93d
000003f0: 70e4 53bd 029a a7bc 7839 a6bd 7af2 67bd

weight f4 [12, 12]
0.28981006 -0.22108266 -0.13125068 -0.093077995 0.15621677 0.1296615 0.1357249 -0.06846055
-0.18965305 0.31757298 0.12154385 -0.023250952 0.14670202 -0.1805574 0.26645142 -0.015065981
0.13837771 0.05750688 0.2234425 0.07766514 -0.37522617 0.08819138 0.23691516 -0.3902211
-0.022517275 -0.07170804 0.25359195 0.2933066 0.15909748 0.20597234 -0.1195497 -0.22684766
-0.36446556 -0.2084038 0.17860983 -0.26141715 0.015272109 -0.14532386 -0.1626697 -0.091001146
0.07556937 0.058109775 0.065464035 -0.1396328 0.112513036 -0.067642875 0.23743755 -0.076689154
0.26441488 -0.2115171 -0.1485406 -0.25994015 -0.027269864 0.09495264 0.058738977 0.13479814
0.057805177 0.12936677 -0.20707272 0.17771317 -0.063525915 0.15051453 -0.12356807 0.061509404
0.27770138 0.055970863 -0.2378291 -0.15552743 -0.19845071 0.2172252 0.045755498 -0.089694455
0.014242499 -0.007048452 0.018188946 -0.16675457 -0.09994609 0.0908167 0.09710667 -0.17919125
0.122770816 0.21397819 -0.21163762 0.25271636 -0.09629675 -0.16159084 0.18009503 -0.15941642
0.057686377 -0.17615995 0.25219366 0.20748258 0.022441821 -0.02203147 0.07204787 -0.30707714
0.16169554 0.0043085744 0.3445591 -0.07299869 0.10746882 -0.26721922 -0.21710242 -0.16769877
-0.23581305 -0.24241354 0.16481023 -0.172006 0.013549111 -0.29837388 -0.021996653 0.23129855
0.27748752 -0.008683804 0.18163452 0.23913722 -0.2248742 -0.17408495 -0.18008465 0.022082437
-0.031705074 0.17044166 0.10385344 -0.2230128 0.30217573 -0.24914517 -0.16954578 -0.21947084
0.030251587 0.14374909 -0.17274575 -0.08184539 -0.06914923 0.11138468 -0.09788541 -0.13736315
-0.104467414 0.14314923 -0.00718201 -0.10977209 0.055041507 0.13732432 0.110307045 0.3060556
00000000: fc61 943e 7e63 62be 9466 06be ad9f bebd
00000010: 4af7 1f3e fcc5 043e 78fb 0a3e 0b35 8cbd
00000020: 6934 42be ed98 a23e fbeb f83d c878 bebc
00000030: 0e39 163e 0ae4 38be 526c 883e 4ed7 76bc
00000040: e3b2 0d3e 568c 6b3d 1cce 643e e70e 9f3d
00000050: a51d c0be af9d b43d e399 723e 0fcb c7be
00000060: 2676 b8bc aadb 92bd ced6 813e 482c 963e
00000070: 73ea 223e 6aea 523e 79d6 f4bd c14a 68be
00000080: 3b9b babe ce67 55be 7fe5 363e 78d8 85be
00000090: de37 7a3c c7cf 14be e392 26be cf5e babd
000000a0: 1dc4 9a3d 8404 6e3d 0212 863d e7fb 0ebe
000000b0: 3c6d e63d 5988 8abd d422 733e 340f 9dbd
000000c0: 6361 873e f097 58be 071b 18be e016 85be
000000d0: 0d65 dfbc 8876 c23d 4898 703d 8608 0a3e
000000e0: 1fc5 6c3d b978 043e df0a 54be 71fa 353e
000000f0: e019 82bd 7b20 1a3e 4211 fdbd 49f1 7b3d
00000100: e02e 8e3e b441 653d 7989 73be 9542 1fbe
00000110: aa36 4bbe 4870 5e3e 1e6a 3b3d bab1 b7bd
00000120: 5f59 693c b3f6 e6bb fc00 953c b6c1 2abe
00000130: 89b0 ccbd 1bfe b93d dddf c63d e97d 37be
00000140: 446f fb3d 191d 5b3e 88b7 58be 0a64 813e
00000150: 3b37 c5bd 1278 25be d56a 383e 0f3e 23be
00000160: 8d48 6c3d 4663 34be 871f 813e 5076 543e
00000170: e9d7 b73c 577b b4bc d58d 933d 3739 9dbe
00000180: 8493 253e f12e 8d3b 0d6a b03e 5680 95bd
00000190: 9d18 dc3d f5d0 88be 1950 5ebe 3ab9 2bbe
000001a0: fa78 71be 413b 78be 03c4 283e 5722 30be
000001b0: 17fd 5d3c 76c4 98be 5332 b4bc 87d9 6c3e
000001c0: d812 8e3e 8446 0ebc 66fe 393e 63e0 743e
000001d0: 6c45 66be 5343 32be 1c68 38be 3ae6 b43c
000001e0: 2edd 01bd 4288 2e3e 1db1 d43d 785d 64be
000001f0: c7b6 9a3e e91f 7fbe 699d 2dbe f7bc 60be
00000200: 2dd2 f73c f632 133e 43e4 30be 8e9e a7bd
00000210: 1d9e 8dbd a71d e43d 2578 c8bd eda8 0cbe
00000220: 03f3 d5bd b695 123e 1157 ebbb 31d0 e0bd
00000230: 3473 613d bf9e 0c3e a9e8 e13d 52b3 9c3e

bias f4 [12]
0.19298007 -0.062832154 0.080493495 0.0644385 -0.052638054 0.25024056 0.1475004 0.25960225
-0.22355841 0.050960362 0.15041839 -0.19167855
00000000: 919c 453e 25ae 80bd c6d9 a43d 55f8 833d
00000010: 009b 57bd 881f 803e 580a 173e 96ea 843e
00000020: 7fec 64be d0bb 503d 4707 1a3e 6247 44be

weight f4 [3, 12]
-0.020441685 -0.12800679 -0.0909602 -0.27307433 -0.15043007 -0.4208787 -0.2509162 0.23149493
-0.32098868 0.050393764 -0.31879583 -0.050968103 0.44814202 -0.3502976 -0.43962038 0.18283166
0.39670688 0.38166547 0.17314969 -0.1658052 -0.41263902 -0.39201164 0.32958728 0.44710967
-0.36554897 0.25486335 0.1378397 -0.34009176 -0.0013858934 -0.032993466 -0.0016749616 0.023616547
-0.0034285425 0.3073513 -0.17900644 -0.44655848
00000000: 5275 a7bc 3614 03be 5749 babd 66d0 8bbe
00000010: 570a 1abe 6a7d d7be 1778 80be 020d 6d3e
00000020: a158 a4be b169 4e3d 3539 a3be eec3 50bd
00000030: df72 e53e 355a b3be ec15 e1be 3938 3b3e
00000040: 2a1d cb3e a869 c33e 274e 313e d7c8 29be
00000050: 6c45 d3be c0b5 c8be aabf a83e 8feb e43e
00000060: 3c29 bbbe 737d 823e da25 0d3e 8220 aebe
00000070: dea6 b5ba 2824 07bd 638a dbba 7d77 c13c
00000080: 66b1 60bb 265d 9d3e 774d 37be 50a3 e4be

bias f4 [3]
-0.29474464 0.064492054 -0.2100872
00000000: c5e8 96be 6914 843d 1921 57be

weight f4 [3, 12]
-0.26576942 -0.18812986 -0.20615509 -0.22168633 0.01576025 -0.086462826 -0.015810845 -0.13499238
0.2649512 0.25449386 -0.28715938 -0.27592906 -0.11908505 -0.14807774 -0.09033546 -0.0022664822
-0.13871203 -0.16780287 -0.10718387 -0.029339418 -0.1834183 -0.028464621 -0.20725028 -0.16000724
-0.16074574 0.1380858 0.1407819 0.007836942 -0.25783655 -0.03045559 0.2039342 0.031388465
0.18015821 0.25555515 -0.2298993 0.19367273
00000000: ee12 88be 1da5 40be 521a 53be be01 63be
00000010: a41b 813c 6c13 b1bd bf85 81bc 713b 0abe
00000020: afa7 873e 054d 823e 8e06 93be 9346 8dbe
00000030: dde2 f3bd b1a1 17be cc01 b9bd 4389 14bb
00000040: 870a 0ebe 84d4 2bbe 3883 dbbd 3859 f0bc
00000050: 02d2 3bbe a32e e9bc 6b39 54be f0d8 23be
00000060: 889a 24be 5d66 0d3e 2129 103e 8466 003c
00000070: 2703 84be 007e f9bc 20d4 503e 3191 003d
00000080: 657b 383e 20d8 823e b96a 6bbe 2552 463e

bias f4 [3]
-0.3409123 0.2555982 0.069511086
00000000: 0f8c aebe c4dd 823e d45b 8e3d

weight f4 [3, 3]
-0.41241464 0.407002 0.4110943 -0.34524083 0.06918059 0.36665648 -0.08660005 0.39797083
0.49209407
00000000: 0328 d3be 9162 d03e f47a d23e 68c3 b0be
00000010: 8eae 8d3d 66ba bb3e 5e5b b1bd d5c2 cb3e
00000020: c1f3 fb3e

bias f4 [3]
0.44284764 0.53697 -0.5291285
00000000: edbc e23e de76 093f f774 07bf
