data/best/output/poster/train/19_stemgnn.pt (torch, 435920 bytes, 73 tensors)

weight_key f4 [135, 1]
000000 8e 3c 84 bb 72 87 21 3e 31 f2 7b be 1d 84 60 be
       -0.004035539 0.15774325 -0.24604107 -0.21925397
000010 0b ba e9 bd 3c 97 a3 3d 56 d8 bb bb 44 8c 71 3e
       -0.11412438 0.0798783 -0.0057325764 0.23588663
000020 0b 2a d8 bc 91 16 9f 3d e9 86 b8 bd 5b 45 71 bd
       -0.026387235 0.07767976 -0.09010107 -0.058904033
000030 79 a7 91 be 2f 7a 49 be 5e 83 fa bd 01 8a 39 3c
       -0.28448084 -0.19675516 -0.122320876 0.011324407
000040 8d 83 f0 3d 95 89 36 3e ea 0b 4e be ae 51 04 be
       0.11743841 0.17825921 -0.20121732 -0.12921783
000050 1e a0 dc 3d d5 03 7c 3e 97 f4 7d bd cf dc 62 3e
       0.107727274 0.24610837 -0.062000837 0.22154544
000060 0d 71 47 bd d9 18 ff 3c ec 05 8a 3e ca b8 8c be
       -0.048691798 0.031139778 0.26957643 -0.27484733
000070 b5 25 3f be 0b 0c 99 bd 18 a7 ea bd 31 01 84 3e
       -0.18666728 -0.07473 -0.11457652 0.2578216
000080 be 33 44 be a7 9f 0b be c3 ec 53 be e8 3e 8e be
       -0.19160363 -0.13635121 -0.20695786 -0.2778237
000090 2a a6 31 be 06 ae 82 3e f1 a9 07 3e 6a 28 14 3e
       -0.17348543 0.25523394 0.13248421 0.14468542
0000a0 2c e7 81 3c c4 0f 1c be e3 77 4c 3d 9c 62 8e be
       0.015857302 -0.15240389 0.04991902 -0.27809608
0000b0 7d 30 5d be 1c 90 1e be 56 5a 3f 3e 5f cc 31 3e
       -0.21600528 -0.15484661 0.18686804 0.17363118
0000c0 c4 e2 07 be 72 73 39 bc 61 c1 41 3e d8 31 97 3e
       -0.13270098 -0.011319028 0.18921424 0.29530215
0000d0 d6 2c f0 3d b7 83 24 3d 20 ab 4c 3e bc 2d 33 be
       0.11727302 0.040164676 0.19987154 -0.17497915
0000e0 4d a1 5f 3d 7d 53 6d be 42 ad 53 be b1 85 1d be
       0.054597188 -0.2317638 -0.20671561 -0.1538303
0000f0 5b be 08 3e 4b 37 f2 3d 0f 3f 36 be 41 25 b6 3d
       0.13353865 0.118269525 -0.17797492 0.08893824
000100 00 9d 25 3e 29 ae 21 bd 73 f8 1e 3c 69 c1 8a 3d
       0.16173172 -0.039472733 0.00970279 0.06775171
000110 c6 d4 3b 3e 9e 4e 91 3e e6 e7 6b be 30 34 e2 bd
       0.18342885 0.28380293 -0.23037681 -0.1104511
000120 25 52 eb 3d fb 9b 7a 3e ef 67 83 3e 05 3d 85 3e
       0.11490277 0.24473564 0.25665233 0.26023117
000130 cc 9f 6e 3d b6 6a 84 be 97 38 de 3c a1 3d 3f be
       0.058257863 -0.25862664 0.027126594 -0.18675853
000140 95 b2 8e be c8 df 86 3e e4 ba 66 3e 0f c9 97 be
       -0.27870622 0.26342607 0.2253223 -0.29645583
000150 f6 4b 64 3d fd 94 4f bd 68 40 4e bd 71 0b 0c be
       0.055736504 -0.050679196 -0.05035439 -0.1367624
000160 52 ca e6 3d 1c 1b 35 be 38 98 dd 3d b2 c8 18 3e
       0.11269058 -0.17686123 0.10820049 0.14920309
000170 3a dd 58 3e ca c6 e0 3d 3e 4e 97 be cf 1b 47 be
       0.21178141 0.10975416 -0.29551882 -0.19444202
000180 87 4f 17 3e 27 6c 7e 3d 2a 3c 6d be 63 1b 2f be
       0.14776431 0.06211486 -0.23167482 -0.17100291
000190 3f be 8e 3e e4 0d 4b 3e 3a 2f 06 be 97 6d 99 bd
       0.2787952 0.19829518 -0.13103953 -0.07491606
0001a0 7c 6a 90 be c6 6c 96 bb 38 2a 64 be 0a 9d 69 be
       -0.2820624 -0.0045906035 -0.2228173 -0.22813812
0001b0 a1 e1 80 bc eb bd 38 3d 4c fd f7 bd e1 37 35 3e
       -0.015732588 0.045102995 -0.121088594 0.17697097
0001c0 f6 22 39 be 09 a8 89 3e 73 fe 4e 3e 2d 2f 81 be
       -0.18079743 0.26886013 0.20214252 -0.25231305
0001d0 23 20 98 bd 75 26 4a 3c b5 19 2a 3d f2 63 8c 3d
       -0.074280046 0.01233827 0.041528422 0.068550006
0001e0 90 14 eb 3d e5 7f 82 3c e8 fc 15 be 3e 00 0f 3e
       0.11478531 0.015930125 -0.14647257 0.13964936
0001f0 e4 7e 92 be 5d 53 35 be d4 c8 9b bd 50 c3 15 be
       -0.28612435 -0.17707582 -0.07606664 -0.14625287
000200 65 70 d6 bd b2 4a 79 be c4 16 81 bd ae 3b 83 3d
       -0.10470656 -0.243449 -0.0630317 0.06407867
000210 ea c3 45 be ad a8 81 bc b2 56 58 3e
       -0.19313017 -0.015827501 0.21126822

weight_query f4 [135, 1]
000000 d7 80 90 bd 58 10 d5 ba 11 ab 90 3d 08 ad 3d 3e
       -0.07055824 -0.0016255481 0.07063878 0.18523037
000010 bb 4a a3 3e de c8 d1 3e f6 ba a0 3e a9 56 cf 3e
       0.31892952 0.40973562 0.3139264 0.40495804
000020 d3 bd cb 3d b6 d6 16 be ff 67 b7 bc 75 f0 a3 3e
       0.099483155 -0.14730343 -0.022388456 0.32019392
000030 31 a5 ec 3d 2f d2 f9 bc 53 30 e3 bd 78 81 25 be
       0.11554945 -0.030495731 -0.110932015 -0.1616267
000040 31 e0 09 be a9 d1 62 3d 3e 96 8e 3e 68 60 8d 3e
       -0.13464428 0.05537573 0.27849 0.27612615
000050 0e a0 2e be 71 40 9a 3e 6d 15 ed bd ab 9b 5c 3d
       -0.17053244 0.3012729 -0.11576352 0.053859394
000060 ea 6e 66 bb 43 47 76 3d 68 0d 72 3d 61 df 18 be
       -0.0035161325 0.060126554 0.059094816 -0.14928962
000070 bb e6 0e be 06 93 8f 3d 17 e2 f5 3d a8 0c 9a bc
       -0.13955204 0.07010464 0.12006014 -0.018804863
000080 96 2e 69 3e c0 5b 1a be b7 d7 c4 3d 30 25 c1 3e
       0.22771677 -0.15074062 0.09611457 0.37723684
000090 75 b5 9e bb 17 a5 c4 3e 9f 8f 65 3e 5f aa 1a be
       -0.0048434087 0.38407204 0.22418068 -0.15104054
0000a0 66 4c 9c 3e 6a da a9 3d 67 16 76 bc 67 c0 b5 3e
       0.30527037 0.08293612 -0.01501999 0.35498354
0000b0 7e 7e fa bd 6f 2a 19 3e ca c2 63 3d ce 07 a9 3e
       -0.12231158 0.14957593 0.055605687 0.33013767
0000c0 0a 6c 4d 3e 5e 59 85 3e 22 45 64 3e 22 26 3e 3d
       0.20060745 0.26044744 0.22291997 0.046423085
0000d0 10 c0 62 3d 0d 68 02 be 6f 7b 8e 3e 2d f6 b4 3e
       0.055358946 -0.12735005 0.27828547 0.35344067
0000e0 47 43 a4 3e 24 29 bc bd 1e 09 06 3e 62 01 bc bd
       0.3208258 -0.091875345 0.13089415 -0.09179951
0000f0 9f b8 3c bd 3b b5 63 bd be 53 60 3e 82 0a 74 bd
       -0.046074506 -0.055592757 0.21906945 -0.059580334
000100 4e b2 e3 3d 34 5c 05 3e 97 3a 9e 3e 7d 22 db bd
       0.11117993 0.13023454 0.30904076 -0.106999375
000110 32 0e b0 bd 64 ad 5f bd b6 b8 a6 3e 70 50 39 3c
       -0.085964575 -0.054608718 0.32562798 0.011310682
000120 4c af bc 3e da 78 67 3e 5a cc 1f 3e b0 81 ed 3d
       0.3685249 0.22604695 0.15605298 0.115970016
000130 1b 2d 72 3d 59 37 1e 3e 60 be 4b 3d 08 91 ec 3d
       0.059125047 0.15450801 0.049742103 0.115511
000140 9a 4c 1f 3e 46 f3 ea bd 2b 14 1d bd af 02 b7 3e
       0.15556565 -0.11472182 -0.03834931 0.35744235
000150 64 e2 fb bd a2 22 c5 3d c7 92 d2 3e 1b 91 66 3e
       -0.1229904 0.09625746 0.41127607 0.22516291
000160 0a 59 01 3e 0d 33 0f be 15 ce 87 3e a7 51 be bd
       0.12631622 -0.13984318 0.26524416 -0.09292918
000170 bc b9 0a 3d 4f d8 97 3c 8f a5 97 3d eb 98 f8 3d
       0.033868536 0.018535761 0.07404625 0.12138542
000180 98 a1 b9 3e 4f 03 1e 3e a3 3f c4 3e 9b f1 98 3e
       0.362561 0.1543095 0.383298 0.2987183
000190 ce 8c 90 bd 32 3f 80 3e 0d 01 be bd 17 76 08 bc
       -0.07058106 0.25048214 -0.09277544 -0.008328936
0001a0 b3 1d 52 3e 4c 78 5d 3e fe 44 ae 3e 7d ff b1 3c
       0.20519142 0.21627921 0.34037012 0.021728272
0001b0 08 17 f2 3d a9 8c 8a 3e 7f ec 2d be 72 e9 a9 3e
       0.11820799 0.2706044 -0.16984747 0.33185917
0001c0 57 64 03 be 3f f5 f8 3d 44 13 89 3d 9f 8e 1f bd
       -0.12831245 0.12156152 0.06693128 -0.038954373
0001d0 17 58 20 3e 98 02 ba 3e 4d ec fc 3c 77 b5 70 bd
       0.15658604 0.36330104 0.030874396 -0.05876681
0001e0 bd 7a 00 3c 3a 98 34 be a0 c7 80 3e 44 c8 ca bc
       0.007841763 -0.17636195 0.25152302 -0.024753697
0001f0 3b 2d a5 bd fd 1d 5d bd 69 7e 93 3e 4a 7d 8c 3e
       -0.08065268 -0.053983677 0.2880738 0.27439338
000200 f6 98 b0 3e 51 69 66 3e c3 02 95 3c 5b 09 0d 3d
       0.344917 0.22501113 0.018189793 0.03443275
000210 ac 72 52 3e 5c 09 bb 3e c5 1b 50 3e
       0.20551556 0.36530578 0.20323093

weight_ih_l0 f4 [405, 3]
000000 d8 ab 81 bd c6 60 81 bd bb 67 d5 bd 0c 6b 79 3d
       -0.06331605 -0.06317286 -0.10420176 0.060893103
000010 05 95 bd bb f3 b5 0b bd 9f 44 89 3d 8c 0f 82 bd
       -0.005785587 -0.034109067 0.067025416 -0.063506216
000020 c7 68 87 bc fd 2c 4d 3c 6a 98 18 bc 02 1f 8f bd
       -0.016529454 0.012522933 -0.009313682 -0.06988336
000030 40 22 bf bb 8d ce 07 3e 6f 73 a0 3d e9 98 ef 3d
       -0.0058329403 0.13262387 0.07834517 0.11699087
000040 a9 04 87 3c b8 86 93 3d 73 57 e5 bc 3f fc 46 bc
       0.016481714 0.0720343 -0.0279958 -0.012145101
000050 98 68 79 bd 38 c0 e7 3c 31 ca dc 3c f2 ef 0a bb
       -0.060890764 0.0282899 0.026951881 -0.0021200147
000060 25 f7 51 bd f3 cd ad bd 44 5f e4 3c 2a 59 16 bd
       -0.051261086 -0.08486547 0.027877457 -0.036706127
000070 aa fe 7b 3d 09 8c 63 bb 82 82 22 bd ec 75 8f 3c
       0.061522163 -0.0034720919 -0.039675243 0.017512284
000080 2e ed 2e bd 1b 38 e0 3d 21 3e db 3d f0 92 d9 3c
       -0.04270666 0.10948201 0.107052095 0.026559323
000090 53 d1 f4 3c 22 91 57 3d 83 f6 4d 3d b9 a0 20 bd
       0.02988497 0.052628644 0.05028392 -0.039215777
0000a0 52 2e cb bd 4b b6 2c bd b4 0d c1 3d c9 f5 06 3d
       -0.09920944 -0.042166036 0.09426442 0.032949243
0000b0 87 c6 c6 3d 8d 65 68 3d fd 49 38 bd 4d 1b 92 3a
       0.09705835 0.05673747 -0.044992436 0.0011147052
0000c0 5e db 91 bd 79 c1 cd bd 25 62 cd bd bb b9 bf 3d
       -0.07121919 -0.100466676 -0.10028485 0.09361597
0000d0 b4 28 7b 3c 4d e1 b7 3d 00 23 bd 3d bf 35 e4 3d
       0.015329529 0.089785196 0.09235191 0.11143064
0000e0 79 40 af 3d 1c f3 cc 3d b0 02 04 3e 3d 60 40 3d
       0.08557219 0.10007307 0.1289165 0.04696678
0000f0 dc c0 80 3c 25 d3 64 3c 4a b7 32 3e 91 7a 41 3d
       0.015716963 0.013966356 0.17452732 0.04723603
000100 76 90 88 bd 67 66 d8 3c 3f 02 aa 3d 39 b2 d5 3d
       -0.06668179 0.026416017 0.0830121 0.10434384
000110 6e f9 bf 3d 52 5e 3b 3d 1b 2f 26 bd 21 a3 50 bd
       0.09373747 0.045744248 -0.040572267 -0.05093682
000120 b5 65 e1 3d 61 f1 b3 3d 16 92 46 bc ca 49 98 3d
       0.11005727 0.08786274 -0.012119791 0.07435949
000130 93 f7 1e 3d 3e 3e 34 3d 79 3a a0 bd 2c 8c 75 38
       0.038810324 0.04400467 -0.07823653 5.8543097e-05
000140 af 10 62 bd c6 1e 8b 3d bd d5 6c bc 3b 39 0e 3d
       -0.055191692 0.06792979 -0.014455256 0.034722548
000150 9c 22 e7 3a 04 aa bd 3c b6 ad 2e bd b3 1f 2b bd
       0.0017634216 0.023152359 -0.042646132 -0.041778278
000160 46 dd 12 be 94 da 82 bd 7f e8 fe bd 9c cc 1a be
       -0.14342222 -0.06389347 -0.12446689 -0.15117115
000170 e3 c7 0a be 10 11 0e 3e ec d1 f0 3d 66 b5 1b 3e
       -0.13552813 0.13873696 0.117587894 0.15205917
000180 08 65 0b 3e d3 6f 19 bc 21 c7 11 3c a6 b6 8b ba
       0.13612759 -0.00936504 0.008897574 -0.0010659292
000190 62 d2 30 bd 67 26 94 3d ea 32 45 bd 6a be d1 bc
       -0.043169387 0.07233887 -0.04814426 -0.025603492
0001a0 b3 f0 88 bd 88 d4 10 bd 14 fa ac 3d 4f 9b ac 3d
       -0.06686535 -0.035358936 0.08446136 0.0842806
0001b0 1f b3 97 bc 39 d6 5b bc 74 eb 4e bb 64 de e1 bd
       -0.018518029 -0.013417774 -0.0031573446 -0.11028746
0001c0 19 54 4f bd 35 65 41 bc d2 61 0f 3a 3d 84 6e 3d
       -0.05061731 -0.011803915 0.00054695935 0.05823158
0001d0 e3 b7 8b 3c 68 0d ae 3d e5 fc 12 3b 69 13 97 3d
       0.017055457 0.08498651 0.002242857 0.07376749
0001e0 50 37 e5 3c b2 fa 1c bb d3 e3 f9 bc 84 84 d9 bd
       0.027980477 -0.0023953137 -0.030504143 -0.106209785
0001f0 3d c9 fe bd 00 5b 71 ba 37 41 56 3d a7 2a 9b bc
       -0.12440727 -0.00092069805 0.052308287 -0.018941237
000200 ab f3 72 bd 6a 63 61 3d aa de 2f 3d b1 b3 ce bb
       -0.05931441 0.05502645 0.04293696 -0.006308042
000210 4f d5 ee bc 8d a7 b9 3d f9 f0 3f 3d 7f fb 59 3c
       -0.029154448 0.09065161 0.04686067 0.01330459
000220 a1 06 25 3e ce e1 13 3e a5 ce 82 bc 2f 8f 82 3d
       0.1611581 0.14441606 -0.015967676 0.06374966
000230 35 45 09 bd 88 4a 91 3b 6f 14 ba 3d ce b6 ad 3c
       -0.033513267 0.0044339336 0.09085929 0.021205332
000240 d1 f2 6a bb 4c 09 ff 3c a7 98 15 3d 9b f0 28 3c
       -0.0035850296 0.031132363 0.036522534 0.010311271
000250 f4 91 0c 3d 47 8c d8 3d 69 24 f1 3b 84 a3 4e bd
       0.03431888 0.10573631 0.0073590768 -0.05044891
000260 57 5d e8 3b f0 43 32 3d 85 a6 38 3d 09 09 9c bd
       0.007091205 0.04352182 0.04508068 -0.07618911
000270 d4 0f 3f bb 2c 6d 52 bd 33 86 c5 bc 63 fa 2e 3d
       -0.0029153721 -0.051373646 -0.024111843 0.042719256
000280 c6 1f 4e bd a4 25 2f 3d 10 a4 c3 3d 8d 82 e6 3c
       -0.05032327 0.042760506 0.09552777 0.028138423
000290 b6 20 0f bd e2 6e 7a bd 97 c7 3a bc 24 ff c3 bd
       -0.034943305 -0.061140902 -0.011400125 -0.095701486
0002a0 b8 97 a0 3c be 6f cf bd 71 01 d9 bd c6 38 af bd
       0.019603595 -0.10128735 -0.10595978 -0.085557505
0002b0 1b 10 9e bc 6b f7 64 3d 46 fa 3b bd b5 e2 da 3d
       -0.019294789 0.05590002 -0.045892976 0.10687772
0002c0 db 8e 4b 3a 22 2b 50 bd d2 b7 91 bd 49 4d 1b be
       0.00077651226 -0.050822385 -0.07115139 -0.151662
0002d0 52 b4 ab 3d 1b 72 73 3d 5b c8 c9 3d 6c 70 8a 3c
       0.08384003 0.05943499 0.09852668 0.01689931
0002e0 bd 80 aa bd b5 54 3a 3d 57 00 4b bd 6e fb 5b bc
       -0.08325336 0.04549094 -0.04956087 -0.013426645
0002f0 79 70 fc bd 27 82 06 bc 23 18 8b bd aa 07 8b bc
       -0.1232614 -0.008209742 -0.06791713 -0.016971428
000300 86 7f c3 bb be 18 bb bd 66 bb 78 3b e5 83 02 3e
       -0.0059661297 -0.091355786 0.0037953495 0.12745626
000310 8b 73 c1 3d 67 84 cf 3c 1a 14 4e 3c 30 8d 59 3d
       0.09445866 0.025331689 0.012578035 0.053113163
000320 71 c0 f0 3d ea 1c d5 3d ea 4e 8c 3d 19 5d 15 3c
       0.11755455 0.104059055 0.06850989 0.0091164345
000330 ea 99 04 3b 29 99 e6 bd 51 92 d0 bd 65 9d 9a 3d
       0.0020233341 -0.11259682 -0.10184158 0.07549552
000340 1a 6d 5b bc fb 20 9d 3d f9 2a 87 bd 97 02 43 bd
       -0.013392711 0.07672306 -0.06599993 -0.04760989
000350 b5 a9 9a bd 21 0f 04 3e 40 d3 9a 3d 40 5a 1a 3e
       -0.075519 0.12896396 0.07559824 0.1507349
000360 c6 1b d2 3d 0f f5 c6 3d ae 3b 56 3d 9b 53 37 bd
       0.102592036 0.0971471 0.05230301 -0.044757467
000370 e8 8e 17 bd ee d0 ea bb 67 d3 a7 3c 74 7f a8 bd
       -0.03700152 -0.0071660196 0.020486547 -0.08227435
000380 74 fc 4d 3d fe 8b bb bc 1d 67 af bd 43 cc 76 bd
       0.050289586 -0.022893902 -0.08564589 -0.060253393
000390 10 30 91 3d d9 e8 95 3d db d6 ae bd ae 4b bc 3d
       0.07089245 0.07319803 -0.08537074 0.09194122
0003a0 c3 af 98 3d 9b 15 a9 3d 02 4d e7 3d 62 1f a9 bb
       0.07455399 0.08256074 0.11293985 -0.005161212
0003b0 ff db 8f 3d 98 dd 95 3c b7 df 2b bd 84 71 4d 3c
       0.07024383 0.01829414 -0.041961398 0.012539271
0003c0 47 e4 01 3c 16 f9 af 3d 15 09 0b 3c 9b 91 67 bc
       0.007927961 0.08592431 0.008486052 -0.014133836
0003d0 db 39 23 3d 08 79 48 3d 48 83 94 bc 28 ff 00 3d
       0.039850097 0.04894355 -0.018129006 0.031493336
0003e0 2f 04 97 3d 2c 2a d8 bc 8f cc 09 3c c1 68 1e bd
       0.07373845 -0.026387297 0.008410587 -0.03867412
0003f0 fc 57 23 3c 33 cf a8 bd 4d 27 91 bd 7e 5d e4 bc
       0.009969708 -0.08242645 -0.07087574 -0.027876612

weight_hh_l0 f4 [405, 135]
000000 ef 36 80 3d 6c 51 a5 3d 3b e3 7b bd f6 da 04 3e
       0.06260478 0.080721706 -0.061496 0.12974152
000010 ae ab 9a bb 89 77 a4 3c 8f 81 18 3d 4b 1f 67 bd
       -0.004720173 0.02007653 0.03723293 -0.056426328
000020 04 3b 44 bd 11 17 f8 3c ee 57 94 3d ae 01 1d bd
       -0.047907844 0.030284436 0.07243334 -0.03833168
000030 ec 4a cf bd 47 72 01 3d 49 b1 a1 3c 08 45 e5 3d
       -0.10121712 0.031603124 0.019737856 0.11194807
000040 df 6f dd bd 88 33 d4 bb e2 31 64 bd 15 45 b1 bd
       -0.10812353 -0.0064758696 -0.055711634 -0.086557545
000050 3e d4 73 bc 53 64 89 bd 79 48 90 3d ff ec 9e bd
       -0.014882145 -0.067085885 0.07045073 -0.07760047
000060 39 a1 a9 3d 5d 8f ef bc 56 d9 11 3d ff 83 10 be
       0.08282704 -0.029243166 0.03560766 -0.14112853
000070 88 f9 89 bd 8d 73 8c bc 43 35 33 be 66 4c be 3c
       -0.067370474 -0.017144943 -0.17500786 0.023229789
000080 c0 b3 3c 3c 33 0b 38 3b fd 28 e8 bd d0 22 cd 3d
       0.011517465 0.0028082847 -0.11335943 0.100164056
000090 cc 3b 4b 3d 92 ed ac bc 14 34 02 bd 4f 44 68 3d
       0.049617574 -0.021109376 -0.031787947 0.05670577
0000a0 f9 26 2b 3e f6 d8 b5 bd a0 6a ea bc 39 6c 43 3c
       0.16714086 -0.08879273 -0.028615296 0.011927658
0000b0 0a 31 bc bd 72 49 f6 3d 13 91 a8 bc a2 40 ad 3d
       -0.09189041 0.12025727 -0.02057699 0.08459593
0000c0 a6 ab f6 bc 13 91 1c bd 88 54 57 bd 94 ca 4c bd
       -0.030111145 -0.03822429 -0.05257085 -0.04999788
0000d0 f8 a2 8f 3d a2 34 ae 3d e3 ba 55 bd 5a 00 dc 3d
       0.07013506 0.08506133 -0.052180182 0.107422546
0000e0 3a af d1 3c 58 9e 62 3d 59 66 bb 3d 9a 7d 78 3d
       0.02559625 0.05532679 0.09150381 0.060666658
0000f0 35 a6 67 3d 42 ff e2 bc c0 f4 77 bd 9c 1b 53 3d
       0.05655499 -0.027709607 -0.060536146 0.051540002
000100 70 ec 94 3c 2a a1 cd bc 4a c5 a4 3c 02 c1 3a 3d
       0.018179148 -0.025101263 0.020113606 0.045594223
000110 af 64 5f bc 37 29 c4 bd 23 44 b9 bc 98 95 50 bd
       -0.013634845 -0.095781736 -0.022615498 -0.050923914
000120 46 03 d3 bd d5 74 8d 3b 90 07 9a 3c d0 ef 9f 3c
       -0.10303359 0.004316906 0.018802434 0.019523531
000130 07 1b 7b 3d 81 45 85 bd 64 d4 93 bd c7 6c de 3d
       0.061305072 -0.065073974 -0.07218245 0.108605914
000140 a5 8a eb 3b 2b e8 1e bd 33 81 68 bd 28 e0 c4 bd
       0.0071881586 -0.03879563 -0.05676384 -0.09613067
000150 66 dd 40 3c b9 22 ca bd 05 6a b2 3c df b9 af 3d
       0.0117715355 -0.09869904 0.02177907 0.08580374
000160 68 3c b5 bb 53 8b a6 bd de cf 78 3d c4 e8 b1 3d
       -0.0055308826 -0.08132043 0.060745113 0.08686975
000170 37 1b 06 be 50 31 5e 3d 94 39 17 3c 8f 9a ab 3c
       -0.13096319 0.054246247 0.009230036 0.020947723
000180 02 16 25 bc 73 64 97 bd 43 7e ce 3c 71 d9 3f 3d
       -0.010076048 -0.07392206 0.02520669 0.046838228
000190 18 66 40 bd 95 5e 91 bd 87 5d 31 3d a7 fc 91 3d
       -0.046972364 -0.07098118 0.043302085 0.07128268
0001a0 94 5e 7c 3d 1b 1f c5 3a 0b 2e 3e 3d be b9 f6 3a
       0.061613634 0.0015039177 0.04643063 0.0018823666
0001b0 01 e1 95 3c 4b 97 8a 3d e1 bb b6 bc b9 44 09 bd
       0.018295767 0.06767138 -0.022306385 -0.033512805
0001c0 7d 2b db bc 9c b0 57 bd f0 38 97 3c 20 68 75 bd
       -0.026754135 -0.052658662 0.018459767 -0.059913754
0001d0 cd 08 9d 3d 04 5f 8a bc fe fe 53 3d 68 7d b2 3d
       0.07667694 -0.01689101 0.05175685 0.087153256
0001e0 ba 23 0c 3c c8 56 53 bc 5d 74 64 3a 0f a9 84 bd
       0.00855344 -0.012899108 0.0008714849 -0.06477558
0001f0 c1 1d 8c 3d c3 d1 f4 bb bf 28 0e bd 46 7e c2 bd
       0.068416126 -0.0074712946 -0.034706827 -0.09496741
000200 a5 a4 72 3d ff 24 c6 bd e6 5c 48 3c 64 e9 aa 3c
       0.05923905 -0.09675025 0.01222918 0.020863242
000210 c9 67 af bd 6e 8c e5 bd 43 45 84 bd bd eb 61 3d
       -0.08564717 -0.112084255 -0.06458523 0.05515646
000220 5d 80 0e be e5 18 0f be 09 64 a0 3c b2 1f 6f bc
       -0.13916154 -0.1397434 0.01957895 -0.014594959
000230 c6 76 bc 3d c7 1e e9 3c 48 05 96 bc a2 36 00 3b
       0.09202342 0.028457059 -0.018313065 0.0019563814
000240 d4 6b cf bc f1 5c c5 bd ea b6 67 bd d3 d9 93 3d
       -0.025319971 -0.09636868 -0.056570925 0.07219281
000250 00 e8 4e bd d3 fe f5 bd cc d6 29 be d8 18 5d 3d
       -0.05051422 -0.120114945 -0.16585845 0.05397877
000260 c1 2e 49 3d f7 0b 18 3e 00 6c a1 bc fb 31 cc bc
       0.049116854 0.14848314 -0.019704819 -0.024926176
000270 d7 69 09 be 4b 7c d6 bd b9 c5 a2 3c e8 d1 a1 bc
       -0.13419281 -0.10472926 0.019869672 -0.019753411
000280 73 4e 3c bd 0a 91 a9 bd 66 f1 b4 3d 8a 81 12 bd
       -0.045973253 -0.08279617 0.088351056 -0.03576807
000290 4b 1f 05 be 52 d2 5e bc cf 8d 98 bd 5c f2 19 be
       -0.13000219 -0.013599949 -0.07448923 -0.15033859
0002a0 8f 5c 05 be c5 07 0e 3e 92 b9 ac bc 9b 1c a7 3d
       -0.1302359 0.13870151 -0.02108458 0.08159753
0002b0 a7 28 18 bb 25 95 ca bc bd 69 fe 3d bc a2 d6 bd
       -0.002321759 -0.02472932 0.12422512 -0.10480258
0002c0 8c 81 ff bd 07 a3 90 3c 77 17 d2 3c e1 f7 61 3d
       -0.12475881 0.017655862 0.025645955 0.055168036
0002d0 8c 87 82 bb e4 b0 13 be 57 ee ba 3b b2 19 85 3d
       -0.0039834436 -0.14422947 0.005704682 0.064990416
0002e0 cf 9a 34 3d d0 b0 c2 3d 78 75 ed 3d ca 05 0c be
       0.04409295 0.095063806 0.11594671 -0.13674083
0002f0 2e b3 00 bd f2 3d c9 3d 28 fa e3 bd 4a d9 f4 3b
       -0.03142088 0.09826268 -0.11131698 0.007472192
000300 16 53 fe bd 00 1d 9d bc 3a 89 87 bd c3 4a e4 bd
       -0.12418191 -0.019178867 -0.06617971 -0.11147072
000310 57 56 7c 3c 66 70 9d 3c 2a 7a 1c be c1 2c aa bd
       0.015401444 0.019218635 -0.15280977 -0.083093174
000320 02 9e 14 be 13 10 05 be 07 60 5b 3b 18 30 09 bd
       -0.145134 -0.12994413 0.0033473985 -0.03349313
000330 4d 49 f0 3a 84 b1 f6 3d 38 d3 f8 3c bb 47 50 bd
       0.0018332392 0.12045577 0.030374154 -0.050849658
000340 62 97 08 be 42 2c 3d bc a8 74 95 3d cb 7b 10 3d
       -0.13338998 -0.011546196 0.07297641 0.03527431
000350 28 98 fd 3d 85 cc 2e be e0 2a 34 ba 2c 02 ba bc
       0.12382537 -0.17070206 -0.0006872844 -0.022706114
000360 19 a1 a0 ba a8 6d 49 3d 45 f4 d7 bb 13 93 26 bc
       -0.0012255042 0.049176842 -0.0065903985 -0.010166901
000370 a3 ba 19 be 7d 9e a5 3c ec e3 2c be 01 e6 4c bd
       -0.15012603 0.020217175 -0.1688382 -0.050024036
000380 5b f2 9a 3d f1 79 d3 3c 92 09 70 3d 72 57 88 3d
       0.07565757 0.025814982 0.058602877 0.06657304
000390 47 e2 bc bd 43 77 33 3d 8d c8 0b 3c 36 d4 bb 3c
       -0.092228465 0.04381491 0.008531702 0.022928338
0003a0 20 67 b2 3d cf 54 01 3e b3 e1 19 be 9b 72 26 3c
       0.08711076 0.12630008 -0.15027504 0.01015916
0003b0 6c 46 ae 3c e1 36 16 bc 32 1b a3 bd 74 88 fc 3b
       0.021273814 -0.009168358 -0.079641715 0.007706696
0003c0 46 fb ce bb 89 7e d9 3d b7 c4 3c be 57 5c 70 bd
       -0.006316575 0.10619838 -0.18434416 -0.058681812
0003d0 08 0b f0 bc 06 81 8b 3d 12 a1 ce 3c 20 f7 ed 3d
       -0.029302135 0.06811719 0.025223289 0.11619401
0003e0 a1 8a 70 3d 22 1d dc bc ac c2 3b bd 5e fa 8c bc
       0.058725957 -0.02686936 -0.04583995 -0.017209228
0003f0 42 44 9e 3c 27 83 b9 3b d3 c7 a8 3c 86 64 0a 3a
       0.019319657 0.0056613865 0.020603096 0.00052792614

bias_ih_l0 f4 [405]
000000 2f a3 bb bc c8 8f e9 3d ca 26 9d bb 0b c9 aa 3d
       -0.02290496 0.11404377 -0.004795884 0.08339127
000010 46 ae a2 bb 58 b1 fa 3c 89 13 20 bd 83 c2 33 bd
       -0.0049646227 0.030602142 -0.03908113 -0.043886673
000020 ab f8 f6 3d 8d c6 75 3d bd 65 b5 bc d3 d4 24 3d
       0.120591484 0.060003806 -0.02214324 0.040242027
000030 f2 d3 20 3d 73 ce 70 bd 68 27 18 be 11 dd 06 3d
       0.039264627 -0.058790635 -0.14858782 0.03292567
000040 cb c4 dd bd 30 7e 13 bd 42 7f d6 bd 44 90 b4 bd
       -0.10828551 -0.036009014 -0.10473491 -0.08816579
000050 ee 5c d8 bd 4c 1d 75 bc 75 2a 1d 3c eb 9b ef 3d
       -0.105646 -0.014960598 0.009592642 0.11699661
000060 f3 3a 09 3d a0 0c 96 bc 02 8e e0 bd 5d 99 cf bd
       0.033503484 -0.018316567 -0.10964586 -0.101366736
000070 6c 3d a3 bd 5c 17 19 be ad e9 13 3c cc 17 8c 3c
       -0.079707 -0.14950317 0.009027881 0.017101191
000080 38 8b 74 3d 1a cb a9 bd 1a c5 0c bc 36 d0 66 3d
       0.05970308 -0.08290692 -0.008591915 0.05635091
000090 88 82 3d bd ab 47 d0 bd d6 fe 6a bd 63 30 a1 3d
       -0.046267062 -0.101699196 -0.057371937 0.07870557
0000a0 2d a0 89 3d 0a 62 25 3d 42 e8 f0 bd 9d 90 92 3d
       0.06720004 0.0403767 -0.1176305 0.07156489
0000b0 f2 81 45 3d 8f a4 f2 3a 5c 9f 48 3c 92 a0 ae bd
       0.04821963 0.0018512177 0.0122450255 -0.0852672
0000c0 1f 9e 65 3d 1b 7e 7a 3c 2c 59 a7 3c ac 1f 22 bd
       0.056059 0.015288855 0.020428263 -0.039580986
0000d0 74 18 a1 3d b9 60 1e 3c d1 aa b7 3d 27 2e a2 bd
       0.07865992 0.009666615 0.089681275 -0.07918959
0000e0 81 03 86 3d 88 38 8e bd 97 a6 ec bd c4 b7 91 3d
       0.06543637 -0.06944376 -0.11555212 0.07115129
0000f0 37 f1 d5 bc 19 7e e7 bc 72 b2 bd bd 50 57 da 3d
       -0.026115997 -0.02825837 -0.09262551 0.10661185
000100 5f fc 9f 3c 79 ee 9c bd a7 60 b7 bd 13 15 a5 bd
       0.01952952 -0.076626725 -0.08953982 -0.0806066
000110 81 50 71 bd 58 a4 86 bc 92 d8 61 bc 4d b8 d5 3d
       -0.058914665 -0.016435787 -0.013784545 0.10435543
000120 4a 4d 92 bd 7f e1 02 bd 3a 4c 0d 3d 37 77 0b 3d
       -0.07143648 -0.03195333 0.034496523 0.03404924
000130 4c 73 20 be 9d bd e5 3c d7 89 ad 3d dd 2b bd bc
       -0.15668982 0.028044516 0.084735565 -0.023092205
000140 32 1f c2 bd a3 54 65 3c 5c 74 c2 bd b5 d9 51 3d
       -0.09478606 0.01399723 -0.0949485 0.051233012
000150 5f bd a6 bd ff 0c 4e bd 51 c3 b3 bd 8c cf f5 bd
       -0.081415884 -0.050305363 -0.08777488 -0.12002477
000160 5b 86 1d bc f3 29 ae 3c 9b 84 85 3d 0a 1d ef 3c
       -0.009614552 0.021260237 0.06519433 0.029188652
000170 ca be b6 3d bd 15 37 3d a4 3e 23 3c 2c 74 94 3c
       0.08923109 0.044698466 0.009963665 0.018121801
000180 ac ac 75 3c 9b 44 94 bd fc bd 3b bc a1 8d f2 3c
       0.014994781 -0.07239648 -0.01145887 0.02960855
000190 ae 56 05 3c ad 3d 86 3c bf 97 8f 3d 77 55 cf bd
       0.008138342 0.016386831 0.07011365 -0.10123723
0001a0 3f ba 02 3e 9d 05 27 3d 9c 59 b3 bd a9 59 59 3d
       0.1276636 0.040776838 -0.08757326 0.053064022
0001b0 b0 9c 2e 3d 05 aa 81 bd 6b 41 70 3c 2d cb 49 bd
       0.042629898 -0.06331257 0.014664034 -0.04926603
0001c0 2d ab a9 3c 24 e9 e8 3d 1f 78 e2 3d b8 1d f7 3c
       0.020711506 0.11372593 0.110580675 0.030165538
0001d0 dc 28 b8 bc c3 ab f1 3d c8 c2 19 3d eb 0a 02 3d
       -0.02248042 0.11800339 0.037539274 0.031748693
0001e0 29 6d 0c be ff 27 f9 bc 7b 85 84 3c 33 ff d5 3c
       -0.13713516 -0.03041458 0.01617693 0.026122665
0001f0 7f 4c 2a 3e 93 82 a2 3c d8 56 b8 3c 37 84 39 3e
       0.16630743 0.019837653 0.022502348 0.18116842
000200 45 19 96 bd b3 fe 04 3d a8 c3 39 3d 5d 37 e4 bc
       -0.073290385 0.032469463 0.045352608 -0.02785843
000210 a4 f9 26 bd 1b 64 12 3e 40 23 87 3d c3 73 20 3e
       -0.04076542 0.14296 0.0659852 0.1566916
000220 86 56 37 be b3 27 bd bd 31 61 8f 3d 5d 25 b1 bd
       -0.179041 -0.09236088 0.0700096 -0.086497046
000230 22 cc a8 3d 90 77 0d 3e 28 ac ce 3d d9 7f e9 3c
       0.0824206 0.1381514 0.1009143 0.028503345
000240 b1 fa 8e bd 90 2a 73 bd ef d9 b2 3c 9b 4e 6e 3c
       -0.06981409 -0.059366763 0.021832434 0.014545108
000250 3d 4a 3e bc c2 0b 04 bc 7a f5 6f bd 4b 1b 01 3e
       -0.0116143795 -0.008059444 -0.058583714 0.12608068
000260 d6 5d 15 3d 97 4a 6c 3d 79 45 58 bb 74 fd aa bc
       0.036466442 0.057688322 -0.0033000393 -0.020872809
000270 6b 96 6d 3d d2 b8 ac bc 3a ee 43 be 85 f9 d1 bd
       0.058004778 -0.021084223 -0.19133845 -0.1025267
000280 bf cd 8b 3d 64 e2 b6 bd 88 85 95 bc 12 9b d7 3d
       0.06826352 -0.08929899 -0.01825215 0.10527624
000290 13 ab b7 bd 2a af a1 3b 93 8c b5 ba a6 d3 02 bc
       -0.08968177 0.0049342113 -0.0013851098 -0.007985031
0002a0 aa b1 ca bd c9 a8 1d bd 2b 1b 84 bd 7e 70 3b bd
       -0.09897168 -0.038491044 -0.064504944 -0.045761578
0002b0 f4 21 d3 3d 0c e2 ee 3c 61 6d 52 be 5e 84 86 bd
       0.103092104 0.029160522 -0.20549537 -0.06568216
0002c0 17 e6 31 bd 31 4a a7 bd 97 bd eb 3d b4 c7 34 be
       -0.04343232 -0.08168448 0.11510771 -0.17654306
0002d0 81 30 f2 bc 6a a7 5a 3d fe 2a 91 bd 8f 39 81 3c
       -0.029564144 0.053382315 -0.07088278 0.015774516
0002e0 8f 8b 43 bd 61 05 9d bd 80 ff 7f 3d a6 a5 0b be
       -0.047740515 -0.076670416 0.062499523 -0.13637409
0002f0 bc 9b 3d bd 8a f4 f4 bc 53 16 ed 3c e2 33 cc bd
       -0.046291098 -0.029901762 0.02894131 -0.09970833
000300 38 6f 53 bd 53 f0 bd bc ff 79 8f 3d d8 f4 dc bc
       -0.05161974 -0.023185885 0.07005691 -0.02697222
000310 04 f8 0d bd c9 f9 fa 3b 13 82 05 be 22 53 c8 bd
       -0.034660354 0.0076591712 -0.130379 -0.09781481
000320 ca db 8e bd 5d d4 b8 bd e8 56 20 3d 74 a2 8e 3c
       -0.06975515 -0.0902488 0.03914538 0.017411448
000330 5a 68 4c be 36 eb 12 3d 8b ee 95 3b 6c b1 5f bd
       -0.19961682 0.035868846 0.0045755557 -0.054612562
000340 55 54 ac bc 0d 9f 2c bc 0a 08 1e 3d fe 50 7d bc
       -0.021036306 -0.010535968 0.038581885 -0.015461205
000350 53 fa 19 be 64 7f 88 bd b3 40 80 bd 85 bf a9 3d
       -0.15036897 -0.06664923 -0.062623404 0.082884826
000360 7a 94 de bd ee 5a 96 bd 40 c0 03 be bb 88 d6 3d
       -0.108681634 -0.07341562 -0.12866306 0.10475298
000370 d3 32 06 3d 3b a9 86 3b 9d 37 e8 bd 87 59 13 3d
       0.032763314 0.0041095293 -0.113387324 0.03597405
000380 a4 aa 23 3d 8c a0 9e 3c e7 03 83 bd b9 c6 b4 bc
       0.039957657 0.019363664 -0.06397229 -0.022067415
000390 66 b1 99 bd 38 82 bd bc 26 e3 12 bd c2 0c 8e 3d
       -0.07504539 -0.023133382 -0.035861157 0.06936027
0003a0 28 e0 03 bc b8 97 0f 3d 73 fe d4 bd 01 33 a1 bd
       -0.0080490485 0.0350568 -0.10400095 -0.07871056
0003b0 dd 32 0b bd b1 2e c5 3d 0a c7 2c be 22 73 62 bd
       -0.033984054 0.09628046 -0.16872802 -0.05528558
0003c0 b5 b5 ad 3d f0 5c fa ba da d3 20 bd 43 aa 87 bd
       0.084819235 -0.0019101184 -0.039264537 -0.06624272
0003d0 f7 5f be bd 04 1c 6a 3d 77 76 2e bd 0f 13 a5 bd
       -0.092956476 0.057155624 -0.042593446 -0.08060276
0003e0 5a 53 06 be ab 96 a9 bd 93 a9 ed 3c 50 ad 1c 3d
       -0.13117734 -0.08280691 0.029011523 0.03825122
0003f0 12 09 04 be bd f2 7d bd bc 16 9a bc b0 fe ea bd
       -0.12894085 -0.06199907 -0.018809669 -0.11474359

bias_hh_l0 f4 [405]
000000 7d be c0 bc d3 03 bc 3d 43 77 8d bd d5 63 ed 3c
       -0.023528332 0.09180417 -0.06907513 0.028978268
000010 ea 82 49 bd a6 c6 5c 3c 3e ec b2 bd 8b a8 7f bc
       -0.049197115 0.013475096 -0.08736466 -0.015604149
000020 bf ef 8f 3d fc b1 a7 3d 77 2f be bd 29 44 c0 3c
       0.0702815 0.08188245 -0.09286397 0.023470001
000030 3a 5d 0a 3d 8f 8e ba 3c 1c 82 22 be 32 61 9b bc
       0.033780314 0.022773055 -0.15869945 -0.018967245
000040 85 40 34 3c 13 98 c1 bd e5 4d 37 bd 1b 2d 0f be
       0.011001711 -0.09452834 -0.04475202 -0.1398205
000050 fa f9 37 bc 4c f9 52 bd b4 0d e4 3c 65 50 c5 3d
       -0.011229033 -0.05150728 0.027838565 0.09634475
000060 c4 ef bf 3d 4c 09 91 bd 4a a8 9b bd 21 8a 96 bd
       0.093719035 -0.07081851 -0.07600458 -0.07350565
000070 8a ed 65 bd 01 2b 1d bd 3c 22 e5 bd 64 da 17 3d
       -0.056134738 -0.03837109 -0.1118817 0.037073508
000080 48 fe a0 bd f8 ee 09 be 58 80 33 3b 5d 5d 34 3c
       -0.07861 -0.13470066 0.0027389731 0.011008588
000090 0c d8 39 3d bf 4b 8f bd 18 81 f1 3c 7a da 0c 3b
       0.045372054 -0.06996869 0.029480502 0.0021492527
0000a0 3e e8 eb 3d 6a d4 9b bd 1e 9b b7 3c 17 47 a7 3d
       0.11518906 -0.07608874 0.022412833 0.08167856
0000b0 14 f1 a0 3d a5 fb ee 3b 1b 05 95 bd e7 0f a1 bb
       0.07858482 0.007293182 -0.072763644 -0.004915226
0000c0 c3 9c 25 3d db 54 14 3d c2 cb fd bb d3 98 47 3d
       0.040432703 0.036213737 -0.007745237 0.04872973
0000d0 4c 54 66 3d 79 b5 cf 3c e4 04 68 3d 79 e8 17 3d
       0.056232736 0.025355088 0.05664529 0.037086938
0000e0 08 65 84 3d 1b 9c 0f be e0 bb f6 bd 6a 2e 13 3d
       0.06464583 -0.14024393 -0.12047553 0.035932936
0000f0 5c 93 55 3d 02 55 d9 bc 72 d7 3c bd 48 54 8c 3d
       0.052142486 -0.026529793 -0.046103902 0.06852013
000100 e0 0f 68 3c c1 e0 21 bd 53 26 0a 3a 59 18 95 ba
       0.014163941 -0.039520983 0.0005269993 -0.0011375054
000110 fb 8c af bd 3a 9c 93 bd 8b 5f 27 bd 90 e1 dd 3c
       -0.08571812 -0.07207532 -0.0408626 0.027085096
000120 e8 74 95 bd e2 71 da 3b 87 ed e2 3c 66 8c f3 3c
       -0.07297689 0.006666408 0.027701152 0.029730033
000130 84 1c 01 ba cb 0b 64 3c 26 43 fd 3c 44 61 35 bb
       -0.00049252086 0.013918827 0.030915808 -0.0027676383
000140 da 29 92 bd 97 41 1b bd bb f2 ac bd 9e c1 ba bb
       -0.07136889 -0.03790435 -0.08444735 -0.0056993505
000150 c1 30 c2 bd 0a 0c db bc ad 5b 8f 3d 00 e0 c2 3b
       -0.09481955 -0.02673914 0.06999908 0.005947113
000160 e8 f9 77 bd f1 2e 59 3d 5e d2 ec 3d 26 5a a9 bd
       -0.060541064 0.053023282 0.11563562 -0.082691476
000170 f6 cd 45 3e cf b7 f7 3c 45 55 90 bd c1 0b 9a bc
       0.19316849 0.030239014 -0.07047514 -0.018804433
000180 34 57 90 3c 44 77 2f bd 2e e3 17 3d d0 0e 5c bc
       0.017619707 -0.04283835 0.03708189 -0.013431266
000190 84 98 5f 3d 34 10 a6 bd 7f 69 69 3d 95 35 2f bd
       0.05458881 -0.08108559 0.056985375 -0.04277571
0001a0 62 29 d7 bc f4 c8 23 bd f6 10 51 3d ca 7d 37 bd
       -0.02626485 -0.039986566 0.051041566 -0.044797696
0001b0 a6 9d b2 3d 9a a7 df bd 99 f5 f2 bc ed c9 ac 3c
       0.08721475 -0.10920639 -0.029658126 0.02109238
0001c0 5e 9c 51 bc 56 13 72 3d c6 c5 8d 3d 02 b7 89 3c
       -0.0127936285 0.05910047 0.06922488 0.016810898
0001d0 f2 b3 7b bd be df ce 3d 8f 83 a1 bd 61 ef 33 bd
       -0.061450906 0.10101269 -0.07886421 -0.04392946
0001e0 5c c5 8b bc f1 ce 41 bd 55 57 d5 bd e3 d4 ca 3c
       -0.017061882 -0.047316495 -0.10417048 0.024759715
0001f0 21 d2 c0 3d f2 b6 91 bd ac dc 5b bd b7 2a 3b 3e
       0.09415079 -0.07114972 -0.053677246 0.18278013
000200 fd 13 8c bd a1 9c a2 bd 52 de 47 3c 4c 3d f8 bc
       -0.0683975 -0.07940031 0.012199001 -0.030302666
000210 ae 68 bc bd 48 f4 df 3d ef bd c4 3d 8f 01 f2 3d
       -0.091996536 0.10935265 0.096065395 0.118167035
000220 38 bc 3a be b9 09 a4 bd 24 4c 01 bd 7e f1 e4 bd
       -0.18235862 -0.08009667 -0.031566754 -0.111788735
000230 e5 ff a1 bb c7 52 16 3d 45 88 06 3e 24 a8 e0 3c
       -0.004943835 0.036700036 0.1313792 0.027423926
000240 c0 fb 91 bd f0 5b 79 bc 02 ac 53 bd 40 76 e3 bc
       -0.071280956 -0.0152196735 -0.05167771 -0.027766347
000250 fc 03 2b bd f9 c1 88 bd e0 8d a2 bc fa 50 50 3d
       -0.041751847 -0.06677622 -0.019843042 0.050858475
000260 8e 35 4c bd b2 b6 b0 bd 37 bc 24 3d e0 57 00 be
       -0.04985576 -0.08628596 0.04021856 -0.12533522
000270 50 19 d0 3c 9b 3f e1 bd 27 3b 82 bd 09 62 f5 bd
       0.025402695 -0.1099846 -0.06358939 -0.11981589
000280 58 56 4f 3d 13 07 ce 3a b0 5d b4 bd 78 68 81 3d
       0.050619453 0.0015718661 -0.08806932 0.06318754
000290 92 a4 04 3c 98 20 c5 39 60 d1 b9 bd ec c2 90 bd
       0.008095877 0.00037599052 -0.09073138 -0.070684284
0002a0 56 2f 16 bd d2 3d 5d bd cc 42 86 bd 9f 08 23 3d
       -0.036666237 -0.054014035 -0.06555709 0.039803144
0002b0 e0 67 b4 3d 42 4f de 3b 75 c4 3b be 06 68 30 bc
       0.08808875 0.0067843506 -0.18336661 -0.010766989
0002c0 56 7f 06 3d 21 fb ec bc 78 1b 0a 3e 17 1d 61 be
       0.03283628 -0.028928341 0.13487041 -0.21983753
0002d0 6e 8c 9d bd e8 7c 68 3d 37 10 ff bd 1a 86 8d 3c
       -0.076928005 0.056759745 -0.124542646 0.017275859
0002e0 8c c8 c0 bd ca 0b 68 bd b2 12 13 3d 02 4b 79 3b
       -0.09413251 -0.056651868 0.0359065 0.0038039093
0002f0 1e 7d ad bd e7 f6 0a bd 50 19 ba bd cf d4 15 ba
       -0.0847113 -0.03392687 -0.09086859 -0.000571561
000300 5e 99 d7 bd be 55 35 bd 0c 74 2c 3d 5d bd a5 3d
       -0.10527299 -0.044271223 0.04210286 0.08092759
000310 5e 5a 8b bd 0c 25 14 bb 74 c4 81 bd cd e0 56 3d
       -0.068043455 -0.002260509 -0.063362986 0.05246048
000320 0c f7 0d 3d 0f c1 c8 bc 9f 4f cf bd ab a1 8b 3c
       0.03465943 -0.02450612 -0.101226084 0.017044863
000330 8f 7c f7 bd b4 da 4b bd 8e f5 25 bc 8c 76 0f bc
       -0.120843045 -0.04976912 -0.010129346 -0.008756291
000340 cc 34 08 be fa 9d 92 bd 60 d8 8f 3d d1 b5 91 3d
       -0.1330139 -0.07159038 0.07023692 0.07114757
000350 5e d2 36 be a3 63 f5 bc 4f c3 98 3d be f6 92 3b
       -0.17853686 -0.029954737 0.07459127 0.0044849804
000360 7a 26 ab bd c4 bf 45 b9 66 f3 d1 bd 53 03 96 3d
       -0.08356948 -0.00018858822 -0.10251503 0.07324853
000370 0e 58 51 bb c7 0d 24 3d 53 78 8e bd 62 b0 0f bd
       -0.0031943354 0.0400522 -0.06956544 -0.03508032
000380 72 26 b8 39 80 6e 0e be 8e 29 0e bd 4f fb 16 be
       0.0003512386 -0.1390934 -0.0347076 -0.14744304
000390 f7 c3 56 bd 43 2c d7 3d 0c 9d a3 3d 52 85 42 3d
       -0.05243298 0.10506489 0.07988939 0.047490425
0003a0 2d 78 f6 3b 16 d1 c6 bd 7e 55 d5 bd 76 ef d6 3c
       0.0075216503 -0.09707849 -0.10416697 0.02623723
0003b0 bd 77 a0 bc 61 6b c9 3d 24 7b 52 bd 49 c7 8b bd
       -0.019588346 0.09834934 -0.051386967 -0.0682512
0003c0 47 d1 a2 3d 16 ca ec 3d e2 1f 05 bd 34 66 a9 bd
       0.07950073 0.11561982 -0.03250111 -0.08271447
0003d0 f7 3c 70 bd e6 11 8d bd 69 2f f9 bd 69 8f f2 bc
       -0.05865189 -0.068881795 -0.12167246 -0.029609399
0003e0 a0 85 3b be 7a d8 81 bd 98 4f 6a 3d b0 60 72 bd
       -0.18312693 -0.06340118 0.057204813 -0.05917424
0003f0 bf 21 37 bd 63 de 39 bc a0 b0 14 bd 0b a6 55 3c
       -0.044709917 -0.011344525 -0.036301255 0.013040076

weight f4 [1, 4, 1, 12, 12]
000000 fa aa 20 be b0 21 84 bc 78 53 45 3d db 85 98 3d
       -0.15690222 -0.016129345 0.048175305 0.07447406
000010 3f 17 0c be 16 e0 d5 3c e0 31 e6 3c 92 72 21 3d
       -0.13680743 0.026107829 0.028099954 0.039415903
000020 ac af 15 3d 08 b8 10 3d a5 fe 8b bd 34 78 5d bd
       0.036544487 0.035331756 -0.06835679 -0.054069713
000030 79 65 b1 bd 0e 46 0b 3d 0b 82 71 3c ed a1 af 3d
       -0.086619325 0.034002356 0.014740477 0.08575807
000040 d0 e1 bc 3c 7b ab ae bc 9b 4a dc bc 01 89 b9 3c
       0.023056895 -0.021322003 -0.026891043 0.022648336
000050 fc dd 0c 3d 80 12 85 bc fd 86 34 3d 81 76 e9 bc
       0.03439139 -0.016244173 0.044074047 -0.02849889
000060 a0 16 dc bc 56 97 4e 3d 8a 2c 97 bc 31 aa 69 3d
       -0.026866257 0.050437294 -0.018453855 0.057047073
000070 02 0e 52 bd 05 1f d2 3c ee 63 7c 3d d7 16 84 bd
       -0.05128289 0.025649557 0.061618738 -0.06449669
000080 bd a9 09 3e c7 4d 98 3d f7 39 5d bd ee c6 06 3e
       0.13443656 0.0743671 -0.054010358 0.13161823
000090 3e 24 bf bb cf 27 0c bc fe bb e7 bd 0c 3d 22 be
       -0.005833178 -0.008554413 -0.113151535 -0.158436
0000a0 bf 78 0c bd a1 0b 3a 3c 4c 23 15 3c 12 ed 0e bd
       -0.03429484 0.011355312 0.009102654 -0.034894057
0000b0 59 f9 4c 3d 14 bc a5 3d a8 7b 31 3b c4 f3 97 bd
       0.050042484 0.08092514 0.0027081762 -0.074195415
0000c0 4c ed 34 bb b3 f1 7a bc e1 9f 3e 3e 4b aa 1a 3e
       -0.002760726 -0.015316415 0.18615676 0.15104024
0000d0 fb ed fd bc 6a cf cf 3c 99 14 76 3d 0a 45 a9 3d
       -0.030997267 0.025367457 0.060078237 0.08265121
0000e0 b3 2a b5 bc d1 1b 02 be e1 6c ad 3c fc 38 78 3d
       -0.022115087 -0.12705924 0.021170082 0.06060122
0000f0 32 05 98 bd be 90 98 bd c4 9f 18 3d e7 53 b9 3d
       -0.07422866 -0.074494824 0.03726174 0.09049206
000100 6a 86 06 be d7 3d f2 bb 96 09 53 3e 20 42 e2 3c
       -0.13137212 -0.007392626 0.20609125 0.027619421
000110 17 79 83 bd 60 d2 df bc 8b 03 cb 3b 0d fb 12 be
       -0.064195804 -0.027321994 0.0061954907 -0.14353581
000120 0c d4 36 3c e3 99 80 3d 77 65 cd 3d 61 36 b0 3d
       0.011158954 0.062793516 0.100291185 0.08604122
000130 53 fe c5 3d 96 ba 94 3d d2 86 d1 bc 23 c5 49 3d
       0.09667649 0.07262151 -0.025576983 0.04926027
000140 be c2 ed bc 8a e9 c0 bd 78 68 eb 3c 3d 10 07 bd
       -0.029023524 -0.09419544 0.028736338 -0.03297447
000150 c2 1c 3c 3d 3f d9 94 3d 83 e8 db 3d dc fd a7 3d
       0.045925863 0.07267999 0.107377075 0.08202717
000160 bf fd 39 3c 4d 7c 15 be f9 26 ba bc 0d 28 be 3d
       0.011352002 -0.14598198 -0.022723662 0.09284983
000170 0a 72 d4 bd d8 07 90 bc f3 9a a0 3d 24 a9 cd 3d
       -0.10373314 -0.017581865 0.07842054 0.10042027
000180 3d 3b 45 bc b2 ab b9 bc 02 3a cf 3d 5c d9 0a 3e
       -0.012038049 -0.022664879 0.10118486 0.13559479
000190 3e e2 c2 bc 2b b2 91 3d 61 3e dd 3c 6d df a8 3d
       -0.023789521 0.07114061 0.027007284 0.0824574
0001a0 96 a3 f5 3c 2c 09 60 3d 97 2d 0f bd c1 d2 57 3d
       0.02998523 0.054696247 -0.034955587 0.052691225
0001b0 8f 92 b8 3d ed c8 02 3d 93 76 c1 bd a4 e6 05 be
       0.09012329 0.0319299 -0.09446444 -0.13076264
0001c0 d8 b2 c6 3d b3 49 94 3d b8 24 07 be ca 59 55 bd
       0.097020805 0.072406195 -0.13197601 -0.052087583
0001d0 a8 16 c8 3d 8e 3d 6a 3d b3 b4 46 3d c8 fb 77 bc
       0.09769946 0.05718761 0.048512172 -0.015135713
0001e0 bd 42 64 3c b4 2b ae 3d a9 cf f7 bc 6d bc f0 bc
       0.013931927 0.085044295 -0.030250387 -0.029386723
0001f0 fc 4d 9b 3c b0 f3 4a 3c 0e 19 96 3d 45 ad 56 bd
       0.018958084 0.012387201 0.073289976 -0.052411336
000200 65 d5 83 3c ad af b1 3c 95 87 dc bc 27 ae 0c 3e
       0.016092965 0.021690214 -0.02692012 0.13738309
000210 43 42 98 bd 58 96 2f 3c 8b c2 68 3b 38 94 80 3d
       -0.074345134 0.010716997 0.0035516347 0.062782705
000220 6c 33 5f 3d c2 35 2f bd d0 a9 a8 3c 8e ff 04 bd
       0.0544924 -0.042775877 0.020588785 -0.03247028
000230 c5 97 6a bd 57 5a 06 3b b7 5e 21 3d 8e 8d 71 bd
       -0.057273645 0.0020500624 0.039396968 -0.058972888
000240 64 64 5d 3d 56 48 fa 3c c2 81 02 be fa 61 57 3c
       0.054050818 0.03055207 -0.12744811 0.013145918
000250 8a ad d0 3d f9 d8 c9 bc f6 fc a8 bd 48 d2 3b bd
       0.1018935 -0.024639593 -0.082513735 -0.045854837
000260 e9 58 5c 3d 38 e2 01 bd bc 8f 4a bd 7c 38 32 3d
       0.05379573 -0.03170988 -0.049453482 0.0435109
000270 e4 02 f8 3d 3d 59 42 3b 6b cf b8 bc 51 f2 5e 3d
       0.12109926 0.002965524 -0.022559842 0.05443031
000280 7e 5d ad bc 2d 32 f9 bb 63 4b aa 3d 04 59 17 bd
       -0.021162745 -0.0076048584 0.0831516 -0.036950126
000290 bd 01 3c 3d d3 04 b0 3d a8 4a 13 bd 1b c8 23 3e
       0.045900095 0.0859467 -0.03595987 0.15994303
0002a0 c1 90 a3 3d 52 30 69 3d 4b 1f 4b 38 4d 17 5c 3c
       0.07986594 0.056930847 4.8428115e-05 0.01343329
0002b0 a3 54 2e 3d b5 43 9d bd ec 4c 9a 3c 7f 4c 6d 3c
       0.042561185 -0.0767893 0.018835507 0.01448357
0002c0 77 a5 f3 3c d2 85 f7 3d 70 39 82 3d 9f 73 e8 bb
       0.029741986 0.12086071 0.063586116 -0.0070938612
0002d0 f9 e7 56 3d a5 41 51 be 1e ca cf bd 84 30 40 bd
       0.05246732 -0.20435198 -0.10145973 -0.046921268
0002e0 6d ad 29 bc b5 d0 1e bd 77 51 69 3d b8 7d aa bd
       -0.010356289 -0.038773257 0.056962457 -0.0832476
0002f0 42 2d 80 bd b8 ac 1d 3d 78 1d 89 bd 57 f1 53 bc
       -0.06258632 0.038494796 -0.06695074 -0.012935958
000300 10 12 ef 3d a3 39 fe bc 64 cd 58 be 29 2a 63 be
       0.11673367 -0.031033343 -0.211721 -0.22184052
000310 ca 04 c1 3c 8d e6 4f 3d 0a 5f d6 bd f5 0c 47 be
       0.023561854 0.05075698 -0.10467346 -0.19438536
000320 ea c0 2c 3e a4 26 4f 3e 04 ef 4d bc f6 b2 db 3d
       0.16870466 0.20229584 -0.012569193 0.107274935
000330 08 53 cd bd e2 50 99 bb ea 28 07 3c a8 83 3b 3d
       -0.100256026 -0.0046788314 0.008249501 0.045779854
000340 12 44 8c 3b 81 89 16 3d 7b c6 aa bd 82 72 5e bd
       0.0042805756 0.036752228 -0.083386384 -0.054308422
000350 f8 54 1e ba fc eb 79 3d f1 66 a0 bd f3 30 39 bc
       -0.0006039883 0.061016068 -0.078321345 -0.011303174
000360 aa 16 ad 3d 97 c4 5f bd 1c 74 cf bd 3b 1d f7 bd
       0.084515885 -0.054630842 -0.10129568 -0.12066122
000370 05 1d 86 3d 8f db 33 3d 32 a8 94 bd 75 e0 aa 3c
       0.06548504 0.04391056 -0.07258643 0.020858983
000380 48 9e c4 3c 4e db 9f 3d 06 8b 37 3c 6e 00 f8 3c
       0.024001256 0.07805501 0.011202579 0.030273642
000390 b7 27 84 bd 61 90 de bd 63 85 ff bc 84 1c 7e 3d
       -0.064528875 -0.10867382 -0.031191533 0.062038913
0003a0 16 ff 28 be 0c 52 68 3c 65 f8 94 3c 33 df 9f bc
       -0.16503558 0.014179718 0.01818485 -0.01951561
0003b0 0a 40 a8 3d a8 13 28 3d ac 76 8c 3c 87 a2 c0 bc
       0.082153395 0.04103437 0.01714643 -0.023515
0003c0 00 59 b7 3d 1e 7c f0 3d 15 17 3d be d9 79 1a be
       0.08952522 0.117424235 -0.18465836 -0.15085544
0003d0 c8 58 0b 3e c6 2f 6e 3e 50 08 68 bd 20 89 5d be
       0.13608086 0.23260412 -0.056648552 -0.2163434
0003e0 9b df 5d 3c a6 df a3 3d 19 b1 35 bc 0d 69 b9 3d
       0.013542081 0.08001642 -0.011089587 0.0905324
0003f0 bd 3a 54 bd a3 4a a9 bc f8 ae a5 bd c1 f1 66 bd
       -0.05181383 -0.020665472 -0.08090013 -0.0563829

weight f4 [12, 12]
000000 70 6c 94 3e d3 3b 62 be 75 33 06 be f0 38 be bd
       0.2898898 -0.22093134 -0.13105567 -0.09288204
000010 d1 e3 1f 3e 62 9e 04 3e 89 47 0b 3e fd e8 8b bd
       0.15614249 0.12951043 0.13601507 -0.06831548
000020 fe 63 42 be bc 76 a2 3e 39 64 f9 3d fc ea be bc
       -0.18983456 0.31731212 0.12177319 -0.023305409
000030 f0 37 16 3e ee 3d 39 be 94 4c 88 3e e7 89 7a bc
       0.14669776 -0.1809003 0.26620924 -0.015291668
000040 10 d7 0d 3e 09 4c 6c 3d 53 80 64 3e fa 91 9e 3d
       0.13851571 0.0576897 0.22314577 0.077426866
000050 69 05 c0 be 76 15 b5 3d 9b 30 72 3e ac 02 c8 be
       -0.37504128 0.08841984 0.23651354 -0.39064538
000060 fe 9c b8 bc e9 44 93 bd e5 b5 81 3e 8b 0d 96 3e
       -0.022535797 -0.07190878 0.25334087 0.29307207
000070 fb 1a 23 3e dc 28 53 3e e8 95 f5 bd c2 8b 68 be
       0.15928261 0.20621055 -0.11991483 -0.22709563
000080 b3 7d ba be 87 26 55 be f0 a4 36 3e d5 12 86 be
       -0.36424026 -0.20815478 0.17836356 -0.26186243
000090 e7 be 7b 3c 06 a0 14 be 59 8d 26 be 01 5f ba bd
       0.015365339 -0.14514169 -0.16264857 -0.09100152
0000a0 f1 ea 9a 3d 2e 53 6e 3d fa 17 86 3d ab 01 0f be
       0.07564343 0.058184795 0.06547542 -0.1396548
0000b0 2a 86 e6 3d 0d 89 8a bd bb 6c 73 3e 2d d3 9c bd
       0.112560585 -0.067644216 0.23771946 -0.07657466
0000c0 6a 74 87 3e 81 58 58 be 4e f7 17 be 4b 08 85 be
       0.26456004 -0.21127512 -0.14840433 -0.2598289
0000d0 5b e5 df bc 47 4e c2 3d 28 63 71 3d 53 2b 0a 3e
       -0.027331045 0.094875865 0.058932453 0.1349309
0000e0 9a 60 6c 3d 13 58 04 3e 78 b9 53 be a9 57 36 3e
       0.057709314 0.12924223 -0.2067622 0.17806877
0000f0 9b 1c 82 bd 94 28 1a 3e e7 e7 fc bd 54 41 7c 3d
       -0.06353112 0.15054542 -0.12348919 0.06158574
000100 b7 2a 8e 3e 49 28 65 3d ac 78 73 be fb 38 1f be
       0.27766964 0.055946622 -0.23776501 -0.1554908
000110 71 3f 4b be c4 50 5e 3e fc 07 3c 3d 82 b2 b7 bd
       -0.1984842 0.21710497 0.045906052 -0.089695945
000120 ce 82 68 3c 41 ec dd bb 8a 5a 97 3c 89 79 2a be
       0.0141913425 -0.0067725484 0.01847579 -0.16647924
000130 15 0c cd bd 8e 85 b9 3d 97 99 c7 3d 97 35 37 be
       -0.1001207 0.09058677 0.09746092 -0.17891537
000140 62 f9 fa 3d ef d6 5a 3e 45 5a 58 be d8 99 81 3e
       0.12254597 0.21371053 -0.21128185 0.25312686
000150 2c 95 c5 bd a1 c3 25 be 35 59 38 3e 20 47 23 be
       -0.09647593 -0.16187908 0.1800278 -0.15945101
000160 c6 3c 6c 3d 6f 66 34 be ff 12 81 3e 58 69 54 3e
       0.057675146 -0.176172 0.25209805 0.2074331
000170 1f da b7 3c bc 19 b4 bc 81 e7 92 3d ec 6c 9d be
       0.022442875 -0.021984927 0.07173062 -0.30747163
000180 59 75 25 3e e2 82 88 3b 7e 5d b0 3e 19 aa 95 bd
       0.16158046 0.004165993 0.3444633 -0.07307834
000190 2f 22 dc 3d 92 c7 88 be 6b 74 5e be b4 cc 2b be
       0.107487075 -0.2671476 -0.21724097 -0.16777307
0001a0 13 67 71 be e6 12 78 be c0 7e 28 3e eb 73 30 be
       -0.23574476 -0.24225959 0.16454601 -0.17231719
0001b0 63 4a 5d 3c 85 e7 98 be eb 1b b6 bc af 9e 6c 3e
       0.013506505 -0.29864135 -0.02223011 0.23107408
0001c0 72 21 8e 3e 12 99 0b bc 7e b2 39 3e 28 a8 74 3e
       0.27759892 -0.0085203815 0.18134496 0.23892272
0001d0 f9 14 66 be e0 03 32 be 01 c3 38 be ca d9 b2 3c
       -0.22468938 -0.1738429 -0.18043138 0.021832366
0001e0 31 84 01 bd e5 cf 2e 3e 32 e6 d4 3d 96 46 64 be
       -0.03162021 0.17071493 0.10395469 -0.22292551
0001f0 6a b8 9a 3e 97 21 7f be 1a 83 2d be 1a ab 60 be
       0.30218822 -0.24915157 -0.16944543 -0.2194027
000200 c1 a0 f7 3c c4 1c 13 3e 1c 8e 30 be 18 16 a7 bd
       0.03022802 0.14366442 -0.1724171 -0.08158511
000210 0b 6e 8d bd 12 88 e4 3d a7 25 c8 bd b3 85 0c be
       -0.06905755 0.11158766 -0.097728066 -0.13722877
000220 7d 1f d6 bd 56 77 12 3e be 9d e3 bb 90 8a e0 bd
       -0.10455225 0.14303336 -0.0069462946 -0.10963929
000230 97 f9 60 3d b4 72 0c 3e 1d 6e e2 3d ea ed 9c 3e
       0.054925527 0.13715631 0.11056159 0.30650264

bias f4 [12]
000000 d5 96 45 3e 42 bf 80 bd 28 07 a5 3d ab 2c 84 3d
       0.19295819 -0.062864795 0.080580056 0.06453832
000010 d7 c2 57 bd e0 2a 80 3e 52 16 17 3e b6 e4 84 3e
       -0.052676048 0.2503271 0.14754608 0.25955743
000020 6b ef 64 be c3 ab 50 3d c5 24 1a 3e c1 4e 44 be
       -0.22356956 0.050945055 0.15053089 -0.19170667

weight f4 [3, 12]
000000 3f 12 ab bc a4 a2 03 be 0c 55 bb bd d9 10 8c be
       -0.020882724 -0.12855011 -0.09147081 -0.27356604
000010 c4 8b 1a be 66 b8 d7 be e8 b4 80 be e2 8e 6c 3e
       -0.15092379 -0.42132872 -0.2513802 0.2310138
000020 ac a2 a4 be af 4b 4c 3d c3 77 a3 be a8 d6 52 bd
       -0.3215536 0.049876865 -0.31927308 -0.051474243
000030 e3 b6 e5 3e a1 cc b3 be a9 81 e1 be 8b ce 3b 3e
       0.44866094 -0.35117057 -0.44044235 0.18340509
000040 ab 69 cb 3e 96 ad c3 3e b4 dd 31 3e 16 a5 2a be
       0.39729056 0.38218373 0.1736973 -0.16664538
000050 60 b9 d3 be df 26 c9 be df 07 a9 3e 54 39 e5 3e
       -0.41352367 -0.3928747 0.33013818 0.447703
000060 0d 6c bb be 13 98 82 3e fe 57 0d 3e bb 6a ae be
       -0.36605874 0.25506648 0.13803098 -0.34065804
000070 14 6a 00 bb 8f 3e 09 bd 04 32 11 bb 23 25 c3 3c
       -0.0019594477 -0.033506926 -0.0022155056 0.02382142
000080 44 8b 53 bb 25 78 9d 3e 99 dc 37 be 24 f0 e4 be
       -0.0032279054 0.30755726 -0.17955245 -0.44714463

bias f4 [3]
000000 bb 35 97 be 08 cf 83 3d 24 61 57 be
       -0.2953318 0.064359725 -0.2103315

weight f4 [3, 12]
000000 29 13 88 be 3d ab 40 be 09 05 53 be d4 f4 62 be
       -0.26577118 -0.18815322 -0.2060739 -0.22163707
000010 6e 73 80 3c 07 2e b1 bd e2 43 80 bc 19 25 0a be
       0.015680041 -0.08651357 -0.015657369 -0.13490714
000020 88 a6 87 3e 24 4b 82 3e b3 f7 92 be 98 2a 8d be
       0.2649424 0.25447953 -0.28704605 -0.2757156
000030 73 45 f4 bd ce a5 17 be cd e8 b8 bd b8 6f 0c bb
       -0.11927309 -0.14809343 -0.09028778 -0.0021428894
000040 b0 12 0e be 58 e6 2b be b2 a4 db bd 18 fc ef bc
       -0.13874316 -0.16787088 -0.107247725 -0.029295012
000050 88 ed 3b be f7 c6 e9 bc e2 53 54 be 9f 03 24 be
       -0.1835233 -0.028537257 -0.20735124 -0.16017006
000060 d6 c4 24 be 8d 56 0d 3e 85 3f 10 3e ef 58 02 3c
       -0.16090712 0.13802548 0.14086731 0.007955774
000070 b3 0c 84 be 1a 53 fa bc 9f de 50 3e 3e e0 00 3d
       -0.2579094 -0.030557204 0.20397423 0.031463854
000080 c4 5c 38 3e 34 ca 82 3e 77 90 6b be 48 1f 46 3e
       0.18004137 0.25544894 -0.23004328 0.1934787

bias f4 [3]
000000 bd 8b ae be 6c cd 82 3e 68 28 8e 3d
       -0.34090987 0.2554735 0.06941301

weight f4 [3, 3]
000000 14 13 d3 be 78 77 d0 3e 08 80 d2 3e 86 cf b0 be
       -0.41225493 0.40716147 0.41113305 -0.34533328
000010 87 84 8d 3d 8d c3 bb 3e a4 4e b1 bd 09 c7 cb 3e
       0.06910043 0.3667263 -0.08657578 0.3980029
000020 59 04 fc 3e
       0.49222067

bias f4 [3]
000000 9b bc e2 3e 09 7f 09 3f 89 6e 07 bf
       0.4428452 0.53709465 -0.5290304
