data/best/output/poster/train/1_stemgnn.pt (torch, 435920 bytes, 73 tensors)

weight_key f4 [135, 1]
0	0xbb79182d	-0.0038008795
1	0x3e21e395	0.15809472
2	0xbe7b6db0	-0.24553561
3	0xbe5ffb0e	-0.21873114
4	0xbde8c9aa	-0.11366589
5	0x3da4663d	0.08027313
6	0xbbb07d3f	-0.0053860242
7	0x3e71dd58	0.23619592
8	0xbcd5d838	-0.026104078
9	0x3d9fa1bc	0.0779452
10	0xbdb8029b	-0.08984872
11	0xbd704639	-0.05866072
12	0xbe918861	-0.2842436
13	0xbe493d34	-0.19652253
14	0xbdfa0ae2	-0.12209107
15	0x3c3d4595	0.011552234
16	0x3df0fa49	0.11766488
17	0x3e36c4bb	0.17848484
18	0xbe4dd0e8	-0.20099223
19	0xbe0416cf	-0.12899326
20	0x3ddd15b8	0.10795158
21	0x3e7c3e9e	0.24633262
22	0xbd7d0944	-0.061776415
23	0x3e63178c	0.22176951
24	0xbd468650	-0.048467934
25	0x3d007724	0.03136362
26	0x3e8a2339	0.26979998
27	0xbe8c9b89	-0.27462414
28	0xbe3eeb09	-0.18644346
29	0xbd9896bc	-0.07450625
30	0xbdea31ed	-0.11435304
31	0x3e841e7d	0.2580451
32	0xbe43f922	-0.19138005
33	0xbe0b6505	-0.13612755
34	0xbe53b223	-0.20673423
35	0xbe8e219b	-0.27760014
36	0xbe316b89	-0.17326178
37	0x3e82cb57	0.2554576
38	0x3e07e49a	0.13270798
39	0x3e146307	0.14490901
40	0x3c83bc73	0.01608107
41	0xbe1bd51d	-0.15218015
42	0x3d4d62a2	0.05014289
43	0xbe8e4544	-0.2778722
44	0xbe5cf5b0	-0.21578097
45	0xbe1e554a	-0.15462223
46	0x3e3f9507	0.18709193
47	0x3e320716	0.17385516
48	0xbe07a7fd	-0.13247676
49	0xbc35c89e	-0.011095194
50	0x3e41fc1c	0.18943828
51	0x3e974f2b	0.29552588
52	0x3df0a23e	0.11749695
53	0x3d256e2a	0.040388264
54	0x3e4ce5bc	0.20009512
55	0xbe32f313	-0.17475538
56	0x3d608c05	0.054821033
57	0xbe6d18c0	-0.23153973
58	0xbe537285	-0.20649154
59	0xbe1d4b0f	-0.15360664
60	0x3e08f904	0.13376242
61	0x3df2aca7	0.11849337
62	0xbe36044a	-0.17775074
63	0x3db69a94	0.08916202
64	0x3e25d7b5	0.16195567
65	0xbd20c328	-0.039248616
66	0x3c22a3f1	0.009926782
67	0x3d8b36bc	0.06797549
68	0x3e3c0f79	0.18365277
69	0x3e916c03	0.2840272
70	0xbe6bad2b	-0.23015277
71	0xbde1be90	-0.11022675
72	0x3debc7bc	0.11512706
73	0x3e7ad703	0.24496083
74	0x3e838562	0.256877
75	0x3e855a6e	0.26045555
76	0x3d6f8a7b	0.058481675
77	0xbe844d6d	-0.2584032
78	0x3ce00d67	0.02735014
79	0xbe3f02f4	-0.1865347
80	0xbe8e953b	-0.2784823
81	0x3e86fd14	0.26364958
82	0x3e66f57a	0.2255458
83	0xbe97abbf	-0.2962322
84	0x3d653659	0.055960033
85	0xbd4eaa68	-0.05045548
86	0xbd4d55b3	-0.050130557
87	0xbe0bd0e0	-0.13653898
88	0x3de73fae	0.11291443
89	0xbe34e073	-0.17663746
90	0x3dde0d8b	0.10842427
91	0x3e190363	0.14942698
92	0x3e591828	0.21200621
93	0x3de13c7b	0.10997864
94	0xbe9730e1	-0.2952948
95	0xbe46e113	-0.19421797
96	0x3e178a38	0.1479882
97	0x3d7f567d	0.06233834
98	0xbe6d0193	-0.23145132
99	0xbe2ee0d5	-0.17077954
100	0x3e8edba1	0.2790194
101	0x3e4b48a2	0.19851926
102	0xbe05f45e	-0.130815
103	0xbd98f848	-0.07469231
104	0xbe904d2b	-0.28183874
105	0xbb8f1b4c	-0.0043672677
106	0xbe63efc1	-0.22259428
107	0xbe696293	-0.2279151
108	0xbc7e1b52	-0.015509443
109	0x3d39a805	0.04532625
110	0xbdf7881d	-0.120865084
111	0x3e357270	0.17719436
112	0xbe38e85c	-0.18057388
113	0x3e89c55a	0.2690838
114	0x3e4f3931	0.2023666
115	0xbe8111d0	-0.25208902
116	0xbd97aad9	-0.074056335
117	0x3c4dd149	0.0125621045
118	0x3d2b04a5	0.041752476
119	0x3d8cd97e	0.06877421
120	0x3deb8a0d	0.115009405
121	0x3c845640	0.016154408
122	0xbe15c224	-0.1462484
123	0x3e0f3b06	0.1398736
124	0xbe926178	-0.28589988
125	0xbe351896	-0.1768516
126	0xbd9b533a	-0.075842336
127	0xbe15888c	-0.1460287
128	0xbdd5faff	-0.10448264
129	0xbe790ff7	-0.24322496
130	0xbd80a186	-0.06280808
131	0x3d83b0d1	0.064302094
132	0xbe458947	-0.19290648
133	0xbc7fa4af	-0.0156032285
134	0x3e5891a9	0.21149315

weight_query f4 [135, 1]
0	0xbd43cd97	-0.047803488
1	0x3d2d8874	0.04236646
2	0x3dc02d7b	0.09383675
3	0x3e4545bd	0.19264884
4	0x3ea6475d	0.3247632
5	0x3ed50481	0.41605
6	0x3ea42538	0.32059646
7	0x3ed2dc5f	0.41183755
8	0x3dda0213	0.10644927
9	0xbe0fb3d5	-0.14033444
10	0xbc7c73b9	-0.01540845
11	0x3ea77b1e	0.32711118
12	0x3dfadc61	0.12249065
13	0xbcc0ae3f	-0.023520587
14	0xbdd4e736	-0.103956625
15	0xbe1e68a2	-0.15469602
16	0xbe02d9c8	-0.1277839
17	0x3d7f0fa2	0.062270768
18	0x3e9223e5	0.2854301
19	0x3e90fac4	0.2831632
20	0xbe275a71	-0.16343094
21	0x3e9de5c7	0.3083937
22	0xbddeadfe	-0.1087303
23	0x3d7926d2	0.060828038
24	0x3b593792	0.0033144695
25	0x3d88e5dc	0.06684467
26	0x3d86ad83	0.065760635
27	0xbe121767	-0.1426674
28	0xbe081c23	-0.13291983
29	0x3d9d2a8b	0.0767413
30	0x3e01d430	0.126786
31	0xbc46331d	-0.012097147
32	0x3e6fffc0	0.23437405
33	0xbe13a17b	-0.14417069
34	0x3dd27113	0.102754734
35	0x3ec49362	0.38393694
36	0x3af805cd	0.0018922627
37	0x3ec81b87	0.39083502
38	0x3e6c650f	0.23085426
39	0xbe13d9e5	-0.14438589
40	0x3e9faecb	0.31188044
41	0x3db75c0b	0.08953103
42	0xbc0a0aee	-0.008425457
43	0x3eb923f5	0.36160246
44	0xbded05c9	-0.11573369
45	0x3e1fd8b1	0.15610005
46	0x3d7e5f94	0.06210287
47	0x3eac5319	0.33657148
48	0x3e53fc25	0.20701654
49	0x3e889edc	0.266837
50	0x3e6ad8fa	0.22934332
51	0x3d58aa09	0.052896533
52	0x3d7d38d5	0.061821777
53	0xbdf773cc	-0.120826334
54	0x3e91d46c	0.28482378
55	0x3eb84780	0.3599205
56	0x3ea79682	0.32732016
57	0xbdaee18d	-0.08539114
58	0x3e0c9bcc	0.13731307
59	0xbdaed08a	-0.085358694
60	0xbd21edd6	-0.03953346
61	0xbd48e6be	-0.049048178
62	0x3e66fa9f	0.22556542
63	0xbd59545e	-0.053058974
64	0x3df0e68b	0.117627226
65	0x3e0bf664	0.1366821
66	0x3ea18e8b	0.31554064
67	0xbdcddac3	-0.10051491
68	0xbda2eb00	-0.07954979
69	0xbd45e086	-0.048309825
70	0x3ea9efad	0.3319067
71	0x3c8fd697	0.01755838
72	0x3ebfe155	0.37476602
73	0x3e6dc1c6	0.2321845
74	0x3e2635ce	0.16231462
75	0x3dfa8309	0.12232024
76	0x3d86662f	0.06562459
77	0x3e24fcff	0.16112135
78	0x3d66aa94	0.05631502
79	0x3df9eda4	0.122035295
80	0x3e25f40a	0.16206375
81	0xbdddaab0	-0.10823572
82	0xbd02a9d9	-0.03190026
83	0x3eba5428	0.3639233
84	0xbdee928f	-0.116490476
85	0x3dd2ea93	0.10298648
86	0x3ed60274	0.41798747
87	0x3e6d598f	0.23178695
88	0x3e082065	0.13293608
89	0xbe086786	-0.13320741
90	0x3e8b1f89	0.27172497
91	0xbdb18e5e	-0.086697325
92	0x3d24732a	0.04014889
93	0x3ccad8c1	0.02476156
94	0x3da46615	0.08027283
95	0x3e029d8d	0.12755413
96	0x3ebcca79	0.36873224
97	0x3e247270	0.1605928
98	0x3ec7781d	0.38958827
99	0x3e9c4013	0.30517635
100	0xbd8329f4	-0.06404486
101	0x3e839798	0.25701594
102	0xbdb0bf4c	-0.08630237
103	0xbb0443a7	-0.0020181926
104	0x3e587240	0.21137333
105	0x3e63b24d	0.22235985
106	0x3eb17ec3	0.34667024
107	0x3ce69102	0.028145317
108	0x3dff3b0c	0.12462434
109	0x3e8dd13c	0.27698696
110	0xbe27468a	-0.16335502
111	0x3ead4f57	0.33849594
112	0xbdf93cac	-0.12169775
113	0x3e033f3b	0.1281709
114	0x3d96914f	0.07351934
115	0xbd04bcc3	-0.03240658
116	0x3e271068	0.16314852
117	0x3ebd52d3	0.36977252
118	0x3d18d6b0	0.037314117
119	0xbd5673a4	-0.052356377
120	0x3c68a271	0.014198885
121	0xbe2e15f8	-0.17000568
122	0x3e8414fa	0.25797254
123	0xbc964360	-0.018342674
124	0xbd97f8c7	-0.074204974
125	0xbd42805b	-0.04748569
126	0x3e96c5fb	0.29447922
127	0x3e8fc536	0.28080148
128	0x3eb3dd27	0.35129663
129	0x3e6ce2aa	0.2313334
130	0x3cc8a0fe	0.02449083
131	0x3d271bd8	0.04079804
132	0x3e58f7b0	0.21188235
133	0x3ebe236b	0.37136397
134	0x3e561093	0.2090476

weight_ih_l0 f4 [405, 3]
0	0xbd844d5f	-0.0646007
1	0xbd83fa90	-0.064442754
2	0xbdd7fbb1	-0.10546053
3	0x3d82821f	0.06372475
4	0xbb435633	-0.0029806017
5	0xbd004980	-0.031320095
6	0x3daabd1b	0.0833685
7	0xbd40dd88	-0.04708627
8	0xb954004e	-0.00020218009
9	0x3c882f27	0.016624046
10	0xbbaf5e36	-0.005351807
11	0xbd8730e5	-0.06601123
12	0x3a5de64a	0.00084647967
13	0x3e0e993c	0.13925642
14	0x3dade6e3	0.08491304
15	0x3df63206	0.1202126
16	0x3ca195ac	0.01972469
17	0x3d9a1ad6	0.0752465
18	0xbcd93e31	-0.026518913
19	0xbc2f4253	-0.010696965
20	0xbd737e20	-0.059446454
21	0x3d050904	0.0324793
22	0x3cfe7b3c	0.031064622
23	0x3b029595	0.0019925584
24	0xbd5fc28f	-0.054628905
25	0xbdb4c6ca	-0.088269785
26	0x3cc79f26	0.02436788
27	0xbd167621	-0.03673375
28	0x3d7bbb8c	0.061458156
29	0xbb66a074	-0.0035190852
30	0xbd16fef8	-0.03686425
31	0x3ca635cc	0.020289324
32	0xbd23aef9	-0.03996179
33	0x3de4cde9	0.11172087
34	0x3ddfbaf2	0.10924329
35	0x3ceb17ef	0.028697936
36	0x3cf6b94d	0.030117655
37	0x3d58890a	0.052865066
38	0x3d4ee894	0.050514773
39	0xbced0a1e	-0.028935488
40	0xbdb66079	-0.089051194
41	0xbd02fe97	-0.031981077
42	0x3dc40b96	0.09572522
43	0x3d0ce7cc	0.034400746
44	0x3dc9a617	0.09846132
45	0x3d617d9f	0.055051442
46	0xbd3ec43a	-0.046573855
47	0xb9eb4058	-0.00044870633
48	0xbd71dcde	-0.059048526
49	0xbdb49845	-0.088181056
50	0xbdb406b2	-0.087903395
51	0x3dc219ee	0.09477602
52	0x3c870009	0.016479509
53	0x3dba3b29	0.09093315
54	0x3dc07c94	0.093987614
55	0x3de78d39	0.11306233
56	0x3db29673	0.08720102
57	0x3dce7f8d	0.10082922
58	0x3e04c9fc	0.12967676
59	0x3d436f9f	0.047713872
60	0x3c985da2	0.018599335
61	0x3c8aff79	0.016967522
62	0x3e35cf64	0.17754894
63	0x3d682686	0.056677364
64	0xbd6af5c0	-0.05736327
65	0x3d1247ac	0.035712883
66	0x3dae461e	0.085094675
67	0x3dd9faad	0.10643516
68	0x3dc4418d	0.09582815
69	0x3d504bc3	0.050853502
70	0xbd1143d6	-0.035465084
71	0xbd3bc45f	-0.04584157
72	0x3de4e018	0.11175555
73	0x3db777d8	0.08958405
74	0xbc2a4d9c	-0.01039448
75	0x3da3dbd4	0.08000913
76	0x3d35b491	0.044361655
77	0x3d4ac8fe	0.049508087
78	0xbd9ace07	-0.07558828
79	0x3b2dc7cb	0.002651679
80	0xbd57ad87	-0.052655723
81	0x3da22a2c	0.079182
82	0xbb5020f0	-0.0031757914
83	0x3d3c7a52	0.04601509
84	0x3b002524	0.0019553388
85	0x3cbf3395	0.023340026
86	0xbd2dee38	-0.04246351
87	0xbd0f35c4	-0.034963384
88	0xbe0bfac9	-0.13669886
89	0xbd6a49e9	-0.057199392
90	0xbdfdd663	-0.12394407
91	0xbe1a43f1	-0.1506498
92	0xbe0a3f94	-0.13500816
93	0x3e0f4dc4	0.13994509
94	0x3df38a47	0.11891609
95	0x3e1d16e5	0.15340765
96	0x3e0b5571	0.13606812
97	0xbc197894	-0.009367127
98	0x3c11d99d	0.008901981
99	0x3b8935ca	0.0041873204
100	0xbd1b7a41	-0.037958387
101	0x3d9eb953	0.077501915
102	0xbd55a5ec	-0.05216019
103	0xbcf3b717	-0.02975039
104	0xbd91b1db	-0.07114001
105	0xbd111736	-0.035422526
106	0x3dace48b	0.084420286
107	0x3dac7bb8	0.08422035
108	0xbbe12d93	-0.006871888
109	0xbaef851f	-0.0018273926
110	0x3c08ac7c	0.008341905
111	0xbddb4d95	-0.10708157
112	0xbd42654e	-0.047459893
113	0xbc0df464	-0.008664224
114	0x3957c0e6	0.00020575858
115	0x3d6d0d42	0.05787397
116	0x3c88c994	0.016697682
117	0x3d982797	0.07429426
118	0xbc06976d	-0.008214814
119	0x3d81ba98	0.06334418
120	0x3cfbf315	0.030755559
121	0x399e9e6a	0.00030254136
122	0xbce3e300	-0.027818203
123	0xbdc91315	-0.09818093
124	0xbdee2766	-0.116286084
125	0x3bed8c1b	0.007249368
126	0x3d5bc123	0.053650986
127	0xbc904baf	-0.017614214
128	0xbd6d8614	-0.057989195
129	0x3d5cc8bc	0.053902373
130	0x3d2b39eb	0.04180328
131	0xbbf373b6	-0.0074295653
132	0xbcbae338	-0.022813424
133	0x3dc68b48	0.096945345
134	0x3d59c843	0.0531695
135	0x3c6110e0	0.0137369335
136	0x3e257b57	0.16160332
137	0x3e144795	0.14480431
138	0xbc28873e	-0.0102861505
139	0x3d8e31a3	0.06943061
140	0xbce45535	-0.027872661
141	0x3bcd6ef4	0.00626933
142	0x3dbdce79	0.09267897
143	0x3cbc3db3	0.02297864
144	0xbb880b02	-0.004151703
145	0x3cfa6da0	0.030569851
146	0x3d131c68	0.035915762
147	0x3c36ccf6	0.011157265
148	0x3d0ff5a9	0.03514639
149	0x3dda3242	0.10654117
150	0x3c32e4ef	0.01091884
151	0xbd3fe91e	-0.046853177
152	0x3c2eb9ab	0.010664384
153	0x3d2fcc67	0.042919543
154	0x3d3635b0	0.044484794
155	0xbd9d4331	-0.07678831
156	0xba2e4185	-0.00066473364
157	0xbd494555	-0.049138386
158	0xbcb33e8a	-0.021880407
159	0x3d310078	0.043213338
160	0xbd4c31c4	-0.049852148
161	0x3d311d48	0.043240815
162	0x3dc54cf3	0.096338175
163	0x3ced9c19	0.029005097
164	0xbd0b7eac	-0.03405635
165	0xbd603aa2	-0.054743417
166	0xbba603db	-0.0050663776
167	0xbdb727ea	-0.0894316
168	0x3ce3c715	0.02780489
169	0xbdbee161	-0.09320331
170	0xbdc87d5b	-0.09789535
171	0xbda646ae	-0.0811895
172	0xbc75567f	-0.014974236
173	0x3d7681e9	0.060182486
174	0xbd2f8fb0	-0.04286164
175	0x3de11d16	0.10991876
176	0x3b79d4ad	0.003812115
177	0xbd2cfd3b	-0.042233687
178	0xbd8075b1	-0.06272448
179	0xbe12b871	-0.14328171
180	0x3dae1a37	0.08501094
181	0x3d781373	0.060565423
182	0x3dcc10c4	0.09964135
183	0x3c9a02f6	0.01880024
184	0xbda69073	-0.0813302
185	0x3d42228d	0.04739623
186	0xbd444ffa	-0.047927834
187	0xbc41297a	-0.011789674
188	0xbdf911c3	-0.12161591
189	0xbbd30dc7	-0.0064408514
190	0xbd878baa	-0.06618436
191	0xbc7990ee	-0.015232308
192	0x3bac304d	0.0052547813
193	0xbda4459c	-0.080210894
194	0x3c73e304	0.014885668
195	0x3e010c1c	0.12602276
196	0x3dbead9f	0.09310459
197	0x3cc47180	0.023979902
198	0x3c83b859	0.016079115
199	0x3d67ebff	0.056621548
200	0x3df7e6d3	0.12104573
201	0x3de13f24	0.10998371
202	0x3d988bf2	0.074485675
203	0x3c772054	0.015083391
204	0x3ca4d9d6	0.020123404
205	0xbdc14c67	-0.09438401
206	0xbdaaec60	-0.08345866
207	0x3d84b562	0.064799085
208	0xbcc566b9	-0.024096834
209	0x3d8784bd	0.06617115
210	0xbd896fd7	-0.06710785
211	0xbd47a848	-0.04874447
212	0xbd9cfe64	-0.07665709
213	0x3dfea59d	0.12433932
214	0x3d915d61	0.07097889
215	0x3e15ab8a	0.14616218
216	0x3dd147a7	0.10218745
217	0x3dc61edb	0.09673854
218	0x3d548680	0.05188608
219	0xbd279959	-0.040917728
220	0xbd07e561	-0.033177737
221	0xbb59e8c4	-0.0033250311
222	0x3ce1d609	0.02756788
223	0xbd9a4f15	-0.07534615
224	0x3d6a160d	0.057149936
225	0xbcb9cd67	-0.022680951
226	0xbdaef619	-0.08543033
227	0xbd75e620	-0.060033917
228	0x3d9b3032	0.07577552
229	0x3d9fd2cc	0.07803878
230	0xbda5045f	-0.08057474
231	0x3dc5bed7	0.096555404
232	0x3da22c59	0.07918615
233	0x3db28f74	0.08718768
234	0x3de4fd0e	0.11181079
235	0xbbcc9b77	-0.006244119
236	0x3d8db8c0	0.06920004
237	0x3cc423be	0.023942824
238	0xbd14fdaa	-0.036374725
239	0x3c93f731	0.018062206
240	0x3c1bc212	0.009506719
241	0x3db31d78	0.08745855
242	0x3c23f2d3	0.010006624
243	0xbc1797a2	-0.009252461
244	0x3d37c19e	0.044862382
245	0x3d5d5602	0.0540371
246	0xbc8f5673	-0.017497277
247	0x3d03896e	0.032113485
248	0x3d9848bd	0.07435749
249	0xbd086ce7	-0.033306982
250	0x3ae492ac	0.0017438731
251	0xbd393d24	-0.045224324
252	0x3c87a5a0	0.016558468
253	0xbd9b1760	-0.07572818
254	0xbd8373d2	-0.06418575
255	0xbce60447	-0.028078211

weight_hh_l0 f4 [405, 135]
0	0x3d7dc101	0.06195164
1	0x3d8dd2f0	0.06924999
2	0xbd841fe9	-0.06451399
3	0x3de4d709	0.11173827
4	0xbbf9d391	-0.0076240976
5	0x3cca4c31	0.024694534
6	0x3d078bb5	0.03309222
7	0xbd5c21b3	-0.053743076
8	0xbd68a75c	-0.05680023
9	0x3c4b1014	0.01239397
10	0x3d8bf715	0.068342365
11	0xbd2ce869	-0.04221383
12	0xbdc8cb6a	-0.09804423
13	0x3d12aa55	0.035806973
14	0x3c66503e	0.014057217
15	0x3db48b05	0.08815578
16	0xbdd27610	-0.10276425
17	0xbbd19654	-0.0063960943
18	0xbd5b5005	-0.05354311
19	0xbda7ed47	-0.08199554
20	0xbc96cabe	-0.018407222
21	0xbd8ba8b7	-0.06819289
22	0x3d8ccff2	0.068756
23	0xbd8844fa	-0.06653781
24	0x3da585e7	0.080821805
25	0xbcf0c87b	-0.029392472
26	0x3cf05f65	0.029342363
27	0xbe01fdc8	-0.12694466
28	0xbd81af95	-0.06332318
29	0xbca05f80	-0.019576788
30	0xbe2c65a5	-0.1683565
31	0x3c942645	0.018084655
32	0x3c0c97ce	0.008581115
33	0xbb858e53	-0.0040758043
34	0xbdbd1788	-0.09233004
35	0x3dc3e03e	0.09564255
36	0x3d5cedd4	0.053937748
37	0xbcb4b94f	-0.022061018
38	0xbd09ca86	-0.033640407
39	0x3da3884b	0.0798498
40	0x3e206ade	0.15665767
41	0xbdb512d6	-0.08841483
42	0xbd01378b	-0.03154711
43	0x3c3bb977	0.0114577925
44	0xbda457e7	-0.080245785
45	0x3de3db66	0.11125831
46	0xbcd4b612	-0.025965724
47	0x3da3287a	0.07966705
48	0xbce62cba	-0.0280975
49	0xbcdbe02f	-0.026840298
50	0xbd51eeed	-0.051253248
51	0xbd456fc0	-0.048202276
52	0x3d6c96df	0.05776107
53	0x3d85d199	0.06534118
54	0xbd44de5f	-0.048063632
55	0x3dceaae2	0.10091187
56	0x3c469b08	0.012121923
57	0x3d4eac0a	0.050457038
58	0x3dc07980	0.09398174
59	0x3d431a56	0.047632538
60	0x3d6b728a	0.05748228
61	0xbce7d3b6	-0.028299194
62	0xbd7a9643	-0.061178457
63	0x3ce57e71	0.028014394
64	0x3c8b68e6	0.017017793
65	0xbceb7cb1	-0.028745981
66	0x3c8b4b32	0.01700363
67	0x3d2c2bf2	0.042034097
68	0xbb848eee	-0.004045359
69	0xbd8944f2	-0.067026034
70	0xbca038c9	-0.019558327
71	0xbd4da472	-0.050205655
72	0xbdd802fd	-0.10547445
73	0xbc0e758e	-0.008695019
74	0x3b8182f2	0.0039523775
75	0x3c9b9779	0.018993126
76	0x3d813f71	0.063109286
77	0xbd5eaf17	-0.054366197
78	0xbd96e608	-0.07368094
79	0x3dde0a3e	0.10841797
80	0x3b13ea7e	0.0022570188
81	0xbd1cd05d	-0.03828465
82	0xbd779b78	-0.060451
83	0xbd9cb870	-0.07652366
84	0x3c51690f	0.012781396
85	0xbdd0a9af	-0.101886146
86	0x3bf56feb	0.0074901483
87	0x3d997bca	0.07494314
88	0xbc005719	-0.007833266
89	0xbd8f28aa	-0.06990178
90	0x3d31d2eb	0.043414038
91	0x3da8e598	0.082469165
92	0xbdf549d0	-0.11976969
93	0x3d30d07b	0.043167572
94	0x3c629653	0.013829785
95	0x3cbe6811	0.023242982
96	0xbbd63885	-0.0065374994
97	0xbd9bb6a5	-0.07603196
98	0x3cc9f3cd	0.024652386
99	0x3d0554ab	0.03255145
100	0xbd38d4b0	-0.04512471
101	0xbd9211e0	-0.07132316
102	0x3d227ca3	0.039669644
103	0x3d84edc7	0.06490665
104	0x3d461834	0.048362926
105	0x3bf1aec2	0.007375569
106	0x3d32cc75	0.043652017
107	0xbc171c42	-0.009223046
108	0x3c39e27b	0.011345501
109	0x3d94acda	0.07259531
110	0xbcbc180c	-0.022960685
111	0xbd1fd410	-0.039020598
112	0xbcdd674c	-0.027026795
113	0xbcfdd58e	-0.03098562
114	0x3bf5e84a	0.0075044977
115	0xbd777e30	-0.060423076
116	0x3d9e5c83	0.07732489
117	0x3a978595	0.0011560196
118	0x3cdb1198	0.026741788
119	0x3da54911	0.08070577
120	0x3c4b6064	0.012413118
121	0x3aa70e92	0.0012745431
122	0xbb182676	-0.0023216284
123	0xbd89b6b1	-0.06724299
124	0x3d6b4319	0.057437036
125	0xb9d02579	-0.0003970077
126	0xbcf6fd46	-0.030150067
127	0xbdacd436	-0.084389135
128	0x3d60b156	0.05485662
129	0xbdcb769e	-0.09934734
130	0x3c24f402	0.010067942
131	0x3ce290a9	0.02765687
132	0xbda3cd58	-0.079981506
133	0xbdd8585b	-0.105637275
134	0xbd65f722	-0.056143887
135	0x3d671072	0.056412168
136	0xbe07ac2c	-0.13249272
137	0xbe0b9b9d	-0.1363358
138	0x3ccf5d8a	0.025313158
139	0xbc67199a	-0.014105225
140	0x3dafeaca	0.08589704
141	0x3d030aae	0.031992607
142	0xbcb41d97	-0.021986766
143	0x3b55ee74	0.003264335
144	0xbc858078	-0.01629661
145	0xbdbccd56	-0.09218852
146	0xbd632155	-0.05545171
147	0x3d8af7ef	0.06785571
148	0xbd528b68	-0.05140248
149	0xbdf1a1a8	-0.117984116
150	0xbe1f5f1e	-0.15563628
151	0x3d56812d	0.052369285
152	0x3d4542c8	0.04815939
153	0x3e1545f6	0.14577469
154	0xbcc964da	-0.024584223
155	0xbcc64c29	-0.024206238
156	0xbe09ce16	-0.13457522
157	0xbdd5f2bf	-0.10446691
158	0x3c71f16a	0.01476703
159	0xbc9308a8	-0.017948464
160	0xbd450057	-0.048096027
161	0xbd9c498a	-0.07631214
162	0x3da4edf0	0.080531955
163	0xbd19534a	-0.037432946
164	0xbe05d9b7	-0.13071333
165	0xbc886fc2	-0.016654853
166	0xbd910e73	-0.07082834
167	0xbe190094	-0.14941627
168	0xbe024a22	-0.12723592
169	0x3e0254b4	0.12727624
170	0xbc44a3a2	-0.012001904
171	0x3da1d422	0.07901789
172	0xbaee0a98	-0.0018161116
173	0xbccfdc50	-0.025373608
174	0x3de62dae	0.112391815
175	0xbdc409e3	-0.09572198
176	0xbe021dd5	-0.12706693
177	0x3c994854	0.018711247
178	0x3cd269b9	0.025685178
179	0x3d42e186	0.047578357
180	0x3b14c6d1	0.0022701512
181	0xbe11de6a	-0.14245
182	0x3c0a7603	0.008450988
183	0x3d8001e5	0.06250361
184	0x3d285564	0.04109706
185	0x3dc3e2dc	0.09564754
186	0x3de8e09e	0.11370967
187	0xbdfccedc	-0.12344143
188	0xbcb17e37	-0.02166663
189	0x3dc4b23b	0.09604307
190	0xbdd826ca	-0.105542734
191	0x3ca6bcf4	0.020353772
192	0xbdf8a1da	-0.12140246
193	0xbca2e4a7	-0.01988442
194	0xbd7550a2	-0.05989135
195	0xbde59c39	-0.11211438
196	0x3c69739c	0.014248755
197	0x3ca49dde	0.020094808
198	0xbe0d31e3	-0.13788562
199	0xbdac12cd	-0.084020235
200	0xbe13d8f1	-0.14438225
201	0xbe0442ac	-0.12916058
202	0x3b8579fa	0.0040733786
203	0xbd2351a5	-0.039872784
204	0xbc40ff27	-0.011779583
205	0x3df27874	0.11839381
206	0x3cf0d660	0.029399097
207	0xbd3c603d	-0.045990217
208	0xbe02c3ea	-0.12770048
209	0x3a9992e2	0.0011716748
210	0x3d941a25	0.07231549
211	0x3d190e9b	0.037367444
212	0x3df0b613	0.11753478
213	0xbe2ee70d	-0.17080326
214	0xb94cd449	-0.00019534038
215	0xbc7864fe	-0.015160797
216	0x34aad28f	3.181817e-07
217	0x3d4df001	0.050277714
218	0xbc879903	-0.016552454
219	0xbc055a48	-0.0081392005
220	0xbe14a2de	-0.14515254
221	0x3cdb7380	0.026788473
222	0xbe25275c	-0.16128296
223	0xbd551891	-0.05202538
224	0x3d8a3691	0.06748689
225	0x3d1cfbf0	0.038326204
226	0x3d789147	0.060685422
227	0x3d7be51c	0.061497793
228	0xbdb170e6	-0.08664112
229	0x3d280eab	0.041029613
230	0x3c084c56	0.008318981
231	0x3cba15b6	0.02271543
232	0x3db4a377	0.08820241
233	0x3e0211d6	0.12702116
234	0xbe121801	-0.1426697
235	0x3bffa3e0	0.007801518
236	0x3cb65119	0.022255467
237	0xbbd70bab	-0.00656267
238	0xbd9d262f	-0.076732986
239	0x3c5733c7	0.013134903
240	0xbc542dac	-0.012950342
241	0x3ddcb910	0.10777485
242	0xbe30cd02	-0.17265704
243	0xbd65517b	-0.05598591
244	0xbd05ee1a	-0.032697774
245	0x3d8cb07f	0.068696015
246	0x3d0775e8	0.03307143
247	0x3def3644	0.11680272
248	0x3d3c073d	0.04590534
249	0xbcb9f4f5	-0.022699812
250	0xbd429f4e	-0.047515206
251	0xbc94a376	-0.01814435
252	0x3c4165b0	0.011804029
253	0x3c429c62	0.011878105
254	0x3cc8ae51	0.024497183
255	0x3a8c3440	0.0010696724

bias_ih_l0 f4 [405]
0	0xbc62ed2e	-0.013850493
1	0x3dde348f	0.108498685
2	0xbc2dc4a7	-0.010605968
3	0x3da3db64	0.0800083
4	0xbbe822f5	-0.0070842453
5	0x3cd5b003	0.026084905
6	0xbd1653b3	-0.036700916
7	0xbd282ae9	-0.041056547
8	0x3def70ab	0.116914116
9	0x3d7f7875	0.062370736
10	0xbcc3e5d7	-0.023913307
11	0x3d318dc5	0.043348093
12	0x3d212474	0.039341405
13	0xbd503727	-0.050833847
14	0xbe1bfbdb	-0.15232794
15	0x3caaf97b	0.020870915
16	0xbdda0b14	-0.10646644
17	0xbd12d374	-0.03584619
18	0xbdd5c67b	-0.10438248
19	0xbdb6dc1b	-0.089287005
20	0xbdded74d	-0.10880909
21	0xbc4628f1	-0.012094722
22	0x3c2bb5b3	0.010480332
23	0x3de70d3a	0.1128182
24	0x3d1482dc	0.03625761
25	0xbc83722b	-0.01604565
26	0xbde702f0	-0.11279857
27	0xbde57bc0	-0.11205244
28	0xbda2ac4d	-0.0794302
29	0xbe15e584	-0.14638335
30	0x3c0acca6	0.008471644
31	0x3c743ce1	0.014907093
32	0x3d783d9a	0.060605623
33	0xbdb591c0	-0.0886569
34	0xbc59cd24	-0.013293538
35	0x3d54c6ae	0.05194729
36	0xbd427251	-0.047472302
37	0xbdc7c4c2	-0.097543254
38	0xbd57f15a	-0.052720405
39	0x3d6c07fa	0.057624795
40	0x3d8aa6d4	0.06770101
41	0x3d37f341	0.04490972
42	0xbdec72a4	-0.115453035
43	0x3d937441	0.07199908
44	0x3d3de039	0.046356414
45	0xbb2a473e	-0.0025982405
46	0x3c066b70	0.008204326
47	0xbdb2613f	-0.087099545
48	0x3d65efba	0.056136824
49	0x3c6bb56e	0.014386518
50	0x3cabfaa3	0.020993536
51	0xbd207de5	-0.039182562
52	0x3d964d6c	0.07338986
53	0x3c3c5a5c	0.011496153
54	0x3db6ea38	0.089313924
55	0xbdaff83b	-0.08592268
56	0x3d8df811	0.069320805
57	0xbd9243e0	-0.071418524
58	0xbdf15ef4	-0.11785689
59	0x3d9c0eab	0.07619985
60	0xbcb98926	-0.022648405
61	0xbcdf002f	-0.027221767
62	0xbdb7df42	-0.0897813
63	0x3dcc1881	0.09965611
64	0x3ca5f914	0.020260371
65	0xbd9fff35	-0.07812349
66	0xbdbb1e34	-0.0913662
67	0xbda11099	-0.07864494
68	0xbd79e69e	-0.06101095
69	0xbc76581d	-0.015035656
70	0xbc564def	-0.013080104
71	0x3ddab854	0.10679689
72	0xbd934065	-0.07190017
73	0xbd105fdc	-0.03524767
74	0x3d1abc1a	0.037777044
75	0x3d0b0001	0.03393555
76	0xbe1f6115	-0.15564378
77	0x3caf9003	0.021430975
78	0x3db960e3	0.09051683
79	0xbcb1f8f3	-0.021725154
80	0xbdbc15de	-0.09183858
81	0x3caf851b	0.021425774
82	0xbdbed851	-0.09318603
83	0x3d133893	0.035942625
84	0xbda410e3	-0.080110334
85	0xbd4d2b1a	-0.050089933
86	0xbda7f59c	-0.08201143
87	0xbdfff6f2	-0.12498273
88	0xbc4329b5	-0.011911799
89	0x3c565e6c	0.013084035
90	0x3d7146f7	0.058905568
91	0x3d0f04cb	0.03491668
92	0x3db57263	0.08859708
93	0x3d11bdbe	0.035581343
94	0x3c533139	0.012890154
95	0x3ca585c0	0.020205379
96	0x3c9291c4	0.017891772
97	0xbd901967	-0.07036095
98	0xbbcd7f8a	-0.0062713074
99	0x3cbdf3af	0.023187486
100	0x3c64d420	0.01396659
101	0x3cb480cf	0.022034077
102	0x3d949996	0.07255857
103	0xbddaef64	-0.106901914
104	0x3e048089	0.12939657
105	0x3d21b3f4	0.039478257
106	0xbdb35183	-0.087557815
107	0x3d2f6477	0.04282042
108	0x3d13c4cd	0.036076356
109	0xbd701dd1	-0.058622185
110	0x3c87ba0b	0.016568204
111	0xbd51814f	-0.05114871
112	0x3cb1bba5	0.021695921
113	0x3dd9f987	0.10643297
114	0x3dd77533	0.10520401
115	0x3d00d449	0.03145245
116	0xbca10b16	-0.019658606
117	0x3dfbc836	0.122940466
118	0x3cf6adad	0.030112112
119	0x3d1f88cc	0.03894882
120	0xbe0b547e	-0.1360645
121	0xbd130a0c	-0.035898253
122	0x3c65bd98	0.014022253
123	0x3d0b55d9	0.034017418
124	0x3e247436	0.16059956
125	0x3c6e6c7a	0.01455223
126	0x3cad701a	0.021171618
127	0x3e37fb26	0.179669
128	0xbd9d7168	-0.07687646
129	0x3d022e4f	0.031782445
130	0x3d59e641	0.053198103
131	0xbd0283a4	-0.031863824
132	0xbd187d2f	-0.03722876
133	0x3e074b3c	0.13212293
134	0x3d781737	0.060569014
135	0x3e090527	0.13380872
136	0xbe1b3a5d	-0.15158983
137	0xbd9b611a	-0.0758688
138	0x3d9597ee	0.07304369
139	0xbda76806	-0.08174138
140	0x3db669dd	0.089069106
141	0x3e0a4652	0.13503388
142	0x3dccb223	0.099949144
143	0x3cdd24b9	0.02699505
144	0xbd8c3e5a	-0.0684783
145	0xbd40a392	-0.047030993
146	0x3cb64017	0.022247357
147	0x3c7eeb1a	0.015558982
148	0xbccb2626	-0.024798464
149	0x3be22b29	0.0069021177
150	0xbd47b90f	-0.04876047
151	0x3e02b46b	0.12764136
152	0x3cf1c10e	0.029511001
153	0x3d7bc7fe	0.061470024
154	0x3b195949	0.0023399165
155	0xbc4d7942	-0.012541117
156	0x3d34cb06	0.04413893
157	0xbcba6d0f	-0.022757081
158	0xbe3b0560	-0.18263769
159	0xbdd94115	-0.106081165
160	0x3d4f10a7	0.05055299
161	0xbd98e183	-0.07464888
162	0x3aa7537e	0.0012765971
163	0x3dd821d0	0.10553324
164	0xbdbd0f95	-0.09231488
165	0x3ae95594	0.0017801994
166	0x3b06c835	0.002056611
167	0xbbac6f34	-0.00526228
168	0xbdaec6c3	-0.085340045
169	0xbce70814	-0.028202094
170	0xbd4c6d83	-0.049909126
171	0xbd2d4489	-0.04230169
172	0x3dca9b0b	0.09892853
173	0x3cdb0152	0.026734028
174	0xbe3a1aa4	-0.18174225
175	0xbd7aeae4	-0.061259165
176	0xbd734255	-0.05938943
177	0xbda69ee1	-0.081357725
178	0x3de95ef3	0.11395063
179	0xbe332379	-0.17494
180	0xbca1b717	-0.019740624
181	0x3d731008	0.05934146
182	0xbd8445dc	-0.06458637
183	0x3c80b119	0.015709447
184	0xbd25ff33	-0.04052658
185	0xbda88716	-0.082288906
186	0x3d808ab3	0.06276455
187	0xbdea430d	-0.1143857
188	0xbd07b5d3	-0.033132385
189	0xbcf6ce48	-0.03012766
190	0x3d3aace5	0.04557504
191	0xbdcec4f3	-0.10096159
192	0xbd4212cc	-0.047381207
193	0xbca5a0ec	-0.020218335
194	0x3d8def1f	0.06930374
195	0xbcfd038d	-0.030885482
196	0xbd310cab	-0.04322497
197	0x3bd0bf9e	0.006370499
198	0xbdd15758	-0.102217376
199	0xbde5a9b2	-0.112140074
200	0xbd8ddbda	-0.06926699
201	0xbdac4b79	-0.08412833
202	0x3d366bb3	0.044536304
203	0x3c808525	0.015688488
204	0xbe4f1f99	-0.20226897
205	0x3d1d841b	0.038456064
206	0x3acafb7b	0.0015486324
207	0xbd693291	-0.05693299
208	0xba413b2b	-0.00073711824
209	0xbc1ef105	-0.009701018
210	0x3d1c1b88	0.038112193
211	0xbccfec44	-0.025381215
212	0xbe070e06	-0.13188943
213	0xbd8eae52	-0.06966843
214	0xbd866102	-0.065614715
215	0x3d96283b	0.07331892
216	0xbdeb0db5	-0.11477224
217	0xbd882511	-0.06647695
218	0xbdcdf705	-0.10056881
219	0x3dd3b9c8	0.10338169
220	0x3cefb2c7	0.029260052
221	0x3c367901	0.011137248
222	0xbdb19682	-0.08671285
223	0x3c9b1943	0.018932944
224	0x3d395092	0.045242853
225	0x3d33a378	0.043857068
226	0xbd8880ba	-0.06665178
227	0xbcabdb4f	-0.020978598
228	0xbd6216d7	-0.055197563
229	0xbcce80d8	-0.025207922
230	0xbd19bb36	-0.037532054
231	0x3d861e5c	0.06548759
232	0xbc0c3ff9	-0.008560174
233	0x3d00d639	0.0314543
234	0xbdb82aae	-0.089925155
235	0xbdbd07f6	-0.09230034
236	0xbd232e87	-0.039839294
237	0x3dc29b5e	0.0950229
238	0xbe1109a7	-0.14163838
239	0xbd5fe2d6	-0.054659687
240	0x3db08e26	0.08620863
241	0xbb16c336	-0.0023004538
242	0xbcd3dcea	-0.025862176
243	0xbd66df52	-0.05636532
244	0xbddbd43e	-0.10733841
245	0x3d63a0be	0.055573218
246	0xbcf7867a	-0.03021549
247	0xbda716fc	-0.08158681
248	0xbdd16372	-0.10224046
249	0xbd86d944	-0.06584409
250	0x3cadf2e3	0.021233981
251	0x3cfb2416	0.030656856
252	0xbe04d2c4	-0.12971026
253	0xbd2c6f15	-0.042098124
254	0xbcacdbb3	-0.021100855
255	0xbddc5853	-0.10759034

bias_hh_l0 f4 [405]
0	0xbc6d23ca	-0.014473865
1	0x3db0a89a	0.08625908
2	0xbd995d67	-0.07488518
3	0x3cd1ad3a	0.025595296
4	0xbd523179	-0.051316712
5	0x3c12c3f8	0.008957855
6	0xbdae0c4f	-0.084984414
7	0xbc5149e0	-0.012773961
8	0x3d8867c0	0.06660414
9	0x3dac8af1	0.084249385
10	0xbdc1cf80	-0.094634056
11	0x3cd9b61c	0.026576094
12	0x3d0aadbc	0.033857092
13	0x3cfbbd2d	0.030729854
14	0xbe26568f	-0.16243957
15	0xbcfe21df	-0.03102201
16	0x3c520e4a	0.01282079
17	0xbdc142ae	-0.09436546
18	0xbd35dc6a	-0.044399656
19	0xbe105304	-0.14094168
20	0xbc6bcca8	-0.014392056
21	0xbd473c34	-0.0486414
22	0x3ceb5356	0.028726261
23	0x3dbcc1b4	0.092166334
24	0x3dc593ae	0.09647308
25	0xbd8c62af	-0.0685476
26	0xbda21d38	-0.07915729
27	0xbdac6c84	-0.08419135
28	0xbd64cb4e	-0.05585795
29	0xbd1063ce	-0.03525143
30	0xbde645e2	-0.11243798
31	0x3d0eddb6	0.03487941
32	0xbd9f251e	-0.077707514
33	0xbe0fd245	-0.14045055
34	0xbb009fbf	-0.0019626466
35	0x3bd86e9f	0.006604984
36	0x3d34e843	0.044166815
37	0xbd86c8d6	-0.06581275
38	0x3d0bce0a	0.03413204
39	0xbc9b164f	-0.018931536
40	0x3deceee5	0.11569003
41	0xbd928bca	-0.07155569
42	0x3cc971ae	0.02459034
43	0x3da82abb	0.08211275
44	0x3d9d2034	0.07672158
45	0x3b3a5dc2	0.0028437232
46	0xbd9d4b92	-0.076804295
47	0xbbdd1a6c	-0.0067475345
48	0x3d25ee5e	0.040510528
49	0x3d10a2a7	0.035311367
50	0xbbeb4607	-0.007179979
51	0x3d493a9a	0.049128152
52	0x3d50be3d	0.050962675
53	0x3cdeb25a	0.027184654
54	0x3d668398	0.05627784
55	0x3cf8a8b6	0.030353885
56	0x3d8c5998	0.06853026
57	0xbe11a1d5	-0.1422189
58	0xbdfb743d	-0.1227803
59	0x3d27dc17	0.04098138
60	0x3d63c75e	0.055610053
61	0xbcd0d717	-0.025493188
62	0xbd313115	-0.0432597
63	0x3d7c2af0	0.061564386
64	0x3c740941	0.014894784
65	0xbd280252	-0.041017838
66	0xbaaa4f20	-0.0012993552
67	0x3a580dbc	0.00082417927
68	0xbdb3d800	-0.08781433
69	0xbd90be29	-0.0706752
70	0xbd247ced	-0.0401582
71	0x3cf1e1c6	0.029526602
72	0xbd966803	-0.073440574
73	0x3b5cfdaf	0.0033720543
74	0x3cfdcd43	0.030981665
75	0x3cf29de8	0.029616311
76	0x3a111c5f	0.00055355387
77	0x3bef6151	0.007305302
78	0x3d164fab	0.03669707
79	0xbab79453	-0.0014005996
80	0xbd8c2086	-0.06842141
81	0xbcf9a857	-0.030475779
82	0xbda956b0	-0.082684875
83	0xbcabf2ac	-0.020989738
84	0xbdbf8445	-0.093514
85	0xbcd9484c	-0.026523732
86	0x3d9b2962	0.075762525
87	0x3a81a92b	0.0009892335
88	0xbd80b160	-0.062838316
89	0x3d37b186	0.044847034
90	0x3ddff13c	0.10934684
91	0xbd9d9f0e	-0.07696353
92	0x3e4527c4	0.1925345
93	0x3cad07cc	0.021121882
94	0xbd8a56fa	-0.06754871
95	0xbc88fa2d	-0.016720856
96	0x3ca81299	0.02051668
97	0xbd2720ed	-0.040802885
98	0x3d2d22be	0.04226946
99	0xbca2a15d	-0.019852335
100	0x3d7777e1	0.06041706
101	0xbd9a7f6b	-0.07543834
102	0x3d736d1c	0.059430227
103	0xbd466972	-0.048440404
104	0xbcc8f6cb	-0.024531743
105	0xbd291a9d	-0.041285146
106	0x3d51212f	0.051057037
107	0xbd6172fc	-0.0550413
108	0x3da531ab	0.08066114
109	0xbdd60c75	-0.10451595
110	0xbce35c47	-0.027753962
111	0x3c9d5da5	0.019209692
112	0xbc417b56	-0.011809191
113	0x3d54341d	0.05180751
114	0x3d82c2da	0.06384821
115	0x3c9441dd	0.018097812
116	0xbd702508	-0.058629066
117	0x3dd8fc36	0.105949804
118	0xbdb0b980	-0.08629131
119	0xbd167180	-0.036729336
120	0xbc82ffed	-0.015991176
121	0xbd5844f9	-0.052800152
122	0xbdd9c101	-0.10632516
123	0x3d05c0b3	0.032654475
124	0x3db52187	0.088442855
125	0xbd9c8a0a	-0.07643516
126	0xbd61500e	-0.055007987
127	0x3e39a1a6	0.1812807
128	0xbd936c20	-0.071983576
129	0xbda404d3	-0.08008733
130	0x3ca43457	0.020044489
131	0xbd0c8699	-0.03430805
132	0xbdb52a78	-0.08845991
133	0x3dc9c293	0.09851565
134	0x3db9a642	0.09064914
135	0x3dc3244f	0.0952841
136	0xbe1ea00f	-0.15490745
137	0xbd824320	-0.06360459
138	0xbce9bd7f	-0.028532742
139	0xbddb3427	-0.10703307
140	0x3adf6e6c	0.0017046458
141	0x3d098def	0.033582624
142	0x3e058b42	0.13041404
143	0x3cd44d02	0.025915626
144	0xbd8f3f69	-0.069945164
145	0xbb3cff94	-0.002883886
146	0xbd51f8e3	-0.051262747
147	0xbcdb27fe	-0.026752468
148	0xbd61047f	-0.05493593
149	0xbd543b9e	-0.051814668
150	0xbc242a26	-0.010019815
151	0x3d56b58d	0.052419234
152	0xbd68b2e0	-0.056811213
153	0xbda8f7f3	-0.082504176
154	0x3d3bd623	0.045858514
155	0xbdef9f7f	-0.11700343
156	0x3c3d0507	0.011536843
157	0xbde4acb1	-0.11165751
158	0xbd60d2c2	-0.054888494
159	0xbdfca999	-0.12337036
160	0x3d06cb78	0.032908887
161	0x3c84e3ec	0.016221963
162	0xbd8c5ef9	-0.06854052
163	0x3d81ef35	0.06344453
164	0x3bb300e1	0.0054627513
165	0xbb360f7a	-0.002778022
166	0xbdb2c4ee	-0.087289676
167	0xbd8b2f6a	-0.06796153
168	0xbcbcb2f4	-0.02303455
169	0xbd331912	-0.04372508
170	0xbd50bccb	-0.050961297
171	0x3d313494	0.043263033
172	0x3dabe0f7	0.08392518
173	0x3b8ecc53	0.0043578534
174	0xbe2371b8	-0.15961349
175	0xbbcfe15b	-0.006344003
176	0x3c8a461e	0.016879138
177	0xbcea4dd6	-0.028601568
178	0x3e08ec2a	0.1337134
179	0xbe5f78dc	-0.21823448
180	0xbd896e1d	-0.067104556
181	0x3d8072c5	0.062718906
182	0xbdf22b18	-0.11824626
183	0x3c8cfda3	0.017210787
184	0xbdb2025b	-0.086918555
185	0xbd7f0f34	-0.06227036
186	0x3d142895	0.036171515
187	0x3cd34a47	0.025792254
188	0xbd928a22	-0.07155253
189	0xbd0be3c6	-0.03415277
190	0xbd980875	-0.07423488
191	0xbaef2fdd	-0.0018248517
192	0xbdceeb23	-0.101034425
193	0xbd292e0b	-0.041303676
194	0x3d295e4a	0.041349687
195	0x3d9db9a8	0.07701427
196	0xbd9ce4a8	-0.076608
197	0xbb689960	-0.003549181
198	0xbd102f5f	-0.035201427
199	0x3d1c3394	0.038135126
200	0x3d0ff6de	0.03514754
201	0xbc969d5f	-0.018385587
202	0xbdc44535	-0.09583513
203	0x3c7b08b7	0.015321902
204	0xbdfceb19	-0.12349529
205	0xbd4141cf	-0.0471819
206	0xbc578d64	-0.013156269
207	0xbc357b2a	-0.011076728
208	0xbde6d701	-0.112714775
209	0xbd90e834	-0.07075539
210	0x3d8ee218	0.06976718
211	0x3d7ac9c4	0.061227575
212	0xbe23e611	-0.16005732
213	0xbd070fb7	-0.03297397
214	0x3d92a300	0.07159996
215	0xbba67db9	-0.0050809053
216	0xbdb79fb5	-0.089660086
217	0x3bdd3009	0.006750111
218	0xbd9869ec	-0.07442078
219	0x3d933460	0.07187724
220	0xbbdb7794	-0.0066976044
221	0x3d40d6e4	0.047079936
222	0xbd2fae5d	-0.042890895
223	0xbd557d47	-0.052121427
224	0x3bb8b1ab	0.005636414
225	0xbdeab364	-0.11459997
226	0xbd192331	-0.037387077
227	0xbe15ddd4	-0.14635402
228	0xbd057812	-0.03258521
229	0x3dd2eca3	0.10299041
230	0x3da030f0	0.07821834
231	0x3d32a888	0.043617755
232	0x3be5b891	0.0070105274
233	0xbdce31d7	-0.100681
234	0xbdb881b9	-0.09009118
235	0x3c4f36f1	0.012647376
236	0xbcd06f10	-0.025443584
237	0x3dc6d80e	0.09709178
238	0xbcc70ada	-0.024297167
239	0xbd8a7f23	-0.06762531
240	0x3da5a9b8	0.08089012
241	0x3debfd73	0.11522951
242	0xbc9c74f4	-0.019098736
243	0xbd952b94	-0.072837025
244	0xbd9592c8	-0.07303387
245	0xbd904f8d	-0.07046423
246	0xbddfd5ce	-0.10929452
247	0xbcfa9f02	-0.030593399
248	0xbe1de3fe	-0.15419003
249	0xbd3e362a	-0.046438374
250	0x3d4a744c	0.049427316
251	0xbd88bdf8	-0.06676859
252	0xbd3a4877	-0.045479264
253	0x3c0c303c	0.008556422
254	0xbd1e1322	-0.038592465
255	0x3ca56c7f	0.020193337

weight f4 [1, 4, 1, 12, 12]
0	0xbe3014e9	-0.17195477
1	0xbd05fc73	-0.032711457
2	0x3d599607	0.053121593
3	0x3d9e672a	0.07734521
4	0xbe093f97	-0.13403164
5	0x3d07b147	0.03312805
6	0x3d1e88b4	0.03870459
7	0x3d584cec	0.052807733
8	0x3d4df29c	0.0502802
9	0x3cd9a4f8	0.026567921
10	0xbd7808bf	-0.060555216
11	0xbd946a6d	-0.072468616
12	0xbdc80153	-0.097658776
13	0x3cd17410	0.025568038
14	0x3ca12246	0.019669663
15	0x3dbe190e	0.092821226
16	0x3ca168a8	0.019703224
17	0xbcf0cea7	-0.029395415
18	0xbcbaf1ef	-0.022820441
19	0x3d054c48	0.03254345
20	0x3cd95aad	0.026532495
21	0xbcaf6527	-0.021410538
22	0x3d42caff	0.047556873
23	0xbd3b4364	-0.045718566
24	0xbd2afb69	-0.04174367
25	0x3cc17fd2	0.02362052
26	0xbbe007a1	-0.006836847
27	0x3d8a6bdb	0.06758853
28	0xbd41555f	-0.047200557
29	0x3ca1b541	0.019739749
30	0x3d91009e	0.07080196
31	0xbd39b04e	-0.045334153
32	0x3e0b9994	0.13632804
33	0x3d5acc77	0.05341765
34	0xbd29b221	-0.041429643
35	0x3dc9414a	0.09826906
36	0x3cc3b331	0.023889156
37	0x3ab0eb29	0.0013497818
38	0xbdcf88b7	-0.10133498
39	0xbe22c7dd	-0.15896554
40	0xbcc4d085	-0.024025211
41	0x3d034455	0.03204759
42	0x3ce0ee08	0.027457252
43	0xbceb0b4f	-0.028691916
44	0x3d71a5e6	0.058996104
45	0x3da32309	0.07965667
46	0x3c906ec8	0.01763095
47	0xbd82d594	-0.06388393
48	0xbc92f2fa	-0.017938126
49	0xbc2b8fa6	-0.01047126
50	0x3e32ee49	0.17473711
51	0x3e1596ea	0.1460835
52	0xbd32d686	-0.043661617
53	0x3c01dbfa	0.007925982
54	0x3d371418	0.044696897
55	0x3d84e972	0.06489839
56	0xbd0cb4b4	-0.03435202
57	0xbdecf595	-0.115702786
58	0x3b8bcae4	0.00426613
59	0x3d86e0f7	0.065858774
60	0xbdb6fc61	-0.08934856
61	0xbd9998cc	-0.07499847
62	0x3ce353ab	0.027749857
63	0x3db1432e	0.08655392
64	0xbe104718	-0.1408962
65	0xbd21f03d	-0.03953575
66	0x3e417bb9	0.18894853
67	0x3c5b04d5	0.013367851
68	0xbd8d73bf	-0.069068424
69	0xbcda47c3	-0.026645547
70	0xbc9fc2b6	-0.019502025
71	0xbe0be75a	-0.13662472
72	0x3c45ac0c	0.012064945
73	0x3d9b3049	0.07577569
74	0x3db8ffcb	0.09033164
75	0x3da923f7	0.08258813
76	0x3db50880	0.08839512
77	0x3d50a66d	0.050939966
78	0xbd2aca63	-0.041696917
79	0x3d03011f	0.03198349
80	0xbd45bd36	-0.04827615
81	0xbdac6b72	-0.08418931
82	0x3c0a76b2	0.008451151
83	0xbc8f3a7c	-0.017483942
84	0x3d017796	0.031608187
85	0x3d940ad1	0.072286256
86	0x3dc8b346	0.09799819
87	0x3d9fe5b9	0.07807488
88	0x3b1e98ec	0.0024200035
89	0xbe350de1	-0.17681076
90	0xbd22f587	-0.039784934
91	0x3da19ee2	0.078916326
92	0xbddcd65e	-0.10783075
93	0xbc8e71db	-0.017388275
94	0x3d5aab7f	0.053386208
95	0x3ddd067b	0.10792252
96	0xbce29084	-0.027656801
97	0xbc96a648	-0.018389836
98	0x3db6fb1f	0.08934616
99	0x3e0566da	0.13027516
100	0xbd11d264	-0.035601035
101	0x3d5cc677	0.05390021
102	0x3c3c4d10	0.0114929825
103	0x3d83c721	0.06434465
104	0x3c945a4f	0.018109469
105	0x3d879d17	0.066217594
106	0xbd53f30b	-0.051745456
107	0x3d6a708e	0.057236247
108	0x3df26bc0	0.11836958
109	0x3d2aa310	0.041659415
110	0xbdaa7dbd	-0.08324764
111	0xbe066ece	-0.13128206
112	0x3ddc0388	0.10742861
113	0x3dbebb7b	0.09313103
114	0xbde93e56	-0.11388843
115	0xbd3cc1e1	-0.046083335
116	0x3dd9988f	0.10624801
117	0x3d64cfeb	0.05586235
118	0x3d81ec04	0.063438445
119	0xbba660b5	-0.0050774463
120	0xb7fdc527	-3.0251756e-05
121	0x3d72230e	0.059115462
122	0xbc9a243e	-0.01881611
123	0xbc9c3af7	-0.019071085
124	0x3cbb4454	0.02285973
125	0x3bdf5197	0.006815146
126	0x3da878fc	0.08226201
127	0xbd0868ab	-0.033302944
128	0x3c961a43	0.01832307
129	0x3a4a70f0	0.00077225175
130	0xbc6ae1f2	-0.014336096
131	0x3dd7e26f	0.10541236
132	0xbdaef4fe	-0.08542822
133	0x3b0c8546	0.0021441742
134	0x3c0c025e	0.008545486
135	0x3d8f3803	0.06993105
136	0x3d517f64	0.05114688
137	0xbd50c918	-0.050973028
138	0x3cc9f036	0.024650674
139	0xbcb8153e	-0.022471067
140	0xbd857a05	-0.06517414
141	0xbb5b84c0	-0.0033495873
142	0x3d2f95ea	0.04286758
143	0xbd9c791d	-0.07640288
144	0x3d93e283	0.07220938
145	0x3d5c3188	0.053758174
146	0xbe0fdc3b	-0.14048855
147	0x3a079fbc	0.00051736436
148	0x3dcd4dad	0.10024581
149	0xbca4bb04	-0.020108707
150	0xbdc53392	-0.09628977
151	0xbd87df95	-0.06634442
152	0x3d761ea0	0.0600878
153	0xbc8a605e	-0.016891655
154	0xbd90a52f	-0.07062756
155	0x3da102de	0.07861875
156	0x3dd0c7cd	0.10194359
157	0xbc8e3792	-0.017360482
158	0xbc19ef18	-0.009395383
159	0x3d8f2bd0	0.069907784
160	0xbcbb8dd3	-0.022894775
161	0xbd0c0034	-0.03417988
162	0x3dad1db9	0.08452935
163	0xbcd0e572	-0.025500033
164	0x3cda5983	0.02665401
165	0x3d8f1171	0.069857486
166	0xbd1732fd	-0.03691386
167	0x3dfd66aa	0.12373097
168	0x3da6c048	0.081421435
169	0x3d86e598	0.0658676
170	0xbc2fb82a	-0.0107250605
171	0x3bb394f5	0.0054804035
172	0x3d26e1a5	0.040742535
173	0xbda0e8a5	-0.078568734
174	0x3c178c96	0.009249827
175	0x3a289641	0.0006431081
176	0x3d070c9c	0.03297101
177	0x3e045303	0.12922291
178	0x3d47cf26	0.048781537
179	0x3c25fecf	0.010131552
180	0x3d843a1b	0.06456395
181	0xbe5281e3	-0.2055736
182	0xbdc699ac	-0.09697279
183	0xbd3c16fc	-0.045920357
184	0x3bcc93db	0.0062432117
185	0xbcdda238	-0.027054891
186	0x3d7f708e	0.0623632
187	0xbda0b950	-0.078478456
188	0xbd6c8fa1	-0.057754163
189	0x3d0ac63c	0.033880457
190	0xbd45ca96	-0.048288904
191	0xbc53845d	-0.012909976
192	0x3df2c94a	0.11854799
193	0xbd0adecf	-0.033903893
194	0xbe5570bb	-0.20843785
195	0xbe60cb69	-0.21952595
196	0x3cd63d35	0.026152233
197	0x3d5467f0	0.051856935
198	0xbdd1465b	-0.10218497
199	0xbe424a53	-0.18973665
200	0x3e2b7732	0.16744688
201	0x3e4ccefa	0.2000083
202	0xbbacc552	-0.005272546
203	0x3dce6614	0.100780636
204	0xbdb22e32	-0.08700217
205	0x3c5d7eed	0.013519031
206	0xbb3e8da5	-0.0029076126
207	0x3d10a9ae	0.03531807
208	0x3b12e9e5	0.0022417244
209	0x3d593141	0.053025488
210	0xbdb48840	-0.0881505
211	0xbd87fdfd	-0.06640241
212	0x3c020ffb	0.00793838
213	0x3d9b926e	0.075962886
214	0xbdada302	-0.08478357
215	0x3c863956	0.016384762
216	0x3dab2582	0.083567634
217	0xbd85c011	-0.065307744
218	0xbdb92cf9	-0.09041781
219	0xbde6f595	-0.1127731
220	0x3d9306bf	0.07179021
221	0x3d466b3e	0.048442118
222	0xbd75b18d	-0.05998378
223	0x3d0e8516	0.03479489
224	0x3caa3312	0.020776305
225	0x3d909088	0.07058817
226	0x3d16e5e6	0.036840342
227	0x3c2fcb03	0.010729554
228	0xbd57085d	-0.05249821
229	0xbdba4821	-0.09095789
230	0xbd2794fc	-0.040913567
231	0x3d58df28	0.052947193
232	0xbe2c7dd4	-0.16844875
233	0x3ce6c1f1	0.02816865
234	0x3c695579	0.01424157
235	0xbcfb69e9	-0.03069015
236	0x3db4fcd8	0.088372886
237	0x3d62c61c	0.055364713
238	0x3c1fa15e	0.009743063
239	0x3b18e0ad	0.0023327277
240	0x3dbca16a	0.09210475
241	0x3debf539	0.11521382
242	0xbe3a1773	-0.18173008
243	0xbe187ff2	-0.14892557
244	0x3e0e09be	0.13870904
245	0x3e701cd5	0.23448499
246	0xbd5ec82b	-0.054390114
247	0xbe58f15c	-0.21185821
248	0x3c556d4d	0.013026548
249	0x3d9fa2f0	0.0779475
250	0xbb66e74a	-0.0035233074
251	0x3daeb863	0.08531263
252	0xbd235fe4	-0.03988637
253	0xbcb5808b	-0.02215602
254	0xbd9c77e7	-0.07640057
255	0xbd62da5d	-0.05538403

weight f4 [12, 12]
0	0x3e95feb5	0.2929589
1	0xbe63ed80	-0.22258568
2	0xbe03137a	-0.12800398
3	0xbdbbfdfa	-0.091793016
4	0x3e220e53	0.15825777
5	0x3e0919b0	0.13388705
6	0x3e001816	0.12509188
7	0xbd875eaf	-0.06609856
8	0xbe4225cc	-0.18959731
9	0x3e9fe7df	0.3123159
10	0x3dff188b	0.12455853
11	0xbd2b09c4	-0.04175736
12	0x3e1ab987	0.15109836
13	0xbe2c0887	-0.16800128
14	0x3e84953d	0.2589511
15	0xbcbbb93c	-0.022915475
16	0x3e17e789	0.14834417
17	0x3d867c36	0.0656666
18	0x3e67b501	0.22627641
19	0x3d99eba0	0.07515645
20	0xbebaedfa	-0.36509687
21	0x3dcfe0cc	0.101502985
22	0x3e8173d4	0.25283682
23	0xbebc2f6a	-0.36754924
24	0xbcb80ad7	-0.022466106
25	0xbd882c71	-0.066491015
26	0x3e842c8d	0.2581524
27	0x3e994364	0.29934227
28	0x3e1fb6f8	0.15597141
29	0x3e4d363c	0.2004022
30	0xbddc9c24	-0.10771969
31	0xbe616ced	-0.22014208
32	0xbebd9350	-0.37026453
33	0xbe5849c4	-0.2112189
34	0x3e3cad58	0.184255
35	0xbe7d3b07	-0.24729548
36	0x3c43775a	0.011930311
37	0xbe1c0fe7	-0.15240441
38	0xbe19cdca	-0.15019909
39	0xbda7cd51	-0.08193458
40	0x3d807c00	0.06273651
41	0x3d3b05a6	0.045659684
42	0x3d8eeaa8	0.06978351
43	0xbe062278	-0.13099086
44	0x3dcaef75	0.09908954
45	0xbda20625	-0.07911328
46	0x3e6b03fc	0.22950739
47	0xbdaa9feb	-0.08331283
48	0x3e83053c	0.2558993
49	0xbe66336f	-0.22480558
50	0xbe0dccd8	-0.13847673
51	0xbe7ef9b2	-0.24899939
52	0xbd1a1036	-0.037613116
53	0x3db1c52c	0.08680186
54	0x3d79e2a4	0.061007157
55	0x3e114df8	0.14189899
56	0x3d3c69b1	0.045999233
57	0x3deaddd1	0.11468089
58	0xbe61788d	-0.22018643
59	0x3e1ffe4c	0.1562435
60	0xbd7724ea	-0.06033794
61	0x3e1ad5bc	0.15120596
62	0xbdf9b237	-0.12192195
63	0x3d813538	0.06308979
64	0x3e8f1638	0.2794664
65	0x3d67c3fa	0.056583382
66	0xbe7656dd	-0.24056573
67	0xbe1e69a5	-0.15469988
68	0xbe4bdb7a	-0.19907942
69	0x3e5b90b0	0.21441913
70	0x3d5266c8	0.05136755
71	0xbdc76ff9	-0.09738154
72	0x3c53ae04	0.0129199065
73	0xbc629ca4	-0.013831291
74	0x3c97e32e	0.018540945
75	0xbe2ab45b	-0.16670363
76	0xbdd15b3a	-0.10222478
77	0x3db7a3a2	0.08966757
78	0x3dbb0cda	0.091333106
79	0xbe3a29f0	-0.1818006
80	0x3df815fa	0.12113567
81	0x3e55545f	0.20832966
82	0xbe633a27	-0.22190152
83	0x3e6ec343	0.23316674
84	0xbd9bd950	-0.076098084
85	0xbe1cac79	-0.15300168
86	0x3e203b8a	0.15647712
87	0xbe40d0e2	-0.18829682
88	0x3da4b495	0.08042256
89	0xbe21a6f0	-0.15786338
90	0x3e6de028	0.2323004
91	0x3e406403	0.18788151
92	0x3d469b43	0.048487913
93	0x3c18841e	0.009308843
94	0x3dadbab4	0.084828764
95	0xbe9279b4	-0.28608477
96	0x3e2bcef4	0.16778165
97	0x3b377ec2	0.0027999138
98	0x3eadd2f9	0.33950022
99	0xbda037d2	-0.07823147
100	0x3de55207	0.11197286
101	0xbe86744c	-0.26260602
102	0xbe609013	-0.2192996
103	0xbe2f8fcb	-0.17144696
104	0xbe6c8d6b	-0.23100822
105	0xbe745303	-0.23859791
106	0x3e2c4b15	0.16825517
107	0xbe20332b	-0.15644519
108	0x3c800aec	0.015630208
109	0xbe9744f6	-0.295448
110	0xbce01169	-0.027352052
111	0x3e6725aa	0.22572961
112	0x3e903a12	0.28169304
113	0xbbc24638	-0.005928781
114	0x3e3e5f31	0.18591
115	0x3e726668	0.23671877
116	0xbe6174e0	-0.2201724
117	0xbe2a9590	-0.16658616
118	0xbe33d924	-0.17563301
119	0x3d079f4d	0.033110905
120	0xbd24509d	-0.04011594
121	0x3e256963	0.16153483
122	0x3df2cfd7	0.118560486
123	0xbe531455	-0.20613225
124	0x3e93cf3a	0.2886904
125	0xbe856e1e	-0.26060575
126	0xbe25e384	-0.16200072
127	0xbe54dd76	-0.20787606
128	0x3c599c66	0.013281917
129	0x3dfb8290	0.12280762
130	0xbe3a4223	-0.18189292
131	0xbdd09e9d	-0.10186503
132	0xbd9a182e	-0.07524143
133	0x3de0e441	0.10981036
134	0xbdad2440	-0.0845418
135	0xbdfa8980	-0.12233257
136	0xbde854dd	-0.113443114
137	0x3e07c621	0.13259174
138	0xbb90aaee	-0.0044149077
139	0xbdcdc857	-0.100479774
140	0x3d2d5027	0.042312767
141	0x3df5e430	0.12006414
142	0x3dd9ef59	0.10641355
143	0x3e91d879	0.28485468

bias f4 [12]
0	0x3e4b2a8a	0.19840446
1	0xbd6c2f62	-0.057662375
2	0x3d9d3970	0.07676971
3	0x3d7474c8	0.059681684
4	0xbd5a7ca6	-0.05334153
5	0x3e812bbc	0.2522868
6	0x3e16a9a3	0.14713149
7	0x3e89c288	0.26906228
8	0xbe5b4c25	-0.21415766
9	0x3d5028e8	0.05082026
10	0x3e14d653	0.14534883
11	0xbe43f5ba	-0.19136706

weight f4 [3, 12]
0	0x3c7e7e0d	0.015532983
1	0xbdc12726	-0.09431295
2	0xbd77a4a7	-0.06045976
3	0xbe706139	-0.23474588
4	0xbde35c40	-0.1110158
5	0xbec4b17c	-0.3841666
6	0xbe5d37fc	-0.21603388
7	0x3e8547b2	0.26031262
8	0xbe930fea	-0.2872308
9	0x3da54e0c	0.08071527
10	0xbe8fe1c4	-0.28101933
11	0xbc41e78d	-0.011834991
12	0x3ecc0c20	0.39853
13	0xbe8a80f7	-0.27051517
14	0xbeb9436c	-0.3618425
15	0x3e04fc77	0.12986933
16	0x3eaef767	0.34173128
17	0x3eaa3cd3	0.3324953
18	0x3dfd8834	0.12379494
19	0xbdc3ddc8	-0.09563786
20	0xbea80472	-0.32815892
21	0xbea11a11	-0.314652
22	0x3e8e5af0	0.27803755
23	0x3ec92e45	0.39293113
24	0xbea42589	-0.32059887
25	0x3e734add	0.23759027
26	0x3df5343b	0.11972853
27	0xbe9589dd	-0.29206744
28	0x3d4640b4	0.04840155
29	0x3c46d6a1	0.012136132
30	0x3d2e5685	0.04256298
31	0x3c18b606	0.0093207415
32	0xbcbe771e	-0.023250159
33	0x3e945c94	0.28976882
34	0xbe0723df	-0.13197277
35	0xbecb6cd4	-0.39731467

bias f4 [3]
0	0xbe828560	-0.25492382
1	0x3d996e30	0.0749172
2	0xbe41dc2d	-0.18931647

weight f4 [3, 12]
0	0xbe8ea4d6	-0.27860135
1	0xbe48f3b9	-0.19624223
2	0xbe52352f	-0.205281
3	0xbe63d55f	-0.22249363
4	0x3c4580b6	0.012054613
5	0xbdabbc21	-0.08385492
6	0xbcb6f3c2	-0.02233303
7	0xbe0ad1c8	-0.13556588
8	0x3e88ec8c	0.2674297
9	0x3e827f3f	0.25487706
10	0xbe9a3661	-0.30119613
11	0xbe8db3b3	-0.27676162
12	0xbdeb364a	-0.11484964
13	0xbdffd153	-0.12491097
14	0xbda05631	-0.0782894
15	0x3cd4b0f2	0.02596328
16	0xbe0c625a	-0.13709393
17	0xbe385705	-0.18001945
18	0xbdb94252	-0.09045853
19	0xbca681d8	-0.020325586
20	0xbe45b777	-0.19308268
21	0xbcfd25b2	-0.030901764
22	0xbe38e1fb	-0.18054955
23	0xbe17d81f	-0.14828537
24	0xbe255bcc	-0.16148299
25	0x3e1d6e24	0.15374047
26	0x3e12b3df	0.14326428
27	0x3c360559	0.011109673
28	0xbe83c538	-0.25736403
29	0xbd0d9d5a	-0.03457389
30	0x3e592aa9	0.2120768
31	0x3d1008a3	0.035164487
32	0x3e368bc4	0.17826754
33	0x3e82e92f	0.2556853
34	0xbe613523	-0.21992926
35	0x3e4b784e	0.19870111

bias f4 [3]
0	0xbeb12e8e	-0.3460583
1	0x3e84b8c2	0.2592221
2	0x3da65e03	0.081234

weight f4 [3, 3]
0	0xbebb7b7b	-0.36617646
1	0x3ee8d1f6	0.45472687
2	0x3eec6c67	0.46176454
3	0xbeca7daf	-0.39549014
4	0x3c8cb31b	0.017175248
5	0x3e9f6988	0.311352
6	0xbe04508a	-0.12921348
7	0x3eb501e3	0.35353002
8	0x3ee3c980	0.4448967

bias f4 [3]
0	0x3ee55f6c	0.44799364
1	0x3f088953	0.5333454
2	0xbf0a7532	-0.54085076
