data/best/output/poster/train/2_stemgnn.pt (torch, 435920 bytes, 73 tensors)

weight_key f4 [135, 1]
000000 7a c8 78 bb d0 e5 21 3e 1e 6b 7b be a0 f8 5f be
       -0.003796129 0.15810323 -0.2455258 -0.21872187
000010 66 c5 e8 bd ed 69 a4 3d 99 49 b0 bb c8 de 71 3e
       -0.11365776 0.08028016 -0.0053798673 0.2362014
000020 d5 cd d5 bc 2a a4 9f 3d 50 00 b8 bd ce 41 70 bd
       -0.026099125 0.07794984 -0.089844346 -0.058656506
000030 d8 87 91 be 26 3c 49 be ce 08 fa bd 12 56 3d 3c
       -0.28423953 -0.19651851 -0.122087106 0.011556165
000040 55 fc f0 3d c1 c5 36 3e e3 cf 4d be cb 15 04 be
       0.117668785 0.17848875 -0.20098834 -0.12898938
000050 bf 17 dd 3d a4 3f 7c 3e 36 05 7d bd 90 18 63 3e
       0.10795545 0.24633652 -0.061772548 0.22177339
000060 45 82 46 bd 31 7b 00 3d ba 23 8a 3e 08 9b 8c be
       -0.04846408 0.031367484 0.26980382 -0.2746203
000070 06 ea 3e be b3 94 98 bd e7 2f ea bd fd 1e 84 3e
       -0.1864396 -0.07450237 -0.11434918 0.25804892
000080 1f f8 43 be 01 64 0b be 20 b1 53 be 1b 21 8e be
       -0.1913762 -0.13612367 -0.20673037 -0.27759632
000090 87 6a 31 be d8 cb 82 3e 9d e5 07 3e 0b 64 14 3e
       -0.17325793 0.25546145 0.13271184 0.14491288
0000a0 94 c4 83 3c 19 d4 1b be b4 66 4d 3d c3 44 8e be
       0.016084947 -0.15217628 0.050146773 -0.27786836
0000b0 aa f4 5c be 45 54 1e be 0a 96 3f 3e 1b 08 32 3e
       -0.21577707 -0.15461834 0.18709579 0.17385904
0000c0 f8 a6 07 be 64 b8 35 bc 21 fd 41 3e b0 4f 97 3e
       -0.13247287 -0.011091325 0.18944217 0.29552984
0000d0 47 a4 f0 3d 3c 72 25 3d be e6 4c 3e 0e f2 32 be
       0.117500834 0.040392146 0.20009896 -0.17475149
0000e0 18 90 60 3d ba 17 6d be 7f 71 53 be 0a 4a 1d be
       0.05482492 -0.23153582 -0.20648764 -0.15360275
0000f0 0a fa 08 3e b3 ae f2 3d 42 03 36 be 9d 9c b6 3d
       0.13376632 0.118497275 -0.1777468 0.0891659
000100 bc d8 25 3e 0f bf 20 bd 49 b4 22 3c c5 38 8b 3d
       0.16195959 -0.039244708 0.009930679 0.06797937
000110 7d 10 3c 3e 88 6c 91 3e 24 ac 6b be 87 bc e1 bd
       0.18365665 0.28403115 -0.23014885 -0.11022287
000120 c4 c9 eb 3d 0d d8 7a 3e e8 85 83 3e f1 5a 85 3e
       0.11513093 0.2449648 0.256881 0.26045945
000130 95 8e 6f 3d ea 4c 84 be 9c 15 e0 3c ed 01 3f be
       0.058485586 -0.2583993 0.027354054 -0.18653078
000140 b7 94 8e be 97 fd 86 3e 7d f6 66 3e 3b ab 97 be
       -0.27847835 0.2636535 0.22554965 -0.29622826
000150 78 3a 65 3d 42 a6 4e bd 8d 51 4d bd d8 cf 0b be
       0.055963963 -0.050451525 -0.0501266 -0.13653505
000160 bf 41 e7 3d 6c df 34 be 99 0f de 3d 6a 04 19 3e
       0.11291837 -0.17663354 0.10842819 0.1494309
000170 33 19 59 3e 8d 3e e1 3d 5e 30 97 be 0d e0 46 be
       0.21201019 0.10998259 -0.2952909 -0.19421406
000180 3c 8b 17 3e 94 5a 7f 3d 90 00 6d be cf df 2e be
       0.14799207 0.06234224 -0.23144746 -0.17077564
000190 25 dc 8e 3e ab 49 4b 3e 56 f3 05 be 39 f6 98 bd
       0.27902332 0.19852321 -0.13081107 -0.07468838
0001a0 a7 4c 90 be 4f fa 8e bb be ee 63 be 8d 61 69 be
       -0.2818348 -0.004363335 -0.22259042 -0.22791119
0001b0 02 0b 7e bc 16 ac 39 3d 17 86 f7 bd 72 73 35 3e
       -0.015505554 0.04533013 -0.120861225 0.1771982
0001c0 59 e7 38 be db c5 89 3e 38 3a 4f 3e 4d 11 81 be
       -0.18057002 0.26908764 0.20237052 -0.25208512
0001d0 d3 a8 97 bd 96 e1 4d 3c bc 08 2b 3d 87 db 8c 3d
       -0.074052475 0.012565991 0.041756377 0.06877809
0001e0 16 8c eb 3d 67 5e 84 3c 20 c1 15 be 0b 3c 0f 3e
       0.11501329 0.016158296 -0.14624453 0.13987748
0001f0 f7 60 92 be 91 17 35 be 2c 51 9b bd 88 87 15 be
       -0.28589603 -0.17684771 -0.07583842 -0.14602482
000200 f4 f8 d5 bd f0 0e 79 be 7b 9f 80 bd da b2 83 3d
       -0.10447875 -0.24322104 -0.062804185 0.064305976
000210 46 88 45 be 04 93 7f bc d5 92 58 3e
       -0.19290265 -0.015599016 0.21149762

weight_query f4 [135, 1]
000000 07 44 54 bd 22 4a 1a 3d 4c 24 b9 3d 1c 8f 43 3e
       -0.05182269 0.037668355 0.09040126 0.1909756
000010 e5 d6 a5 3e dc 9f d4 3e 87 bf a3 3e e6 74 d2 3e
       0.32390514 0.41528213 0.3198206 0.4110481
000020 fd 2f d8 3d 6b b8 10 be 00 9d 86 bc 53 f7 a6 3e
       0.10556028 -0.1413285 -0.016432285 0.32610568
000030 76 bc f8 3d 5a 8a c9 bc 1a 36 d7 bd 35 98 1f be
       0.12145321 -0.024602104 -0.10508366 -0.15585406
000040 d0 06 04 be ca 5b 7a 3d 9a 82 91 3e 01 50 90 3e
       -0.12893224 0.061122693 0.28419954 0.28186038
000050 5c af 28 be 48 41 9d 3e 9c 1e e1 bd 75 6c 74 3d
       -0.16473144 0.30713868 -0.109921664 0.059673745
000060 7d ac 0f 3b 91 9e 86 3d 31 7b 84 3d 31 1a 13 be
       0.002192288 0.06573213 0.064688094 -0.1436546
000070 37 18 09 be f9 21 9b 3d 54 be 00 3e f2 fa 56 bc
       -0.13388143 0.07574839 0.12572604 -0.013121353
000080 c6 04 6f 3e c5 95 14 be b9 7e d0 3d 7e 0f c4 3e
       0.23341665 -0.14510258 0.101804204 0.3829307
000090 c4 25 5d 3a 9a 8e c7 3e 0b 4d 6b 3e d0 ee 14 be
       0.00084361085 0.38975984 0.22978608 -0.14544225
0000a0 3e 26 9f 3e bd 44 b5 3d 81 a1 1a bc 34 a0 b8 3e
       0.31083864 0.088510014 -0.00943792 0.36059725
0000b0 f0 1a ef bd fb ca 1e 3e 39 49 7a 3d a0 d6 ab 3e
       -0.1167506 0.15507118 0.061104987 0.33562183
0000c0 c9 0a 53 3e f3 24 88 3e 40 d9 69 3e 28 b0 54 3d
       0.20609583 0.2659069 0.2283678 0.05192581
0000d0 f7 60 79 3d 8d 65 f9 bd d9 55 91 3e 55 c6 b7 3e
       0.06088349 -0.121775724 0.2838581 0.35893503
0000e0 a8 11 a7 3e 3f 04 b1 bd c0 88 0b 3e f1 08 b1 bd
       0.32630658 -0.08643388 0.13626385 -0.086442836
0000f0 c8 b6 26 bd 6a b7 4d bd 68 ca 65 3e 01 00 5e bd
       -0.040701658 -0.050223745 0.22440493 -0.054199222
000100 9a 9f ee 3d 9a d4 0a 3e 71 fc a0 3e 4f 20 d0 bd
       0.11651535 0.13557664 0.31442598 -0.101624124
000110 a6 1a a5 bd 09 26 4a bd 03 67 a9 3e 97 5b 87 3c
       -0.080617234 -0.04935268 0.33086404 0.016523166
000120 73 5a bf 3e f8 c4 6c 3e 47 33 25 3e f4 73 f8 3d
       0.37373695 0.23122013 0.16132842 0.12131491
000130 e1 3f 84 3d aa e1 23 3e 3f 60 62 3d 24 cd f7 3d
       0.064574964 0.16004053 0.05526757 0.12099674
000140 10 dd 24 3e 91 d3 df bd 94 e7 06 bd ad cd b9 3e
       0.16099954 -0.10929025 -0.032935694 0.3628973
000150 5d a5 f0 bd 44 9d d0 3d eb 69 d5 3e e4 30 6c 3e
       -0.117502905 0.10186246 0.41682371 0.23065525
000160 8d f8 06 3e ed 8b 09 be 52 99 8a 3e 38 9a b3 bd
       0.13180752 -0.13432284 0.270701 -0.08769649
000170 e9 1b 20 3d bb bd c1 3c 3a 11 a2 3d 49 7a 01 3e
       0.039089117 0.02365004 0.07913442 0.12644304
000180 62 3c bc 3e 1b 5b 23 3e 9d ed c6 3e 6c ac 9b 3e
       0.36764818 0.15952723 0.3885316 0.30404985
000190 88 a0 85 bd 6e f8 82 3e 7a 2b b3 bd 67 e5 4b bb
       -0.065247595 0.25580162 -0.08748527 -0.0031112076
0001a0 b3 7c 57 3e 7f d8 62 3e c9 07 b1 3e 40 88 de 3c
       0.21043663 0.22152899 0.34576252 0.027164578
0001b0 8d 0f fd 3d 1d 3b 8d 3e 9f 7f 28 be 59 b2 ac 3e
       0.12356482 0.27584162 -0.16454934 0.33729818
0001c0 b4 86 fb bd 30 23 02 3e b0 5c 94 3d cc 38 09 bd
       -0.12281552 0.12708735 0.07244241 -0.03350143
0001d0 91 f4 25 3e 29 ca bc 3e ab a3 14 3d 41 a8 5a bd
       0.16206576 0.36872986 0.0362889 -0.053383116
0001e0 c0 fb 57 3c 34 22 2f be 9a 8c 83 3e 46 89 9e bc
       0.0131825805 -0.17102891 0.25693208 -0.019352566
0001f0 a4 0b 9a bd 7b ab 46 bd 15 42 96 3e 19 42 8f 3e
       -0.075217515 -0.04850338 0.29347292 0.27980116
000200 bd 5c b3 3e 4d fa 6b 3e 1b ea c1 3c 95 c7 23 3d
       0.3503169 0.23044701 0.0236712 0.039985258
000210 5c 24 58 3e bc aa bd 3e 7e f4 54 3e
       0.2110762 0.37044322 0.20796391

weight_ih_l0 f4 [405, 3]
000000 87 7c 84 bd 70 2b 84 bd b7 2a d8 bd 05 41 81 3d
       -0.06469064 -0.064535975 -0.10555022 0.063112296
000010 0b ff 6a bb 27 be 02 bd 98 0c a8 3d c4 43 46 bd
       -0.0035857584 -0.031919625 0.08205527 -0.04840447
000020 32 0d c8 ba c1 55 86 3c 72 5d b6 bb b2 a1 87 bd
       -0.0015262722 0.016398313 -0.005565339 -0.06622638
000030 fc 88 3e 3a 7d 75 0e 3e 5c 93 ad 3d 14 11 fa 3d
       0.0007268337 0.13912006 0.08475372 0.12210289
000040 34 cf b0 3c fe d4 9d 3d 5f 3d dd bc d2 11 37 bc
       0.021583177 0.07706641 -0.027006803 -0.011173682
000050 9e 69 75 bd c5 de fa 3c 3e ad ef 3c 12 a2 6a 39
       -0.059915178 0.030623803 0.029257413 0.00022376355
000060 88 c0 51 bd 3a cf ad bd 88 fa e2 3c c8 73 20 bd
       -0.051209003 -0.08486791 0.027707353 -0.039172918
000070 d6 d7 71 3d ac a2 c0 bb fc f0 15 bd fc 3f a8 3c
       0.059043728 -0.005878767 -0.036606774 0.020538323
000080 30 b4 22 bd d4 0d e7 3d 71 f4 e1 3d 9d c5 f3 3c
       -0.03972262 0.112819344 0.110329516 0.029757315
000090 7f 49 f9 3c f0 c9 59 3d e6 21 50 3d f1 43 06 bd
       0.030430553 0.0531711 0.050813578 -0.032779638
0000a0 1a 13 be bd bc f6 11 bd 41 4c c7 3d d6 41 13 3d
       -0.09280987 -0.035635695 0.09731341 0.035951458
0000b0 65 be cc 3d 8e d7 71 3d 15 cc 2e bd 69 af 5a 3b
       0.099972524 0.05904346 -0.042675097 0.0033368713
0000c0 0b 2d 80 bd d7 d6 bb bd 32 30 bb bd 5f bd c1 3d
       -0.06258591 -0.09171837 -0.09140052 0.09459948
0000d0 7a 88 85 3c 25 db b9 3d 53 ee bf 3d 50 fe e6 3d
       0.016300429 0.090750016 0.093716286 0.11278975
0000e0 15 07 b2 3d 97 b4 cf 3d ea 60 05 3e 5f bd 45 3d
       0.08692757 0.10141867 0.13025251 0.0482763
0000f0 c7 91 b3 3c fb 61 a5 3c 67 fb 38 3e 98 db 60 3d
       0.021920098 0.020188322 0.18064652 0.05489692
000100 fd 12 72 bd 0e 40 0b 3d 1d b0 ad 3d e7 63 d9 3d
       -0.05910014 0.033996634 0.084808566 0.10614758
000110 41 ab c3 3d df 93 42 3d 56 e8 1e bd 15 48 49 bd
       0.095541485 0.047504302 -0.03879579 -0.04914101
000120 40 b7 e4 3d d4 45 b7 3d 7b 33 2c bc bc bb a1 3d
       0.11167765 0.089488655 -0.010510321 0.078971356
000130 86 8f 31 3d cd b3 46 3d 15 cc 99 bd 56 4b 4d 3b
       0.043349765 0.048511315 -0.07509629 0.0031325421
000140 82 c5 55 bd b7 f1 a1 3d 02 15 58 bb ab c6 3b 3d
       -0.05219031 0.079074316 -0.0032971506 0.04584376
000150 73 05 e7 3a 24 a5 bd 3c ec b1 2e bd d1 00 17 bd
       0.0017625525 0.023150034 -0.04265015 -0.036866013
000160 4c e4 0d be 99 cc 71 bd 98 40 fe bd 4f 79 1a be
       -0.1385662 -0.05903301 -0.12414664 -0.15085338
000170 c0 74 0a be 6a 87 12 3e 23 bc f9 3d 75 0f 20 3e
       -0.13521099 0.14309469 0.12194087 0.15630896
000180 b0 e4 0c 3e 9d 57 01 bc f2 20 29 3c 65 a7 97 3b
       0.13759112 -0.007894424 0.010322796 0.0046281093
000190 9f c4 19 bd 49 85 9f 3d 45 83 44 bd b4 d7 cf bc
       -0.037541028 0.07789094 -0.04797675 -0.02537141
0001a0 74 4c 88 bd 82 29 09 bd d8 bd b0 3d 92 35 b0 3d
       -0.06655207 -0.03348685 0.0862996 0.08603968
0001b0 8e 6a e3 bb 28 18 f9 ba ec 52 07 3c 5a bb dd bd
       -0.0069401925 -0.0019004392 0.008259516 -0.1082675
0001c0 95 29 47 bd 91 b0 20 bc 3a 23 13 ba 4a f3 69 3d
       -0.04862364 -0.009807722 -0.0005612854 0.057116784
0001d0 9a d4 82 3c 28 57 aa 3d 6b 5c 22 3a 35 fa 93 3d
       0.015970517 0.08317405 0.0006193581 0.072254576
0001e0 96 da ec 3c ba fd c2 ba db 1e f2 bc 5d 02 d0 bd
       0.028912824 -0.0014876642 -0.029555729 -0.10156701
0001f0 65 1f f5 bd 0e 02 7f 3b bd 4c 5a 3d 63 21 93 bc
       -0.11968879 0.0038911137 0.05329584 -0.017960256
000200 20 e9 6e bd 4b 82 5e 3d 97 f6 2c 3d 65 80 e5 bb
       -0.058327794 0.054323476 0.042227354 -0.007003831
000210 72 e3 c4 bc ca 13 c4 3d 4e f4 54 3d e5 55 7c 3c
       -0.024034236 0.09574087 0.0519908 0.015401338
000220 bd 20 27 3e ed dc 15 3e ad 40 14 bc 1f 9a 90 3d
       0.16321082 0.14635058 -0.009048623 0.07060646
000230 42 4a db bc 1e c4 fb 3b 6a a1 c0 3d c0 39 c7 3c
       -0.026768807 0.007683291 0.09405787 0.02431953
000240 7a 44 8a bb 26 02 fa 3c eb ea 12 3d a0 7c 3c 3c
       -0.004219589 0.030518603 0.035868566 0.011504322
000250 01 60 11 3d 91 e2 da 3d e3 8f 2c 3c a6 82 41 bd
       0.035491947 0.10687745 0.010532352 -0.047243737
000260 68 4d 28 3c 47 2b 31 3d c2 8c 37 3d 0e 9c 9c bd
       0.010272361 0.043254163 0.04481197 -0.076469526
000270 01 7c 90 ba 3a 08 4b bd d8 c2 b6 bc 91 e5 28 3d
       -0.0011023284 -0.049568392 -0.022309706 0.041234557
000280 13 20 54 bd 26 7b 29 3d a5 63 c7 3d 53 a3 f5 3c
       -0.0517884 0.04137721 0.097358026 0.029985106
000290 79 a1 07 bd e8 16 60 bd bd 82 a5 bb 85 2f b7 bd
       -0.033112977 -0.054709345 -0.0050509856 -0.089446105
0002a0 6a d8 cb 3c e9 bd c4 bd b2 33 ce bd bd 21 a6 bd
       0.024883468 -0.09606535 -0.10068454 -0.08111904
0002b0 bd 48 74 bc 47 b9 76 3d 2e e5 2f bd f6 f1 e0 3d
       -0.01490992 0.060235288 -0.042943172 0.109836504
0002c0 db 36 74 3b 47 c8 3f bd 5d ad 89 bd 0a 40 17 be
       0.0037264142 -0.04682186 -0.067225195 -0.14770523
0002d0 d4 eb ab 3d 92 ce 73 3d 2e f9 c9 3d 4d 2f 9d 3c
       0.0839459 0.059523173 0.098619804 0.019187594
0002e0 cb cd a5 bd 65 95 43 3d ad 0b 4a bd bd 1a 58 bc
       -0.080958925 0.047749896 -0.04932754 -0.013189969
0002f0 f0 e1 fb bd 4a 98 e3 bb ce 8c 88 bd 19 a6 80 bc
       -0.122989535 -0.0069456445 -0.06667481 -0.015704202
000300 a0 4a 5f 3b fa 0d a8 bd c4 75 55 3c 54 d1 03 3e
       0.003407158 -0.08205791 0.013028566 0.12872821
000310 0d 06 c4 3d 1b e7 d8 3c 42 20 87 3c b1 7e 69 3d
       0.095714666 0.026477387 0.016494874 0.057005588
000320 52 a1 f8 3d 69 b2 de 3d e7 f9 95 3d fe c9 62 3c
       0.121401444 0.10873873 0.07323056 0.013842104
000330 16 dc 7e 3c f4 aa ca bd db 51 b4 bd c7 6f 82 3d
       0.015555402 -0.09895888 -0.08804675 0.06368976
000340 69 02 cf bc 6d d5 84 3d c6 1a 89 bd 60 f9 46 bd
       -0.025269704 0.0648602 -0.0669456 -0.048577666
000350 18 aa 9c bd bc 8f 00 3e 82 d3 93 3d dc e1 16 3e
       -0.0764963 0.1255483 0.07218076 0.14734596
000360 15 31 d2 3d 5e 06 c7 3d 4f 52 56 3d e2 97 2b bd
       0.10263268 0.09718011 0.05232459 -0.041892894
000370 4b db 0b bd b6 70 8c bb 48 7e c1 3c c3 3f a2 bd
       -0.03414468 -0.004285897 0.023619786 -0.07922318
000380 e1 94 5a 3d 03 69 bc bc 44 9c af bd 77 31 77 bd
       0.05336464 -0.022999292 -0.08574727 -0.060349908
000390 63 c8 99 3d 5a 6f 9e 3d 45 62 a6 bd fc fb c7 3d
       0.07508924 0.077360824 -0.08124212 0.09764859
0003a0 0d 67 a4 3d 0a c3 b4 3d 30 56 e4 3d cf 14 d7 bb
       0.08027468 0.08826263 0.111492515 -0.00656376
0003b0 32 12 8d 3d 84 a1 b8 3c 04 a1 1a bd 14 f3 88 3c
       0.06888236 0.022537954 -0.037751213 0.016717471
0003c0 00 e4 0f 3c 56 ac b1 3d 33 a0 18 3c 1a 46 1c bc
       0.008782387 0.086754486 0.009315538 -0.009538198
0003d0 e1 91 36 3d a9 1b 5c 3d 64 e8 91 bc 8a 46 02 3d
       0.044572715 0.053737316 -0.017811008 0.031805553
0003e0 8d aa 97 3d 0c 4b e7 bc de e1 de 3b 60 37 24 bd
       0.07405577 -0.028234027 0.006801828 -0.040091872
0003f0 b0 49 73 3c 4c a4 9e bd e9 f7 86 bd 62 00 e5 bc
       0.014849111 -0.07746181 -0.06590254 -0.027954284

weight_hh_l0 f4 [405, 135]
000000 5e 69 7d 3d 81 89 96 3d 99 af 81 bd 6d c5 f1 3d
       0.061868064 0.073504455 -0.06332321 0.11805234
000010 ed ee cb bb 0b 6d be 3c 3b dc 0a 3d 78 5e 60 bd
       -0.0062235505 0.023245355 0.033901434 -0.054777592
000020 92 6d 5c bd a6 fc 9c 3c 2d 6c 8f 3d 45 2d 26 bd
       -0.053815432 0.01916344 0.07003055 -0.040570516
000030 1b f0 ca bd 88 9a 09 3d 28 13 87 3c 8a 1c c6 3d
       -0.09909078 0.033594638 0.016488627 0.09673412
000040 8b ab d6 bd c7 7f c9 bb f9 ea 5e bd 1a 31 ab bd
       -0.10481938 -0.0061492654 -0.054423306 -0.08358975
000050 44 96 89 bc 25 47 8a bd 68 7a 8e 3d d5 98 90 bd
       -0.016795285 -0.06751851 0.06956941 -0.070604004
000060 0f 38 a7 3d fb 62 ed bc d5 f6 01 3d 91 fc 06 be
       0.08164989 -0.028977862 0.031729538 -0.13182284
000070 08 55 84 bd 7b 81 94 bc d4 76 2e be ec f1 a4 3c
       -0.06461531 -0.018128147 -0.17037517 0.020134889
000080 0b ea 21 3c f8 85 a6 ba 3a 2a cd bd 84 70 c7 3d
       0.00988246 -0.0012704721 -0.1001782 0.097382575
000090 fe 88 57 3d 83 93 b1 bc 4a ec 04 bd 10 e1 91 3d
       0.05262088 -0.021676784 -0.032451905 0.071230054
0000a0 34 81 24 3e d6 57 b4 bd 52 4f fd bc 1c f2 3d 3c
       0.16064912 -0.08805816 -0.030921612 0.011593368
0000b0 dc 29 ad bd 49 54 ea 3d 38 0c c3 bc c4 54 a7 3d
       -0.0845525 0.11441857 -0.023809537 0.08170465
0000c0 2e f2 eb bc 95 32 f8 bc 1b 85 55 bd 80 60 47 bd
       -0.028802004 -0.030297557 -0.052128892 -0.048676014
0000d0 c2 68 7f 3d a7 15 95 3d 65 fe 49 bd fa f6 d3 3d
       0.062355764 0.072795205 -0.049314875 0.103498414
0000e0 b0 86 8d 3c ef 22 57 3d 6b 3e be 3d 09 68 58 3d
       0.017276138 0.05252355 0.09289249 0.05283359
0000f0 ed 1a 6a 3d 74 a9 e2 bc d7 a9 7a bd 7f ec 16 3d
       0.057154585 -0.027668692 -0.06119713 0.036846634
000100 b1 fe 92 3c 1f ea dd bc e7 46 97 3c dc e0 32 3d
       0.017943712 -0.027089177 0.018466426 0.043671474
000110 25 1e f6 bb 9b 9b 9f bd 84 d4 a8 bc 28 90 4d bd
       -0.0075109177 -0.07793351 -0.020609148 -0.050186306
000120 5b de d6 bd 5b b2 7c bb da 71 20 3c af 5b 9f 3c
       -0.1049163 -0.0038558457 0.009792769 0.019452898
000130 ad 92 7d 3d 47 c5 6e bd 0d 55 95 bd a0 51 de 3d
       0.06190746 -0.058293607 -0.07291613 0.108554125
000140 9a 2c 81 3b 3e 1b 1e bd d3 0e 72 bd 25 a5 ab bd
       0.0039420845 -0.0386002 -0.05909617 -0.08381108
000150 a3 59 47 3c 5b ce ce bd 98 ce 56 3c 21 c9 a1 3d
       0.012167367 -0.10097953 0.013110779 0.078996904
000160 fc fc c6 bb bb be 96 bd 8d 53 4c 3d 16 7b ac 3d
       -0.0060726386 -0.07360598 0.049884368 0.08421914
000170 68 b5 fd bd e7 8a 41 3d 80 d5 47 3c 12 7a b5 3c
       -0.12388116 0.04725161 0.012196898 0.022152934
000180 86 9d 07 bc e0 12 9a bd 97 90 ca 3c 79 c7 1a 3d
       -0.008277303 -0.07523131 0.024727149 0.03778789
000190 d0 0d 39 bd 9d 52 92 bd 4f e1 28 3d e2 a1 89 3d
       -0.04517919 -0.071446635 0.041230496 0.0672033
0001a0 2f 1f 5a 3d 2d 0a b0 3b ae 83 34 3d 7f d9 a7 bb
       0.053252395 0.005372307 0.044070892 -0.005122363
0001b0 78 f6 65 3c 51 80 90 3d f5 2f ba bc 1c 32 18 bd
       0.0140358135 0.070557244 -0.022727946 -0.037157163
0001c0 74 64 dc bc 69 1f 20 bd 03 bb 3d 3c 7a 32 75 bd
       -0.026903369 -0.039092455 0.011580232 -0.05986259
0001d0 06 3d 9e 3d a8 06 b6 bb 16 42 13 3d 5a b6 aa 3d
       0.07726483 -0.0055549927 0.035951696 0.08335562
0001e0 31 f8 2c 3c fa e3 74 bb da 46 97 ba 49 ba 87 bd
       0.01055722 -0.003736733 -0.0011541501 -0.06627328
0001f0 eb fb 7b 3d d2 14 3d bb a1 c3 01 bd 1d c8 b4 bd
       0.061519545 -0.0028851521 -0.031680707 -0.08827231
000200 e3 62 66 3d b4 6d c9 bd ac 2e 35 3c cb ba cf 3c
       0.05624665 -0.09835377 0.011058491 0.025357625
000210 3e 13 a8 bd b3 4c de bd f0 17 74 bd 8b b0 65 3d
       -0.08206795 -0.10854473 -0.05959314 0.056076568
000220 c1 28 09 be 8d 43 0c be 43 f8 c4 3c 96 4d 68 bc
       -0.13394453 -0.13697644 0.024044162 -0.014178654
000230 af 84 b2 3d 79 ad ff 3c 3a 31 ad bc 40 c7 43 3b
       0.08716714 0.031210648 -0.021141637 0.00298734
000240 34 42 97 bc 5c 55 be bd 6e f5 63 bd 59 b6 8c 3d
       -0.018464185 -0.09293625 -0.055653982 0.068707176
000250 39 41 51 bd 0e 81 f2 bd f2 b4 21 be 6e fa 57 3d
       -0.05108759 -0.118410215 -0.15791681 0.052729063
000260 d0 4c 46 3d 6f c4 15 3e 7b 47 c1 bc c0 15 c7 bc
       0.048413098 0.14625715 -0.023593655 -0.024302363
000270 d3 c5 09 be ac f5 d5 bd 1e 10 82 3c 38 7e 95 bc
       -0.1345437 -0.10447249 0.015876826 -0.018248662
000280 45 69 43 bd d3 22 9f bd 04 43 a8 3d a0 e9 17 bd
       -0.047707815 -0.07770314 0.08215907 -0.037088037
000290 27 a2 05 be 5d 9a 82 bc 7d 77 92 bd b0 1d 19 be
       -0.13050137 -0.015942747 -0.07151697 -0.14952731
0002a0 2f f3 02 be 44 12 05 3e 87 b8 62 bc 37 7a a2 3d
       -0.1278808 0.12995249 -0.01383794 0.07933467
0002b0 dd b2 fe ba 21 30 ce bc 12 70 eb 3d 27 73 c8 bd
       -0.0019431968 -0.025169434 0.11495985 -0.097875886
0002c0 c9 91 01 be f3 aa 97 3c 0e 60 d2 3c 64 c6 49 3d
       -0.12653269 0.018514132 0.025680568 0.049261466
0002d0 d5 d9 80 3a e9 4c 12 be 69 09 01 3c fd 05 81 3d
       0.0009830544 -0.14287151 0.007875779 0.0629997
0002e0 b3 c2 2a 3d 25 95 c3 3d f4 74 e9 3d 88 74 01 be
       0.041689586 0.095499314 0.1139926 -0.1264211
0002f0 bd fd c3 bc d2 8c c5 3d c4 a1 da bd 10 a1 8c 3c
       -0.023924703 0.09646 -0.106753856 0.017166644
000300 0e c1 f9 bd eb b7 a1 bc 00 81 7b bd 78 86 e5 bd
       -0.121950254 -0.01974102 -0.06140232 -0.112072885
000310 6b e8 6d 3c d1 98 a2 3c 15 bf 10 be 38 9c ab bd
       0.014520745 0.01984826 -0.14135392 -0.08379406
000320 77 fc 13 be b0 5c 04 be f4 05 81 3b 8d 14 1d bd
       -0.14451776 -0.12925982 0.0039374772 -0.038349677
000330 da e0 0b bc 2f 57 f3 3d c4 26 f2 3c b1 58 40 bd
       -0.0085374955 0.11881863 0.0295595 -0.046959583
000340 0e 14 04 be a9 83 01 bb 4f 3e 94 3d 1c 1e 17 3d
       -0.12898275 -0.0019762313 0.07238447 0.03689395
000350 0c 6c f3 3d 57 d1 2e be a5 f8 b2 b9 47 8c 8b bc
       0.11885843 -0.17072044 -0.0003413606 -0.017034663
000360 da 1d b0 b9 16 8a 4d 3d d3 08 6a bc 0b ba 0d bc
       -0.00033591577 0.050180517 -0.01428433 -0.008650313
000370 50 a5 15 be ed ca ce 3c d0 ad 26 be ae 59 53 bd
       -0.14613843 0.025243247 -0.16277242 -0.051599197
000380 2c a5 8d 3d c1 04 11 3d d6 70 76 3d 9b 2a 80 3d
       0.0691627 0.035404924 0.060166202 0.06258126
000390 d4 cb b3 bd 32 0a 2b 3d 4c a7 0a 3c 82 c5 ba 3c
       -0.087791115 0.04175777 0.008462738 0.022799257
0003a0 e2 fd b3 3d 1b dd 01 3e f0 ca 13 be 2f 9f 08 3c
       0.08788659 0.12682001 -0.14432883 0.008338734
0003b0 c2 11 b4 3c 3f ae ef bb bf 52 9e bd 19 13 43 3c
       0.021981124 -0.007314473 -0.07730626 0.011906409
0003c0 6c a0 3c bc be ff db 3d 90 6e 33 be eb 6e 67 bd
       -0.011512857 0.10742138 -0.17522645 -0.056502264
0003d0 c8 e2 01 bd ea 3b 8c 3d 13 12 01 3d a9 c0 ee 3d
       -0.031710416 0.06847365 0.031511378 0.11657841
0003e0 b0 57 48 3d d2 00 c1 bc 25 32 41 bd 28 65 92 bc
       0.04891175 -0.023559961 -0.047166962 -0.0178705
0003f0 f9 34 5e 3c 59 b5 2b 3c 64 6c c1 3c a6 ab 41 3a
       0.013562434 0.010480248 0.023611255 0.00073879433

bias_ih_l0 f4 [405]
000000 d3 80 8c bc 3e 5a e0 3d 3c 34 2f bc c1 54 a4 3d
       -0.017151272 0.10954712 -0.010693606 0.08023978
000010 c9 e5 f6 bb 1a 0f d7 3c 04 a3 17 bd dc 5e 2b bd
       -0.0075347167 0.026252318 -0.0370207 -0.04183851
000020 1c ca ee 3d 89 b9 7e 3d 14 aa c7 bc 13 5d 29 3d
       0.11659643 0.06218866 -0.024373092 0.041348528
000030 12 47 20 3d ac 69 5b bd 11 4f 1c be d2 83 c4 3c
       0.039130278 -0.053567573 -0.15264536 0.023988638
000040 31 b8 db bd 14 9e 13 bd 6f 02 d7 bd 0a e7 b6 bd
       -0.10728491 -0.036039427 -0.10498511 -0.08930786
000050 7a 07 e0 bd 80 8d 71 bc 09 2a 21 3c f7 ea ec 3d
       -0.10938926 -0.014743209 0.009836682 0.115682535
000060 3d 69 0d 3d c5 06 93 bc 4e 66 e7 bd 55 88 e1 bd
       0.03452419 -0.017947564 -0.1129881 -0.110123314
000070 13 c6 a2 bd 1b d6 17 be a2 39 08 3c 6b b1 64 3c
       -0.07947936 -0.14827769 0.008314522 0.013958315
000080 92 9b 73 3d 50 74 b5 bd 1e 5b 91 bc c1 a0 55 3d
       0.059474535 -0.088600755 -0.017743643 0.05215526
000090 3e a5 45 bd 74 db ca bd e0 e8 5f bd cf 0f 81 3d
       -0.04825329 -0.099051386 -0.054665446 0.063018434
0000a0 00 74 8a 3d 03 20 30 3d 30 f3 ed bd 92 ba 92 3d
       0.067604065 0.04299928 -0.1161865 0.07164492
0000b0 8e b0 3e 3d 17 df 4e bb cf 36 ef 3b cd bc b5 bd
       0.046555094 -0.0031566077 0.007300235 -0.088739015
0000c0 54 e0 65 3d 4a 84 69 3c 4e 0a a6 3c cf 12 23 bd
       0.05612214 0.014252732 0.020268586 -0.03981286
0000d0 e1 17 98 3d 1b e5 40 3c 5e c8 b6 3d 8d a2 ad bd
       0.074264295 0.011773373 0.08924936 -0.0847827
0000e0 4b c5 8b 3d fc 4e 93 bd 05 2c f2 bd 30 c1 98 3d
       0.0682474 -0.071927994 -0.11824802 0.074587226
0000f0 51 9e c1 bc c1 2a e7 bc 0f 48 b9 bd 25 0b d0 3d
       -0.023635061 -0.028218629 -0.09046947 0.10158376
000100 b0 e8 92 3c 03 0f a2 bd 06 7c bc bd a0 0d a3 bd
       0.01793322 -0.079130195 -0.09203343 -0.07961583
000110 b5 29 75 bd f8 aa 8d bc c2 b4 58 bc c8 5a d9 3d
       -0.059854228 -0.017293438 -0.01322669 0.10613018
000120 17 9f 93 bd 14 e3 0d bd df ab 16 3d ce 26 0b 3d
       -0.07208078 -0.034640387 0.036785003 0.033972554
000130 9e f2 20 be 48 ef b0 3c 76 81 b5 3d 1c 5c b8 bc
       -0.15717551 0.021598473 0.08862583 -0.022504859
000140 0e cd bd bd c9 0a a7 3c 1e 50 c0 bd 3e 79 27 3d
       -0.09267627 0.020390885 -0.09390281 0.04088711
000150 85 a5 a5 bd 04 c5 4e bd 47 be ad bd 97 21 02 be
       -0.08088211 -0.050480857 -0.08483558 -0.12708126
000160 58 ae 50 bc 59 4f 67 3c 91 2a 74 3d 53 3c 0a 3d
       -0.012736879 0.014118039 0.059610907 0.033748936
000170 f0 0e b6 3d 00 c1 1c 3d 7d 0a 4f 3c f0 73 a0 3c
       0.08889568 0.038269997 0.012636778 0.019586533
000180 f5 03 8a 3c 78 28 91 bd 3e a6 02 bc 73 85 bc 3c
       0.01684759 -0.07087797 -0.007974206 0.023012852
000190 3c 9a 44 3c 45 05 a6 3c 03 94 93 3d c8 5d da bd
       0.011999663 0.020266185 0.07205965 -0.106624186
0001a0 c2 d7 03 3e cc c6 21 3d a1 60 b3 bd 04 6c 34 3d
       0.12875274 0.039496228 -0.08758665 0.044048324
0001b0 fc 76 14 3d 51 56 74 bd 70 eb 82 3c 8e f3 51 bd
       0.036246285 -0.05965263 0.015981406 -0.051257662
0001c0 b6 28 af 3c 31 98 e3 3d 44 93 da 3d 86 a1 fc 3c
       0.021381717 0.111130126 0.1067262 0.03083874
0001d0 71 d0 ad bc ec 31 fc 3d ae fe 00 3d 94 ac 15 3d
       -0.021217557 0.12314209 0.03149288 0.036541536
0001e0 a4 0e 0d be bc 58 10 bd f2 2a 5f 3c 71 52 00 3d
       -0.13775116 -0.035240874 0.013621079 0.031328622
0001f0 3e d9 25 3e 67 a3 74 3c fb 76 ac 3c dc 33 38 3e
       0.16196153 0.014931536 0.021052828 0.17988533
000200 53 26 9e bd 08 4f 02 3d 34 4b 50 3d 8e eb 01 bd
       -0.077221535 0.03181365 0.05085297 -0.031718783
000210 5d 3c 1c bd 10 aa 08 3e 88 1f 7b 3d 59 22 0f 3e
       -0.038143504 0.13346124 0.061309367 0.13977946
000220 8e 4e 20 be cb cb 9f bd 43 fe 95 3d d2 fb aa bd
       -0.15654966 -0.07802542 0.07323887 -0.08348812
000230 f2 77 b6 3d 16 2b 09 3e 95 2a cd 3d 11 3b f3 3c
       0.089095965 0.13395342 0.100178875 0.029691251
000240 c0 86 8c bd 75 75 4c bd b0 93 d5 3c 88 38 87 3c
       -0.06861639 -0.049916703 0.0260714 0.016506448
000250 21 8f ac bc 9f 47 b6 3b 50 cc 50 bd 8e 9c 01 3e
       -0.021064343 0.005562737 -0.050976098 0.12657377
000260 9d de fa 3c 23 59 77 3d f9 bc 1b 3b 31 90 6c bc
       0.030623728 0.06038774 0.002376376 -0.014438675
000270 52 3d 41 3d 30 a7 b6 bc 0c cd 41 be f2 e8 d7 bd
       0.04717762 -0.022296518 -0.18925875 -0.10542478
000280 61 f8 5f 3d 1a f5 9f bd a5 f8 77 bb 48 7e d7 3d
       0.054680232 -0.07810421 -0.0037837413 0.10522133
000290 e7 ea bc bd 6f e8 19 3b 48 d9 1d 3b 8e 81 bd bb
       -0.092244916 0.0023484488 0.0024085809 -0.0057832664
0002a0 80 f6 b3 bd 5a a7 3d bc e1 52 58 bd e2 d7 29 bd
       -0.087872505 -0.011575544 -0.052813414 -0.041465648
0002b0 0a 4d cc 3d 02 ab dc 3c 96 07 40 be b5 ea 7f bd
       0.099756315 0.026937012 -0.18752894 -0.062479693
0002c0 b4 43 6c bd 4d ca a3 bd 43 05 ea 3d e5 40 33 be
       -0.057681754 -0.0799757 0.11426785 -0.17505224
0002d0 4a 57 96 bc 43 93 71 3d 66 c5 80 bd d5 aa 80 3c
       -0.01835217 0.05897833 -0.06287651 0.015706459
0002e0 8a 01 27 bd 79 70 a8 bd bf f4 80 3d 66 42 f4 bd
       -0.040772952 -0.082245775 0.062966816 -0.11926727
0002f0 fa 13 1a bd 2a 12 f5 bc 0b d2 27 3d 77 a0 ce bd
       -0.037616707 -0.029915888 0.040971797 -0.100892
000300 c8 b7 43 bd 86 4c a8 bc 9e b3 8e 3d a1 21 f4 bc
       -0.04778269 -0.020544302 0.06967853 -0.029801192
000310 1d 3d 27 bd 2b 52 d2 3b 5e a7 e8 bd f2 6f e3 bd
       -0.040829767 0.0064184866 -0.11360048 -0.11105336
000320 88 06 8b bd 92 44 af bd 3f e7 2c 3d 05 02 6a 3c
       -0.06788355 -0.085580006 0.04221272 0.014282708
000330 f7 a4 4a be f9 0d 1a 3d de 2a cd 3a c1 fa 7c bd
       -0.19789492 0.03761098 0.0015653034 -0.061762575
000340 3c 6b aa bb 7b be 28 bc b1 e4 1c 3d 87 ce c5 bc
       -0.0052007716 -0.01029932 0.038304035 -0.024146331
000350 9a 75 09 be 6f c8 8d bd 75 d9 84 bd f5 b8 95 3d
       -0.13423768 -0.06922995 -0.06486789 0.073106684
000360 23 73 e9 bd d7 a9 88 bd 06 f5 e2 bd 6c 19 d4 3d
       -0.11398914 -0.066730194 -0.11081891 0.10356411
000370 0b fa dc 3c a2 41 32 3c fb 80 b0 bd 1e a4 b1 3c
       0.026974699 0.010879906 -0.08618351 0.021684702
000380 af ed 35 3d ca af 29 3d f6 3f 88 bd 7c 5f b5 bc
       0.044416126 0.04142741 -0.066528246 -0.022140257
000390 39 c7 7c bd 34 cf cf bc ac 4e 18 bd a5 8b 87 3d
       -0.06171343 -0.025367357 -0.037184402 0.06618432
0003a0 48 eb 0a bc dd 6b 04 3d 69 86 bc bd 42 cc b9 bd
       -0.008478947 0.03232943 -0.09205324 -0.09072162
0003b0 37 0c 22 bd 1c 1b c3 3d 7a e7 14 be 72 ab 5c bd
       -0.03956243 0.09526655 -0.14541426 -0.05387444
0003c0 ec ad b0 3d 89 a6 12 bb d6 0a d3 bc 64 66 6d bd
       0.08626923 -0.0022377095 -0.025762003 -0.057958975
0003d0 da ed d6 bd 86 a8 65 3d 65 77 fd bc c6 a2 a6 bd
       -0.10494585 0.05606892 -0.03094072 -0.08136515
0003e0 0b cb f5 bd a2 61 8e bd 2c 10 b8 3c 88 df 03 3d
       -0.12001618 -0.06952216 0.022468649 0.032195598
0003f0 7c e4 08 be f1 06 32 bd 69 fa 96 bc 7d fb da bd
       -0.1336841 -0.04346365 -0.018429952 -0.10692499

bias_hh_l0 f4 [405]
000000 21 9c 91 bc 49 ce b2 3d 58 8b 99 bd ac 92 d3 3c
       -0.017774643 0.08730752 -0.07497281 0.025826775
000010 d4 09 54 bd 27 82 15 3c f7 b3 ae bd b6 19 5e bc
       -0.051767185 0.009125269 -0.08530419 -0.013555935
000020 31 c1 87 3d 7c 2b ac 3d 8e c0 c2 bd b4 54 c9 3c
       0.06628645 0.084067315 -0.09509383 0.024576522
000030 5a d0 09 3d 22 58 e5 3c c5 a9 26 be 89 97 e4 bc
       0.033645965 0.027996127 -0.162757 -0.027904289
000040 55 a5 44 3c 00 a8 c1 bd 51 54 38 bd 7b 58 10 be
       0.012002309 -0.094558716 -0.045002285 -0.14096253
000050 19 4e 75 bc 59 15 52 bd 81 0d e6 3c 71 9f c2 3d
       -0.014972233 -0.05128989 0.028082611 0.09503067
000060 de 06 c2 3d d6 47 90 bd 96 80 a2 bd 19 79 a8 bd
       0.09473966 -0.070449516 -0.07934682 -0.082262225
000070 dc fe 64 bd 30 26 18 bd 44 98 e6 bd d8 fa 0a 3d
       -0.055907115 -0.037145793 -0.11259511 0.03393063
000080 21 76 a1 bd 91 c3 0f be 08 22 d2 bb 36 3f df 3b
       -0.078838594 -0.14039446 -0.0064127482 0.0068129553
000090 56 b5 31 3d 88 df 89 bd 84 d6 03 3d 0a ce 5d bc
       0.043385826 -0.06732088 0.032187 -0.013537893
0000a0 11 bc ec 3d 6a 75 96 bd 78 6f c3 3c 0c 71 a7 3d
       0.11559308 -0.07346614 0.023856863 0.08175859
0000b0 5e 88 9d 3d e6 c5 15 3b 94 25 9f bd aa 69 09 bc
       0.076920256 0.0022853552 -0.07770839 -0.008387009
0000c0 f8 de 25 3d 5d 16 10 3d b0 83 01 bc b0 a5 46 3d
       0.040495843 0.035177577 -0.007904932 0.048497856
0000d0 24 53 54 3d b8 f7 e0 3c e9 3f 66 3d b3 ff 00 3d
       0.0518371 0.027461872 0.056213293 0.031493854
0000e0 d2 26 8a 3d 60 27 12 be 4e 41 fc bd 23 41 21 3d
       0.06745686 -0.14272833 -0.123171434 0.03936876
0000f0 c7 bc 5f 3d a9 01 d9 bc ad 02 34 bd 1d 08 82 3d
       0.05462339 -0.02649005 -0.043947864 0.06349204
000100 80 e8 4d 3c ef 21 2c bd 80 e1 00 bb 9d d6 19 b9
       0.012567639 -0.04202455 -0.0019665658 -0.00014671167
000110 8b 79 b1 bd e4 5d 95 bd a2 16 25 bd 93 6b ec 3c
       -0.086657606 -0.07293299 -0.040304787 0.02885989
000120 b5 c6 96 bd 11 65 82 3b cf ac f5 3c 82 eb f2 3c
       -0.07362119 0.003979333 0.029989628 0.029653315
000130 8d 36 80 ba 67 de f4 3b d0 90 0e 3d 76 e3 0e bb
       -0.0009781882 0.0074728015 0.034806073 -0.0021803058
000140 b6 d7 8d bd 57 11 01 bd 7d ce aa bd 5a 71 83 bc
       -0.06925909 -0.031510677 -0.08340166 -0.016045261
000150 e7 18 c1 bd 21 7c dc bc b7 60 95 3d b9 65 91 ba
       -0.09428578 -0.026914658 0.072938375 -0.0011092938
000160 f2 61 82 bd c2 ed 3b 3d 0a 63 e1 3d 48 03 a0 bd
       -0.06366338 0.04588104 0.11005218 -0.07813126
000170 0d 76 45 3e 4f 0e c3 3c cf db 8a bd fd 0b 8e bc
       0.19283314 0.023810534 -0.067802064 -0.0173397
000180 ca 84 9f 3c 0b 3f 29 bd 21 29 26 3d 99 0f a4 bc
       0.019472498 -0.041319888 0.040566567 -0.020026969
000190 69 69 6f 3d 4c 1e 9e bd f6 61 71 3d 37 46 45 bd
       0.058450136 -0.077206224 0.058931313 -0.048162665
0001a0 00 3d ce bc c5 07 29 bd f2 02 51 3d 6f 6b 5c bd
       -0.025175571 -0.041267175 0.0510282 -0.053813394
0001b0 c1 8a a5 3d b6 28 d8 bd e2 2a e8 bc 26 79 9c 3c
       0.08083106 -0.1055464 -0.02834076 0.019100737
0001c0 37 a1 46 bc 76 71 67 3d eb e0 85 3d d0 3a 8f 3c
       -0.012123398 0.05650469 0.0653704 0.017484099
0001d0 b5 87 76 bd ea 65 d9 3d 95 e5 ad bd b8 4d 20 bd
       -0.060188014 0.10615142 -0.08491055 -0.03913662
0001e0 1d d1 90 bc a9 93 55 bd 54 93 da bd 95 7a f5 3c
       -0.017677838 -0.052142773 -0.10672632 0.029965678
0001f0 98 eb b7 3d 2c c3 9b bd 9e cc 61 bd 5c da 39 3e
       0.08980483 -0.076055855 -0.05512678 0.18149704
000200 0b 21 94 bd 77 f4 a3 bd 40 fe 90 3c 83 ee 0b bd
       -0.07232865 -0.08005612 0.01769936 -0.03416301
000210 0e 0a b7 bd 3a 80 cc 3d 6a 2a bb 3d b4 5e cf 3d
       -0.08937465 0.09985395 0.09138949 0.10125485
000220 40 b4 23 be d1 ad 86 bd 29 24 e8 bc f3 c7 de bd
       -0.15986729 -0.065761216 -0.028337555 -0.10877981
000230 a4 f3 e2 3a f9 20 05 3d 78 c7 05 3e 5a 63 ea 3c
       0.0017315042 0.03250215 0.13064373 0.028611828
000240 cf 87 8f bd e8 0e bd bb 14 4f 42 bd 03 65 d3 bc
       -0.07008325 -0.005769599 -0.047438696 -0.025805002
000250 fd b8 51 bd 10 b8 59 bd 2a 77 48 bc 22 56 52 3d
       -0.05120181 -0.05315405 -0.012235442 0.051351674
000260 16 24 64 bd 61 2f ab bd 60 fc 3b 3d 5e 82 f3 bd
       -0.055698477 -0.08358646 0.04589498 -0.118901
000270 37 ce 6e 3c 3a bb e3 bd 74 f1 7b bd 76 51 fb bd
       0.014575533 -0.11119695 -0.061509565 -0.12271397
000280 32 b3 17 3d 30 2b 51 3c 0c bc 96 bd ad 4b 81 3d
       0.03703613 0.012766644 -0.07360086 0.06313262
000290 db 4b b5 3b d7 d1 10 bb 65 0c b2 bd 91 40 8c bd
       0.0055327243 -0.002209773 -0.0869377 -0.068482526
0002a0 de 71 d1 bc bb fd dd bc 29 a2 5c bd 3b a1 34 3d
       -0.025566991 -0.027098527 -0.053865585 0.044099074
0002b0 f6 92 ad 3d 17 73 95 3b aa 5e 29 be db df f7 bb
       0.08475296 0.004560839 -0.16540018 -0.0075645274
0002c0 63 43 98 3c 82 fb de bc 50 3f 09 3e 48 96 5f be
       0.01858682 -0.027219538 0.13403058 -0.21834671
0002d0 29 96 86 bd c7 68 7f 3d a1 aa ee bd 5f f7 8c 3c
       -0.065716095 0.062355783 -0.11653639 0.0172078
0002e0 85 83 b2 bd fd e1 7e bd b0 fc 14 3d e2 4c ab 3c
       -0.087164916 -0.062227238 0.036373794 0.020910684
0002f0 35 b9 9b bd b8 05 0b bd e1 75 a1 bd 8d 10 e6 ba
       -0.07603685 -0.033941 -0.07883812 -0.001755254
000300 a1 bd cf bd d4 83 2a bd 48 e7 2a 3d 23 f2 9f 3d
       -0.10143591 -0.041629627 0.041724473 0.07809856
000310 e2 fc 97 bd 45 74 65 bb 6b cf 3e bd 16 a7 20 3d
       -0.074212804 -0.003501193 -0.046584528 0.039221846
000320 7d a1 15 3d c4 81 a2 bc 72 07 c9 bd 72 00 64 3c
       0.03653096 -0.019837268 -0.09815873 0.013916122
000330 d2 f5 f3 bd f1 b7 44 bd 76 47 57 bc f5 4d 82 bc
       -0.11912121 -0.048026983 -0.013139596 -0.015906313
000340 3d fb ef bd e4 21 92 bd aa 46 8f 3d a1 d8 7f 3d
       -0.11717842 -0.071353704 0.069959 0.062462453
000350 a5 4d 26 be f0 43 05 bd 8d 2a 94 3d 0a 72 ad bb
       -0.16240557 -0.032535493 0.072346784 -0.0052931355
000360 23 05 b6 bd a9 e3 d4 3b ed 67 ad bd 04 94 93 3d
       -0.088876985 0.006496866 -0.08467088 0.07205966
000370 3f 2d 13 bc 0b c9 3f 3d 51 83 2d bd d8 37 4a bd
       -0.0089829555 0.04682259 -0.04236156 -0.049369663
000380 82 9a 9d 3b 3b ad ef bd ac a1 18 bd 5a 0e 17 be
       0.0048096785 -0.11702963 -0.037263557 -0.14751568
000390 74 28 20 bd 0b 99 d2 3d 34 e7 a0 3d 20 83 35 3d
       -0.03910108 0.10283097 0.078565985 0.044314504
0003a0 ef 61 e8 3b 02 67 cc bd 74 dd bc bd 97 14 69 3c
       0.0070917527 -0.09980585 -0.09221926 0.0142261
0003b0 71 2a ce bc cc 57 c7 3d 7b f9 e5 bc 70 e3 88 bd
       -0.025166722 0.09733543 -0.028073063 -0.06684005
0003c0 7e c9 a5 3d 58 1e ec 3d e2 a2 9b bc 1b 6f 98 bd
       0.08095072 0.11529225 -0.018998567 -0.07443067
0003d0 64 ac 90 bd ab 4b 8f bd 09 52 e1 bd 2c ce f8 bc
       -0.07064131 -0.069968544 -0.11001975 -0.030371748
0003e0 c9 17 30 be e3 46 4d bd f1 82 4f 3d 39 97 85 bd
       -0.17196573 -0.05011643 0.050661985 -0.06522984
0003f0 4f 8f 4a bd a3 a1 eb 3b 7f 22 13 bd cf df aa 3c
       -0.049453076 0.0071908995 -0.03592157 0.020858673

weight f4 [1, 4, 1, 12, 12]
000000 c7 87 2d be 9b 62 dc bc b9 13 50 3d 49 a9 9b 3d
       -0.16946326 -0.026902488 0.05080006 0.07600648
000010 56 70 0c be 9a a5 f9 3c f6 e8 0e 3d 1b 59 48 3d
       -0.13714728 0.030474473 0.034890138 0.048913103
000020 62 72 47 3d 4e 8e e9 3c 56 1d 8d bd 28 42 86 bd
       0.04869307 0.028510239 -0.06890361 -0.06555587
000030 d2 80 c3 bd a2 e8 f2 3c e2 83 77 3c d9 52 b6 3d
       -0.09546055 0.029651944 0.015107127 0.08902521
000040 03 a9 a5 3c d2 e0 d6 bc 55 a9 e5 bc 54 7c d8 3c
       0.020222193 -0.02623025 -0.028034845 0.026426472
000050 aa 2a fd 3c 48 f8 97 bc 0d 69 26 3d d7 54 19 bd
       0.030904133 -0.018551007 0.040627528 -0.037434425
000060 02 c6 24 bd e1 72 fb 3c 8e c6 12 bc fc 49 87 3d
       -0.040227897 0.030694427 -0.008958472 0.06605908
000070 35 16 53 bd c6 f6 90 3c 14 76 8a 3d 2a 9b 49 bd
       -0.05153485 0.017695796 0.06760803 -0.04922024
000080 3c 3b 0a 3e 37 33 66 3d eb 1a 4d bd a2 28 da 3d
       0.13499159 0.056201186 -0.0500745 0.10652281
000090 08 b7 5e 3c 66 52 c8 ba 7d f2 d1 bd 10 31 22 be
       0.013593443 -0.0015283346 -0.10251329 -0.15839028
0000a0 7d ba c4 bc 02 58 dd 3c 2f 7a c5 3c b2 5d f9 bc
       -0.024014706 0.027019504 0.024106113 -0.030440185
0000b0 41 9e 6e 3d cf 9f a2 3d 49 63 74 3c e2 ef 8e bd
       0.05825639 0.07940637 0.01491625 -0.06979348
0000c0 c0 56 38 bc f4 92 3a bc f3 57 32 3e 95 f7 13 3e
       -0.011251152 -0.011387575 0.17416362 0.14449914
0000d0 2a bc 1f bd 56 9a 83 3c e3 8f 43 3d dd b6 89 3d
       -0.038997807 0.016064804 0.047744643 0.067243315
0000e0 ef 85 fa bc 13 30 ec bd bf 16 1b 3c bf 27 89 3d
       -0.030581443 -0.11532607 0.009465872 0.06697034
0000f0 46 19 aa bd fa 9b 9c bd 9d ce 07 3d 0e 6c b7 3d
       -0.08305602 -0.07646938 0.033156026 0.08956157
000100 34 ba 0f be 84 46 0b bd 95 d4 49 3e 90 0f ab 3c
       -0.14035875 -0.034002796 0.1971 0.020881444
000110 15 97 92 bd 81 a9 e9 bc 83 35 ef bb 42 57 0f be
       -0.07157723 -0.028523209 -0.0073000803 -0.1399813
000120 30 c9 79 3c 21 9e 93 3d f0 ed bc 3d aa bf a9 3d
       0.015245721 0.07207895 0.092250705 0.0828851
000130 4b 59 be 3d 00 da 77 3d b3 03 18 bd f4 7f 13 3d
       0.09294375 0.060510635 -0.037112903 0.036010697
000140 6a e0 37 bd 6f cc ae bd 93 07 9d 3c 98 a6 ac bc
       -0.044891752 -0.08535086 0.01916865 -0.021075532
000150 14 21 1b 3d 37 1b 91 3d a3 d7 d2 3d d4 24 a5 3d
       0.037873343 0.07085269 0.10295036 0.08063665
000160 bf 9a 5a 3b b8 9e 2e be 32 80 02 bd 24 1b b0 3d
       0.0033356396 -0.17052734 -0.031860538 0.08598927
000170 c8 ed e0 bd 61 55 99 bc 93 0b 86 3d 38 60 d6 3d
       -0.10982853 -0.01871747 0.06545176 0.10467571
000180 49 d7 aa bc 2f d4 9d bc 7b 85 b6 3d 3e 19 04 3e
       -0.02085461 -0.019266216 0.08912178 0.12900254
000190 72 7b ff bc 23 57 7d 3d b3 ea 70 3c 1e 3c 89 3d
       -0.031186793 0.06185068 0.014704394 0.067009196
0001a0 ef 96 b0 3c 9c d1 87 3d 59 4e 3e bd 15 0f 6f 3d
       0.021556346 0.06631777 -0.046461437 0.058363993
0001b0 46 02 df 3d 20 3c 1f 3d 1d 52 ac bd 25 ad 05 be
       0.108891055 0.0388757 -0.08414099 -0.1305433
0001c0 dc 9e db 3d cd 4b b4 3d 59 c4 ef bd de f1 42 bd
       0.107236594 0.0880352 -0.11707372 -0.047593944
0001d0 ea d3 d7 3d f8 16 63 3d 4d f0 78 3d 4b 5f 30 bc
       0.10538466 0.055441827 0.060776044 -0.010764907
0001e0 92 ca bc 3a d1 5b 87 3d de 99 ad bc 61 ab aa bc
       0.0014403632 0.066093095 -0.021191534 -0.020833673
0001f0 07 67 99 3c 56 23 a6 3b 55 c9 a1 3d 57 13 19 bd
       0.018725885 0.0050701303 0.07899729 -0.03737196
000200 25 dc 8d 3c 4c 89 77 3b ef 94 ba bc bf a5 e8 3d
       0.017316887 0.0037771044 -0.022776095 0.113597386
000210 08 6c aa bd a6 8d cb 3b e8 69 81 3b 09 5b 87 3d
       -0.083213866 0.006211954 0.0039493926 0.066091605
000220 4a c9 53 3d b0 82 43 bd 4a 33 9f 3c 33 7e ea bc
       0.051705636 -0.047732055 0.019433636 -0.02862463
000230 ed d1 78 bd e2 b0 e3 b9 a0 89 13 3d 27 92 8b bd
       -0.060747076 -0.00043428602 0.03601992 -0.06814986
000240 22 47 8b 3d 39 0d 38 3d f2 c9 08 be b3 73 b0 3b
       0.06800677 0.044934485 -0.13358286 0.005384886
000250 fd 9d d0 3d 28 93 b7 bc 97 a8 b6 bd c0 8e 6e bd
       0.10186384 -0.022409037 -0.08918875 -0.058241606
000260 56 cb 66 3d 2e 89 a7 bc d5 14 61 bd 47 89 88 3d
       0.05634626 -0.020451155 -0.054951508 0.066668086
000270 2e 4c d8 3d 88 9a 81 bc 80 11 80 bc 63 62 84 3d
       0.10561405 -0.015820757 -0.015633345 0.06464078
000280 9d 5c a1 bc 4b 4d d4 bc c5 00 a8 3d b6 33 f8 bc
       -0.019697482 -0.025915762 0.08203272 -0.030298095
000290 8a b5 06 3d 41 8f 96 3d 27 82 1c bd 9f 02 03 3e
       0.032887973 0.07351542 -0.03821006 0.12793969
0002a0 79 d0 aa 3d 0b c2 82 3d 16 4c ea bb 61 fd f6 3b
       0.08340544 0.06384667 -0.0071501834 0.0075375293
0002b0 0f 53 28 3d 22 d6 9d bd 71 6b 56 3c 84 76 ad 3b
       0.041094836 -0.07706858 0.013087139 0.005293669
0002c0 6f 80 01 3d 10 89 02 3e 70 5d 66 3d 7b 53 e1 3b
       0.031616624 0.12747598 0.056241453 0.0068764067
0002d0 b9 c2 79 3d 6f db 51 be a1 dd c7 bd 3e 59 3d bd
       0.060976718 -0.20493864 -0.09759069 -0.046227686
0002e0 44 38 a4 39 95 1a f7 bc 5b df 7b 3d 25 b8 a2 bd
       0.0003132244 -0.030164042 0.061492305 -0.07945279
0002f0 35 7c 6c bd 37 b6 0e 3d aa bd 5b bd 8a 7c 57 bc
       -0.05773564 0.034841742 -0.053647675 -0.013152251
000300 0a ad ee 3d e4 5c 0a bd 1f 2b 56 be f8 e1 60 be
       0.11654098 -0.033779994 -0.20914887 -0.219612
000310 48 66 d0 3c 6c b6 4c 3d ed d2 d4 bd ad b5 43 be
       0.025439397 0.04997866 -0.103917934 -0.19112273
000320 5e 8d 2b 3e 43 73 4c 3e 4c 3d 14 bc a0 21 cf 3d
       0.16753146 0.19965844 -0.009047817 0.10113835
000330 a1 1e b1 bd 5c 27 51 3c ff 90 ba 3a 56 d7 1e 3d
       -0.0864842 0.012765732 0.0014233886 0.03877958
000340 dc d0 84 3a 94 27 50 3d d1 ed af bd b6 57 80 bd
       0.0010133046 0.050818995 -0.08590282 -0.062667295
000350 28 d8 87 3b a2 54 95 3d eb fc a2 bd 35 95 70 3c
       0.004145641 0.07291533 -0.079583965 0.014684011
000360 0f c7 a9 3d 08 83 7e bd 0d 5a bf bd ed 67 ea bd
       0.082899205 -0.06213668 -0.09343348 -0.114456035
000370 58 ef 8f 3d b6 da 44 3d c5 2a 84 bd 82 f6 fb 3c
       0.07028073 0.04806014 -0.0645347 0.030757193
000380 32 c1 ba 3c a5 5e 92 3d 65 33 d6 3c 4a 7c 76 3c
       0.0227972 0.07146958 0.026147554 0.015044281
000390 27 5f 55 bd f8 e3 bb bd 11 59 14 bd 07 61 68 3d
       -0.052092697 -0.09174341 -0.036217753 0.056733157
0003a0 ca 26 2e be 53 79 ce 3c 9e ad 87 3c 9a 8a da bc
       -0.17006984 0.025204336 0.01656228 -0.026677419
0003b0 ae 36 ac 3d ba da 54 3d 22 a6 73 3c 31 93 1b 3a
       0.08408867 0.051966406 0.014871152 0.0005934714
0003c0 b8 91 b8 3d 9a 39 ec 3d 62 3f 3b be 69 f8 18 be
       0.09012169 0.11534424 -0.18285897 -0.14938511
0003d0 c2 ad 0d 3e 12 bc 6e 3e fa a6 66 bd 68 bd 5a be
       0.13835815 0.2331393 -0.056311585 -0.21361315
0003e0 29 28 5e 3c 1d b4 9f 3d 88 86 f0 bb eb 8f af 3d
       0.01355938 0.07798026 -0.007340256 0.08572372
0003f0 06 20 32 bd 03 01 b0 bc 5f 66 9d bd 5a 83 63 bd
       -0.04348757 -0.021484857 -0.07685541 -0.05554519

weight f4 [12, 12]
000000 32 79 93 3e eb b1 62 be d7 d0 f9 bd ed 47 ac bd
       0.28803402 -0.22138183 -0.12198036 -0.08412156
000010 14 ab 1c 3e e8 de 02 3e c6 c5 07 3e 41 1f 7b bd
       0.15299636 0.12780344 0.13259038 -0.061309103
000020 54 e0 48 be 71 2c 9e 3e c8 bc 00 3e 5a 60 20 bd
       -0.19616824 0.3089328 0.12572014 -0.039154388
000030 b3 84 1a 3e c4 1c 30 be 65 d4 86 3e fc 33 9b bc
       0.15089683 -0.17198473 0.2633392 -0.018945687
000040 17 aa 10 3e a3 8f 74 3d c8 c7 66 3e ca 4e 9d 3d
       0.14127384 0.059707295 0.22537148 0.076810434
000050 da 72 be be 94 23 bd 3d d4 6b 79 3e 10 19 c0 be
       -0.37197 0.092353016 0.2435754 -0.3751912
000060 cb df aa bc 7b 98 8b bd 27 63 82 3e 1f ab 96 3e
       -0.020858666 -0.06816193 0.25466272 0.2942743
000070 8a 04 21 3e 6a b7 4f 3e c7 f5 e6 bd dc 58 65 be
       0.15724388 0.2028481 -0.11277347 -0.22397178
000080 66 d4 bb be 47 93 56 be b8 03 39 3e cb cf 7f be
       -0.36685485 -0.2095462 0.18067825 -0.2498161
000090 8c cf 3f 3c 6f bf 1a be 6e 65 1a be 90 15 a8 bd
       0.011707198 -0.15112089 -0.15077755 -0.08207238
0000a0 8f 6a 84 3d 26 34 40 3d 21 15 90 3d e9 08 06 be
       0.06465637 0.046924733 0.0703528 -0.13089336
0000b0 d3 4f cd 3d 1a 9a 9f bd 35 36 6f 3e 39 47 a9 bd
       0.10024991 -0.077930644 0.23360522 -0.08265538
0000c0 d0 0d 83 3e 06 8f 63 be f2 a0 0f be 17 4d 80 be
       0.25596476 -0.22222528 -0.1402624 -0.25058815
0000d0 5e 0a 0d bd a7 d9 b5 3d 47 b8 7d 3d 60 9d 10 3e
       -0.034433715 0.088794045 0.06194332 0.14122534
0000e0 33 4f 48 3d 33 4b f3 3d 99 f5 5a be 32 7b 23 3e
       0.048903655 0.118795775 -0.2138275 0.15964964
0000f0 11 6a 7e bd 93 d9 1a 3e 37 03 f8 bd 58 21 83 3d
       -0.06211287 0.1512206 -0.12109988 0.06402844
000100 37 56 8e 3e 50 9b 65 3d 63 d9 74 be 33 27 1d be
       0.27800152 0.05605632 -0.23911051 -0.15346985
000110 dc 6d 4c be 21 eb 5a 3e ee 2e 56 3d 1f 96 c5 bd
       -0.19963783 0.21378757 0.05229085 -0.09647774
000120 d7 1f 46 3c 1b e3 43 bc c8 66 9f 3c 8b d0 28 be
       0.012092552 -0.011956002 0.01945819 -0.16485803
000130 a5 5f cf bd c6 e6 b8 3d e2 da c0 3d c9 2d 38 be
       -0.101256646 0.090283915 0.094167486 -0.17986216
000140 51 65 f8 3d 6e 53 58 3e e3 20 5e be dd 8e 73 3e
       0.121286996 0.21125576 -0.21692233 0.23784967
000150 54 a6 ac bd ab 82 1f be 92 a9 2a 3e 99 cd 33 be
       -0.08430162 -0.1557719 0.16666248 -0.17558898
000160 0e 3c 8c 3d c5 d8 2a be 30 bc 77 3e e7 cf 48 3e
       0.06847392 -0.16684254 0.24192882 0.19610558
000170 27 09 13 3d 1f 21 c0 bb ed 5e 99 3d d7 4c 95 be
       0.0358974 -0.0058633233 0.07488809 -0.29160187
000180 1e fb 2b 3e 83 66 33 3b 37 a0 ad 3e 6d 7c a1 bd
       0.16795012 0.0027374334 0.33911297 -0.078850605
000190 de 85 e5 3d 11 45 86 be 26 cf 61 be d4 3f 30 be
       0.11207174 -0.26224568 -0.22051677 -0.17211848
0001a0 7b fe 6b be ab 1b 74 be e1 8d 2a 3e e1 0e 23 be
       -0.23046295 -0.2383868 0.16655685 -0.15923645
0001b0 0b d9 8e 3c 5a 93 97 be 99 d6 dc bc 00 cc 66 3e
       0.017437479 -0.29604608 -0.026957797 0.22538757
0001c0 b9 a4 8f 3e 9a 47 d2 bb 66 5b 3b 3e bf cd 71 3e
       0.2805536 -0.006417227 0.18296584 0.23613642
0001d0 01 15 62 be b5 ef 2c be 2f 33 37 be 4e 47 ff 3c
       -0.22078325 -0.16888316 -0.17890619 0.03116193
0001e0 87 95 1e bd dd 02 27 3e e7 41 ea 3d 41 15 58 be
       -0.03871682 0.16309686 0.11438351 -0.21101858
0001f0 5d 6a 96 3e 26 70 83 be 08 68 27 be 4c b3 57 be
       0.29378024 -0.256715 -0.16348279 -0.2106449
000200 40 e7 99 3c 07 24 05 3e b2 52 34 be 8a 78 c9 bd
       0.018787026 0.13002025 -0.17609671 -0.09837444
000210 7e 33 99 bd 15 9c e1 3d e8 b0 b4 bd 20 26 01 be
       -0.074805245 0.110160984 -0.08822805 -0.126122
000220 17 a4 e1 bd 54 fe 0b 3e fe 90 86 bb c4 f8 d1 bd
       -0.11017626 0.13671237 -0.00410664 -0.102525264
000230 f5 db 3e 3d d8 55 02 3e 44 5e e1 3d e3 6c 94 3e
       0.046596486 0.1272806 0.11004308 0.28989324

bias f4 [12]
000000 e7 c2 4e 3e 05 0f 89 bd 10 da 92 3d 2f de 83 3d
       0.20191537 -0.06692318 0.07170498 0.064388625
000010 d8 6a 44 bd 1e 08 83 3e a8 23 1d 3e 74 02 85 3e
       -0.047953457 0.2559213 0.15345633 0.25978434
000020 64 dc 68 be 04 86 3d 3d 02 38 1b 3e 27 f4 3e be
       -0.22740322 0.046270385 0.15158084 -0.18647824

weight f4 [3, 12]
000000 9c 5a 82 3b f8 7f d7 bd 89 53 90 bd 84 08 7d be
       0.0039780866 -0.10522455 -0.07047183 -0.2471028
000010 26 8d fc bd 94 db ca be 3e 50 68 be cf 63 80 3e
       -0.123316094 -0.3962065 -0.2268686 0.25076148
000020 f5 6c 98 be 5c c6 91 3d 35 11 96 be 35 7d c4 bc
       -0.29770628 0.07117912 -0.29310003 -0.023985485
000030 ca 79 d4 3e 05 07 95 be de 97 c3 be 91 fd 16 3e
       0.41499168 -0.29106918 -0.38201803 0.14745165
000040 07 16 b8 3e d4 a8 b2 3e 42 f0 0e 3e f4 26 e6 bd
       0.35954306 0.3489443 0.13958839 -0.112378985
000050 6f a8 b3 be d7 51 ab be c6 f7 96 3e 72 0b d2 3e
       -0.35089442 -0.33460876 0.2948591 0.41024357
000060 06 9d ab be 1e 48 74 3e f0 08 f8 3d 97 86 9d be
       -0.33518237 0.23855636 0.1211108 -0.30766746
000070 b0 b7 05 3d 2c f9 32 bb 6c bc eb 3c 03 74 17 3c
       0.03264588 -0.0027309163 0.02877637 0.009243968
000080 58 2c ab bc 99 1e 95 3e 49 9c 16 be 03 4f d3 be
       -0.020895168 0.29124907 -0.14708056 -0.4127122

bias f4 [3]
000000 c6 e2 88 be 93 0d 98 3d d2 81 4a be
       -0.26735514 0.07424464 -0.19776085

weight f4 [3, 12]
000000 17 04 88 be 5c df 44 be 0e 3b 53 be 96 92 64 be
       -0.2656562 -0.1922583 -0.20627996 -0.22321543
000010 50 53 6f 3c 4f 05 ab bd f1 8e ad bc 7f 7b 0a be
       0.014607266 -0.08350622 -0.021186324 -0.13523673
000020 8a 61 88 3e e7 7d 82 3e e9 b6 93 be 5b 2e 8c be
       0.26636916 0.2548668 -0.28850487 -0.27379116
000030 00 06 fb bd ba 97 07 be 79 bf a6 bd fc 07 a3 3c
       -0.12257004 -0.13241473 -0.08141989 0.019901268
000040 06 2a 0d be c2 9b 34 be 90 f3 bd bd 39 95 c7 bc
       -0.13785562 -0.17637542 -0.092749715 -0.024363147
000050 72 88 41 be 90 82 ef bc 38 e6 4a be 0c a9 1b be
       -0.18899706 -0.029237062 -0.19814384 -0.15201205
000060 53 55 29 be fa 37 16 3e 9e 99 12 3e 79 93 31 3c
       -0.16536455 0.14669791 0.14316413 0.010838383
000070 38 74 84 be 52 20 0c bd 47 dc 57 3e 8b 30 0c 3d
       -0.25869918 -0.03421051 0.21080123 0.03422598
000080 ac 11 37 3e 1c 99 82 3e 9b 0c 6d be 47 a6 46 3e
       0.17877835 0.25507438 -0.2314934 0.19399367

bias f4 [3]
000000 7d b4 af be f4 78 83 3e 3a af 9b 3d
       -0.3431739 0.25678217 0.07601781

weight f4 [3, 3]
000000 5a 3f c2 be cc da e1 3e 27 4a e5 3e 76 6e c4 be
       -0.37938958 0.4411224 0.44783136 -0.38365525
000010 bd 35 f0 3c 15 c0 a5 3e fa a8 f1 bd 6c eb ba 3e
       0.0293225 0.3237311 -0.11799808 0.36507738
000020 a7 d2 e9 3e
       0.45668527

bias f4 [3]
000000 5b e5 e3 3e 3a 29 09 3f 5a 1f 09 bf
       0.44510922 0.5357853 -0.53563464
