data/best/output/poster/train/3_stemgnn.pt (torch, 435920 bytes, 73 tensors)

weight_key f4 [135, 1]
-0.0037936012 0.15812138 -0.24549824 -0.21869592 -0.11363602 0.08029874 -0.005363579 0.23621595
-0.026085874 0.07796222 -0.089832544 -0.058645155 -0.28422847 -0.19650768 -0.12207639 0.0115667535
0.11767933 0.17849924 -0.20097785 -0.12897892 0.10796588 0.24634695 -0.061762143 0.22178382
-0.048453666 0.03137795 0.26981428 -0.27460986 -0.18642916 -0.07449193 -0.11433875 0.25805932
-0.19136572 -0.13611326 -0.20671992 -0.27758592 -0.1732475 0.25547186 0.13272229 0.14492331
0.016095355 -0.15216586 0.050157174 -0.277858 -0.21576665 -0.15460794 0.1871062 0.17386949
-0.13246246 -0.011080869 0.18945266 0.2955403 0.117511295 0.040402576 0.20010944 -0.17474106
0.054835346 -0.23152535 -0.20647717 -0.1535923 0.13377677 0.11850772 -0.17773636 0.089176364
0.16197003 -0.039234247 0.009941124 0.0679898 0.1836671 0.28404158 -0.2301384 -0.110212475
0.11514133 0.24497539 0.25689155 0.26046997 0.058496095 -0.25838876 0.02736454 -0.18652032
-0.27846777 0.26366404 0.22556016 -0.29621777 0.055974465 -0.050441004 -0.050116085 -0.13652456
0.11292888 -0.17662299 0.10843871 0.14944151 0.21202096 0.10999329 -0.29528025 -0.19420345
0.14800268 0.062352814 -0.23143692 -0.17076513 0.2790338 0.19853373 -0.1308005 -0.07467785
-0.28182432 -0.004352818 -0.22257991 -0.22790065 -0.015495004 0.045340646 -0.12085071 0.17720872
-0.18055952 0.26909813 0.20238099 -0.25207466 -0.07404199 0.012576467 0.04176685 0.06878856
0.11502374 0.016168723 -0.14623407 0.13988791 -0.28588566 -0.17683728 -0.07582797 -0.14601436
-0.1044683 -0.24321054 -0.06279372 0.06431646 -0.1928922 -0.015587844 0.21150936
00000000: 119e 78bb 92ea 213e e463 7bbe d3f1 5fbe
00000010: 00ba e8bd aa73 a43d f6c0 afbb 98e2 713e
00000020: 0bb2 d5bc a8aa 9f3d 20fa b7bd e735 70bd
00000030: 6586 91be 4f39 49be 3003 fabd 7b82 3d3c
00000040: dc01 f13d 81c8 363e 23cd 4dbe 0d13 04be
00000050: 371d dd3d 6042 7c3e 4dfa 7cbd 4c1b 633e
00000060: 5a77 46bd 2a86 003d 1925 8a3e aa99 8cbe
00000070: 49e7 3ebe 3a8f 98bd 6f2a eabd 5a20 843e
00000080: 60f5 43be 4661 0bbe 63ae 53be be1f 8ebe
00000090: cb67 31be 35cd 823e 5ae8 073e c766 143e
000000a0: 68da 833c 5ed1 1bbe 9c71 4d3d 6743 8ebe
000000b0: eff1 5cbe 8b51 1ebe c598 3f3e d80a 323e
000000c0: 3da4 07be 888c 35bc e1ff 413e 0f51 973e
000000d0: c3a9 f03d 2c7d 253d 7de9 4c3e 52ef 32be
000000e0: 079b 603d fb14 6dbe c06e 53be 4d47 1dbe
000000f0: c7fc 083e 2db4 f23d 8500 36be 19a2 b63d
00000100: 79db 253e 17b4 20bd 19e0 223c 3c3e 8b3d
00000110: 3a13 3c3e e66d 913e 67a9 6bbe 14b7 e1bd
00000120: 38cf eb3d d4da 7a3e 4a87 833e 525c 853e
00000130: 9a99 6f3d 884b 84be 9a2b e03c 2fff 3ebe
00000140: 5493 8ebe f9fe 863e 3ef9 663e dba9 97be
00000150: 7b45 653d 3a9b 4ebd 8646 4dbd 18cd 0bbe
00000160: 4247 e73d a8dc 34be 1d15 de3d 3207 193e
00000170: 061c 593e 2944 e13d f92e 97be 45dd 46be
00000180: 048e 173e aa65 7f3d cdfd 6cbe 0edd 2ebe
00000190: 85dd 8e3e 6d4c 4b3e 91f0 05be b3f0 98bd
000001a0: 474b 90be 15a2 8ebb fdeb 63be ca5e 69be
000001b0: c2de 7dbc 1db7 393d 9480 f7bd 3476 353e
000001c0: 98e4 38be 3bc7 893e f63c 4f3e ee0f 81be
000001d0: 54a3 97bd 870d 4e3c b713 2b3d 04e1 8c3d
000001e0: 9191 eb3d 4574 843c 62be 15be c73e 0f3e
000001f0: 9b5f 92be d514 35be b24b 9bbd ca84 15be
00000200: 7af3 d5bd 2f0c 79be fe99 80bd 59b8 833d
00000210: 8885 45be 2864 7fbc e995 583e

weight_query f4 [135, 1]
-0.068236135 0.023854403 0.08880086 0.19266164 0.32546747 0.41663754 0.3210437 0.4122172
0.10672609 -0.14018095 -0.015334009 0.32720774 0.1225286 -0.02352997 -0.10400605 -0.15473686
-0.12784202 0.062162057 0.28523442 0.28287053 -0.16378123 0.3080173 -0.109108575 0.060441762
0.0030231038 0.066676766 0.0657729 -0.1424266 -0.13261394 0.07696978 0.12690364 -0.011921403
0.2346521 -0.14390327 0.10290159 0.38400623 0.0019210901 0.39084566 0.23091413 -0.14429109
0.3119479 0.08953105 -0.008492153 0.3614743 -0.11588736 0.15594503 0.061991002 0.33647016
0.2068932 0.2667536 0.22925742 0.0528249 0.061834816 -0.120818235 0.28488627 0.3599914
0.32733765 -0.08545068 0.13723251 -0.085452 -0.039761376 -0.049341716 0.22522847 -0.05336396
0.117389396 0.13643555 0.31528208 -0.10071376 -0.079669215 -0.04843244 0.3317544 0.017389853
0.37456822 0.23202635 0.16203727 0.121963404 0.065191686 0.16065498 0.055953648 0.121727966
0.16172959 -0.108546086 -0.032167107 0.363702 -0.116766125 0.102495596 0.4174012 0.23121133
0.13234623 -0.13375905 0.27132052 -0.08707254 0.039615802 0.024191946 0.07970803 0.12706499
0.36834204 0.16033815 0.38944042 0.30494907 -0.0643875 0.25656193 -0.086718395 -0.0022211862
0.2114858 0.22267166 0.3468409 0.028232615 0.12468936 0.27707025 -0.16334711 0.33844897
-0.121686704 0.12813339 0.07338475 -0.032638278 0.1629065 0.369603 0.037145343 -0.05253456
0.014035403 -0.17022441 0.25764933 -0.018666144 -0.07458556 -0.04787149 0.29413685 0.2804808
0.3510726 0.23124886 0.024493957 0.040871486 0.21197426 0.37110025 0.20822181
00000000: 63bf 8bbd 4f6a c33c 3add b53d 1849 453e
00000010: aca3 a63e 8451 d53e d75f a43e 220e d33e
00000020: 3593 da3d 988b 0fbe 7f3b 7bbc c687 a73e
00000030: 46f0 fa3d ecc1 c0bc 2001 d5bd 5773 1ebe
00000040: 05e9 02be a49d 7e3d 3f0a 923e 68d4 903e
00000050: 44b6 27be 72b4 9d3e 5174 dfbd c891 773d
00000060: 441f 463b d48d 883d f1b3 863d 47d8 11be
00000070: f3cb 07be 55a2 9d3d 07f3 013e fd51 43bc
00000080: a448 703e 615b 13be 12be d23d 779c c43e
00000090: 16cd fb3a ec1c c83e c174 6c3e 0bc1 13be
000000a0: a3b7 9f3e 0e5c b73d ac22 0bbc 2913 b93e
000000b0: 5a56 edbd 0eb0 1f3e 47ea 7d3d d145 ac3e
000000c0: d0db 533e ee93 883e 75c2 6a3e ec5e 583d
000000d0: 8146 7d3d 8d6f f7bd 9ddc 913e cb50 b83e
000000e0: cd98 a73e c400 afbd ae86 0c3e 7501 afbd
000000f0: d3dc 22bd 8a1a 4abd 4ba2 663e 2b94 5abd
00000100: da69 f03d c3b5 0b3e a76c a13e 0443 cebd
00000110: 9d29 a3bd 1861 46bd b6db a93e 2a75 8e3c
00000120: 68c7 bf3e 5198 6d3e 19ed 253e f3c7 f93d
00000130: 3883 853d bd82 243e a72f 653d 834c f93d
00000140: 719c 253e 694d debd a8c1 03bd 2637 ba3e
00000150: 1423 efbd 36e9 d13d 9cb5 d53e aac2 6c3e
00000160: c585 073e 22f8 08be 86ea 8a3e 1653 b2bd
00000170: 2e44 223d 302e c63c f73d a33d 531d 023e
00000180: 5497 bc3e af2f 243e bc64 c73e 4922 9c3e
00000190: 98dd 83bd 165c 833e 6a99 b1bd 5291 11bb
000001a0: bc8f 583e 0a04 643e 2195 b13e 1648 e73c
000001b0: 235d ff3d 27dc 8d3e 7744 27be 2f49 ad3e
000001c0: e136 f9bd 6635 033e be4a 963d b7af 05bd
000001d0: f6d0 263e 9b3c bd3e b725 183d 7b2e 57bd
000001e0: bff4 653c 4f4f 2ebe 9dea 833e bee9 98bc
000001f0: 50c0 98bd e514 44bd 1b99 963e 2e9b 8f3e
00000200: cabf b33e 80cc 6c3e 8da7 c83c dc68 273d
00000210: c80f 593e da00 be3e 1938 553e

weight_ih_l0 f4 [405, 3]
-0.06410196 -0.06395461 -0.104978114 0.062117983 -0.004561434 -0.032888785 0.08010721 -0.050349273
-0.0034473652 0.016429503 -0.0054665483 -0.066118024 0.0011111005 0.13950732 0.08516295 0.12478335
0.024299081 0.07986012 -0.027758023 -0.011916807 -0.060665842 0.027881198 0.0265471 -0.0025114862
-0.046244815 -0.07980438 0.032889247 -0.042448387 0.05574462 -0.009260329 -0.03606687 0.021074371
-0.039181013 0.11397584 0.11148381 0.030929955 0.03091085 0.053657345 0.05131426 -0.0381181
-0.09820229 -0.04119164 0.09931586 0.03794546 0.10200099 0.06252823 -0.039146014 0.00698888
-0.068421446 -0.09760799 -0.09734189 0.094551735 0.016253088 0.090702854 0.09375284 0.11282566
0.08696578 0.10225428 0.13109009 0.049130272 0.026282456 0.024579559 0.18515274 0.05341071
-0.060599145 0.032443423 0.084694624 0.10602802 0.09541952 0.04727648 -0.039029457 -0.04940687
0.11215573 0.08996216 -0.010017378 0.078604914 0.042974852 0.04810591 -0.07418957 0.004037328
-0.05127615 0.07945689 -0.0028211533 0.046428066 0.0015574899 0.022945665 -0.0428543 -0.038621195
-0.14032513 -0.060828794 -0.12493059 -0.15162902 -0.13598187 0.14711092 0.12595053 0.16043158
0.13984162 -0.0056482004 0.012614442 0.0057847006 -0.036386807 0.07905966 -0.049515195 -0.026848465
-0.06807413 -0.030449225 0.08933435 0.089113794 -0.007440878 -0.002394387 0.0077935676 -0.10947841
-0.049837295 -0.011042763 -0.0006598817 0.057008155 0.015830489 0.089037664 0.0064343615 0.07818184
0.02641448 -0.003975545 -0.032094322 -0.105141476 -0.123360835 0.00013188257 0.05283333 -0.01842316
-0.05879862 0.054553885 0.04246121 -0.0067750965 -0.029135896 0.090689525 0.046933204 0.018028444
0.16585433 0.14906634 -0.0068105627 0.07284352 -0.024475154 0.009347131 0.09571507 0.02601444
-0.0038158994 0.030899832 0.036264837 0.011806425 0.035801172 0.10720985 0.010449197 -0.047331885
0.010183673 0.04393043 0.045488313 -0.07578663 -0.001846791 -0.050300587 -0.023037178 0.037937902
-0.05507969 0.03801591 0.098933734 0.031547442 -0.031532068 -0.053849388 -0.0041744546 -0.08853017
0.020214392 -0.100740425 -0.10542445 -0.08054126 -0.014334389 0.06081688 -0.042964708 0.109816186
0.003708032 -0.05179435 -0.07219506 -0.15276226 0.08300193 0.058576163 0.09765128 0.020387648
-0.07975735 0.048968654 -0.050858025 -0.014754699 -0.12458323 -0.0085735535 -0.068256974 -0.017299507
0.002798705 -0.082673326 0.012392783 0.13323422 0.10023371 0.031083973 0.017429527 0.0579377
0.122356415 0.10777404 0.07223881 0.012818135 0.006424148 -0.10813436 -0.09725973 0.06547941
-0.023544505 0.066607825 -0.066137835 -0.04776616 -0.07568938 0.12686023 0.07349198 0.14865844
0.10298294 0.09752898 0.052676182 -0.04299125 -0.035225883 -0.0053633107 0.01890707 -0.083949186
0.04853714 -0.023331456 -0.08607623 -0.060675737 0.07469002 0.076959595 -0.081649676 0.098412886
0.081064604 0.08910867 0.111378826 -0.0066803535 0.06876694 0.02181156 -0.038493026 0.015942896
0.007976695 0.08595449 0.008502978 -0.010037812 0.04404813 0.05324174 -0.018146293 0.03146904
0.073712006 -0.027712699 0.007329978 -0.03950178 0.013522669 -0.078831874 -0.06730213 -0.027747415
00000000: e347 83bd a2fa 82bd c4fe d6bd 6d6f 7e3d
00000010: 1578 95bb 64b6 06bd 400f a43d 0a3b 4ebd
00000020: 31ed 61bb 2a97 863c bb20 b3bb e368 87bd
00000030: 59a2 913a 02db 0e3e ea69 ae3d 6a8e ff3d
00000040: de0e c73c b48d a33d cb64 e3bc b63e 43bc
00000050: bf7c 78bd 1c67 e43c 4e79 d93c bf97 24bb
00000060: 346b 3dbd 7b70 a3bd e0b6 063d 5cde 2dbd
00000070: 7854 643d a3b8 17bc dbba 13bd 29a4 ac3c
00000080: 457c 20bd 2a6c e93d a051 e43d d160 fd3c
00000090: c038 fd3c cec7 5b3d e72e 523d ba21 1cbd
000000a0: 481e c9bd 91b8 28bd 1d66 cb3d b36c 1b3d
000000b0: e5e5 d03d cd0e 803d 9257 20bd fa02 e53b
000000c0: 8b20 8cbd b3e6 c7bd 2f5b c7bd 57a4 c13d
000000d0: 3225 853c 6bc2 b93d 7d01 c03d 2411 e73d
000000e0: 1d1b b23d b16a d13d 7b3c 063e d33c 493d
000000f0: 4e4e d73c 125b c93c ae98 3d3e 30c5 5a3d
00000100: cf36 78bd 65e3 043d 6074 ad3d 3825 d93d
00000110: 4f6b c33d fba4 413d 5add 1fbd dc5e 4abd
00000120: e7b1 e53d 153e b83d ee1f 24bc 9dfb a03d
00000130: 6606 303d b40a 453d b4f0 97bd 904b 843b
00000140: f106 52bd 4bba a23d 19e3 38bb 5b2b 3e3d
00000150: b024 cc3a 8cf8 bb3c fe87 2fbd 4231 1ebd
00000160: 64b1 0fbe 9d27 79bd 9cdb ffbd a344 1bbe
00000170: d53e 0bbe 3fa4 163e 2df9 003e 2d48 243e
00000180: a432 0f3e 8a14 b9bb ceac 4e3c 968d bd3b
00000190: 550a 15bd 08ea a13d 72d0 4abd 50f1 dbbc
000001a0: 736a 8bbd a770 f9bc edf4 b63d 4b81 b63d
000001b0: 9cd2 f3bb 26eb 1cbb 2f61 ff3b 3736 e0bd
000001c0: 3122 4cbd b4ec 34bc e9fb 2cba 6281 693d
000001d0: f1ae 813c 6159 b63d 56d7 d23b cd1d a03d
000001e0: 2e63 d83c 4a45 82bb 5675 03bd 6a54 d7bd
000001f0: 9ba4 fcbd f549 0a39 c367 583d 2bec 96bc
00000200: d2d6 70bd e573 5f3d ceeb 2d3d a101 debb
00000210: 67ae eebc 6ebb b93d 083d 403d 63b0 933c
00000220: b8d5 293e d9a4 183e 242b dfbb fc2e 953d
00000230: 1e80 c8bc b524 193c 4306 c43d 3c1c d53c
00000240: 2b14 7abb a521 fd3c 708a 143d bc6f 413c
00000250: 40a4 123d d690 db3d 1c33 2b3c 14df 41bd
00000260: 6cd9 263c 65f0 333d f451 3a3d 0536 9bbd
00000270: 0610 f2ba fd07 4ebd 77b8 bcbc c664 1b3d
00000280: 3e9b 61bd 92b6 1b3d c59d ca3d e437 013d
00000290: c527 01bd 2d91 5cbd ddc9 88bb 4e4f b5bd
000002a0: a798 a53c ff50 cebd c6e8 d7bd d1f2 a4bd
000002b0: c9da 6abc 1f1b 793d c3fb 2fbd 4fe7 e03d
000002c0: 7402 733b 5026 54bd 01db 93bd b66d 1cbe
000002d0: eafc a93d 8fed 6f3d 65fd c73d ff03 a73c
000002e0: d257 a3bd 5b93 483d 8150 50bd b1bd 71bc
000002f0: 7e25 ffbd 1778 0cbc 50ca 8bbd b2b7 8dbc
00000300: 7a6a 373b a250 a9bd 190b 4b3c 8d6e 083e
00000310: 5547 cd3d d1a3 fe3c 5ec8 8e3c 1550 6d3d
00000320: 0096 fa3d a3b8 dc3d f1f1 933d 2803 523c
00000330: a981 d23b 8c75 ddbd 1c30 c7bd 121a 863d
00000340: 68e0 c0bc af69 883d 4673 87bd 73a6 43bd
00000350: 0903 9bbd a6e7 013e f782 963d eb39 183e
00000360: b8e8 d23d 46bd c73d fbc2 573d 9817 30bd
00000370: 0449 10bd b6be afbb 00e3 9a3c 8ded abbd
00000380: e1ce 463d 9c21 bfbc bc48 b0bd 1f87 78bd
00000390: 15f7 983d fe9c 9d3d f237 a7bd b28c c93d
000003a0: 3305 a63d 9b7e b63d 951a e43d dee6 dabb
000003b0: aed5 8c3d 28ae b23c ddaa 1dbd ad9a 823c
000003c0: afb0 023c e808 b03d 1350 0b3c a375 24bc
000003d0: d06b 343d 0314 5a3d 89a7 94bc aee5 003d
000003e0: 52f6 963d be05 e3bc 5030 f03b 9ecc 21bd
000003f0: 2f8e 5d3c 9b72 a1bd b3d5 89bd 8c4e e3bc

weight_hh_l0 f4 [405, 135]
0.062378526 0.07589035 -0.0627497 0.121673435 -0.005794478 0.022226648 0.035187397 -0.055433832
-0.05264335 0.02296768 0.07077786 -0.039956626 -0.09973754 0.032862123 0.017470384 0.10172891
-0.105961375 -0.0063731773 -0.054794915 -0.08455248 -0.01627744 -0.06739835 0.0697858 -0.07300413
0.081977494 -0.029131483 0.03304086 -0.1345533 -0.06571801 -0.017874883 -0.17235163 0.021070527
0.010307766 -4.2182904e-07 -0.10461382 0.09821193 0.052017443 -0.02133739 -0.032338887 0.06630894
0.16284087 -0.08845876 -0.030048465 0.01151979 -0.08698639 0.116339296 -0.022829108 0.082596116
-0.029236615 -0.032549683 -0.052181397 -0.048881166 0.064879335 0.076966725 -0.050155066 0.10475296
0.020221014 0.05339641 0.0924434 0.055619814 0.057003424 -0.02783013 -0.06087149 0.041799717
0.017930208 -0.026540022 0.01892719 0.04423477 -0.009880859 -0.08397471 -0.021152 -0.050339222
-0.10423776 -0.0011398436 0.013024915 0.019501815 0.061828442 -0.06033375 -0.07274511 0.10858711
0.005156421 -0.038472254 -0.058411185 -0.08803237 0.012147439 -0.100242235 0.01623197 0.081065655
-0.0061524636 -0.07589184 0.0534711 0.08534655 -0.12629968 0.04945985 0.010997854 0.021582741
-0.009291994 -0.07461441 0.025056357 0.04081587 -0.04596106 -0.07117065 0.042156413 0.06844181
0.056147557 0.0040689823 0.044997394 -0.0029873857 0.015256039 0.06954841 -0.022351706 -0.035989564
-0.026500167 -0.04367404 0.0137475245 -0.06004878 0.076912574 -0.00942545 0.041163087 0.084718704
0.010141519 -0.006540099 -0.00053042773 -0.065913126 0.06375558 -0.0043931725 -0.03264967 -0.090577506
0.057195336 -0.097925216 0.011347563 0.024084508 -0.08338821 -0.10913946 -0.060963497 0.055566214
-0.13517356 -0.13718286 0.022842048 -0.0136084305 0.08847948 0.03013253 -0.020195251 0.0029479773
-0.020491512 -0.09316004 -0.055459496 0.0695388 -0.050942343 -0.11833478 -0.1600196 0.053048152
0.04901323 0.14615183 -0.022682974 -0.023682643 -0.13412812 -0.10386271 0.016881375 -0.018153278
-0.046903282 -0.078712404 0.08356637 -0.03661958 -0.12990849 -0.01495378 -0.0716946 -0.14924933
-0.12806526 0.13232331 -0.0148097705 0.07931479 -0.0021450084 -0.024661971 0.11726559 -0.09975497
-0.12560119 0.018255774 0.025784751 0.050589643 -0.00022104545 -0.14306241 0.007746037 0.063516885
0.04228168 0.09511973 0.11413915 -0.12890986 -0.025964957 0.096833065 -0.10736973 0.014026337
-0.12198895 -0.019803332 -0.06281362 -0.11216373 0.015094321 0.01942752 -0.14434677 -0.08328378
-0.14416088 -0.12889658 0.0044371523 -0.036648884 -0.005698215 0.11914729 0.029746044 -0.048212312
-0.13009396 -0.0049680616 0.07254452 0.03587855 0.119836874 -0.17036769 -0.00052362605 -0.019220546
-0.0009241427 0.050238233 -0.012163542 -0.009861885 -0.14714596 0.023730263 -0.16377601 -0.050747488
0.07085645 0.032875683 0.05954281 0.06356232 -0.088745706 0.04257213 0.008627006 0.022908252
0.08746734 0.12646782 -0.14577377 0.009217847 0.021484118 -0.008150189 -0.0777038 0.010682921
-0.0099599855 0.106927894 -0.17704318 -0.056660056 -0.03072359 0.06812082 0.030095086 0.11620266
0.05149862 -0.024234237 -0.04645014 -0.017459296 0.015161422 0.009171811 0.022766836 -0.0008850519
00000000: a080 7f3d 666c 9b3d ea82 80bd ec2f f93d
00000010: 9bdf bdbb a914 b63c a920 103d 960e 63bd
00000020: 8ea0 57bd b726 bc3c fcf3 903d 8fa9 23bd
00000030: 3243 ccbd 6f9a 063d 0d1e 8f3c 3f57 d03d
00000040: 4702 d9bd 16d6 d0bb a270 60bd da29 adbd
00000050: 4458 85bc 2508 8abd dceb 8e3d 3083 95bd
00000060: d1e3 a73d 26a5 eebc da55 073d 57c8 09be
00000070: 2a97 86bd 596e 92bc f27c 30be 199c ac3c
00000080: e7e1 283c be77 e2b4 c53f d6bd 5623 c93d
00000090: 3e10 553d c0cb aebc c875 04bd fbcc 873d
000000a0: c2bf 263e de29 b5bd 3328 f6bc 80bd 3c3c
000000b0: ec25 b2bd 4c43 ee3d 1c04 bbbc 2728 a93d
000000c0: a081 efbc d152 05bd 29bc 55bd 9e37 48bd
000000d0: 75df 843d bba0 9d3d 666f 4dbd b888 d63d
000000e0: 8aa6 a53c 32b6 5a3d f752 bd3d 9ad1 633d
000000f0: 6c7c 693d 03fc e3bc 6254 79bd 2e36 2b3d
00000100: 5fe2 923c 766a d9bc 320d 9b3c 852f 353d
00000110: 54e3 21bc effa abbd f646 adbc 8030 4ebd
00000120: 9b7a d5bd ce66 95ba 7466 553c 45c2 9f3c
00000130: d23f 7d3d 8620 77bd 63fb 94bd eb62 de3d
00000140: 32f7 a83b 1595 1dbd 9140 6fbd 514a b4bd
00000150: 0d06 473c cd4b cdbd e9f8 843c c005 a63d
00000160: 9b9a c9bb 2e6d 9bbd 8304 5b3d 2cca ae3d
00000170: b454 01be 6996 4a3d 5830 343c 4ace b03c
00000180: 733d 18bc 71cf 98bd fd42 cd3c 8b2e 273d
00000190: aa41 3cbd ebc1 91bd 34ac 2c3d 382b 8c3d
000001a0: fbfa 653d 1955 853b 304f 383d 04c8 43bb
000001b0: 77f4 793c 666f 8e3d ed1a b7bc cb69 13bd
000001c0: e116 d9bc 8de3 32bd 4c3d 613c b6f5 75bd
000001d0: 5784 9d3d 346d 1abc a09a 283d 0081 ad3d
000001e0: 9d28 263c 544e d6bb 670c 0bba 76fd 86bd
000001f0: 4992 823d 9af4 8fbb a9bb 05bd b380 b9bd
00000200: a845 6a3d 048d c8bd 21eb 393c e04c c53c
00000210: 70c7 aabd 8284 dfbd dcb4 79bd 6699 633d
00000220: f06a 0abe aa79 0cbe 3f1f bb3c e5f5 5ebc
00000230: bb34 b53d 7fd8 f63c 8370 a5bc da32 413b
00000240: d1dd a7bc b1ca bebd 7f29 63bd 5c6a 8e3d
00000250: eba8 50bd 8159 f2bd 2edc 23be 0549 593d
00000260: 19c2 483d d3a8 153e a5d1 b9bc 1a02 c2bc
00000270: e258 09be f9b5 d4bd cf4a 8a3c 2fb6 94bc
00000280: a81d 40bd f833 a1bd d824 ab3d 6afe 15bd
00000290: bb06 05be b300 75bc 9ed4 92bd d1d4 18be
000002a0: 8a23 03be c37f 073e aea4 72bc cb6f a23d
000002b0: 4593 0cbb e707 cabc f128 f03d 554c ccbd
000002c0: 999d 00be 228d 953c 8b3a d33c 1637 4f3d
000002d0: 70c8 67b9 f47e 12be 78d2 fd3b 2415 823d
000002e0: 8e2f 2d3d 22ce c23d c9c1 e93d f200 04be
000002f0: 76b4 d4bc 6a50 c63d a9e4 dbbd b9ce 653c
00000300: 58d5 f9bd 993a a2bc 6da4 80bd 19b6 e5bd
00000310: 2c4e 773c 7626 9f3c a4cf 13be b090 aabd
00000320: e99e 13be 77fd 03be 8865 913b 241d 16bd
00000330: 18b8 babb 7f03 f43d faad f33c 467a 45bd
00000340: 5a37 05be 1fcb a2bb 3992 943d 63f5 123d
00000350: 096d f53d de74 2ebe f343 09ba 6874 9dbc
00000360: 2b42 72ba 9bc6 4d3d 9849 47bc be93 21bc
00000370: 6ead 16be f865 c23c e6b4 27be 99dc 4fbd
00000380: 301d 913d a7a8 063d 29e3 733d f62c 823d
00000390: 4fc0 b5bd 1d60 2e3d 4958 0d3c 16aa bb3c
000003a0: 1422 b33d c880 013e b845 15be 7406 173c
000003b0: 76ff af3c 5f88 05bc 2b23 9fbd 6b07 2f3c
000003c0: 352f 23bc 03fd da3d cf4a 35be 6014 68bd
000003d0: 0ab0 fbbc ee82 8b3d f889 f63c a9fb ed3d
000003e0: 38f0 523d e186 c6bc 8142 3ebd cc06 8fbc
000003f0: 9d67 783c 5d45 163c 8481 ba3c d402 68ba

bias_ih_l0 f4 [405]
-0.019154368 0.11057654 -0.011512508 0.08040845 -0.010426565 0.023860212 -0.03679511 -0.04145417
0.11402369 0.0651712 -0.025985986 0.037792057 0.038628787 -0.05321527 -0.15652229 0.021881826
-0.106182076 -0.036646497 -0.10564478 -0.090713315 -0.11454643 -0.017907288 0.00914447 0.11571636
0.031656012 -0.021126665 -0.11543717 -0.11220458 -0.07945911 -0.14890784 0.009114387 0.008238049
0.055923447 -0.09193386 -0.01544547 0.047319435 -0.049387023 -0.099256724 -0.055153344 0.06843335
0.06975508 0.042581093 -0.116283335 0.07136843 0.04864356 -0.0060486807 0.0013057787 -0.093621075
0.05610788 0.014087458 0.019258266 -0.04084922 0.07494994 0.014253837 0.08866763 -0.089452274
0.06964364 -0.073975936 -0.119342305 0.07520128 -0.02346653 -0.030157328 -0.090200536 0.103620455
0.014946893 -0.08312542 -0.09455042 -0.08065475 -0.05679722 -0.0060376013 -0.013564469 0.10577927
-0.07237655 -0.034165442 0.038108423 0.034202527 -0.1588758 0.019807205 0.08814723 -0.023324955
-0.092605196 0.01889025 -0.09413185 0.03839545 -0.08140525 -0.051044628 -0.08353784 -0.13241954
-0.018097417 0.015345483 0.05900355 0.034033597 0.08998147 0.03725362 0.012087409 0.019892726
0.016726442 -0.07083725 -0.008391832 0.019823529 0.012020842 0.02027012 0.07170047 -0.11212439
0.12966266 0.03833785 -0.087633744 0.039037026 0.029953513 -0.058369916 0.015714733 -0.05208236
0.021236287 0.111528866 0.10722304 0.029580211 -0.022149237 0.12641802 0.030918228 0.037482947
-0.1410218 -0.0354921 0.013547015 0.03177698 0.16167897 0.013670467 0.019692697 0.17959717
-0.07889581 0.0314969 0.05086448 -0.033823848 -0.037678465 0.1303225 0.057638425 0.14453164
-0.16075215 -0.07596555 0.06731179 -0.08066507 0.09054372 0.13303916 0.09992915 0.02964577
-0.07566069 -0.047151927 0.026255082 0.017367154 -0.02099362 0.006968681 -0.04236129 0.12492273
0.03152345 0.06311647 0.0030723882 -0.010046173 0.051704284 -0.01952719 -0.18967725 -0.10197458
0.055118367 -0.07882918 -0.007706058 0.10487885 -0.090467125 0.0015659583 0.006281967 -0.0007061027
-0.08468404 -0.020495681 -0.050148103 -0.040925253 0.10068334 0.027914276 -0.19524503 -0.06650338
-0.056481887 -0.079571575 0.114207886 -0.17983933 -0.02080886 0.06373832 -0.06255855 0.015623512
-0.054335333 -0.07918492 0.063394226 -0.12648584 -0.04574414 -0.029311558 0.044792082 -0.104894586
-0.044611145 -0.016485214 0.066379204 -0.028476981 -0.038571946 0.006420707 -0.12313814 -0.10564547
-0.061900288 -0.083320096 0.043471627 0.011439652 -0.2191325 0.036890443 0.0017085371 -0.06522691
-0.010533566 -0.012865741 0.038182028 -0.021259489 -0.14100367 -0.06675486 -0.06451059 0.06898932
-0.112910256 -0.069651596 -0.106884435 0.10441495 0.028011508 0.006783596 -0.09313703 0.034554213
0.04106296 0.03842309 -0.06797828 -0.023407955 -0.05903426 -0.025246775 -0.0369895 0.066438176
-0.008453506 0.032920048 -0.09366834 -0.09016538 -0.039666407 0.09552735 -0.14109911 -0.058382776
0.08584918 -0.0022386517 -0.019235896 -0.050801665 -0.10352879 0.056778964 -0.033707317 -0.081159115
-0.12286116 -0.073484614 0.025244521 0.033805337 -0.14762445 -0.04549538 -0.023336053 -0.10717512
00000000: 9fe9 9cbc f475 e23d f59e 3cbc 2fad a43d
00000010: 2fd4 2abc 7e76 c33c 78b6 16bd d9cb 29bd
00000020: 4185 e93d 7a78 853d 90e0 d4bc d8cb 1a3d
00000030: 3839 1e3d 41f8 59bd 6147 20be 8441 b33c
00000040: fd75 d9bd a31a 16bd 4a5c d8bd e7c7 b9bd
00000050: 5297 eabd 4eb2 92bc b0d2 153c b3fc ec3d
00000060: bca9 013d d411 adbc 536a ecbd 84cb e5bd
00000070: 75bb a2bd 4c7b 18be 8354 153c e2f8 063c
00000080: fc0f 653d d247 bcbd ff0e 7dbc 06d2 413d
00000090: 0c4a 4abd 1c47 cbbd 79e8 61bd c926 8c3d
000000a0: c0db 8e3d 8369 2e3d f525 eebd 9d29 923d
000000b0: 783e 473d 0334 c6bb aa26 ab3a 68bc bfbd
000000c0: 60d1 653d 15cf 663c 83c3 9d3c 8351 27bd
000000d0: 5b7f 993d ed88 693c 6097 b53d c132 b7bd
000000e0: 53a1 8e3d b280 97bd bd69 f4bd 2103 9a3d
000000f0: e13c c0bc 800c f7bc 0fbb b8bd f636 d43d
00000100: d0e3 743c a93d aabd a7a3 c1bd 512e a5bd
00000110: 34a4 68bd 12d7 c5bb 823d 5ebc cda2 d83d
00000120: 283a 94bd 10f1 0bbd 9417 1c3d f317 0c3d
00000130: 56b0 22be b842 a23c 8986 b43d fa13 bfbc
00000140: cba7 bdbd babf 9a3c 33c8 c0bd 8c44 1d3d
00000150: ccb7 a6bd 2c14 51bd e315 abbd fd98 07be
00000160: 0941 94bc 9f6b 7b3c b5ad 713d d066 0b3d
00000170: 3448 b83d 4097 183d 450a 463c 12f6 a23c
00000180: e405 893c 1f13 91bd e57d 09bc f464 a23c
00000190: 11f3 443c 860d a63c b2d7 923d 79a1 e5bd
000001a0: 4ac6 043e 2608 1d3d 5279 b3bd 4ae5 1f3d
000001b0: 1261 f53c 4b15 6fbd 2fbc 803c 5054 55bd
000001c0: b9f7 ad3c 3f69 e43d c197 db3d 3352 f23c
000001d0: 5172 b5bc ba73 013e 3948 fd3c b887 193d
000001e0: 0568 10be 2a60 11bd 4df4 5d3c 9428 023d
000001f0: 2c8f 253e 18fa 5f3c 9452 a13c 52e8 373e
00000200: 2094 a1bd e502 013d 4657 503d e08a 0abd
00000210: bc54 1abd 4373 053e 4516 6c3d 1a00 143e
00000220: 369c 24be d493 9bbd c4da 893d ba33 a5bd
00000230: fc6e b93d 6b3b 083e a7a7 cc3d b0db f23c
00000240: fef3 9abd 6122 41bd e614 d73c 9045 8e3c
00000250: d0fa abbc 8859 e43b 0883 2dbd 7dd7 ff3d
00000260: bc1e 013d 3543 813d 1f5a 493b b498 24bc
00000270: dfc7 533d 7cf7 9fbc c13a 42be 0cd8 d0bd
00000280: ccc3 613d 3171 a1bd 1a83 fcbb b9ca d63d
00000290: d446 b9bd d740 cd3a f5d8 cd3b c019 39ba
000002a0: d36e adbd 8fe6 a7bc 1968 4dbd 3da1 27bd
000002b0: 1133 ce3d 7bac e43c 50ee 47be ed32 88bd
000002c0: 8d59 67bd 6cf6 a2bd d3e5 e93d cd27 38be
000002d0: 5877 aabc 3c89 823d b21e 80bd c2f9 7f3c
000002e0: ba8e 5ebd b42b a2bd d5d4 813d 8185 01be
000002f0: 355e 3bbd cb1e f0bc e777 373d f9d2 d6bd
00000300: 2dba 36bd 000c 87bc d2f1 873d 8f48 e9bc
00000310: 9efd 1dbd cb64 d23b d92f fcbd a75c d8bd
00000320: 288b 7dbd baa3 aabd 4e0f 323d 616d 3b3c
00000330: 4564 60be 6f1a 173d fef0 df3a b095 85bd
00000340: fa94 2cbc d4ca 52bc c264 1c3d 6128 aebc
00000350: 4463 10be c6b6 88bd 211e 84bd 464a 8d3d
00000360: 7e3d e7bd 7fa5 8ebd 3ae6 dabd 81d7 d53d
00000370: 6478 e53c ed48 de3b a1be bebd b888 0d3d
00000380: a231 283d 8861 1d3d 3238 8bbd 0ac2 bfbc
00000390: e9cd 71bd 53d2 cebc 4d82 17bd bd10 883d
000003a0: 9380 0abc 2cd7 063d 30d5 bfbd a0a8 b8bd
000003b0: 3e79 22bd d8a3 c33d 497c 10be c722 6fbd
000003c0: b2d1 af3d 58b6 12bb 9994 9dbc 6815 50bd
000003d0: e706 d4bd 0f91 683d af10 0abd c036 a6bd
000003e0: a29e fbbd 1a7f 96bd 99cd ce3c 7777 0a3d
000003f0: dd2a 17be 5d59 3abd 402b bfbc a17e dbbd

bias_hh_l0 f4 [405]
-0.01977774 0.08833694 -0.0757917 0.025995452 -0.054659035 0.006733159 -0.0850786 -0.013171591
0.063713714 0.08704986 -0.09670674 0.021020057 0.033144474 0.028348433 -0.16663392 -0.0300111
0.013105154 -0.09516577 -0.04566194 -0.14236802 -0.020129416 -0.054453965 0.027390396 0.0950645
0.09187149 -0.073628604 -0.08179589 -0.08434349 -0.055886857 -0.03777592 -0.11179524 0.028210364
-0.082389675 -0.14372754 -0.0041145775 0.001977138 0.042252094 -0.06752622 0.031699102 -0.008122971
0.117744096 -0.073884346 0.023760024 0.081482105 0.079008736 -0.00060671824 -0.08370283 -0.013269072
0.040481582 0.0350123 -0.008915246 0.047461495 0.05252277 0.029942336 0.055631593 0.026824279
0.068853095 -0.14477624 -0.124265715 0.03998283 0.054791927 -0.028428748 -0.043678943 0.065528736
0.009581313 -0.046019755 -0.004483572 -0.0011856286 -0.08360062 -0.06167715 -0.040642567 0.02850897
-0.07391696 0.004454284 0.031313043 0.029883288 -0.0026784656 0.0056815282 0.034327447 -0.0030004033
-0.06918802 -0.033011306 -0.083630696 -0.01853692 -0.09480892 -0.027478427 0.07423612 -0.0064475886
-0.06902392 0.04710849 0.10944481 -0.0778466 0.19391896 0.022794152 -0.06835142 -0.017033508
0.01935135 -0.041279167 0.040148936 -0.023216292 0.058471322 -0.07720228 0.05857214 -0.053662878
-0.024265656 -0.042425554 0.0509811 -0.058824692 0.07453828 -0.10426369 -0.028607434 0.018276047
-0.012268829 0.05690344 0.065867245 0.01622557 -0.061119698 0.10942736 -0.08548519 -0.038195208
-0.02094849 -0.052394 -0.10680038 0.030414034 0.08952232 -0.077316925 -0.0564869 0.18120888
-0.07400292 -0.08037287 0.017710872 -0.036268074 -0.08890961 0.09671524 0.08771855 0.10600695
-0.16406977 -0.06370135 -0.03426463 -0.105956756 0.0031792528 0.031587884 0.13039401 0.02856635
-0.07712755 -0.003004826 -0.04725501 -0.024944296 -0.05113108 -0.05174811 -0.0036206332 0.049700644
-0.05479876 -0.08085774 0.04659099 -0.11450851 0.019102203 -0.10842762 -0.061928082 -0.11926377
0.037474263 0.012041647 -0.077523194 0.06279014 0.007310517 -0.0029922635 -0.08306431 -0.06340536
-0.022378515 -0.03601866 -0.051200274 0.04463947 0.085679986 0.0055381046 -0.17311627 -0.011588204
0.01978669 -0.026815426 0.13397062 -0.2231338 -0.06817281 0.06711577 -0.11621843 0.017124852
-0.10072728 -0.05916638 0.03680121 0.0136921145 -0.084164284 -0.03333667 -0.07501784 -0.0057578404
-0.098264374 -0.037570547 0.03842516 0.07942278 -0.07195498 -0.0034989715 -0.056122184 0.044629734
0.042514212 -0.017577365 -0.09689982 0.011073066 -0.14035878 -0.04874752 -0.012996362 -0.019370653
-0.12251122 -0.07392013 0.069837 0.06534929 -0.16917156 -0.030060392 0.072704084 -0.009410507
-0.0877981 0.0035754384 -0.080736406 0.072910495 -0.007946148 0.04272627 -0.049315102 -0.036500156
0.0014565127 -0.120033935 -0.038713574 -0.14878334 -0.03642191 0.102951564 0.0787609 0.04456837
0.0071171923 -0.09921524 -0.09383436 0.014782349 -0.025270699 0.09759623 -0.023757901 -0.07134839
0.08053067 0.115291305 -0.012472459 -0.06727333 -0.069224246 -0.06925852 -0.11278635 -0.030165702
-0.17481071 -0.054078907 0.05343786 -0.06362009 -0.06339341 0.005159167 -0.040827673 0.020608546
00000000: ed04 a2bc ffe9 b43d ae38 9bbd 6af4 d43c
00000010: 27e2 5fbd d5a1 dc3b b03d aebd a8cd 57bc
00000020: 567c 823d 3247 b23d 2f0e c6bd 4132 ac3c
00000030: 80c2 073d f93a e83c 15a2 2abe d7d9 f5bc
00000040: 00b7 563c 45e6 c2bd 0408 3bbd ecc8 11be
00000050: 72e6 a4bc 1f0b 5fbd d361 e03c 2db1 c23d
00000060: 1f27 bc3d 98ca 96bd 9b84 a7bd 48bc acbd
00000070: 9ee9 64bd ecba 1abd e7f4 e4bd 6c19 e73c
00000080: ebbb a8bd 502d 13be 94d3 86bb df92 013b
00000090: 8810 2d3d 304b 8abd ebd6 013d 3616 05bc
000000a0: d123 f13d ad50 97bd 62a4 c23c 17e0 a63d
000000b0: 55cf a13d 2c0c 1fba 646c abbd 8666 59bc
000000c0: 04d0 253d 0f69 0f3d 4111 12bc fc66 423d
000000d0: 1e22 573d a149 f53c f4dd 633d 97be db3c
000000e0: da02 8d3d 3940 14be 067f febd 09c5 233d
000000f0: 806d 603d 68e3 e8bc b1e8 32bd ee33 863d
00000100: f0fa 1c3c 367f 3cbd eeea 92bb 1867 9bba
00000110: cd36 abbd 2ea1 7cbd d278 26bd a58b e93c
00000120: c661 97bd 3ef5 913b 1b42 003d cccd f43c
00000130: 3289 2fbb 1d2c ba3b f09a 0c3d 6aa2 44bb
00000140: 73b2 8dbd dd36 07bd 9246 abbd bdda 97bc
00000150: 2e2b c2bd 701a e1bc 1b09 983d 4b46 d3bb
00000160: 6a5c 8dbd d5f4 403d 9a24 e03d 0a6e 9fbd
00000170: b192 463e cdba ba3c d4fb 8bbd db89 8bbc
00000180: b986 9e3c 5814 29bd 3673 243d 1830 bebc
00000190: a07f 6f3d 3b1c 9ebd 57e9 6f3d 9bcd 5bbd
000001a0: c5c8 c6bc 6bc6 2dbd 8fd1 503d 29f2 70bd
000001b0: 87a7 983d 3488 d5bd 235a eabc a6b7 953c
000001c0: 3303 49bc 9513 693d 68e5 863d 7deb 843c
000001d0: a658 7abd 741b e03d dc12 afbd 9472 1cbd
000001e0: 2b9c abbc 179b 56bd 28ba dabd da26 f93c
000001f0: 7a57 b73d 5658 9ebd cf5e 67bd d28e 393e
00000200: d88e 97bd 889a a4bd 6416 913c d58d 14bd
00000210: 3e16 b6bd a412 c63d c8a5 b33d 2c1a d93d
00000220: e801 28be da75 82bd 1259 0cbd dbff d8bd
00000230: 035b 503b 4c62 013d 0286 053e fa03 ea3c
00000240: 0df5 9dbd 9dec 44bb 788e 41bd fb57 ccbc
00000250: d36e 51bd d4f5 53bd 2548 6dbb e792 4b3d
00000260: aa74 60bd be98 a5bd 32d6 3e3d 7083 eabd
00000270: 397c 9c3c 4d0f debd 4da8 7dbd 9040 f4bd
00000280: 9d7e 193d 544a 453c 7bc4 9ebd 1e98 803d
00000290: 108d ef3b da19 44bb 9f1d aabd abda 81bd
000002a0: 2653 b7bc 4d88 13bd 61b7 51bd e0d7 363d
000002b0: fd78 af3d fd78 b53b 6445 31be 73dc 3dbc
000002c0: b217 a23c 06ac dbbc 982f 093e 307d 64be
000002d0: 309e 8bbd fe73 893d ee03 eebd 6b49 8c3c
000002e0: 1b4a cebd 7258 72bd debc 163d e454 603c
000002f0: 535e acbd 088c 08bd f4a2 99bd 44ac bcbb
00000300: d53e c9bd 93e3 19bd b363 1d3d 69a8 a23d
00000310: 225d 93bd 004f 65bb 60e0 65bd abcd 363d
00000320: 6223 2e3d 68fe 8fbc 6a73 c6bd ce6b 353c
00000330: 36ba 0fbe 7bab 47bd b1ee 54bc 34af 9ebc
00000340: 2ae7 fabd 7063 97bd b306 8f3d d9d5 853d
00000350: 4f3b 2dbe 3641 f6bc e1e5 943d 872e 1abc
00000360: 7ecf b3bd e751 6a3b 2159 a5bd 1952 953d
00000370: 8f30 02bc be01 2f3d a2fe 49bd 3081 15bd
00000380: 75e8 be3a 5ad4 f5bd 2092 1ebd a95a 18be
00000390: 242f 15bd 45d8 d23d 654d a13d 538d 363d
000003a0: 5637 e93b 5c31 cbbd 3b2c c0bd aa31 723c
000003b0: 7f04 cfbc 88e0 c73d ee9f c2bc 1b1f 92bd
000003c0: 44ed a43d d91d ec3d 4959 4cbc 9ac6 89bd
000003d0: 71c5 8dbd 69d7 8dbd 88fc e6bd 101e f7bc
000003e0: 9401 33be d881 5dbd a8e1 5a3d 404b 82bd
000003f0: 67d4 81bd 3b0e a93b eb3a 27bd 41d3 a83c

weight f4 [1, 4, 1, 12, 12]
-0.16782993 -0.024771659 0.051609997 0.07678949 -0.13933283 0.02669432 0.03388865 0.048357617
0.044923462 0.02860047 -0.070961185 -0.06350793 -0.09058015 0.033798333 0.01706718 0.08996455
0.019284438 -0.024670577 -0.026211258 0.027548796 0.030065743 -0.019774556 0.043070514 -0.030990845
-0.038296774 0.034716383 -0.007696412 0.06654695 -0.054071713 0.01641244 0.06794903 -0.049670406
0.13235968 0.057712406 -0.051821977 0.11070052 0.0035600066 -0.0041719875 -0.107479185 -0.1598763
-0.025317358 0.021419743 0.01639127 -0.034642816 0.057794295 0.08026343 0.010985234 -0.073740914
-0.0040761936 -0.010947321 0.17680055 0.14579178 -0.036219217 0.022752455 0.0515016 0.07112416
-0.029347416 -0.1171873 0.014238788 0.068903774 -0.0810809 -0.07642795 0.032442253 0.087573074
-0.13697161 -0.02500833 0.19940597 0.02124144 -0.06685953 -0.025461493 -0.0046352907 -0.1405562
0.018703284 0.072544165 0.092626736 0.082068875 0.09598146 0.0699661 -0.034490276 0.037516046
-0.03983924 -0.085129485 0.024840256 -0.019692518 0.040233992 0.070824996 0.10201855 0.07844687
0.0071855146 -0.16087319 -0.029728703 0.08612978 -0.10499262 -0.015489958 0.06848521 0.10397767
-0.013638385 -0.018839777 0.09192269 0.13044928 -0.028503498 0.06846382 0.018530995 0.07103619
0.022643227 0.06432821 -0.041680038 0.060258504 0.099540055 0.03630705 -0.0887802 -0.13190542
0.1059132 0.08249119 -0.124629855 -0.051615585 0.10488718 0.056241415 0.05690361 -0.014585431
0.0035007866 0.07010389 -0.020073049 -0.020469489 0.01635433 0.004047045 0.07929018 -0.03793167
0.014819242 0.0054032565 -0.024274414 0.11777777 -0.07830502 0.010365304 0.0058483128 0.066963054
0.05082136 -0.04607869 0.021224514 -0.027571123 -0.061519597 -0.0015597919 0.038495004 -0.061695628
0.061526645 0.0408619 -0.13588502 0.0036332712 0.1038611 -0.021222 -0.08989633 -0.059186738
0.05941536 -0.018718397 -0.05634671 0.061205387 0.11063689 -0.01257627 -0.016694218 0.06265054
-0.018931065 -0.019768497 0.0828699 -0.031079948 0.035934813 0.075686134 -0.035599347 0.13341634
0.08303928 0.06215309 -0.00637124 0.0077446885 0.04205557 -0.075561166 0.014427427 0.006617407
0.032409664 0.12747806 0.057647794 0.004196579 0.056556877 -0.20455049 -0.09935167 -0.047125727
-0.0043555587 -0.033507682 0.059551913 -0.08124607 -0.05694008 0.03617909 -0.06045557 -0.013372484
0.11585837 -0.033166997 -0.2083823 -0.21896015 0.023711173 0.048114948 -0.10365273 -0.19081612
0.1664016 0.19906549 -0.010102562 0.102043115 -0.08777295 0.011977533 0.0010709369 0.03909172
0.0008424782 0.04962901 -0.086541794 -0.062546805 0.0039176787 0.07198067 -0.07985094 0.013761216
0.083041556 -0.060743943 -0.09373255 -0.114344716 0.06841272 0.04610711 -0.06584159 0.029804438
0.021346759 0.071104236 0.024101103 0.017120507 -0.053780697 -0.09250202 -0.036203146 0.057317354
-0.17080054 0.02318828 0.016106322 -0.026263531 0.08360692 0.05083419 0.013863853 -0.0002554584
0.089689784 0.11592398 -0.1822935 -0.14889671 0.13700551 0.23172261 -0.05617012 -0.21348566
0.012575125 0.07751772 -0.008107414 0.08658619 -0.048036043 -0.021120543 -0.078516655 -0.056356553
00000000: 9cdb 2bbe efed cabc 0165 533d cf43 9d3d
00000010: 44ad 0ebe 0cae da3c d3ce 0a3d a312 463d
00000020: aa01 383d 884b ea3c 1954 91bd 7210 82bd
00000030: 1682 b9bd 1f70 0a3d 78d0 8b3c 563f b83d
00000040: 66fa 9d3c f319 cabc feb8 d6bc 03ae e13c
00000050: 6f4c f63c 40fe a1bc b56a 303d 83e0 fdbc
00000060: 14dd 1cbd c432 0e3d 2f32 fcbb c449 883d
00000070: 4d7a 5dbd 6273 863c dc28 8b3d 3273 4bbd
00000080: 4c89 073e d863 6c3d 4843 54bd f4b6 e23d
00000090: 004f 693b 2bb5 88bb 0c1e dcbd 9db6 23be
000000a0: 5966 cfbc 7578 af3c fc46 863c a0e5 0dbd
000000b0: b6b9 6c3d 2761 a43d 69fb 333c 7a05 97bd
000000c0: 9791 85bb 645c 33bc 340b 353e 714a 153e
000000d0: 9a5a 14bd 5b63 ba3c 57f3 523d 8ba9 913d
000000e0: fe69 f0bc e5ff efbd ce49 693c 6c1d 8d3d
000000f0: be0d a6bd 4286 9cbd 2be2 043d 8359 b33d
00000100: 4942 0cbe 45de ccbc 1431 4c3e 8702 ae3c
00000110: a6ed 88bd 9f94 d0bc a3e3 97bb f7ed 0fbe
00000120: a137 993c 0992 943d 16b3 bd3d ba13 a83d
00000130: ed91 c43d 634a 8f3d ad45 0dbd 6daa 193d
00000140: 792e 23bd 5e58 aebd cb7d cb3c 3452 a1bc
00000150: 66cc 243d b20c 913d 1aef d03d c1a8 a03d
00000160: 7774 eb3b f1bb 24be 9c89 f3bc cf64 b03d
00000170: 5f06 d7bd 98c9 7dbc f941 8c3d 3ff2 d43d
00000180: 8873 5fbc e055 9abc f741 bc3d 7f94 053e
00000190: 2b80 e9bc c236 8c3d 50ce 973c 6c7b 913d
000001a0: 4a7e b93c 82be 833d b0b8 2abd 9fd1 763d
000001b0: a8db cb3d b4b6 143d 65d2 b5bd 3712 07be
000001c0: 05e9 d83d 24f1 a83d f03d ffbd dd6a 53bd
000001d0: 17cf d63d 665d 663d c213 693d bbf7 6ebc
000001e0: 746d 653b a192 8f3d 3c70 a4bc a1af a7bc
000001f0: 84f9 853c 139d 843b e462 a23d 3d5e 1bbd
00000200: 68cc 723c cd0d b13b 23db c6bc 7935 f13d
00000210: 625e a0bd 3cd3 293c 34a3 bf3b ed23 893d
00000220: 0f2a 503d 02bd 3cbd 08df ad3c d6dc e1bc
00000230: f9fb 7bbd ee71 ccba f0ac 1d3d 8eb4 7cbd
00000240: 5d03 7c3d cf5e 273d 7125 0bbe 2d1c 6e3b
00000250: 21b5 d43d c2d9 adbc 911b b8bd cb6d 72bd
00000260: 855d 733d 5357 99bc cfcb 66bd 80b2 7a3d
00000270: 9895 e23d b30c 4ebc 50c2 88bc ed4e 803d
00000280: 5215 9bbc 8bf1 a1bc b2b7 a93d 609b febc
00000290: 6230 133d 5501 9b3d 9fd0 11bd 4b9e 083e
000002a0: 7f10 aa3d 3d94 7e3d d6c5 d0bb 28c7 fd3b
000002b0: 7642 2c3d d0bf 9abd 0461 6c3c d5d6 d83b
000002c0: ffbf 043d 9c89 023e 1820 6c3d 7583 893b
000002d0: 2fa8 673d af75 51be e378 cbbd e806 41bd
000002e0: 13b9 8ebb 5a3f 09bd b5ec 733d 5764 a6bd
000002f0: 003a 69bd 8730 143d 43a0 77bd 4318 5bbc
00000300: 2747 ed3d 1eda 07bd 2b62 55be 1737 60be
00000310: ef3d c23c 2e14 453d e247 d4bd 4d65 43be
00000320: 2e65 2a3e d3d7 4b3e 3785 25bc fbfb d03d
00000330: 4ec2 b3bd 6a3d 443c ae5e 8c3a a41e 203d
00000340: c1d9 5c3a ca47 4b3d d33c b1bd 8a18 80bd
00000350: df5f 803b 9a6a 933d e488 a3bd b976 613c
00000360: b111 aa3d a4ce 78bd daf6 bfbd 902d eabd
00000370: f81b 8c3d cfda 3c3d f5d7 86bd 7028 f43c
00000380: 66df ae3c 199f 913d ad6f c53c 4e40 8c3c
00000390: 2649 5cbd b371 bdbd c049 14bd 9ac5 6a3d
000003a0: 56e6 2ebe 59f5 bd3c 68f1 833c 9e26 d7bc
000003b0: 1b3a ab3d 8337 503d 3725 633c 0cef 85b9
000003c0: 47af b73d 8d69 ed3d 26ab 3abe 6178 18be
000003d0: 2c4b 0c3e b148 6d3e a412 66bd fc9b 5abe
000003e0: e607 4e3c 9cc1 9e3d f5d4 04bc 1a54 b13d
000003f0: 71c1 44bd fd04 adbc 57cd a0bd 21d6 66bd

weight f4 [12, 12]
0.28658703 -0.22148548 -0.12221008 -0.08346681 0.1531162 0.12621103 0.13630778 -0.061233837
-0.19691977 0.30901808 0.12622277 -0.039972156 0.15065588 -0.17023472 0.26431865 -0.018456116
0.13979706 0.059517305 0.2233955 0.077182844 -0.37246403 0.09140495 0.24131843 -0.3711131
-0.020164741 -0.06788309 0.2531915 0.29195067 0.15806055 0.20522793 -0.1165202 -0.22559996
-0.3646215 -0.2076778 0.1797842 -0.24659777 0.0115859555 -0.15057977 -0.1511894 -0.08215494
0.06569373 0.04710888 0.07090888 -0.13097367 0.100723915 -0.07742427 0.23533775 -0.08254232
0.25571114 -0.2210742 -0.14085236 -0.2507504 -0.03339701 0.0888655 0.06345393 0.14097549
0.049539447 0.11991473 -0.21172117 0.1602385 -0.063152656 0.1509352 -0.12099876 0.06425423
0.27754572 0.055748552 -0.23808633 -0.15319294 -0.1998618 0.2135714 0.0518499 -0.09780741
0.012407006 -0.012201566 0.019111581 -0.16473073 -0.10028441 0.090040125 0.09577975 -0.17974854
0.12121915 0.2115028 -0.21504425 0.23455553 -0.08687693 -0.154881 0.17022292 -0.17131083
0.064983085 -0.16929552 0.24432565 0.19896755 0.03240755 -0.009813405 0.073290534 -0.2914987
0.1675902 0.0047102636 0.33914223 -0.07901439 0.111760974 -0.26162153 -0.22132565 -0.17220314
-0.23017803 -0.23755276 0.1655688 -0.15624359 0.017688867 -0.29447982 -0.02580025 0.22613795
0.2795557 -0.0064341533 0.18114439 0.23684412 -0.22110173 -0.16965115 -0.17938228 0.033019956
-0.038345616 0.16246685 0.112503536 -0.21287492 0.29569516 -0.2556862 -0.16310443 -0.21203882
0.020494852 0.13218798 -0.17480457 -0.09871902 -0.07419354 0.108682334 -0.09083176 -0.12878658
-0.108367115 0.13809359 -0.0039015973 -0.10440371 0.04848923 0.12951046 0.110393345 0.28704655
00000000: 89bb 923e 17cd 62be 4749 fabd a6f0 aabd
00000010: 7eca 1c3e 773d 013e 4494 0b3e 55d0 7abd
00000020: 56a5 49be 9e37 9e3e 8b40 013e d8b9 23bd
00000030: 8945 1a3e 0352 2ebe c654 873e 4831 97bc
00000040: f626 0f3e 6bc8 733d cac1 643e 0a12 9e3d
00000050: 9bb3 bebe 8532 bb3d 2e1c 773e 8902 bebe
00000060: 8730 a5bc 4a06 8bbd 51a2 813e 8f7a 953e
00000070: a0da 213e 4527 523e 25a2 eebd ad03 67be
00000080: abaf babe 7da9 54be 5919 383e 2084 7cbe
00000090: 05d3 3d3c 9531 1abe 65d1 1abe d940 a8bd
000000a0: 6f8a 863d 3ef5 403d ad38 913d f61d 06be
000000b0: 5748 ce3d 9e90 9ebd 61fc 703e f30b a9bd
000000c0: 92ec 823e 4661 62be 9a3b 10be 5b62 80be
000000d0: 4ecb 08bd 1eff b53d 22f4 813d e15b 103e
000000e0: e0e9 4a3d db95 f53d 6fcd 58be 9015 243e
000000f0: 2e56 81bd c28e 1a3e 33ce f7bd b997 833d
00000100: 791a 8e3e 9858 643d e7cc 73be 9cde 1cbe
00000110: 92a8 4cbe 76b2 5a3e 9060 543d 404f c8bd
00000120: c146 4b3c 14e9 47bc e48f 9c3c 2caf 28be
00000130: ea61 cdbd f566 b83d 2c28 c43d 0010 38be
00000140: bf41 f83d 3194 583e 8f34 5cbe 532f 703e
00000150: 88ec b1bd 2099 1ebe eb4e 2e3e 1b6c 2fbe
00000160: da15 853d ce5b 2dbe 8130 7a3e 26be 4b3e
00000170: c7bd 043d 67c8 20bc 5919 963d 513f 95be
00000180: c49c 2b3e 8e58 9a3b 0da4 ad3e 4cd2 a1bd
00000190: f0e2 e43d 42f3 85be 31a3 62be 0556 30be
000001a0: cab3 6bbe 0841 73be de8a 293e 52fe 1fbe
000001b0: 3ee8 903c 0fc6 96be 0c5b d3bc b590 673e
000001c0: ed21 8f3e 97d5 d2bb ea7d 393e 4487 723e
000001d0: 7e68 62be 08b9 2dbe fdaf 37be ef3f 073d
000001e0: 4b10 1dbd b65d 263e 4168 e63d e2fb 59be
000001f0: 5b65 973e 4de9 82be d904 27be b420 59be
00000200: d2e4 a73c 495c 073e f8ff 32be 332d cabd
00000210: c8f2 97bd d894 de3d 0006 babd a1e0 03be
00000220: 94ef ddbd 6868 0d3e f1b1 7fbb 9dd1 d5bd
00000230: a59c 463d 649e 043e e815 e23d c4f7 923e

bias f4 [12]
0.19955789 -0.06463372 0.07502068 0.062938735 -0.050006714 0.253995 0.15056814 0.26032454
-0.22594972 0.048513427 0.1501741 -0.18875422
00000000: e758 4c3e af5e 84bd 71a4 993d 06e6 803d
00000010: d7d3 4cbd a20b 823e 892e 1a3e 4249 853e
00000020: 5d5f 67be 04b6 463d 3dc7 193e c948 41be

weight f4 [3, 12]
0.00035073867 -0.11133471 -0.0758804 -0.2511285 -0.12721887 -0.40006813 -0.23007315 0.24601665
-0.30376828 0.065888464 -0.29690838 -0.027849128 0.42017123 -0.3065684 -0.3973402 0.15329884
0.36533841 0.35416895 0.14453422 -0.1262942 -0.36751744 -0.3497447 0.30032045 0.4158967
-0.33971193 0.24173762 0.12463332 -0.3127647 0.02763715 -0.00742352 0.024618028 0.012273379
-0.017080495 0.29465416 -0.15186304 -0.4176321
00000000: 59e3 b739 7403 e4bd 2f67 9bbd ea93 80be
00000010: aa45 02be bbd5 ccbe 4c98 6bbe caeb 7b3e
00000020: 8487 9bbe 88f0 863d 6004 98be db23 e4bc
00000030: af20 d73e 89f6 9cbe 2d70 cbbe 5ffa 1c3e
00000040: a30d bb3e a255 b53e c700 143e 4453 01be
00000050: 3f2b bcbe bd11 b3be 9ac3 993e 6af0 d43e
00000060: b9ee adbe 118a 773e c13f ff3d b222 a0be
00000070: 4e67 e23c 0041 f3bb bfab c93c 4816 493c
00000080: 65ec 8bbc e9dc 963e fc81 1bbe e0d3 d5be

bias f4 [3]
-0.27245766 0.06917369 -0.19895387
00000000: 927f 8bbe f0aa 8d3d 90ba 4bbe

weight f4 [3, 12]
-0.26483443 -0.1925829 -0.20540279 -0.2223988 0.01319905 -0.08626833 -0.018058732 -0.1335993
0.26404628 0.2528508 -0.29037637 -0.2759774 -0.12431712 -0.13819118 -0.08478579 0.01329411
-0.1374485 -0.17214102 -0.09664429 -0.027522242 -0.18524253 -0.02751094 -0.2031467 -0.15378666
-0.1648125 0.14422002 0.14194575 0.01014021 -0.25768542 -0.032158542 0.20778665 0.032405443
0.18009149 0.25604776 -0.23096807 0.19484422
00000000: 6198 87be 7434 45be 1c55 52be 83bc 63be
00000010: d440 583c 73ad b0bd e8ef 93bc 41ce 08be
00000020: 1331 873e a975 813e 36ac 94be e94c 8dbe
00000030: f999 febd fd81 0dbe 2ca4 adbd 8acf 593c
00000040: 4dbf 0cbe bc45 30be 71ed c5bd 5376 e1bc
00000050: 38b0 3dbe 9f5e e1bc b005 50be 407a 1dbe
00000060: 9cc4 28be 6aae 133e 3a5a 113e 2023 263c
00000070: 58ef 83be adb8 03bd 06c6 543e 92bb 043d
00000080: e769 383e b118 833e e582 6cbe 3e85 473e

bias f4 [3]
-0.34560573 0.26016963 0.076312475
00000000: 3cf3 b0be f434 853e b749 9c3d

weight f4 [3, 3]
-0.38888133 0.4315358 0.43799257 -0.37310067 0.040009312 0.33466783 -0.108693756 0.3745095
0.46627367
00000000: 741b c7be 43f2 dc3e 9040 e03e 0d07 bfbe
00000010: cee0 233d 9559 ab3e d59a debd b6bf bf3e
00000020: 6cbb ee3e

bias f4 [3]
0.44754106 0.5323979 -0.5359294
00000000: 1a24 e53e 3b4b 083f ab32 09bf
