data/best/output/poster/train/4_stemgnn.pt (torch, 435920 bytes, 73 tensors)

weight_key f4 [135, 1]
00000000: d8bb 78bb f2ec 213e 4a61 7bbe 70f0 5fbe
00000010: 36b8 e8bd 3175 a43d 0aab afbb 35e3 713e
00000020: a4ad d5bc abab 9f3d 2bf9 b7bd 1934 70bd
00000030: 2d86 91be df38 49be 5a02 fabd 1b89 3d3c
00000040: ae02 f13d ecc8 363e b8cc 4dbe a012 04be
00000050: 0c1e dd3d c842 7c3e aef8 7cbd b11b 633e
00000060: c075 46bd cd87 003d 4d25 8a3e 7899 8cbe
00000070: e6e6 3ebe 718e 98bd a329 eabd 8d20 843e
00000080: fff4 43be e260 0bbe ffad 53be 8a1f 8ebe
00000090: 6667 31be 66cd 823e bee8 073e 2d67 143e
000000a0: 91dd 833c f7d0 1bbe 3273 4d3d 3543 8ebe
000000b0: 8df1 5cbe 2751 1ebe 2a99 3f3e 3d0b 323e
000000c0: dca3 07be 2a86 35bc 4900 423e 3e51 973e
000000d0: 88aa f03d b67e 253d e1e9 4c3e efee 32be
000000e0: 909c 603d 9714 6dbe 5e6e 53be e846 1dbe
000000f0: 2bfd 083e f5b4 f23d 2500 36be dfa2 b63d
00000100: dcdb 253e 92b2 20bd 2be6 223c fc3e 8b3d
00000110: 9d13 3c3e 156e 913e 09a9 6bbe 54b6 e1bd
00000120: f7cf eb3d 40db 7a3e 7f87 833e 855c 853e
00000130: 369b 6f3d 564b 84be bb2e e03c cdfe 3ebe
00000140: 2293 8ebe 2bff 863e a2f9 663e a6a9 97be
00000150: 3847 653d 9999 4ebd f044 4dbd aecc 0bbe
00000160: 0f48 e73d 45dc 34be e615 de3d 9807 193e
00000170: 751c 593e f844 e13d c82e 97be e0dc 46be
00000180: 668e 173e 3e67 7f3d 68fd 6cbe a9dc 2ebe
00000190: b4dd 8e3e cd4c 4b3e 2ff0 05be eeef 98bd
000001a0: 154b 90be b094 8ebb 93eb 63be 635e 69be
000001b0: 1bd8 7dbc d1b8 393d b87f f7bd 9b76 353e
000001c0: 31e4 38be 6ec7 893e 573d 4f3e be0f 81be
000001d0: 8aa2 97bd d313 4e3c 4615 2b3d c7e1 8c3d
000001e0: 5792 eb3d 6277 843c 01be 15be 293f 0f3e
000001f0: 6c5f 92be 7914 35be f54a 9bbd 6d84 15be
00000200: bef2 d5bd cf0b 79be 3899 80bd 20b9 833d
00000210: 2585 45be 095c 7fbc 8896 583e
-0.003795376 0.15813044 -0.24548832 -0.21869063 -0.113632604 0.08030165 -0.0053609656 0.23621829
-0.026083775 0.07796415 -0.08983072 -0.058643434 -0.2842268 -0.19650601 -0.1220748 0.011568333
0.11768089 0.17850083 -0.20097625 -0.1289773 0.107967466 0.2463485 -0.061760597 0.22178532
-0.04845214 0.03137951 0.26981583 -0.27460837 -0.18642768 -0.074490435 -0.11433723 0.25806084
-0.19136427 -0.13611177 -0.20671843 -0.27758437 -0.173246 0.25547332 0.13272378 0.14492483
0.016096862 -0.15216433 0.050158687 -0.2778565 -0.2157652 -0.15460645 0.18710771 0.173871
-0.13246101 -0.0110793505 0.18945421 0.2955417 0.11751276 0.040404044 0.20011093 -0.17473958
0.05483681 -0.23152386 -0.2064757 -0.1535908 0.13377826 0.11850921 -0.17773493 0.08917784
0.16197151 -0.039232798 0.009942572 0.06799123 0.18366857 0.28404298 -0.230137 -0.110211045
0.115142755 0.244977 0.25689313 0.2604715 0.05849763 -0.25838727 0.027366033 -0.18651886
-0.27846628 0.26366553 0.22556165 -0.2962162 0.055976123 -0.05043945 -0.050114572 -0.13652298
0.11293041 -0.17662151 0.108440205 0.14944303 0.21202262 0.10999483 -0.2952788 -0.19420195
0.14800414 0.06235432 -0.23143542 -0.17076363 0.2790352 0.19853516 -0.13079904 -0.07467638
-0.28182283 -0.004351221 -0.22257833 -0.22789912 -0.015493418 0.04534227 -0.12084907 0.17721026
-0.18055798 0.26909965 0.20238243 -0.25207323 -0.07404049 0.012577969 0.041768335 0.06879001
0.115025215 0.016170207 -0.14623262 0.13988937 -0.28588426 -0.17683591 -0.07582656 -0.14601298
-0.1044669 -0.24320911 -0.06279224 0.06431794 -0.19289072 -0.015585908 0.21151173

weight_query f4 [135, 1]
00000000: 324d 92bd 9b5c 933c 7f1a b03d 8063 443e
00000010: 2a60 a63e 2819 d53e 2c27 a43e c7cd d23e
00000020: 4a82 d93d f219 10be 92ff 81bc 7a44 a73e
00000030: 24d9 f93d 4028 c5bc 1712 d6bd d1ef 1ebe
00000040: 5e59 03be 04cd 7c3d 7acd 913e eb90 903e
00000050: 9f49 28be 4b66 9d3e aba3 e0bd 6360 753d
00000060: c9fd 253b 6ca4 873d 7ac0 853d 9268 12be
00000070: 7864 08be b293 9c3d c279 013e 9c0e 4bbc
00000080: c3c5 6f3e 6fd9 13be a7b4 d13d f454 c43e
00000090: 180d af3a 80d2 c73e 2aef 6b3e 0339 14be
000000a0: e184 9f3e 3f8e b63d 5c24 12bc fdd6 b83e
000000b0: e952 eebd cc2d 1f3e 8ad7 7b3d af05 ac3e
000000c0: ef60 533e 3b5d 883e 625d 6a3e 38c8 563d
000000d0: 1e5b 7b3d 0b6e f8bd 7fa1 913e d21b b83e
000000e0: 2a63 a73e 03db afbd 7718 0c3e bee2 afbd
000000f0: 358b 24bd 7bd7 4bbd 512c 663e d87d 5cbd
00000100: 1680 ef3d 8041 0b3e 5131 a13e bb2c cfbd
00000110: d103 a4bd adc7 47bd 9daf a93e 1ed1 8b3c
00000120: 119f bf3e f11d 6d3e a04b 253e bd87 f83d
00000130: cc5e 843d 5f03 243e 4466 633d 9574 f83d
00000140: 3832 253e b125 dfbd d085 05bd a3fe b93e
00000150: 5b00 f0bd e8ec d03d c474 d53e 3c45 6c3e
00000160: 9305 073e 007c 09be 4aab 8a3e 0822 b3bd
00000170: d08e 203d 9aee c23c 3273 a23d 38bf 013e
00000180: 506a bc3e 86df 233e 4047 c73e 3709 9c3e
00000190: be54 84bd c435 833e a448 b2bd f07c 28bb
000001a0: 3911 583e 766b 633e 6142 b13e 5343 e23c
000001b0: da24 fe3d d490 8d3e 74de 27be b2f8 ac3e
000001c0: 8d7d fabd f897 023e 9521 953d 6ad0 07bd
000001d0: 4f49 263e 3df7 bc3e 2ee7 153d 2449 59bd
000001e0: ca4e 5e3c 56c2 2ebe 59b6 833e 3fcc 9bbc
000001f0: 1a7b 99bd 699c 45bd 686b 963e 3e6c 8f3e
00000200: 1c95 b33e 9678 6c3e 021c c63c 5ce2 253d
00000210: 44a1 583e 70c1 bd3e ecaf 543e
-0.0714363 0.017988494 0.08598804 0.19178581 0.32495242 0.41620755 0.32061136 0.4117262
0.10620554 -0.14072397 -0.015868936 0.3266943 0.121996194 -0.024067044 -0.10452669 -0.1552117
-0.1282706 0.061718956 0.2847708 0.28235564 -0.16434334 0.30742106 -0.10968717 0.059906375
0.002532827 0.06623158 0.065308526 -0.14297703 -0.13319576 0.07645358 0.12644103 -0.01239362
0.23415284 -0.14438413 0.10239535 0.38346064 0.0013355343 0.39027786 0.23040453 -0.14474873
0.31156066 0.0891385 -0.008919802 0.36101523 -0.116369076 0.15544814 0.06148485 0.33598086
0.20642446 0.2663363 0.22887185 0.052437037 0.061366193 -0.12130364 0.28443524 0.35958725
0.32692844 -0.08586695 0.13681208 -0.085881695 -0.04017182 -0.049766045 0.22477843 -0.05383095
0.11694352 0.13599205 0.31482938 -0.101159535 -0.080085404 -0.04877441 0.33141795 0.017067488
0.37426046 0.23155953 0.1614213 0.12135265 0.064633936 0.16016911 0.05551745 0.12131611
0.16132438 -0.10895861 -0.032598317 0.36327085 -0.11718818 0.10201436 0.41690648 0.23073286
0.1318572 -0.13426208 0.27083808 -0.08746725 0.039198697 0.023795415 0.07932128 0.126706
0.3679986 0.16003236 0.38921547 0.3047578 -0.06461476 0.25626957 -0.08705261 -0.0025709234
0.2110032 0.22208962 0.34620956 0.027619993 0.12409373 0.27649558 -0.16393453 0.3378349
-0.12230978 0.12753284 0.07281796 -0.033157744 0.16238903 0.36907378 0.036597423 -0.053048268
0.013568589 -0.17066321 0.25725058 -0.01901829 -0.07494183 -0.048244867 0.2937882 0.2801227
0.350747 0.23092875 0.024183277 0.040499076 0.21155268 0.37061644 0.20770234

weight_ih_l0 f4 [405, 3]
00000000: 8b34 82bd 0eec 81bd b8f5 d5bd a13c 7c3d
00000010: 8332 a7bb 32f1 08bd e1ab 9e3d 012a 59bd
00000020: 30a7 c7bb 4206 543c 2dae 12bc ac70 8ebd
00000030: cdc7 143a 864b 0e3e a44f ad3d 1606 003e
00000040: 528f c83c 06e8 a33d aac7 e9bc 12ba 4fbc
00000050: 7e96 7bbd cb52 d73c eeb7 cc3c d16a 85bb
00000060: 330c 38bd 7bf0 a0bd c3bb 0b3d 125b 30bd
00000070: 62ff 613d 4d23 21bc 900b 13bd 0df8 ad3c
00000080: 6acf 1fbd 47bd e63d 57ab e13d 13fc f23c
00000090: 2c1e ff3c 2cb0 5c3d e513 533d f371 28bd
000000a0: 0500 cfbd 594f 34bd 4dff ca3d 2e8b 1a3d
000000b0: d678 d03d fa7e 813d dbe9 1dbd 11bb f73b
000000c0: b387 91bd e45b cdbd e7ec ccbd d34e c13d
000000d0: 5acf 833c 716d b93d 4827 c03d 0030 e73d
000000e0: 6a35 b23d 1ff1 d13d fb7b 063e 7c36 4a3d
000000f0: cde2 db3c 4e2b cd3c 690c 3e3e fe23 523d
00000100: 2348 80bd 9e54 f93c fe81 ad3d 2931 d93d
00000110: 1775 c33d 4d9c 363d 0cfe 2abd 8370 55bd
00000120: e207 e63d 8384 b83d fe22 22bc d570 9e3d
00000130: b523 2b3d 8d41 403d 3bba 97bd 47c1 873b
00000140: f88b 51bd 042b 9d3d 9728 b8bb 949d 323d
00000150: ec69 c33a 086f bb3c dbca 2fbd d6c6 21bd
00000160: 2c8f 10be fca5 7cbd 112e 00be 6e86 1bbe
00000170: 5883 0bbe a8c4 163e 9101 013e d94a 243e
00000180: 0956 103e 6cce 96bb c967 5f3c 0357 a33b
00000190: ec59 18bd b343 a03d 6716 38bd f853 b6bc
000001a0: b1f7 81bd 7e65 f4bc d423 b83d c0ad b73d
000001b0: 63ec 08bc ac50 5abb f0c5 e03b 6fa1 e1bd
000001c0: 3ad9 4ebd c3a2 3fbc c801 4a39 ce08 6d3d
000001d0: b89d 883c 3d47 bf3d 7c40 2f3c 1579 a83d
000001e0: 2ede cd3c 6e2a abbb 8986 08bd fa57 d9bd
000001f0: d6ac febd 7cff 6dba 6083 573d c19f 98bc
00000200: 4bae 71bd 4143 5f3d 51be 2d3d 3261 dfbb
00000210: 9a12 07bd 0dc4 b13d 1827 303d 75f1 8f3c
00000220: f44e 293e bc1e 183e d9e5 f6bb a1a7 933d
00000230: ad95 cebc 6edc 183c 96f1 c33d c1d2 d43c
00000240: 5e7e 64bb f7cb ff3c 29f4 153d b2c6 3e3c
00000250: 1be5 113d 7c2e db3d 32a4 273c 02cb 42bd
00000260: c31a 233c ca4b 363d b19c 3c3d af13 9abd
00000270: 2199 17bb 05f1 4fbd 4b8d c0bc 4f18 183d
00000280: fac7 64bd 1f8d 183d b19b cc3d 36f4 043d
00000290: ad0e fbbc 24ef 60bd f945 acbb d284 b7bd
000002a0: c6bd 933c 989d d2bd ea29 dcbd 8a4a a6bd
000002b0: 95a3 75bc ba6b 763d a823 32bd bbd1 df3d
000002c0: 6d64 503b 1c05 62bd b899 9abd 15c5 1fbe
000002d0: aa45 a93d 6495 6e3d 3d56 c73d c6c2 a93c
000002e0: 4ab8 a2bd b2c4 493d 8523 52bd b5c5 78bc
000002f0: 4e03 00be 8da9 0abc 8187 8bbd dbb7 8cbc
00000300: 7086 973a 45ad acbd 534f 303c dbb3 093e
00000310: 7fa4 cf3d c9f0 033d 66b1 8f3c 599e 6d3d
00000320: 79b5 fa3d c366 da3d a3a0 913d fb6b 3f3c
00000330: 2277 4e3c 24e1 d0bd 4cc0 babd e31a 773d
00000340: b20b e9bc ade7 7c3d cedd 87bd d57b 44bd
00000350: 0d6a 9bbd 6e8d 033e 2fc9 993d b8d6 193e
00000360: 89ce d33d fda3 c83d b591 593d fff6 31bd
00000370: ce3c 12bd b9e5 bfbb 982b 873c 82a5 b0bd
00000380: bb96 3d3d d5b7 bbbc d171 afbd 22e1 76bd
00000390: 56ae 973d 745b 9c3d 2076 a8bd 7983 ca3d
000003a0: 7ddc a63d 9743 b73d e8b0 e53d 8fba c2bb
000003b0: 104a 8e3d 49ad aa3c fc7f 21bd e145 763c
000003c0: 35d6 f73b 083b af3d 8104 053c 6c8f 1abc
000003d0: 15c0 363d e139 5c3d 5c7a 96bc d904 003d
000003e0: c386 963d 6cc8 c9bc 4ecb 283c 0817 16bd
000003f0: b0cf 4e3c 4452 a3bd d8ba 8bbd 1e0d e1bc
-0.06357678 -0.06343852 -0.10447258 0.061581258 -0.005102457 -0.033433147 0.07747627 -0.053018574
-0.0060929283 0.012940945 -0.00895266 -0.06955084 0.00056755246 0.13895997 0.08462456 0.12502322
0.024482403 0.08003239 -0.02853759 -0.01267864 -0.061422817 0.026284596 0.024990048 -0.0040715714
-0.04493351 -0.07858368 0.03411461 -0.0430556 0.055175193 -0.0098350765 -0.0358997 0.021236444
-0.039016165 0.112665705 0.110190086 0.029661214 0.031142317 0.053878948 0.051532645 -0.041124295
-0.101074256 -0.044020984 0.09911976 0.03773039 0.101792976 0.06323047 -0.0385531 0.007560142
-0.07105961 -0.10027292 -0.10006123 0.09438863 0.016090084 0.090540774 0.09382492 0.11288452
0.08701594 0.10251068 0.13133232 0.049368367 0.026841545 0.025045063 0.18559422 0.051303856
-0.06263759 0.030435856 0.0847206 0.1060508 0.095438175 0.044582654 -0.041746184 -0.052109253
0.11231972 0.090096496 -0.009896038 0.07736365 0.0417821 0.046937514 -0.074085675 0.0041429135
-0.051158875 0.0767422 -0.005620073 0.04360731 0.0014908887 0.022880092 -0.042918067 -0.039496265
-0.14117116 -0.061681733 -0.12517573 -0.15188 -0.13624322 0.14723456 0.12598254 0.16044177
0.1409532 -0.004602244 0.013635584 0.004984738 -0.03719513 0.078254126 -0.04494324 -0.022256836
-0.063460715 -0.029833551 0.08991209 0.08968687 -0.00835714 -0.0033312244 0.0068595335 -0.11017119
-0.050500132 -0.01169652 0.00019264885 0.057869725 0.016676769 0.093397595 0.010696527 0.082262196
0.025130358 -0.005223564 -0.033331428 -0.10612483 -0.124353096 -0.00090789027 0.052615523 -0.018630864
-0.05900411 0.054507498 0.042417828 -0.0068170065 -0.032976724 0.08679972 0.043006033 0.01757119
0.16534024 0.14855474 -0.007534724 0.07209707 -0.025217855 0.009329898 0.09567563 0.025979402
-0.003486536 0.031225188 0.036609802 0.011644052 0.035618883 0.107022256 0.010232018 -0.047556885
0.009955111 0.04450587 0.04604787 -0.075232856 -0.0023132043 -0.050766964 -0.023504874 0.037132557
-0.055854775 0.03724396 0.09990633 0.03245946 -0.030646646 -0.054915562 -0.005257365 -0.0896088
0.018034827 -0.10283965 -0.10750182 -0.08119686 -0.014992614 0.06016133 -0.043491036 0.10928675
0.003179814 -0.055180654 -0.07548851 -0.15602525 0.082652405 0.05824794 0.097332455 0.020722758
-0.079453066 0.04925985 -0.051303405 -0.015183856 -0.1250126 -0.008463276 -0.06812955 -0.017177513
0.0011560451 -0.08431486 0.0107611 0.13447516 0.10138797 0.032212052 0.017540645 0.05801234
0.122416444 0.106641315 0.07110717 0.011683459 0.012601646 -0.10199192 -0.09118709 0.060328376
-0.02844796 0.06174438 -0.06634103 -0.047969658 -0.07588587 0.1284692 0.07509076 0.15023315
0.10342128 0.09796903 0.053117473 -0.043448444 -0.03570252 -0.0058562425 0.01650028 -0.08625318
0.046286326 -0.022914806 -0.08566631 -0.060273297 0.07406299 0.07634631 -0.082256556 0.09888358
0.081475236 0.089484386 0.11215383 -0.0059426497 0.0694772 0.020834582 -0.039428696 0.015031309
0.0075633773 0.08556181 0.00811875 -0.0094336085 0.044616777 0.053766135 -0.018368892 0.031254623
0.073499225 -0.024631701 0.010302378 -0.036643058 0.012622759 -0.07974675 -0.06822747 -0.027472075

weight_hh_l0 f4 [405, 135]
00000000: cf82 803d 6ce0 9f3d cae9 7ebd 4934 003e
00000010: a83e b2bb 4b77 ae3c 4368 153d ea7a 65bd
00000020: 2d82 51bd 5b34 d83c d643 923d 214a 21bd
00000030: 5088 cdbd 1902 043d bb76 963c dbbb d93d
00000040: a33a dbbd d3e2 d6bb 07d2 61bd 97ee aebd
00000050: 0bb8 81bc f3df 89bd 2950 8f3d fbd0 99bd
00000060: 497b a83d b4ef efbc 1c00 0c3d fd83 0cbe
00000070: 5ebf 88bd b744 91bc c532 32be 7147 b33c
00000080: b215 2f3c a5b4 973a ad71 debd 15a3 ca3d
00000090: 97f3 513d 308e acbc c13b 04bd 6a9c 7d3d
000000a0: 1dc4 283e 22f6 b5bd f54a f0bc 1501 3e3c
000000b0: 46ba b6bd 11ca f13d 1cd3 b3bc 37c0 aa3d
000000c0: eede f2bc 1f2b 0ebd 69c6 55bd e542 49bd
000000d0: a1a6 893d ca53 a53d 9d8a 50bd a7d2 d83d
000000e0: 6e25 bb3c 86dc 5d3d 5188 bc3d ce5e 6e3d
000000f0: b20d 693d 510a e5bc a5fc 77bd 566d 3d3d
00000100: fe74 923c d063 d5bc f153 9e3c d411 373d
00000110: adfb 3ebc 0613 b7bd fcd4 b2bc c1eb 4ebd
00000120: 7334 d4bd 7323 ad3a 4fbb 813c 14ce 9f3c
00000130: 63fb 7c3d beb9 7ebd 2eb4 94bd f389 de3d
00000140: 6902 ce3b 6002 1dbd 3ece 6cbd 53e5 bbbd
00000150: 7fb2 463c c2e0 cbbd f6fc 9a3c 7edf a93d
00000160: 1cea cebb d0db 9fbd 7a2f 683d 2d84 b03d
00000170: a484 03be 83f3 523d dffb 213c 72ac ad3c
00000180: fc75 24bc 59d1 97bd e138 cf3c 32ea 313d
00000190: 9231 3fbd 142c 91bd 6dbe 2f3d 2e70 8e3d
000001a0: 8e59 703d cd02 3e3b da1b 3c3d 628d 89ba
000001b0: 9002 863c 0587 8c3d c5f1 b4bc 6a09 0fbd
000001c0: d87d d6bc 34b2 43bd 5e7c 813c c078 76bd
000001d0: defd 9c3d 58c6 52bc 7d01 3c3d 4507 b03d
000001e0: 3efc 1d3c bcc2 13bc d533 f138 8454 86bd
000001f0: 6ec1 863d 6a51 babb 9568 09bd 7c9f bdbd
00000200: 9209 6e3d 94a8 c7bd 5eeb 3d3c c177 bb3c
00000210: aa34 adbd bf28 e1bd 282d 7fbd bb4f 623d
00000220: 3db9 0bbe 9bf6 0cbe a72e b13c 1203 5cbc
00000230: 7d75 b73d 5edf ef3c 07d5 9ebc 7f36 353b
00000240: afb7 b7bc 91a8 bfbd f85f 63bd fcec 8f3d
00000250: 64e4 4fbd 50ca f2bd 1c08 26be ace4 5a3d
00000260: b02d 4a3d 2bdd 153e 2d0a b3bc 338e c0bc
00000270: 591d 09be 072c d4bd f50c 923c 2ca7 95bc
00000280: bef6 3dbd 624b a3bd 626b ae3d 8739 14bd
00000290: 7ab2 04be f39b 68bc 66bd 93bd e3cb 18be
000002a0: 9c88 03be 14ee 093e 77b4 83bc 0f34 a33d
000002b0: e038 16bb c0c5 c7bc 52d0 f43d 671a d0bd
000002c0: 6aeb ffbd 66fd 933c d25a d33c f256 553d
000002d0: 2e6d b0ba 57c4 12be 843c f33b 78f8 823d
000002e0: 5380 2f3d 605d c23d ae22 ea3d c3bd 06be
000002f0: 6f62 e5bc 3005 c73d 36aa ddbd d451 383c
00000300: 7a6d fabd 73ac a1bc e76d 83bd 31cb e5bd
00000310: 27ca 7c3c 32d6 9c3c 6ce1 16be c8f2 a9bd
00000320: bd90 13be d5e9 03be 22a2 963b bcc5 11bd
00000330: e755 35bb 43f1 f43d a005 f53c bb60 49bd
00000340: 1f5d 06be 578c fabb aecc 943d b3a1 103d
00000350: c489 f73d ab49 2ebe 0c90 53ba b85f abbc
00000360: 9cdc a9ba bb82 4d3d 5a7f 27bc e3c1 2cbc
00000370: 4f8e 17be 12b2 b73c edec 28be bfae 4dbd
00000380: d082 943d 7c07 f93c 3a14 723d e822 843d
00000390: d9db b7bd f43f 313d 2814 0f3c 6f6b bc3c
000003a0: a087 b23d 7347 013e 25c5 16be def4 203c
000003b0: 3352 ad3c c954 10bc 820a a0bd d48b 1d3c
000003c0: cc84 0ebc 0543 da3d 2061 37be 4c7c 69bd
000003d0: 84c5 f4bc a90e 8b3d 99f3 eb3c ea77 ed3d
000003e0: 526b 5d3d 0c18 cdbc eb84 3cbd 7607 8dbc
000003f0: 6be7 883c 8c5c 013c b08d b33c 3003 afba
0.0627495 0.07806477 -0.062234677 0.12519945 -0.005439598 0.021297118 0.036476385 -0.056025423
-0.051149536 0.026392153 0.07141845 -0.039377335 -0.10035765 0.032228563 0.018367162 0.10631534
-0.107045434 -0.0065578013 -0.05513194 -0.08541601 -0.015834829 -0.06732168 0.06997711 -0.07510563
0.0822664 -0.029289104 0.03417979 -0.13722225 -0.066771254 -0.017732961 -0.1740218 0.021884652
0.010686325 0.0011574222 -0.10861526 0.09894387 0.051257696 -0.021063894 -0.03228355 0.061916746
0.16481061 -0.08884837 -0.029332617 0.011596938 -0.089222476 0.11806119 -0.02195125 0.08337443
-0.029647317 -0.034709092 -0.05219117 -0.04913606 0.06721235 0.08072622 -0.050913442 0.10587054
0.022844996 0.054165386 0.09205688 0.05819588 0.056897826 -0.02795902 -0.060543675 0.04624685
0.017878052 -0.02604857 0.019327136 0.044694737 -0.011656684 -0.08939175 -0.021830074 -0.0505178
-0.103615664 0.0013209417 0.015836386 0.019507445 0.06176318 -0.062188856 -0.07260929 0.108661555
0.0062869084 -0.038332343 -0.057813875 -0.091745995 0.012127518 -0.099549785 0.01891945 0.08294581
-0.006314529 -0.07805598 0.056685902 0.086189605 -0.12843567 0.051501762 0.009886711 0.021200392
-0.010037895 -0.07412977 0.025295677 0.043436237 -0.046678133 -0.07088485 0.042906214 0.0695499
0.058679156 0.0028993369 0.045925 -0.0010494406 0.016358644 0.068616904 -0.022087941 -0.034921087
-0.026183054 -0.04777737 0.015806373 -0.06017375 0.07665609 -0.012864672 0.045899857 0.085951366
0.009642659 -0.009018596 0.0001150143 -0.06559089 0.065798625 -0.005685975 -0.033547003 -0.09258935
0.058114596 -0.097489506 0.01159176 0.022884252 -0.084573105 -0.109941 -0.062298924 0.05525182
-0.13644882 -0.13765948 0.02162869 -0.013428466 0.08957956 0.029281314 -0.019388689 0.002765089
-0.022426454 -0.09358323 -0.055511445 0.07027623 -0.05075492 -0.11854994 -0.16214031 0.053440735
0.049359977 0.1463515 -0.021855438 -0.023505306 -0.13390101 -0.1035996 0.017828444 -0.01826819
-0.04637789 -0.079733625 0.085165754 -0.036187675 -0.12958708 -0.014197337 -0.07213859 -0.14921527
-0.12845081 0.13469726 -0.016077263 0.07968914 -0.0022922084 -0.024386287 0.119537964 -0.10161286
-0.124960735 0.018065166 0.025800142 0.05208487 -0.0013460272 -0.1433271 0.0074229855 0.06395048
0.04284699 0.09490466 0.11432396 -0.13158326 -0.028001038 0.09717786 -0.10823481 0.011249978
-0.12227912 -0.01973555 -0.064174466 -0.11220396 0.015429056 0.019145105 -0.14734429 -0.0829826
-0.14410682 -0.12882169 0.0045969645 -0.035588965 -0.002766961 0.119600795 0.029909909 -0.049164515
-0.1312146 -0.0076461243 0.07265602 0.03531046 0.120868236 -0.1702029 -0.0008070476 -0.020919666
-0.0012959423 0.050173502 -0.010223234 -0.010544273 -0.1480038 0.022423778 -0.1649663 -0.05021548
0.07251513 0.030399077 0.05910132 0.0645197 -0.089774795 0.04327388 0.008732833 0.023000447
0.08717275 0.12624912 -0.14723642 0.009824006 0.02115736 -0.008809277 -0.07814504 0.009615857
-0.008698653 0.10657314 -0.17908144 -0.057003304 -0.029879339 0.067899056 0.02880268 0.115951374
0.054057427 -0.02503588 -0.046025198 -0.017215472 0.016711911 0.0078956 0.021918148 -0.001335239

bias_ih_l0 f4 [405]
00000000: b1e6 aabc 5f15 e43d b135 37bc 0c6b a63d
00000010: 79f7 31bc 2617 c53c f748 17bd 98bd 2abd
00000020: 2848 ea3d f36a 853d 1fd2 d7bc 0335 1a3d
00000030: 6430 1e3d c8e0 5ebd 48a4 1fbe 5f39 c03c
00000040: ea88 dabd 6b73 16bd ddde d8bd 19bb b9bd
00000050: 29f8 eabd 816a 9abc 20ff 0f3c d102 f13d
00000060: 6e9b fc3c 355f b3bc fbe0 ecbd 7fc7 e0bd
00000070: 83ce a2bd a60d 19be bd23 153c 5a7b 003c
00000080: 95a8 623d d12f bbbd 7d98 75bc c86a 433d
00000090: 0c1a 4bbd 3fbd ccbd 90dc 65bd d7a2 8e3d
000000a0: 91fa 8f3d 9929 2b3d 55c6 eebd 99ee 913d
000000b0: d083 4b3d 701c 93bb b711 983a 0e3c c0bd
000000c0: 58da 653d d279 743c 72ab 9a3c 9338 29bd
000000d0: 37a7 9a3d b09d 6f3c 0082 b53d 07b8 b5bd
000000e0: 89a9 8d3d 898b 97bd 8102 f4bd 0a39 993d
000000f0: 73f9 c3bc eb8b fbbc 7966 b9bd f2de d43d
00000100: cc48 6d3c ada8 aabd c56a c2bd ad3b a6bd
00000110: 6cbd 86bd 95f0 41ba 4f4a 60bc 6d25 d73d
00000120: 7ad2 94bd 8f8e 0abd 8a00 1b3d 899b 0b3d
00000130: c721 23be a6cc a53c f748 b23d d928 c1bc
00000140: 7a94 bebd bf5f 953c ed93 c1bd 8125 1e3d
00000150: 225a a7bd 55f2 51bd 17c9 acbd 11d1 07be
00000160: f5c9 99bc 3838 923c e1e7 713d 50cd 083d
00000170: b34c b93d 5140 1e3d f8a2 443c 322c 9f3c
00000180: ef03 843c e2f6 91bd ce1b 1abc d47e a43c
00000190: 3cf9 353c c986 9f3c ec40 923d cb5b e5bd
000001a0: abc8 043e 47fb 1d3d b485 b3bd 4f9e 233d
000001b0: f0ce f83c 241b 6fbd 0df5 7a3c a73f 55bd
000001c0: 4c69 ac3c 400d df3d e9e6 de3d 5109 ef3c
000001d0: 9663 bcbc 0a97 013e 6254 023d 0c7f 153d
000001e0: 78c7 10be 3064 0ebd 4828 6c3c e61c fa3c
000001f0: 5295 263e 668e 6b3c 38d8 a13c 34bf 383e
00000200: 181e a1bd 5fc7 003d a047 4c3d d7bc 08bd
00000210: cebc 1bbd 5274 053e 1d7a 6d3d fd13 173e
00000220: 566b 27be 91b5 9dbd 88ec 863d 47eb a3bd
00000230: 1b36 b83d 2424 063e e8c7 cc3d 4b54 ef3c
00000240: fff9 96bd 6f5e 47bd a266 be3c 6e74 913c
00000250: 3c7e 94bc 2f99 853b 5b11 37bd 4212 003e
00000260: 47e4 083d 8b92 803d c2df 1c3b c6c5 31bc
00000270: abd3 5f3d 27c9 9bbc 0551 45be e24a d0bd
00000280: c48d 743d cfee a2bd 0f02 3cbc 9c1d d73d
00000290: f480 b7bd e7d9 df3a 0cde b33b a45f 5cba
000002a0: 624a b4bd 9c3d b3bc ae36 58bd 94f1 29bd
000002b0: a64a cf3d 102b ec3c 2002 48be c730 89bd
000002c0: 9e77 5ebd a60d a3bd a98b ea3d 0e00 3abe
000002d0: b95b d4bc f001 7f3d dfde 83bd 341f 7f3c
000002e0: d655 62bd de51 a0bd d7b9 813d 294f 04be
000002f0: 1b78 42bd 41cc f0bc 83d0 293d 71a9 d2bd
00000300: 9551 3ebd b854 8bbc f4c4 873d 6758 e4bc
00000310: 29c3 20bd 50e8 d73b 5226 ffbd 1e70 d3bd
00000320: 1a8e 7dbd 11c4 a9bd 3b4d 2e3d 0cb3 ab3c
00000330: 50ff 69be 03b8 173d bc11 103b a6d6 8abd
00000340: d3a0 44bc 57a5 4dbc 128f 1c3d 09cd 89bc
00000350: 42d7 12be c938 86bd 0910 83bd 0571 9b3d
00000360: 5b82 e6bd c0f6 92bd 8dc5 dbbd 4055 d63d
00000370: 26a2 cf3c 0df8 da3b 1ec9 c5bd af4c 183d
00000380: 6b7c 1d3d cdbd 1e3d f60f 88bd d180 c8bc
00000390: 478b 79bd 144c c5bc b468 15bd d39b 883d
000003a0: d9ed 08bc 434b 0a3d e54a c3bd fba9 b0bd
000003b0: de51 1dbd e23c c43d 0543 14be d181 6fbd
000003c0: 4070 ae3d 0b43 10bb 2f64 b3bc 5c32 58bd
000003d0: 6c4f cdbd 0e68 693d befc 16bd 7020 a6bd
000003e0: 1741 efbd af6d 9fbd 2beb e43c f267 143d
000003f0: 3cac 17be 29c6 42bd 2f26 b4bc a06b dcbd
-0.020861955 0.11136889 -0.011182235 0.08125886 -0.010862225 0.02405889 -0.03693482 -0.041684717
0.11439544 0.065145396 -0.02634531 0.037648212 0.038620368 -0.054413587 -0.15590012 0.023464857
-0.106706455 -0.036731165 -0.10589383 -0.09068889 -0.11473114 -0.018849613 0.008788854 0.11768115
0.030835833 -0.021895984 -0.11566349 -0.10975551 -0.07949545 -0.14946613 0.009102759 0.007841909
0.055336554 -0.0913998 -0.014989969 0.047709256 -0.049585387 -0.09997033 -0.056118548 0.06964653
0.070302136 0.041787717 -0.116589226 0.07125587 0.049686253 -0.004489474 0.0011601959 -0.093864545
0.056116432 0.014921622 0.01888058 -0.04131372 0.07551425 0.014624998 0.08862686 -0.08872991
0.06917102 -0.07399661 -0.1191454 0.074815825 -0.023922658 -0.030706367 -0.09052748 0.10394086
0.014482688 -0.083329536 -0.09493021 -0.08116851 -0.06579098 -0.0007398215 -0.013689592 0.10505185
-0.07266708 -0.03382736 0.03784231 0.034083877 -0.15930854 0.020239186 0.08705323 -0.023579048
-0.093056634 0.018234132 -0.09452043 0.038609985 -0.08171488 -0.051256496 -0.08436792 -0.13263346
-0.018773058 0.017849073 0.059059028 0.033398926 0.09047832 0.038635556 0.012001745 0.019430254
0.016115157 -0.07127167 -0.009406043 0.020080008 0.011106785 0.01947345 0.07141289 -0.11199149
0.12967174 0.038569715 -0.08765736 0.039945897 0.030372113 -0.058375493 0.015317214 -0.052062657
0.021046303 0.10891199 0.10883886 0.029179247 -0.022996705 0.12655273 0.031818755 0.036498114
-0.14138591 -0.034763515 0.014413901 0.030531358 0.16267899 0.014377212 0.019756421 0.18041688
-0.07867068 0.031440135 0.049872994 -0.033383217 -0.038021855 0.13032654 0.057977784 0.14753719
-0.16349539 -0.07700647 0.065880835 -0.0800386 0.08994695 0.13099724 0.099990666 0.029214999
-0.07371902 -0.048674043 0.023242299 0.017755713 -0.0181266 0.004077099 -0.044694286 0.12506965
0.033420827 0.06277951 0.002393708 -0.0108503755 0.05464522 -0.019016815 -0.19269188 -0.10170533
0.05970551 -0.079557054 -0.0114751 0.105036944 -0.08960143 0.001707849 0.0054891165 -0.00084065855
-0.0880325 -0.021879964 -0.05278652 -0.041490152 0.1012166 0.028829128 -0.1953206 -0.06698757
-0.054313295 -0.079615876 0.11452419 -0.18164083 -0.025922643 0.062257707 -0.06438994 0.015571404
-0.05525764 -0.07828115 0.06334274 -0.12920822 -0.047477823 -0.02939427 0.041458618 -0.10286225
-0.04646452 -0.01700817 0.06629363 -0.027874185 -0.03924862 0.006588973 -0.12458481 -0.10324119
-0.061903097 -0.0828935 0.04255412 0.0209594 -0.228513 0.03704072 0.0021983227 -0.06779222
-0.012001234 -0.012551627 0.03822238 -0.016821401 -0.14339927 -0.065538 -0.06399543 0.07589916
-0.11255332 -0.0717597 -0.10731039 0.10465479 0.025345873 0.006682402 -0.09657501 0.037182506
0.038448732 0.038755227 -0.06643669 -0.024475487 -0.06092384 -0.024084128 -0.036476806 0.06670346
-0.008357489 0.03376318 -0.095357694 -0.08626171 -0.038408153 0.09581925 -0.14478691 -0.058473412
0.08517504 -0.0022012617 -0.021898357 -0.0527824 -0.10024914 0.056984 -0.036862127 -0.08111656
-0.11682337 -0.07784592 0.027944168 0.036231942 -0.14811796 -0.04755226 -0.021990864 -0.10762715

bias_hh_l0 f4 [405]
00000000: ff01 b0bc 6a89 b63d 868b 9abd dbeb db3c
00000010: fbaa 61bd 7624 e33b f286 aebd aa94 5bbc
00000020: 3c3f 833d ab39 b23d 93ca c6bd 9904 ab3c
00000030: acb9 073d ed69 de3c fcfe 29be fde1 e8bc
00000040: 9b1f 4e3c ac12 c3bd 2a0d 3cbd 84c2 11be
00000050: cc69 a6bc 3ae7 62bd 0b78 dd3c 4bb7 c63d
00000060: 1c79 ba3d ef5d 98bd 43fb a7bd 43b8 a7bd
00000070: b90f 65bd 4804 1dbd fefa e4bd a7da e33c
00000080: 9def a9bd 4da1 12be 22cd 6fbb 081f 1b3b
00000090: 8840 2c3d 53c1 8bbd acc5 fb3c ab6b e2bb
000000a0: a242 f23d a1f0 98bd e722 c03c 13a5 a63d
000000b0: 00f2 a33d 5bb0 793a b7b8 abbd b663 5dbc
000000c0: fcd8 253d bed3 123d 5e41 18bc ec7f 403d
000000d0: d871 593d 0054 f83c 38b3 633d 82a9 e13c
000000e0: 100b 8c3d a745 14be ca17 febd d730 223d
000000f0: 388f 5e3d d462 edbc 7e3f 34bd eadb 863d
00000100: ec5f 153c 3d55 3dbd d75c 9fbb c1be deba
00000110: 1fa2 bdbd 0fee 66bd 06fc 26bd 1796 e33c
00000120: 18fa 97bd 3009 9d3b 2756 fe3c ffd4 f33c
00000130: bfe5 4bbb de53 c83b d11f 083d 6549 55bb
00000140: 229f 8ebd d8e6 09bd 4c12 acbd cc18 96bc
00000150: 84cd c2bd c4d6 e2bc e755 963d b548 dabb
00000160: a4be 8ebd 0a36 4b3d af41 e03d c9ba a0bd
00000170: f014 473e ef0c c63c be28 8cbd bb53 8fbc
00000180: c484 993c dadb 2abd bb4b 203d 3816 bcbc
00000190: 2cc1 6b3d eabd 9fbd ccbb 6e3d 3e42 5bbd
000001a0: adb5 c6bc 4ad3 2cbd ceb8 503d 2439 6dbd
000001b0: fe82 993d 238b d5bd c99b edbc f7e0 953c
000001c0: 0b20 4cbc 935b 5e3d 9034 8a3d 9ba2 813c
000001d0: 4bd1 7dbd 1262 e03d b93a adbd 407b 20bd
000001e0: ba97 aebc 1d9f 53bd a8f3 d8bd 96f2 ee3c
000001f0: c763 b93d cce5 9cbd fc1b 67bd b465 3a3e
00000200: d018 97bd 4bb8 a4bd 1bf7 883c ccbf 12bd
00000210: 47ca b6bd c714 c63d b257 b43d f541 df3d
00000220: 08d1 2abe 9797 84bd 7f35 12bd 68b7 d7bd
00000230: d23e 293b 480a f23c 2296 053e 957c e63c
00000240: 0efb 99bd ba56 94bb 99e5 4dbd 1d29 c9bc
00000250: 8cb0 45bd dfcd 5fbd 9f16 c3bb f22c 4c3d
00000260: 1daf 58bd 6849 a6bd 8d0e 3c3d 1429 ecbd
00000270: d693 b43c b803 ddbd b100 85bd 66b3 f3bd
00000280: 9548 2c3d 725d 393c 8b7c a6bd 02eb 803d
00000290: 8cf5 053c 51cd 3abb 4ebd abbd 3821 82bd
000002a0: 61c1 d2bc d433 19bd f685 5cbd 8987 343d
000002b0: 9290 b03d 4b73 d33b 3459 31be 51cb 45bc
000002c0: 95db b33c ed08 dcbc 8582 093e 7155 66be
000002d0: 4817 96bd ba6b 863d 19c4 f1bd 22dc 8b3c
000002e0: a92d d0bd c5a4 6ebd e686 163d 3fba 333c
000002f0: 48eb afbd c1e2 08bd a776 a0bd 3e27 74bb
00000300: 870a cdbd ed07 1cbd f409 1d3d 76e4 a33d
00000310: e7bf 94bd f247 5abb 52cd 6bbd c1a6 403d
00000320: 7120 2e3d c07f 8cbc 7354 c8bd 43b2 a83c
00000330: 4155 19be e70d 47bd 61e8 4cbc 0bb3 b3bc
00000340: a5e8 fdbd c1be 96bd dd1b 8f3d afec 8e3d
00000350: 4daf 2fbe 3e49 ecbc f9f3 953d 40e2 23bb
00000360: 5b14 b3bd d653 c03a 7438 a6bd d8cf 953d
00000370: 0bdd 2dbc a297 2e3d 9f13 58bd 39bd 0abd
00000380: cebe 97ba 3726 f5bd a941 18bd 8472 19be
00000390: 82ec 1cbd d339 d53d 355a a23d 82a3 373d
000003a0: c85c ec3b 5077 c9bd f0a1 c3bd 6a13 993c
000003b0: b9b5 c4bc 9279 c83d d7d5 e0bc a34e 92bd
000003c0: d28b a33d 7531 ec3d 72f8 77bc 14d5 8dbd
000003d0: f60d 87bd e76b 8dbd 8d72 edbd d5c4 f6bc
000003e0: d0d2 2cbe 025f 6fbd 71f0 653d 05a6 7abd
000003f0: 24d7 82bd ad4f 4b3b 5fb8 21bd 441f a53c
-0.021485327 0.089129284 -0.07546143 0.026845863 -0.0550947 0.0069318367 -0.085218325 -0.0134021435
0.064085454 0.087024055 -0.09706607 0.020876216 0.033136055 0.027150119 -0.16601175 -0.028428072
0.0125807775 -0.09525046 -0.04591099 -0.14234358 -0.02031412 -0.055396296 0.02703478 0.09702929
0.09105131 -0.074397914 -0.08202221 -0.08189442 -0.055923197 -0.03833416 -0.111806855 0.027814222
-0.08297656 -0.14319344 -0.0036590775 0.002366962 0.04205373 -0.06823983 0.030733906 -0.0069098077
0.118291155 -0.07467771 0.023454143 0.08136954 0.08005142 0.0009524875 -0.08384841 -0.0135125425
0.040490136 0.035846464 -0.0092929285 0.046996996 0.053087085 0.030313492 0.05559084 0.027546648
0.068380475 -0.14479695 -0.12406881 0.03959736 0.054335803 -0.028977789 -0.044005863 0.06584914
0.009117108 -0.046223868 -0.0048633623 -0.0016994105 -0.09259438 -0.056379374 -0.040767692 0.02778153
-0.074207485 0.004792355 0.03104694 0.02976465 -0.003111228 0.0061135134 0.033233467 -0.0032544967
-0.06963946 -0.033667415 -0.08401927 -0.018322371 -0.09511855 -0.027690299 0.07340603 -0.0066614994
-0.069699556 0.049612083 0.10950028 -0.078481264 0.19441581 0.02417609 -0.068437085 -0.01749598
0.018740065 -0.041713573 0.039134722 -0.022959813 0.05755727 -0.07799895 0.058284566 -0.05352997
-0.024256552 -0.04219369 0.050957493 -0.05791582 0.07495688 -0.10426929 -0.029004948 0.018295748
-0.0124588115 0.05428655 0.06748307 0.015824607 -0.061967175 0.109562054 -0.08458466 -0.03918004
-0.021312583 -0.051665414 -0.10593349 0.029168408 0.09052234 -0.07661018 -0.056423172 0.18202859
-0.073777795 -0.080429636 0.016719392 -0.035827443 -0.089253 0.09671932 0.08805789 0.10901252
-0.16681302 -0.06474226 -0.03569555 -0.10533029 0.0025824797 0.029545918 0.13045552 0.028135577
-0.07518588 -0.00452694 -0.05026779 -0.024555737 -0.04826407 -0.054639693 -0.0059536244 0.04984755
-0.052901376 -0.0811947 0.045912314 -0.115312725 0.02204315 -0.10791725 -0.064942725 -0.11899452
0.042061407 0.011313783 -0.081292234 0.06294824 0.008176219 -0.0028503726 -0.083857164 -0.06353992
-0.025726976 -0.037402943 -0.053838693 0.04407457 0.086213246 0.006452953 -0.17319185 -0.0120724
0.02195529 -0.026859725 0.13428695 -0.22493531 -0.07328659 0.06563516 -0.11804981 0.017072741
-0.10164959 -0.058262605 0.036749743 0.0109696975 -0.08589798 -0.033419374 -0.07835131 -0.0037254835
-0.100117736 -0.038093496 0.03833957 0.0800256 -0.07263165 -0.0033307043 -0.057568856 0.04703403
0.042511407 -0.01715076 -0.097817324 0.020592814 -0.14973928 -0.048597243 -0.012506575 -0.02193596
-0.12397889 -0.07360602 0.069877364 0.069787376 -0.17156716 -0.028843518 0.07321925 -0.0025006682
-0.08744117 0.0014673423 -0.08116236 0.07315034 -0.010611783 0.042625077 -0.052753087 -0.033871863
-0.001157725 -0.119701795 -0.037171993 -0.1498509 -0.03831149 0.1041142 0.07927362 0.044833668
0.007213209 -0.0983721 -0.095523715 0.018686015 -0.024012433 0.09788813 -0.027445717 -0.07143905
0.07985653 0.11532871 -0.015134918 -0.06925407 -0.0659446 -0.06905346 -0.115941145 -0.030123154
-0.16877294 -0.058440216 0.056137506 -0.061193485 -0.06388691 0.0031022832 -0.03948247 0.02015651

weight f4 [1, 4, 1, 12, 12]
00000000: 0ec0 24be 5c36 9cbc 7577 4c3d 0c27 9b3d
00000010: 388f 0ebe a473 ec3c 35f0 013d 5dc7 373d
00000020: 350c 2c3d c00a 023d 926d 8bbd 0119 68bd
00000030: 6a4b b2bd 5757 103d fa1b 933c ac48 b83d
00000040: cde3 a03c 452e bfbc 5d40 cbbc 6ddb e33c
00000050: b749 f63c 627a a7bc 7258 383d 3781 e6bc
00000060: 2e84 05bd bb45 2d3d f621 32bc a218 823d
00000070: 5c92 5bbd 74cf aa3c 1939 883d 4af9 5fbd
00000080: 02f1 073e baa9 833d c9de 53bd 3fb8 f53d
00000090: 4b22 c9ba 7290 03bc 4226 e4bd 4b17 24be
000000a0: 6ecf d4bc db1e 933c bb43 193c 8d4e 19bd
000000b0: 538c 633d be09 a33d 3fc6 143c 36c5 9fbd
000000c0: 25dc eeba 40ac 2abc f07b 373e acde 153e
000000d0: c285 13bd 43fb d13c 1703 633d b054 9a3d
000000e0: 479b ccbc b105 f4bd a02f 823c 2d07 8f3d
000000f0: 618c a5bd 04f0 98bd 756e 0a3d b3e9 b23d
00000100: 3c79 0abe 1afc 98bc 6b9c 4f3e ecab bc3c
00000110: b09e 81bd e96d c3bc 56d3 3bbb 298d 0fbe
00000120: b6d2 7f3c 2162 8e3d 4b4c c43d 4e8b aa3d
00000130: 947d c43d e472 913d a7ff f9bc b825 2c3d
00000140: 8751 11bd 83fb b3bd 1e63 d03c 00e6 c1bc
00000150: 10ac 223d d146 943d dbd2 d23d c46d 9f3d
00000160: cd98 133c 5480 1ebe d135 dabc 6221 b33d
00000170: 030d cfbd 9859 59bc 7069 8e3d 3e38 d53d
00000180: 2fbc 39bc b793 95bc f877 c13d b74c 063e
00000190: 62ee e8bc 29f8 913d 21bc b83c a06e 9a3d
000001a0: 976f dc3c 260f 7f3d 3bd3 23bd 79bf 7a3d
000001b0: 258f c13d fc28 053d 7a88 bdbd 6172 07be
000001c0: 3978 d73d 3cba a13d 34b9 06be aa9e 5ebd
000001d0: 6f7c d23d 9df9 633d 2ef2 603d defb 99bc
000001e0: d503 0e3c fab7 9e3d e8a2 c0bc 4b0a c2bc
000001f0: 55b4 893c 9ba8 073c f937 9f3d 8cd9 30bd
00000200: 68f8 7b3c 30a7 483c 9f51 cbbc d8e1 013e
00000210: 6654 99bd ac06 413c e3ca db3b 9f18 893d
00000220: b2a7 513d ed4e 37bd c24a b93c 1c0c e0bc
00000230: 44d2 7bbd fd27 0cbb a344 253d c630 71bd
00000240: a457 633d 4788 163d 1fc9 09be a473 a23b
00000250: 02df d43d 8d9f b7bc c965 b5bd e77c 68bd
00000260: a028 763d 80fb a8bc 464f 66bd 8433 603d
00000270: ba2c e93d 7f37 1cbc afc0 92bc 2358 763d
00000280: 909c 94bc 8cc5 73bc 7351 ac3d a702 03bd
00000290: 7f7c 243d 27d6 a03d 95ad 0ebd af8f 0d3e
000002a0: a775 a63d 9448 7c3d 4a28 aebb a67e 073c
000002b0: 3dbc 2c3d ab99 9abd 4115 7f3c f4ac 043c
000002c0: 8929 083d 3f61 023e 95f8 6b3d 5724 223b
000002d0: a67f 5b3d 4b31 53be e4d1 ccbd f158 40bd
000002e0: ffd1 a6bb 62c7 13bd 09f9 6d3d 8b3d a8bd
000002f0: b6ec 6fbd 2ae9 143d de43 81bd 9f69 7ebc
00000300: 4698 ef3d a36b 06bd f128 55be c616 60be
00000310: 81c1 c23c 41e1 473d 9ccf d3bd 8291 43be
00000320: f5c8 293e 81a2 4b3e 60fc 16bc 509c d23d
00000330: d5da b5bd ffd5 183c 4e2b 113b fd7d 253d
00000340: a61c c63a 792b 463d 5e46 b1bd 570e 7abd
00000350: 0d35 3b3b 310e 8e3d 652a 9fbd 8200 293c
00000360: f5b5 ac3d dcbd 79bd 0567 c2bd c10f ebbd
00000370: c9b6 8b3d d54a 383d 30d9 8abd 8c86 e63c
00000380: be62 a13c 255c 913d 73bc c03c 15d9 943c
00000390: a68e 5cbd af75 c2bd 85fd 0cbd d2d4 713d
000003a0: 2228 2ebe c59c b73c 00b2 853c f180 c6bc
000003b0: aa51 a83d 3e16 433d b129 903c e21c 5ebb
000003c0: aef5 b83d d8d1 ed3d a8de 3abe 75a9 18be
000003d0: f26c 0c3e 6bd7 6d3e eefa 65bd 252c 5bbe
000003e0: c3d2 483c 0230 9f3d 76d9 00bc 5fa2 b23d
000003f0: cefc 4fbd cb31 babc 19d9 a1bd 8cb9 65bd
-0.16088888 -0.01906889 0.04991861 0.07575807 -0.13921821 0.028863735 0.03172322 0.044867862
0.04200383 0.031748533 -0.06808008 -0.05666447 -0.0870579 0.035239544 0.017957676 0.08998236
0.019639874 -0.023337493 -0.024810964 0.027814591 0.030064447 -0.020444099 0.045006223 -0.028137786
-0.03259676 0.04230283 -0.010872355 0.063523546 -0.053606376 0.020850874 0.066515155 -0.0546811
0.13275531 0.06428857 -0.051726136 0.11998033 -0.0015345303 -0.008030044 -0.111401096 -0.1602451
-0.025977816 0.017959049 0.009354527 -0.037428427 0.055553745 0.079608425 0.009080469 -0.07801287
-0.0018223567 -0.010417044 0.17918372 0.14635724 -0.036016233 0.025632506 0.05542287 0.07535684
-0.024976386 -0.11915148 0.01589185 0.069837905 -0.08083416 -0.07467654 0.033796746 0.08735981
-0.1352281 -0.018674899 0.20274512 0.023031197 -0.06329095 -0.02385612 -0.0028659902 -0.14018692
0.015614202 0.0695231 0.09584864 0.083273515 0.095942646 0.07101992 -0.030517412 0.04202816
-0.03547814 -0.087882064 0.025437888 -0.023669243 0.039714873 0.0724007 0.10294124 0.07784608
0.0090085985 -0.15478641 -0.02663699 0.08746602 -0.10109904 -0.01326599 0.06953704 0.10411118
-0.01133637 -0.018258912 0.0944671 0.13115202 -0.028433982 0.07127411 0.022550644 0.07540631
0.026908679 0.062270306 -0.039996367 0.06121776 0.09451131 0.03250979 -0.092545465 -0.13227226
0.105209775 0.078968495 -0.13156587 -0.054350533 0.1027764 0.05565797 0.05491846 -0.018796857
0.008667906 0.077499345 -0.02351518 -0.023686549 0.016809622 0.008279945 0.07774348 -0.04317622
0.015379049 0.012246892 -0.024819193 0.12683809 -0.07486801 0.011781376 0.0067075356 0.06694149
0.051185317 -0.044753004 0.022618655 -0.027349524 -0.06147982 -0.002138614 0.04034866 -0.058884405
0.055503502 0.036751058 -0.13455628 0.004957633 0.10394098 -0.022414947 -0.088573046 -0.05675974
0.060097337 -0.020627737 -0.056227945 0.05473663 0.11385484 -0.009534716 -0.017914144 0.060142647
-0.018141061 -0.014878642 0.08413973 -0.03198495 0.04015779 0.07853346 -0.03483351 0.13824342
0.08127909 0.061592653 -0.0053148614 0.008269941 0.042171706 -0.07548841 0.015569032 0.008097876
0.033242736 0.12732409 0.057610113 0.0024740899 0.053588532 -0.20624273 -0.10000971 -0.04695982
-0.0050909515 -0.03607882 0.058098827 -0.082148634 -0.058575355 0.036355175 -0.06311773 -0.015528112
0.11698966 -0.032817494 -0.20816399 -0.21883687 0.02377391 0.048798803 -0.10342333 -0.19098476
0.16580565 0.19886209 -0.009215444 0.102837205 -0.088796295 0.009328364 0.0022151056 0.040403355
0.0015114739 0.048381303 -0.086559996 -0.06104883 0.0028565556 0.069363005 -0.07771758 0.0103150625
0.08433143 -0.06097208 -0.09492306 -0.11477614 0.06821973 0.04499324 -0.067797065 0.028140329
0.019700404 0.07097653 0.02352736 0.018169919 -0.053846978 -0.094951026 -0.034421463 0.059040852
-0.17007497 0.02241362 0.016320229 -0.024231406 0.08218701 0.047628634 0.017598005 -0.0033891727
0.09031235 0.1161229 -0.18248999 -0.14908393 0.13713434 0.23226707 -0.05614751 -0.21403559
0.012257281 0.07772829 -0.007864347 0.08722376 -0.050778203 -0.022728821 -0.07902736 -0.056085154

weight f4 [12, 12]
00000000: a1ec 903e 2a6a 61be 0a47 fdbd 24b3 adbd
00000010: cfcf 1b3e 45ce 003e 526b 0d3e c447 80bd
00000020: ec9a 47be b37b 9f3e ab45 fd3d e1e4 04bd
00000030: 2bb1 1c3e 83f4 32be cc7d 863e c67e a2bc
00000040: f2f0 103e fb3a 7a3d 616c 623e 8138 9a3d
00000050: 5d69 bebe 575d bc3d c9d9 763e a61d c1be
00000060: 05ea 93bc a31e 8fbd 4142 803e 3812 943e
00000070: bf80 243e a210 553e 86cb f5bd a2bf 69be
00000080: 4dad b9be 0eb5 52be 1c6c 383e 61c1 80be
00000090: c0d5 383c 2592 18be 9b05 1dbe 2f40 abbd
000000a0: c9bd 893d 6654 483d f447 903d c8bb 07be
000000b0: cff8 d33d 9341 9abd fb92 703e f648 a6bd
000000c0: d651 823e 6ea4 5ebe c31d 11be 88e4 80be
000000d0: 759a 06bd c117 b73d b1ae 823d bfa4 0f3e
000000e0: 32cf 523d 8d24 fa3d f532 58be 8c8b 293e
000000f0: 5481 85bd 7d77 1a3e a91e f8bd b045 833d
00000100: 2682 8d3e 3b26 633d b20c 73be a80c 1dbe
00000110: 817b 4cbe 3b3f 5b3e 3365 463d ef54 c3bd
00000120: 0296 383c 1229 29bc 5df8 a63c a69a 27be
00000130: 44e2 cfbd 4b90 b53d 51bd c73d 4598 36be
00000140: 6876 f73d ea17 583e f00a 5cbe c6c0 753e
00000150: a84d b2bd d5dc 1fbe 349d 313e 9545 2bbe
00000160: eccb 803d 5970 2fbe 5ec5 7c3e 699d 4e3e
00000170: e8a9 ea3c 8e7b 66bc 162e 983d 3c0b 97be
00000180: 5edc 2b3e fb73 2e3b f146 ad3e 6593 a2bd
00000190: 0bb0 e63d 3369 85be f538 63be 0612 31be
000001a0: e691 6bbe 726d 72be bbb8 293e ca3a 25be
000001b0: 7ff8 a23c faa9 97be 5030 d6bc 8d63 673e
000001c0: 14aa 8f3e 9cac b9bb 35f6 373e 3707 723e
000001d0: 7ec5 62be 902e 2ebe 53c6 36be 2cdb f33c
000001e0: 4366 22bd 0dd6 283e 7248 e33d cdd8 5bbe
000001f0: 55b9 973e fd7f 82be ad4e 27be d280 5abe
00000200: b35e bb3c 5e37 0a3e b3c5 33be 2427 c1bd
00000210: a0ef 98bd cdce df3d 972a bdbd fffb 05be
00000220: b83f ddbd b825 0e3e ac52 89bb a028 d8bd
00000230: d7f8 4e3d f6d4 063e 50ab df3d a360 953e
0.28305534 -0.22013155 -0.12367065 -0.08481434 0.15215991 0.12578686 0.1381047 -0.06263688
-0.19492692 0.31149063 0.12366804 -0.03244484 0.15301959 -0.17476086 0.2626785 -0.01983584
0.14154413 0.061091404 0.22111656 0.075303085 -0.3718976 0.09197491 0.24106516 -0.37717932
-0.018055925 -0.06988265 0.25050548 0.2892015 0.16064738 0.20807126 -0.1200171 -0.22827008
-0.3626503 -0.2057688 0.1800999 -0.25147536 0.011281431 -0.148995 -0.1533417 -0.083618514
0.06725652 0.048908614 0.07044974 -0.13255227 0.10350191 -0.075320385 0.23493569 -0.08119385
0.2545306 -0.21742412 -0.1417151 -0.25174356 -0.032862145 0.089400776 0.06380976 0.1402769
0.051467128 0.12214003 -0.21113189 0.16557139 -0.06518808 0.15084644 -0.12115223 0.06409776
0.27638358 0.05545638 -0.23735312 -0.15336859 -0.19968988 0.2141084 0.048436355 -0.09537684
0.011266233 -0.010324733 0.0203821 -0.16367587 -0.101505786 0.08865412 0.09752906 -0.17831524
0.12083131 0.21102872 -0.21488547 0.23999318 -0.08706218 -0.15611584 0.17345124 -0.16725762
0.06288895 -0.17132701 0.24684665 0.20177235 0.02864547 -0.014067544 0.07430665 -0.2950076
0.16783282 0.0026619423 0.33843186 -0.079382695 0.11264046 -0.26056823 -0.22189696 -0.17292032
-0.23004875 -0.23674563 0.16574375 -0.16135707 0.019893883 -0.2962187 -0.026146084 0.2259657
0.28059447 -0.0056663286 0.17965014 0.23635565 -0.2214565 -0.1700995 -0.17849092 0.029767595
-0.039648306 0.16487904 0.11097802 -0.21469422 0.29633585 -0.25488272 -0.16338606 -0.21338204
0.022872305 0.13497683 -0.17555885 -0.094312936 -0.0746758 0.10928116 -0.09236639 -0.1308441
-0.10803169 0.13881576 -0.0041907635 -0.105546236 0.05053028 0.13167176 0.10921347 0.2917529

bias f4 [12]
00000000: e731 4f3e dfbc 8cbd d652 943d 4271 883d
00000010: a5d7 3fbd 0858 833e 9c03 1d3e 993c 833e
00000020: 31a5 6dbe a7ff 393d 522e 1d3e f642 3ebe
0.2023388 -0.06871962 0.07242362 0.06662227 -0.046836514 0.256531 0.15333408 0.2563217
-0.23207547 0.045409825 0.15349701 -0.18580231

weight f4 [3, 12]
00000000: 7471 b9bb 37b6 e7bd bbd3 9ebd ddd8 83be
00000010: 2008 09be 6905 d0be 34d0 71be 21fd 793e
00000020: 9874 9cbe 7e64 833d 3e58 9bbe 6e01 0dbd
00000030: 7a91 db3e bd23 a2be 2360 d0be db78 263e
00000040: 0afc bf3e 39d4 b93e c848 1d3e 2ce3 09be
00000050: 009e c1be 5bf5 b7be d591 9e3e abda d93e
00000060: a8d4 b1be 3b8b 7b3e 2a6f 033e 354d a4be
00000070: d91d 9d3c 2e0d 79bc 484c 893c 1dc7 763c
00000080: 7833 53bc 94b2 983e bff6 23be 4725 dabe
-0.0056592766 -0.113140516 -0.07755228 -0.2575139 -0.13382006 -0.40629128 -0.2361458 0.24412967
-0.30557704 0.06415652 -0.3034076 -0.03442519 0.42884427 -0.3166789 -0.40698346 0.1625704
0.37496978 0.36294726 0.15359795 -0.13465565 -0.37815857 -0.3592938 0.30970636 0.42549643
-0.34732556 0.24564831 0.12835374 -0.32090154 0.019179272 -0.015200896 0.016760007 0.015062121
-0.012890689 0.29823744 -0.16012095 -0.42606565

bias f4 [3]
00000000: 2f02 8ebe 0dff 8e3d 482b 4fbe
-0.2773604 0.06982241 -0.20231354

weight f4 [3, 12]
00000000: af2d 87be 2c23 44be fce2 51be b300 63be
00000010: 1b3c 523c d9b6 b3bd 8899 83bc 2225 08be
00000020: 7367 863e 99e8 803e 1716 95be 60a7 8dbe
00000030: f22b fcbd cb81 12be 12d1 b1bd b017 fb3b
00000040: 3837 0cbe 73af 2dbe 076a cebd 040e eabc
00000050: 7eeb 3bbe 5585 e1bc 3d05 51be dc79 21be
00000060: 3287 28be cbbe 103e fd96 113e 6ea9 2c3c
00000070: 84de 83be e88a 01bd 69f9 533e 9a8f 033d
00000080: 1b60 383e 1ee6 823e ca63 6bbe 9838 463e
-0.2640204 -0.19154042 -0.20496744 -0.22168235 0.012831713 -0.0877511 -0.01606442 -0.13295415
0.262508 0.25177458 -0.29118416 -0.2766676 -0.123130694 -0.14307325 -0.08682455 0.007662736
-0.1369294 -0.1696146 -0.10078817 -0.028571136 -0.18351552 -0.027529398 -0.20412154 -0.15769142
-0.16457823 0.14135282 0.14217754 0.010538442 -0.25755703 -0.031626612 0.20700611 0.03211937
0.18005411 0.2556619 -0.22987285 0.19357526

bias f4 [3]
00000000: e39b b0be 32cd 843e 01d2 943d
-0.34493932 0.25937802 0.072666176

weight f4 [3, 3]
00000000: 4167 cbbe ce78 d83e 5aa1 db3e c530 babe
00000010: 2b33 4c3d b090 b03e f3ee cdbd b82a c43e
00000020: d05d f33e
-0.39727214 0.42279667 0.4289654 -0.36365333 0.049853485 0.34485388 -0.100553416 0.38313842
0.4753251

bias f4 [3]
00000000: c1cc e43e 1e7f 083f b543 08bf
0.44687465 0.53318965 -0.5322831
