data/best/output/poster/train/5_stemgnn.pt (torch, 435920 bytes, 73 tensors)

weight_key f4 [135, 1]
00000000: e1e4 79bb 9ee4 213e ec6c 7bbe 5cfc 5fbe
00000010: 4ccd e8bd fb62 a43d ebaa b0bb 13dc 713e
00000020: dee1 d5bc 6e9f 9f3d cb04 b8bd 894a 70bd
00000030: e888 91be 3a3e 49be f40c fabd 1b35 3d3c
00000040: 3df8 f03d bbc3 363e e5d1 4dbe cf17 04be
00000050: b813 dd3d 9e3d 7c3e 590d 7dbd 8816 633e
00000060: 5f8a 46bd 2f73 003d b922 8a3e 0c9c 8cbe
00000070: 0fec 3ebe c098 98bd ef33 eabd f91d 843e
00000080: 27fa 43be 0a66 0bbe 25b3 53be 1d22 8ebe
00000090: 8b6c 31be d2ca 823e 95e3 073e 0762 143e
000000a0: 54b4 833c 1dd6 1bbe 945e 4d3d ca45 8ebe
000000b0: b9f6 5cbe 5256 1ebe 0194 3f3e 1406 323e
000000c0: 08a9 07be add8 35bc 1ffb 413e a94e 973e
000000d0: 38a0 f03d 1c6a 253d b9e4 4c3e 19f4 32be
000000e0: ed87 603d c319 6dbe 8873 53be 0f4c 1dbe
000000f0: 01f8 083e a5aa f23d 5205 36be 8e98 b63d
00000100: b1d6 253e 3ec7 20bd 8b93 223c ad34 8b3d
00000110: 730e 3c3e 7e6b 913e 34ae 6bbe acc0 e1bd
00000120: 9fc5 eb3d 10d6 7a3e e984 833e ee59 853e
00000130: 9286 6f3d eb4d 84be 7e05 e03c f703 3fbe
00000140: b995 8ebe 96fc 863e 7cf4 663e 3bac 97be
00000150: 9c32 653d 39ae 4ebd 9359 4dbd d4d1 0bbe
00000160: be3d e73d 6fe1 34be 950b de3d 6c02 193e
00000170: 4617 593e 9d3a e13d 5e31 97be 0be2 46be
00000180: 3c89 173e a352 7f3d 9102 6dbe d0e1 2ebe
00000190: 1edb 8e3e a247 4b3e 5ff5 05be 40fa 98bd
000001a0: aa4d 90be 9e39 8fbb b7f0 63be 8963 69be
000001b0: 6e2a 7ebc 3ba4 393d 038a f7bd 7871 353e
000001c0: 57e9 38be d9c4 893e 2d38 4f3e 5712 81be
000001d0: d9ac 97bd 40c1 4d3c 9d00 2b3d 75d7 8c3d
000001e0: 0388 eb3d 014e 843c 2dc3 15be fe39 0f3e
000001f0: 0462 92be a319 35be 4f55 9bbd 9789 15be
00000200: 0ffd d5bd f910 79be 85a3 80bd d3ae 833d
00000210: 4c8a 45be e9ae 7fbc 5291 583e
-0.0038130807 0.15809867 -0.24553269 -0.21873611 -0.11367282 0.080266915 -0.0053914688 0.23619108
-0.026108678 0.07794081 -0.08985289 -0.058664832 -0.28424764 -0.19652644 -0.12209502 0.011548306
0.11766098 0.17848103 -0.200996 -0.12899707 0.10794777 0.2463288 -0.061780307 0.22176564
-0.048471805 0.031359848 0.26979616 -0.27462804 -0.18644737 -0.0745101 -0.11435687 0.25804117
-0.19138394 -0.13613144 -0.20673807 -0.277604 -0.17326562 0.25545365 0.1327041 0.1449052
0.016077198 -0.15218396 0.050139025 -0.2778762 -0.21578492 -0.15462616 0.18708803 0.17385131
-0.13248074 -0.011099023 0.18943451 0.295522 0.11749309 0.040384397 0.20009126 -0.17475928
0.05481713 -0.23154359 -0.2064954 -0.15361045 0.13375856 0.11848954 -0.17775467 0.08915816
0.1619518 -0.039252512 0.009922872 0.067971565 0.18364887 0.28402323 -0.23015672 -0.11023077
0.115123026 0.24495721 0.2568734 0.26045173 0.058477946 -0.25840697 0.027346369 -0.18653856
-0.27848604 0.26364583 0.22554201 -0.2962359 0.055956468 -0.05045912 -0.050134253 -0.13654262
0.11291073 -0.17664121 0.10842053 0.1494233 0.21200284 0.10997508 -0.29529852 -0.19422166
0.14798445 0.062334668 -0.2314551 -0.17078328 0.27901548 0.19851544 -0.13081883 -0.074696064
-0.28184253 -0.004370882 -0.22259794 -0.22791876 -0.015513046 0.045322638 -0.120868705 0.17719066
-0.18057762 0.26907995 0.20236273 -0.25209305 -0.07406015 0.012558281 0.04174863 0.06877033
0.115005516 0.016150476 -0.14625235 0.13986966 -0.28590405 -0.17685561 -0.07584631 -0.14603268
-0.10448658 -0.24322881 -0.06281189 0.064298294 -0.19291037 -0.015605667 0.21149185

weight_query f4 [135, 1]
00000000: 03e9 96bd 0c39 5b3c 4fc1 a93d 3188 433e
00000010: 1934 a63e 88f0 d43e 92fb a33e fe9d d23e
00000020: e9be d83d bf7a 10be 2104 85bc 5713 a73e
00000030: 5614 f93d 4d45 c8bc ccdb d6bd 2f58 1fbe
00000040: cfc0 03be 8339 7b3d 369c 913e b25f 903e
00000050: 9fac 28be 3c35 9d3e 4561 e1bd 4df8 733d
00000060: 32ad 0f3b d0e9 863d 6901 853d eec7 12be
00000070: a6c4 08be 59d4 9b3d 4716 013e e74d 51bc
00000080: 7a64 6f3e 6539 14be 67f7 d03d 1b26 c43e
00000090: db66 803a 2aa5 c73e a894 6b3e 6b95 14be
000000a0: 3456 9f3e 3ed4 b53d 2c09 18bc eea8 b83e
000000b0: 6a04 efbd 2ed8 1e3e 2984 7a3d d8db ab3e
000000c0: 5e11 533e ea34 883e 8b05 6a3e 2a6c 553d
000000d0: 5b05 7a3d 1a18 f9bd b875 913e 50f0 b73e
000000e0: 6138 a73e 6980 b0bd 3cc8 0b3e 318a b0bd
000000f0: 66e3 25bd bc2c 4dbd 16da 653e 17c2 5dbd
00000100: 4cde ee3d e5f1 0a3e 8e0a a13e aac3 cfbd
00000110: 4b99 a4bd dfdf 48bd ff8d a93e 68c7 893c
00000120: c27e bf3e 3eea 6c3e 081d 253e 951b f83d
00000130: c4e0 833d 43bd 233e 5736 623d 22d6 f73d
00000140: dee4 243e bfc1 dfbd f5c5 06bd 45d4 b93e
00000150: 71a8 f0bd 0640 d03d 3e4a d53e d7f2 6b3e
00000160: f4b7 063e e0c4 09be 4f88 8a3e c2ad b3bd
00000170: 4371 1f3d c7c0 c03c 10eb a13d 097e 013e
00000180: 3e48 bc3e 5993 233e 0320 c73e 1de1 9b3e
00000190: 90ef 84bd 2c11 833e 0ad5 b2bd fd0b 3abb
000001a0: 4fca 573e 0220 633e bb19 b13e d880 df3c
000001b0: c36d fd3d 4e63 8d3e fe3a 28be 8acb ac3e
000001c0: f029 fbbd 7743 023e 3b7f 943d b908 09bd
000001d0: c5fb 253e 63d0 bc3e 92b8 143d 9e6c 5abd
000001e0: 46db 593c e409 2fbe 1f93 833e 4b01 9ebc
000001f0: 4b08 9abd b8b6 46bd a347 963e e548 8f3e
00000200: 7a72 b33e b333 6c3e 7edb c33c aeb3 243d
00000210: d654 583e f69a bd3e e859 543e
-0.07368662 0.0133803 0.08288824 0.19094922 0.32461622 0.4158976 0.3202787 0.41136163
0.10583288 -0.14109324 -0.01623732 0.32631943 0.12162082 -0.024447108 -0.10491142 -0.15560983
-0.1286652 0.061334144 0.28439492 0.2819801 -0.164721 0.30704677 -0.11004881 0.05956297
0.00219233 0.06587565 0.064944096 -0.1433408 -0.13356265 0.076088615 0.12606154 -0.012774921
0.23378173 -0.1447502 0.10203438 0.38310322 0.0009796278 0.38993198 0.23005927 -0.14510123
0.31120455 0.088783726 -0.0092795305 0.36066383 -0.11670764 0.15512154 0.061161194 0.33566165
0.20612094 0.2660287 0.22853677 0.052105106 0.061040264 -0.121628 0.28410125 0.3592553
0.326602 -0.08618242 0.13650602 -0.08620108 -0.040500067 -0.05009149 0.22446474 -0.054140177
0.116634935 0.13568838 0.31453365 -0.10144742 -0.08037051 -0.049041625 0.33116147 0.016818717
0.37401396 0.23136231 0.16124356 0.12114636 0.06439355 0.15990166 0.055227604 0.121013895
0.16102931 -0.10925626 -0.03290363 0.3629476 -0.11750878 0.101684615 0.41658205 0.23041855
0.1315611 -0.13454008 0.2705712 -0.08773376 0.038926374 0.023529423 0.07906163 0.12645735
0.36773866 0.15974177 0.3889161 0.30445185 -0.064910054 0.2559904 -0.0873204 -0.0028388493
0.21073268 0.22180179 0.34589943 0.027283117 0.12374451 0.27614826 -0.16428754 0.33749038
-0.12263858 0.12721048 0.0725083 -0.033455584 0.16209324 0.36877736 0.036308832 -0.05332624
0.013296908 -0.17093617 0.25698182 -0.019287726 -0.07521113 -0.048514098 0.2935153 0.27985302
0.35048276 0.23066597 0.023908373 0.04021042 0.21126112 0.37032288 0.20737422

weight_ih_l0 f4 [405, 3]
00000000: 8502 82bd c0b9 81bd 58c4 d5bd 31a7 7b3d
00000010: 30d5 abbb 0884 09bd 77e7 9e3d f7a7 58bd
00000020: 8c81 c3bb 20b8 4a3c 37f7 1bbc 849e 8fbd
00000030: e3f6 593a 2492 0e3e bbdd ad3d 1436 003e
00000040: 3e2a ca3c e34e a43d 591e eabc 9167 50bc
00000050: e6c0 7bbd 5947 d63c 27aa cb3c 0989 89bb
00000060: af0c 36bd 7fe5 9fbd 64d1 0d3d 061f 33bd
00000070: 1a28 5f3d 9691 2cbc ccc0 12bd e193 ae3c
00000080: 8481 1fbd b33b e83d 222f e33d ca12 f93c
00000090: 7baf ff3c b9fb 5c3d c160 533d b04e 2abd
000000a0: 38f9 cfbd 2847 36bd 15f4 cb3d a378 1c3d
000000b0: 0670 d13d e8f0 823d bdf6 1abd 1f9e 073c
000000c0: aef9 91bd adcf cdbd 5f61 cdbd eb63 c13d
000000d0: 3725 843c a482 b93d a245 c03d 624f e73d
000000e0: a354 b23d 2029 d23d f398 063e fdab 4a3d
000000f0: f51d e63c 6da2 d73c b25b 3f3e 5451 513d
00000100: 2db3 80bd 3da5 f73c 8784 ad3d 7f34 d93d
00000110: 5478 c33d 7dbb 353d 5ddc 2bbd 3e4c 56bd
00000120: 8450 e63d 20cf b83d 10ce 1fbc 56a6 9e3d
00000130: e88d 2b3d acab 403d fd6e 97bd 1489 8c3b
00000140: a3f1 50bd c947 953d 1830 1bbc 7cea 223d
00000150: b484 d03a f23f bc3c d762 2fbd 8242 22bd
00000160: 5bae 10be a320 7dbd 8b5a 00be 19b3 1bbe
00000170: 65af 0bbe d0d1 173e f512 023e f65b 253e
00000180: 26b7 103e 3872 8abb a792 653c 6dc9 a93b
00000190: ec84 17bd 61ad a03d 0b80 42bd 6053 cbbc
000001a0: e937 87bd 3ee8 f1bc 57c6 b83d 574f b83d
000001b0: f174 06bc e3bb 4fbb 7306 e63b 7dab e1bd
000001c0: 54ef 4ebd 90f5 3fbc 565a 7638 2679 6c3d
000001d0: fe7d 873c f518 be3d 8189 253c c54f a73d
000001e0: 9b83 c93c 25e1 bcbb 4fbf 0abd 86f5 d9bd
000001f0: 7a50 ffbd 4724 a0ba dc73 573d 5dbf 98bc
00000200: 02bd 71bd 3069 5f3d 85e5 2d3d cf3c debb
00000210: eaf3 05bd 7856 b23d c750 313d a901 953c
00000220: 45f4 293e 87c4 183e 29fc efbb 3f1c 943d
00000230: 96c5 ccbc 30b6 1d3c bc8f c43d 6048 d73c
00000240: 61a3 59bb 6a8b 003d 02a1 163d d030 3f3c
00000250: da03 123d c13d db3d b222 283c 0ca9 42bd
00000260: b0a3 233c 7166 363d 18b9 3c3d 7406 9abd
00000270: 0793 1bbb fb30 50bd f30e c1bc 65f8 153d
00000280: 30f9 66bd d660 163d ff0a cd3d f1d5 053d
00000290: 6550 f9bc d92f 60bd 1d12 a6bb c820 b7bd
000002a0: 9054 903c b47d d3bd 410b ddbd ed25 a6bd
000002b0: 076e 74bc cbb8 763d 37fd 31bd 08e6 df3d
000002c0: cafb 523b 4167 64bd 5bd1 9bbd ed60 20be
000002d0: 9ee4 a83d 9fcf 6d3d 43f3 c63d 04da aa3c
000002e0: 4e6f a2bd e156 4a3d cbdb 52bd 13c4 7bbc
000002f0: df32 00be ce80 10bc 7246 8cbd f3b1 8fbc
00000300: f531 cc3a dad3 abbd c63b 373c 5274 0a3e
00000310: 1a2e d13d 3201 073d 106c 913c 2782 6e3d
00000320: 8d26 fb3d 7856 da3d c890 913d b6f2 3e3c
00000330: 7cca 403c 329b d2bd 0d7c bcbd 2ce7 773d
00000340: 0a81 e7bc 6d99 7d3d 20e2 87bd 8785 44bd
00000350: 696f 9bbd 278c 033e 20c8 993d 1fd6 193e
00000360: 0495 d33d cc6a c83d cc1f 593d 6193 33bd
00000370: 50d6 13bd 1dc6 ccbb 9347 823c 2bea b1bd
00000380: d708 3b3d 8439 bcbc 0d92 afbd 6c21 77bd
00000390: 46c2 973d 7170 9c3d eb60 a8bd 81cb ca3d
000003a0: 8b2a a73d 3a8e b73d f1a7 e53d 5c3f c3bb
000003b0: 2341 8e3d 50bc ab3c 37f9 20bd de61 783c
000003c0: 54ba f43b 7e08 af3d 7a72 033c c173 13bc
000003d0: d791 383d a715 5e3d 43c1 96bc fbc1 ff3c
000003e0: b274 963d e5e2 d0bc e3bc 193c 9907 1abd
000003f0: 1806 4e3c 466b a3bd 53d3 8bbd d8e7 e0bc
-0.06348137 -0.06334257 -0.1043784 0.061438743 -0.00524392 -0.03357318 0.07758992 -0.05289456
-0.005966371 0.012373 -0.00951939 -0.07012656 0.0008314682 0.13922936 0.08489557 0.12520629
0.024678346 0.08022859 -0.028578924 -0.012720005 -0.06146326 0.026157068 0.024861408 -0.004197244
-0.04444569 -0.07807445 0.03462352 -0.043730758 0.054481603 -0.010532757 -0.035828397 0.021310749
-0.038941875 0.11339512 0.11092974 0.030404467 0.031211605 0.053951 0.051605944 -0.04157895
-0.101549566 -0.044501454 0.09958664 0.038200986 0.10226445 0.063936055 -0.037832964 0.008277445
-0.07127701 -0.10049377 -0.10028338 0.09442886 0.016131027 0.09058121 0.093882814 0.11294438
0.087075494 0.1026175 0.13144283 0.049480427 0.028090457 0.026322568 0.18687323 0.05110295
-0.06284175 0.030230159 0.08472543 0.10605716 0.09544435 0.044368256 -0.0419582 -0.052318804
0.11245826 0.09023881 -0.009753719 0.0774657 0.04188338 0.04703872 -0.07394216 0.004288802
-0.051011693 0.072890826 -0.009471916 0.039774403 0.0015908689 0.02297971 -0.04281887 -0.039614208
-0.14129011 -0.061798703 -0.1253454 -0.15205039 -0.13641126 0.14826131 0.12702544 0.16148362
0.14132366 -0.0042250417 0.014012015 0.0051814825 -0.036992 0.078455694 -0.047485393 -0.02482003
-0.06602461 -0.029529687 0.09022205 0.08999508 -0.008206592 -0.0031697683 0.007019812 -0.11019037
-0.05052121 -0.0117162615 5.8735102e-05 0.057732724 0.01653957 0.09282104 0.010103584 0.08169512
0.024598887 -0.005764144 -0.033873852 -0.10642533 -0.124665216 -0.0012217843 0.052600726 -0.018645937
-0.059018143 0.054543674 0.042455215 -0.0067821513 -0.032703318 0.08707899 0.043289926 0.018189268
0.16597088 0.14918719 -0.007323761 0.0723195 -0.02499656 0.009625956 0.09597728 0.026279628
-0.0033208954 0.031382956 0.036774643 0.011669353 0.035648204 0.10705138 0.010262178 -0.047524497
0.009987757 0.04453129 0.046074957 -0.07520762 -0.0023738758 -0.05082796 -0.023566699 0.03661384
-0.056389987 0.036713444 0.10011863 0.032674734 -0.030433843 -0.05473313 -0.0050680772 -0.089417994
0.017618448 -0.1032671 -0.10793162 -0.081127025 -0.014918811 0.060234826 -0.043454375 0.10932547
0.0032193535 -0.055762533 -0.07608291 -0.15661974 0.0824673 0.05805933 0.09714367 0.020855911
-0.07931386 0.04939926 -0.051479142 -0.015366572 -0.12519406 -0.008819772 -0.06849374 -0.017540907
0.0015578853 -0.08390017 0.011183685 0.13520935 0.10213871 0.032960124 0.017751724 0.05822959
0.12263212 0.10661024 0.07107693 0.0116545465 0.011767026 -0.102835074 -0.09203348 0.060523197
-0.028259773 0.061913896 -0.06634927 -0.047978904 -0.07589609 0.12846433 0.07508874 0.15023087
0.10331157 0.09785995 0.05300884 -0.043841723 -0.036093056 -0.006249203 0.01590327 -0.08687242
0.045662727 -0.022976644 -0.08572779 -0.060334608 0.074101016 0.07638634 -0.08221611 0.099020965
0.08162411 0.089626744 0.11213673 -0.0059584808 0.069460176 0.020963818 -0.03930017 0.015160052
0.007468501 0.08546542 0.008022899 -0.008999766 0.04506096 0.054219868 -0.018402701 0.031220427
0.073464766 -0.025498817 0.009383413 -0.037604902 0.012574695 -0.07979445 -0.06827416 -0.027454302

weight_hh_l0 f4 [405, 135]
00000000: 9d9b 803d 7262 a03d a3ad 7ebd eba2 003e
00000010: 8d40 b1bb 7a74 ad3c c41b 163d 1dbc 65bd
00000020: c78f 50bd d24d db3c aa69 923d 3608 21bd
00000030: a7b1 cdbd e9c3 033d f23c 973c dbcd da3d
00000040: de79 dbbd 36c7 d7bb 02f9 61bd 6927 afbd
00000050: cb5a 81bc 79e1 89bd 1059 8f3d c74f 9abd
00000060: 058d a83d a735 f0bc ca87 0c3d eada 0cbe
00000070: b2f9 88bd 4941 91bc de62 32be 780d b43c
00000080: 80c7 2f3c e907 a93a 0759 dfbd a1d1 ca3d
00000090: 2581 513d 0359 acbc c043 04bd 709b 7b3d
000000a0: d1fd 283e ce11 b6bd 1396 efbc aa32 3e3c
000000b0: ab3e b7bd fb37 f23d 98fb b2bc f9ec aa3d
000000c0: 5b4d f3bc 9c5f 0fbd 1abc 55bd eb7e 49bd
000000d0: 2232 8a3d b42c a63d f0f9 50bd 8916 d93d
000000e0: 0489 bd3c 9335 5e3d 6275 bc3d 7483 6f3d
000000f0: aafb 683d f044 e5bc 83d1 77bd 2076 3f3d
00000100: 7345 923c 0bfa d4bc 56a5 9e3c 683e 373d
00000110: 7445 42bc 7d50 b8bd 3689 b3bc d314 4fbd
00000120: a405 d4bd 08bc d13a 893f 843c 35b7 9f3c
00000130: b307 7d3d c9b2 7fbd 66ae 94bd 7a8d de3d
00000140: 4a69 d23b ac02 1dbd 758c 6cbd 2ac1 bcbd
00000150: babc 463c 9cae cbbd b973 9d3c 2559 aa3d
00000160: 3bf7 cfbb 7a73 a0bd b1b1 693d bbb0 b03d
00000170: f5c3 03be 19f1 533d 4332 203c 6d74 ad3c
00000180: ed1a 25bc 9bb9 97bd 096f cf3c d82b 333d
00000190: e599 3fbd 4819 91bd ed00 303d 6fb9 8e3d
000001a0: 418a 713d 5e6a 343b 28a0 3c3d de67 54ba
000001b0: ab1d 873c d350 8c3d e0cc b4bc 1e7a 0ebd
000001c0: e861 d6bc 4e8a 45bd 9d70 833c 768f 76bd
000001d0: 37ed 9c3d 6c19 59bc d03b 3e3d 2a4c b03d
000001e0: 9220 1d3c cfc6 18bc 939e 4939 bc3d 86bd
000001f0: 833f 873d ef43 bfbb 7de1 09bd 4319 bebd
00000200: 2c83 6e3d 678a c7bd 9662 3e3c ae25 ba3c
00000210: 7a7c adbd 215b e1bd 4ad7 7fbd a12e 623d
00000220: e2ee 0bbe f01a 0dbe 2de7 af3c e0be 5cbc
00000230: 0ef2 b73d dfe2 ee3c 20d2 9dbc d1d5 313b
00000240: fd6d b9bc 7b1f c0bd f0a1 63bd 0b4d 903d
00000250: 37cc 4fbd e4fd f2bd b248 26be a015 5b3d
00000260: b72a 4a3d 2f05 163e 835b b1bc 93f8 c0bc
00000270: cc1d 09be 8042 d4bd 5a79 933c b296 96bc
00000280: dba4 3dbd acd1 a3bd ced2 ae3d 56ff 13bd
00000290: 22b3 04be 255e 67bc 2617 94bd 12df 18be
000002a0: 61aa 03be 202f 0a3e 93e5 86bc 6267 a33d
000002b0: 7557 17bb 17d0 c7bc 418b f53d 8797 d0bd
000002c0: 3ecd ffbd c0a6 933c cb52 d33c ba50 563d
000002d0: 2669 d0ba a4d2 12be 7391 ef3b cb33 833d
000002e0: 5bf0 2f3d 4b59 c23d 6e6f ea3d 211a 07be
000002f0: c464 e7bc c338 c73d de24 debd 9ddb 323c
00000300: f2b3 fabd 3f6a a1bc 80d0 83bd 95ac e5bd
00000310: ce3f 7d3c a4c8 9c3c e94c 17be b8eb a9bd
00000320: 579e 13be 34fb 03be c5f5 943b 8c1f 11bd
00000330: 2270 1ebb 2c1e f53d db7d f53c 283b 4abd
00000340: d985 06be 7acd 02bc 51e5 943d 785d 103d
00000350: c104 f83d 0150 2ebe fc96 59ba 4124 adbc
00000360: 15ce abba d031 4d3d 74da 22bc 2559 2dbc
00000370: a9c6 17be 2900 b63c 3139 29be 7e71 4dbd
00000380: a7fa 943d 2389 f63c 86e0 713d 6a7a 843d
00000390: e932 b8bd cd7e 313d 2094 0e3c 3764 bc3c
000003a0: 3181 b23d bd44 013e 2100 17be 3407 223c
000003b0: 4a3f ad3c 48cd 10bc 6649 a0bd 16d0 1a3c
000003c0: 8db2 0abc 3328 da3d 45ba 37be 06eb 69bd
000003d0: 6245 f4bc 8212 8b3d 7c19 e93c 777b ed3d
000003e0: 05a1 5e3d 211b cebc 6c52 3cbd a4e7 8cbc
000003f0: b791 8a3c 6bb6 fd3b e685 b23c 4c2f a7ba
0.06279681 0.07831277 -0.06217731 0.12562148 -0.0054093064 0.021173704 0.036647573 -0.056087602
-0.050918367 0.026770506 0.0714906 -0.03931447 -0.1004365 0.032169256 0.018461678 0.10683795
-0.10716604 -0.006585027 -0.055169113 -0.08552439 -0.015790364 -0.067324586 0.06999409 -0.075347476
0.08230022 -0.029322458 0.034309186 -0.13755384 -0.066882506 -0.017731326 -0.17420527 0.021979079
0.010728717 0.0012896034 -0.109056525 0.09903265 0.051148552 -0.021038538 -0.032291174 0.061427534
0.16503073 -0.08890115 -0.029246366 0.011608759 -0.089475 0.11827084 -0.021848485 0.0834598
-0.029699972 -0.03500329 -0.05218134 -0.049193304 0.06747843 0.08113995 -0.05101961 0.10600001
0.023136623 0.05425031 0.092020765 0.058474973 0.05688063 -0.027986974 -0.06050254 0.046743512
0.017855382 -0.025998136 0.019365948 0.04473725 -0.011857379 -0.08999727 -0.021916013 -0.05055697
-0.10352638 0.0016001472 0.016143577 0.01949654 0.06177492 -0.062426362 -0.07259826 0.10866828
0.006421243 -0.038332626 -0.057751138 -0.092165306 0.012129957 -0.099454135 0.01922022 0.08317784
-0.006346611 -0.078345254 0.057054225 0.08627459 -0.1286772 0.0517436 0.009777608 0.02117368
-0.01007722 -0.07408448 0.0253215 0.043742985 -0.046777625 -0.070849 0.042969633 0.069689624
0.05896974 0.002752922 0.046051174 -0.00081026356 0.016493639 0.068513535 -0.022070348 -0.03478443
-0.026169732 -0.0482276 0.01604491 -0.06019541 0.07662433 -0.01325069 0.04644376 0.08608277
0.009590285 -0.009324743 0.00019227927 -0.06554744 0.06603911 -0.0058369557 -0.033662308 -0.09282162
0.058230564 -0.09743195 0.011620184 0.022723045 -0.08471008 -0.110037096 -0.062461175 0.05522025
-0.13665345 -0.13779807 0.021472538 -0.0134732425 0.08981715 0.029160915 -0.019265234 0.00271355
-0.022635454 -0.093810044 -0.055574358 0.07045945 -0.050731864 -0.11864832 -0.16238669 0.05348742
0.049357142 0.14650415 -0.021650082 -0.02355603 -0.13390273 -0.10364246 0.0180022 -0.018382404
-0.046299797 -0.07998976 0.085363016 -0.03613218 -0.12958959 -0.014121567 -0.07230978 -0.14928845
-0.12857963 0.1349454 -0.016466891 0.07978703 -0.00230929 -0.024391217 0.11989451 -0.101851515
-0.12490319 0.018023849 0.025796315 0.05232308 -0.0015900477 -0.14338166 0.00731104 0.06406363
0.04295383 0.094896875 0.11447035 -0.13193561 -0.028246291 0.09727623 -0.108468756 0.010916618
-0.12241353 -0.019703982 -0.064362526 -0.11214558 0.015457107 0.019138642 -0.14775433 -0.08296913
-0.1441587 -0.12888795 0.0045458996 -0.035430476 -0.0024175723 0.119686455 0.02996724 -0.049372822
-0.13136996 -0.00798356 0.07270301 0.03524539 0.12110282 -0.17022707 -0.00083003915 -0.021135451
-0.0013107682 0.050096333 -0.009939779 -0.010580336 -0.14821877 0.022216873 -0.16525723 -0.050157063
0.07274371 0.030094689 0.059052013 0.06468661 -0.08994085 0.043333817 0.008702308 0.022997005
0.087160476 0.12623878 -0.14746143 0.009889413 0.021148343 -0.008838005 -0.078265 0.009449026
-0.008465421 0.10652199 -0.1794215 -0.0571089 -0.02981824 0.067906395 0.028454535 0.11595815
0.05435278 -0.02515942 -0.04597704 -0.017200299 0.016915185 0.007742693 0.021792363 -0.0012755184

bias_ih_l0 f4 [405]
00000000: a596 acbc f2b7 e43d eda4 38bc a680 a63d
00000010: f30b 34bc 1768 c63c a331 18bd 181d 2bbd
00000020: 4ead ea3d cbcc 853d 95fc d7bc 3c93 183d
00000030: a048 1e3d f5d3 5fbd c7aa 1fbe 94a3 c23c
00000040: 8ab0 dabd 2cb3 16bd 9be2 d8bd 75a2 b9bd
00000050: a216 ebbd 7124 9dbc e2a6 0f3c b798 f13d
00000060: 6048 fc3c 28d2 b5bc cd08 edbd b94c dcbd
00000070: c8e9 a2bd dd31 19be 6a2f 173c 1097 fa3b
00000080: 350e 633d 3b5c bbbd 7e45 51bc 414d 443d
00000090: 373b 4bbd 0757 cdbd bcd6 65bd 2451 903d
000000a0: 498a 903d 2ac2 2a3d 11dd eebd 2edc 913d
000000b0: e6e6 4a3d f3a3 95bb 51a6 973a 9362 c0bd
000000c0: 77d5 653d f7e9 753c 2e8f 9a3c f93a 29bd
000000d0: a00f 9b3d 1115 733c 8592 b53d 0985 b5bd
000000e0: a771 8d3d afa7 97bd b531 f4bd 73e7 983d
000000f0: 3618 c4bc 5951 fbbc 317c b9bd f904 d63d
00000100: 3fc5 683c 8ca6 aabd 3d75 c2bd 9470 a6bd
00000110: a7c3 85bd 6559 09bb e8d0 60bc f32a d73d
00000120: c99d 94bd 3931 09bd 4891 1a3d aacb 0b3d
00000130: f154 23be eb44 aa3c bb85 b23d f60b c2bc
00000140: 58cc bebd 2d33 973c a2cc c1bd b61b 273d
00000150: ff7b a7bd a11b 52bd e0cb abbd d1d3 07be
00000160: 0dab 98bc a223 9e3c b72d 753d 883a 083d
00000170: 639e b73d ce1a 1f3d dc18 443c 9f75 9f3c
00000180: f2a6 833c 02d3 91bd 45be 1abc 362b a33c
00000190: 22bf 353c 13c4 9e3c ed49 923d 695f e4bd
000001a0: 1fe5 043e 5828 1e3d 1b86 b3bd 9a39 253d
000001b0: 6fe8 f93c f524 6fbd cd3f 7b3c 851b 55bd
000001c0: ad6b ac3c da09 e23d 330a df3d 877d ef3c
000001d0: af76 bcbc 9dc9 ff3d 211c 043d d776 153d
000001e0: fced 10be 95f5 0cbd 11d7 643c 4142 f93c
000001f0: 1997 263e bb89 6f3c fca9 a13c b8d9 383e
00000200: 333c a1bd 3318 013d 8539 4c3d 02c6 08bd
00000210: c225 1cbd 4597 053e 425f 6e3d 1515 183e
00000220: 310f 2abe 8399 9fbd 1ef4 853d 43ce a5bd
00000230: 7660 b63d 618a 073e 28d2 cc3d 1ea9 e63c
00000240: bb2c 9cbd 0d11 4cbd 5401 bd3c b6ae 8e3c
00000250: f0f8 9abc 93a5 2b3b e6d6 3abd 6237 003e
00000260: 7f1a 073d 64c3 7f3d 3b14 f13a a84e 41bc
00000270: e3b2 5e3d f6a2 9fbc dbc0 46be 84cd cfbd
00000280: 1cd3 6c3d 8d60 a4bd 9326 68bc 4f34 d73d
00000290: eeb2 b8bd 035c ee3a 1f9f bf3b 4113 d3ba
000002a0: 5e76 b6bd 2caf eabc 0b64 5dbd 267c 2bbd
000002b0: 6390 cf3d 2128 e93c 9266 49be 45ca 8bbd
000002c0: de45 5fbd 18ad a2bd dacb ea3d f2c8 39be
000002d0: 32c7 dbbc 2e0a 7c3d b63e 86bd ef90 7f3c
000002e0: 3629 6fbd 8e6a a1bd 91df 813d 1ffc 05be
000002f0: 9328 47bd 1084 f0bc d911 213d f70a d5bd
00000300: f65a 41bd 43c1 90bc 1476 863d 9ebe e3bc
00000310: 06b1 20bd 51e9 d43b 6f42 01be 60b8 d6bd
00000320: fa1c 80bd a27a abbd c8b6 2a3d c317 a73c
00000330: 1757 67be c65b 153d ef9d 123b 64cc 87bd
00000340: d1e7 77bc 6896 5bbc 9462 1c3d 1cd3 91bc
00000350: dfdd 14be 27fc 86bd 6233 83bd 44c0 973d
00000360: 45bb e6bd d938 93bd fb68 e3bd b1bd d53d
00000370: a721 ec3c 3645 9e3b 99d7 cabd ec26 163d
00000380: aa0b 183d 18e5 0d3d a956 89bd b090 b1bc
00000390: 0683 80bd 8127 c6bc 1aaa 15bd c2b5 883d
000003a0: d6f0 08bc 2204 0a3d 6b38 c5bd 5ade b1bd
000003b0: 733a 1ebd bc33 c43d 068b 18be 5afc 75bd
000003c0: b2ea ad3d 1bd9 0ebb 1445 c6bc ca42 5cbd
000003d0: 7334 cebd 4e5d 693d 725c 1abd 2f1f a6bd
000003e0: e466 f8bd 88fb a1bd 3ac1 dd3c 1713 123d
000003f0: f21b 13be 2bad 4fbd bb8a bebc 43e8 dbbd
-0.021067927 0.11167897 -0.01126979 0.081300065 -0.010989177 0.024219556 -0.037156712 -0.041775793
0.114588365 0.06533202 -0.026365558 0.03724979 0.03864348 -0.054645497 -0.1559249 0.02375964
-0.106782034 -0.036791965 -0.105900966 -0.09064189 -0.11478926 -0.019182416 0.008767815 0.11796706
0.03079623 -0.022194937 -0.11573944 -0.10756821 -0.079547465 -0.14960428 0.009227613 0.0076474026
0.05543347 -0.09148451 -0.012772916 0.047925238 -0.04961702 -0.10026365 -0.05611299 0.07046726
0.07057626 0.041689076 -0.11663259 0.07122074 0.04953661 -0.0045666634 0.0011569952 -0.093938015
0.05611178 0.015009395 0.018867102 -0.041316006 0.075713396 0.014836566 0.08865837 -0.08863265
0.06906443 -0.0740503 -0.11923543 0.074660204 -0.023937326 -0.030678438 -0.09056891 0.10450167
0.014207183 -0.083325475 -0.09495018 -0.08126941 -0.06531458 -0.0020957824 -0.013721682 0.10506239
-0.07256658 -0.033494208 0.037736207 0.034129776 -0.15950371 0.020784816 0.08716913 -0.023687344
-0.09316319 0.01845702 -0.09462859 0.04079791 -0.08177947 -0.05129588 -0.083884954 -0.13264395
-0.01863625 0.0193041 0.05985805 0.033258945 0.08965757 0.038843922 0.011968818 0.019465266
0.016070817 -0.07120325 -0.009444778 0.019918066 0.011092933 0.019380605 0.071430065 -0.111510105
0.12978028 0.038612694 -0.08765813 0.040338136 0.03050634 -0.058384854 0.0153350355 -0.052028198
0.021047438 0.11037035 0.10890617 0.02923466 -0.023005811 0.124896266 0.03225339 0.036490288
-0.14153284 -0.034413893 0.013967291 0.0304271 0.16268577 0.01462024 0.019734375 0.18051803
-0.0787281 0.03151722 0.049859542 -0.03339196 -0.038121946 0.13045986 0.058196314 0.14851792
-0.16607358 -0.07792952 0.06540702 -0.08095982 0.08905117 0.13236381 0.100010216 0.028156813
-0.07625719 -0.04982095 0.023071922 0.017417293 -0.01891753 0.002619122 -0.0456151 0.12521127
0.032984253 0.0624422 0.001839287 -0.011798538 0.05436982 -0.019486886 -0.19409506 -0.10146621
0.057818517 -0.08026228 -0.014169353 0.10508024 -0.09018503 0.0018185381 0.005847826 -0.001610376
-0.089092955 -0.028647982 -0.054050487 -0.041866444 0.101349615 0.028461518 -0.19668034 -0.06825689
-0.05450999 -0.07943171 0.11464663 -0.18143061 -0.026828382 0.061533146 -0.0655493 0.01559852
-0.05838891 -0.07881652 0.0634147 -0.13084458 -0.04862268 -0.029359847 0.03932366 -0.10402482
-0.047205888 -0.01767028 0.0656549 -0.027800854 -0.039231323 0.00649754 -0.12622999 -0.104843855
-0.06255527 -0.08373 0.04167822 0.020397073 -0.22591816 0.036464475 0.0022371968 -0.06630781
-0.015130953 -0.013402559 0.03817995 -0.01780086 -0.14537762 -0.06591063 -0.06406285 0.07409719
-0.112661876 -0.07188577 -0.11104008 0.104365714 0.02882464 0.004830028 -0.09904403 0.036658213
0.0371205 0.03464231 -0.06705982 -0.021675438 -0.06274991 -0.024188759 -0.036539175 0.066752926
-0.008358201 0.033695348 -0.096299015 -0.08684988 -0.03862996 0.0958018 -0.14896783 -0.060055114
0.0849203 -0.0021796885 -0.02420286 -0.053774633 -0.10068598 0.056973748 -0.03768582 -0.081114165
-0.12129 -0.07909304 0.027069677 0.035662737 -0.14366129 -0.050702255 -0.023259511 -0.1073766

bias_hh_l0 f4 [405]
00000000: f3b1 b1bc fd2b b73d 6db9 9abd 4142 dc3c
00000010: 1930 62bd 3f68 e83b 49fb aebd ad12 5dbc
00000020: 62a4 833d 839b b23d 2fd5 c6bd 0ac1 a73c
00000030: e8d1 073d 8d83 dc3c 7b05 2abe c877 e6bc
00000040: 96e2 4c3c 8c32 c3bd a514 3cbd 33b6 11be
00000050: aee3 a6bc 3344 64bd e94b dd3c 314d c73d
00000060: 5b64 ba3d acfa 98bd 1523 a8bd 7d3d a3bd
00000070: 4346 65bd 2195 1dbd 88b9 e4bd be42 e23c
00000080: ccbc a9bd 82b7 12be 5402 bdba 9546 293b
00000090: 5d1f 2c3d 1b5b 8cbd 4bd1 fb3c ee86 c7bb
000000a0: 5ad2 f23d 5a24 99bd 01c8 bf3c a892 a63d
000000b0: 89a3 a33d 5374 653a 65ba abbd d697 5ebc
000000c0: 1bd4 253d c72f 133d e279 18bc 867d 403d
000000d0: a942 5a3d b10f fa3c 40d4 633d 7075 e23c
000000e0: 2ed3 8b3d b953 14be fe46 febd ae8d 213d
000000f0: d97f 5e3d 4228 edbc f66a 34bd f101 883d
00000100: 5fdc 103c f950 3dbd 6d04 a0bb 9ff8 ebba
00000110: 5aa8 bcbd e37b 6cbd aa1d 27bd 33ac e33c
00000120: 67c5 97bd ecf3 a73b 9f77 fd3c 3b35 f43c
00000130: 81b0 58bb f934 da3b 5799 083d 5262 5cbb
00000140: 00d7 8ebd 23fd 08bd 014b acbd 622c 84bc
00000150: 61ef c2bd 6029 e3bc 1e53 973d d0a0 dabb
00000160: ea76 8ebd bf2b 513d 9ce4 e13d 2c04 a1bd
00000170: c73d 463e e7c1 c73c 003a 8cbd 4e0a 8fbc
00000180: c727 993c 1794 2abd 1d23 203d d669 bdbc
00000190: a6b2 6b3d 97ee 9fbd cccd 6e3d 7749 59bd
000001a0: 02d2 c5bc 39a6 2cbd 02b8 503d d99d 6bbd
000001b0: 5ec9 993d 0a90 d5bd 6976 edbc 3f29 963c
000001c0: 471b 4cbc c254 643d da57 8a3d d116 823c
000001d0: dada 7dbd 9afd dc3d da56 acbd 7583 20bd
000001e0: e5cb afbc 8230 52bd d1dd d9bd f117 ee3c
000001f0: 5467 b93d 6266 9cbd 1933 67bd 3880 3a3e
00000200: eb36 97bd e08f a4bd ebda 883c f7c8 12bd
00000210: c3fe b6bd ac5a c63d 49ca b43d 2544 e13d
00000220: e374 2dbe 897b 86bd 5126 14bd 649a d9bd
00000230: 5414 dd3a 2a3c fd3c 419b 053e 68d1 dd3c
00000240: ca2d 9fbd b8eb b9bb 4098 4ebd d5ee cbbc
00000250: e6ed 48bd abc6 65bd 0943 e1bb 71c1 4c3d
00000260: e578 5abd 43fa a6bd 31c9 393d 321a eebd
00000270: 4552 b23c 2afa ddbd 5de0 87bd 0836 f3bd
00000280: ed8d 243d 80cf 2d3c 1c01 acbd b501 813d
00000290: 96cb f83b 438c 33bb 3c01 abbd c8b4 83bd
000002a0: 4f71 dbbc 9dec 34bd 53b3 61bd f7fc 323d
000002b0: 4fd6 b03d 9267 c73b a6bd 32be 4397 5abc
000002c0: 173f b23c be86 dabc 9ba2 093e 551e 66be
000002d0: 24f2 97bd d7ef 843d f023 f4bd ff14 8c3c
000002e0: 5a97 d6bd 25d6 70bd 5ad2 163d 0ceb 183c
000002f0: 8643 b2bd a6be 08bd f8d5 a4bd 062c a0bb
00000300: 388f cebd 35be 1ebd 366c 1a3d e80a a43d
00000310: d8b6 94bd ec45 60bb 668a 72bd 3716 3a3d
00000320: 9774 2b3d 045a 93bc ad1f cabd fa16 a43c
00000330: 08ad 16be 246a 49bd 5645 4cbc 068a a7bc
00000340: c228 02be e27c 98bd 9f05 8f3d 28eb 8c3d
00000350: eab5 31be b756 efbc a0d0 953d 4efd 8cbb
00000360: 454d b3bd 91cd af3a e2db adbd 4938 953d
00000370: 16bc e9bb 4701 273d 9030 62bd fce2 0cbd
00000380: 4deb 22bb 9492 fdbd 11cf 1abd 8394 16be
00000390: 4667 24bd f802 d53d 8439 a23d 61d7 373d
000003a0: d156 ec3b df9a c9bd 768f c5bd f141 943c
000003b0: e286 c6bc 6c70 c83d f48a 01bd e88b 95bd
000003c0: 4406 a33d c33c ec3d 1ddd 8ebc 4ddd 8fbd
000003d0: fdf2 87bd 4571 8dbd 6722 efbd d5bf f6bc
000003e0: b965 31be b47a 74bd 7b5b 623d e0fa 7cbd
000003f0: 1e6d 73bd c718 48b8 a5ea 26bd ba2c a73c
-0.021691298 0.08943937 -0.075548984 0.026887061 -0.05522165 0.007092505 -0.085440226 -0.013493222
0.06427838 0.08721068 -0.0970863 0.02047779 0.033159167 0.026918197 -0.16603653 -0.028133288
0.012505194 -0.095311254 -0.045918126 -0.1422966 -0.020372238 -0.055729102 0.027013736 0.0973152
0.091011725 -0.07469687 -0.08209816 -0.07970712 -0.05597521 -0.0384723 -0.111682 0.027619716
-0.08287963 -0.14327815 -0.001442025 0.0025829424 0.042022098 -0.068533145 0.030739447 -0.006089083
0.118565276 -0.07477637 0.023410799 0.08133441 0.07990176 0.00087529904 -0.08385161 -0.013586005
0.040485483 0.035934236 -0.009306403 0.04699471 0.05328623 0.03052506 0.05562234 0.02764389
0.06827389 -0.14485063 -0.124158844 0.039441757 0.054321144 -0.02894986 -0.04404732 0.06640995
0.008841603 -0.0462198 -0.00488334 -0.0018003172 -0.09211798 -0.057735335 -0.040799774 0.027792072
-0.074106984 0.0051255133 0.030940829 0.029810539 -0.003306419 0.006659147 0.03334936 -0.003362794
-0.06974602 -0.033444535 -0.08412743 -0.016134445 -0.09518314 -0.02772969 0.073889 -0.0066720024
-0.06956275 0.05106711 0.11029932 -0.07862124 0.19359504 0.024384452 -0.06847 -0.017460968
0.018695725 -0.041645136 0.039095987 -0.023121756 0.05754342 -0.07809179 0.058301732 -0.053048577
-0.024147991 -0.04215071 0.050956734 -0.057523582 0.07509111 -0.10427864 -0.028987126 0.018330215
-0.012457675 0.055744894 0.067550376 0.01588002 -0.06197629 0.10790558 -0.08415003 -0.039187867
-0.02145953 -0.051315792 -0.10638011 0.02906415 0.090529114 -0.076367155 -0.056445215 0.18212974
-0.07383522 -0.080352545 0.01670595 -0.035836186 -0.08935311 0.09685263 0.08827645 0.10999326
-0.1693912 -0.06566531 -0.036169354 -0.10625151 0.001686702 0.030912478 0.13047506 0.027077392
-0.077724054 -0.005673852 -0.050438166 -0.024894157 -0.049055003 -0.056097668 -0.0068744463 0.049989168
-0.05333795 -0.081532024 0.045357887 -0.1162609 0.021767745 -0.10838731 -0.06634591 -0.1187554
0.040174413 0.010608554 -0.08398649 0.06299154 0.0075926287 -0.0027396835 -0.08349845 -0.06430966
-0.026787428 -0.044170965 -0.055102658 0.043698277 0.08634626 0.0060853446 -0.17455158 -0.013341728
0.0217586 -0.026675578 0.13440935 -0.22472508 -0.074192315 0.06491058 -0.11920917 0.017099855
-0.10478087 -0.058797974 0.0368217 0.009333383 -0.08704285 -0.03338494 -0.08048624 -0.0048880605
-0.100859106 -0.038755614 0.037700854 0.08009893 -0.07261437 -0.0034221364 -0.05921402 0.045431342
0.041859236 -0.017987259 -0.09869323 0.020030487 -0.14714444 -0.04917349 -0.012467703 -0.020451557
-0.1271086 -0.074456945 0.06983494 0.0688079 -0.17354551 -0.029216154 0.07315183 -0.004302657
-0.08754972 0.0013412704 -0.08489205 0.07286126 -0.0071330173 0.040772703 -0.055222094 -0.034396157
-0.0024859488 -0.12381473 -0.03779513 -0.1470509 -0.04013755 0.10400957 0.079211265 0.044883136
0.0072124978 -0.098439924 -0.096465036 0.01809785 -0.024234239 0.09787068 -0.031626657 -0.073020756
0.079601794 0.11535027 -0.01743942 -0.07024632 -0.06638143 -0.0690637 -0.116764836 -0.03012077
-0.1732396 -0.05968733 0.055263024 -0.06176269 -0.059430234 -4.770679e-05 -0.04075112 0.02040707

weight f4 [1, 4, 1, 12, 12]
00000000: 73cb 25be 7744 a4bc 1a37 4c3d d1b7 9a3d
00000010: 69c6 0ebe e126 e03c a21b 033d 4012 393d
00000020: a448 2e3d d4ba 013d d25b 90bd d667 6abd
00000030: f612 b2bd d96a 143d 59ce 913c 358a b73d
00000040: f9c3 9d3c 92ff c1bc 4d06 cdbc 2b31 de3c
00000050: e3b3 f63c f930 a0bc ab24 343d 15de d8bc
00000060: 3585 08bd f0d8 2c3d 7402 4abc 5deb 7e3d
00000070: acfa 5cbd 19ef a63c 7acb 873d d44e 63bd
00000080: d548 093e a1b1 863d b716 60bd f7d3 f73d
00000090: 1726 51ba 6139 d3bb 9d93 eabd 3453 26be
000000a0: 07ad cfbc c633 a63c 0281 003c 38fa 21bd
000000b0: 2edf 6b3d 04e1 a73d d538 133c 472d 9abd
000000c0: 75b0 1cbb 65c4 46bc 4273 3a3e 7668 183e
000000d0: 05d3 14bd d506 ba3c 2988 663d ad46 9e3d
000000e0: 0e8e e4bc 6a4e f9bd d77c 893c 2d42 883d
000000f0: 7325 a7bd 1289 9cbd a522 0d3d 687f b43d
00000100: 867f 0abe 99f0 a7bc a229 503e a2d7 c53c
00000110: 2735 83bd 2ced ccbc d2bd 2dbb d668 12be
00000120: 53d8 813c 4604 8e3d e905 c73d b2da ac3d
00000130: 6249 c43d a369 903d 0981 f8bc ee79 2e3d
00000140: be94 18bd 6a0b b6bd c2fb dc3c 7c38 ccbc
00000150: f506 203d 2ab7 903d c6e6 d33d d3bd a03d
00000160: cdb0 163c 61f9 1fbe ee69 d6bc 9829 b53d
00000170: b64e d0bd 0ff3 69bc d606 8f3d ed99 cf3d
00000180: 89fa 42bc 139d a3bc 5d50 c73d 40ce 083e
00000190: 3b2b ebbc 4f07 8c3d 8e85 bf3c 0b4a 9e3d
000001a0: 3ba9 c43c b7a2 743d 5230 20bd 763b 6d3d
000001b0: c508 c33d 7677 0b3d 22ba c3bd 7f9c 09be
000001c0: 8cce d83d de84 a63d 3343 08be f41e 67bd
000001d0: 2c75 d63d c57b 6d3d fca0 603d 164b 84bc
000001e0: db7e 033c ae86 9e3d b02a cdbc e913 cdbc
000001f0: c3b6 873c 5351 023c 5dbe 9e3d aa64 34bd
00000200: 2361 893c bab4 613c a73c e2bc 74f0 023e
00000210: 3f0d 99bd c0bb 513c c59e d53b fb4c 883d
00000220: 2521 503d 7998 38bd f461 b73c 53f0 e5bc
00000230: 0789 7bbd 691b 9eba 9e1b 213d 8031 6abd
00000240: d7f9 633d 9297 143d 6c28 09be a308 c03b
00000250: 0cd6 d43d 45d6 b4bc 7b54 b4bd 3cdf 63bd
00000260: b883 733d 8d94 b2bc da2b 5fbd 12d5 5b3d
00000270: b011 e93d 61bc 1abc 55fb a5bc 649e 6e3d
00000280: 4220 91bc 2780 6dbc dc93 aa3d 9c9b 0abd
00000290: 35ac 2a3d fc70 a43d 50b6 14bd 395b 0e3e
000002a0: 7ed2 a53d 0284 783d 9ebf 94bb 6a98 143c
000002b0: fccb 2c3d 692c 9cbd 7c90 823c 2c83 143c
000002c0: a37e 053d 333c 013e 1fd6 6e3d 32e7 683a
000002d0: 5aae 5b3d 3ffe 52be d83f cdbd 72ac 40bd
000002e0: 9add 9dbb 11d5 10bd 9571 6e3d e539 a8bd
000002f0: 4585 6ebd a39f 153d 97d3 80bd 78e7 79bc
00000300: ceae ef3d 78fe 01bd 2c7d 56be 2827 61be
00000310: 673f c13c bc17 4c3d facc d4bd 04b2 44be
00000320: 89ea 2a3e 050c 4d3e 9720 2abc 395d d63d
00000330: 4358 b5bd b58a 173c 0057 6a3b 00c4 293d
00000340: 07d6 b23a 94a1 453d b958 b0bd 5e14 76bd
00000350: 0fd2 ee3a 96d7 8b3d 87b4 9bbd 91c6 1f3c
00000360: 4ac8 ad3d 794a 72bd 578d c4bd a81c edbd
00000370: 9f90 8b3d aa75 3d3d 812e 8cbd 7e6e dc3c
00000380: d025 aa3c d903 943d d847 b73c 2bd4 a83c
00000390: d466 5cbd 78c0 c2bd 3431 06bd 25f8 763d
000003a0: 559d 2ebe 9e29 b23c f03d 8a3c b0e7 bcbc
000003b0: c29e a53d 50e3 3d3d 5f0d 9c3c e9a3 84bb
000003c0: 9833 b93d 4107 f03d 0b4b 3cbe cece 19be
000003d0: a062 0c3e 9215 6f3e 5824 68bd c161 5cbe
000003e0: be74 5c3c db2a a23d 005b 12bc 9e62 b63d
000003f0: 7505 50bd a7ba b8bc 8f2e a2bd 06e9 65bd
-0.16190891 -0.020052178 0.049857236 0.075545914 -0.13942875 0.027362289 0.032008775 0.04518342
0.042549744 0.031672314 -0.07048763 -0.057227932 -0.08695023 0.03623471 0.01779859 0.08961908
0.019258486 -0.023681436 -0.025027419 0.027123054 0.030115074 -0.019554602 0.04398028 -0.026473084
-0.03333016 0.042199075 -0.012329686 0.06223618 -0.053949997 0.020377683 0.06630607 -0.0554951
0.1340669 0.06576849 -0.054709163 0.12100976 -0.0007978393 -0.006446049 -0.11453936 -0.16242677
-0.02535106 0.02028836 0.007843258 -0.039545268 0.057585888 0.08197215 0.008985718 -0.07528167
-0.0023908888 -0.012131785 0.1820803 0.14883599 -0.036334056 0.022708336 0.056282196 0.07728324
-0.027899768 -0.121731594 0.016783161 0.06653247 -0.0816144 -0.076433316 0.034456868 0.08813363
-0.13525209 -0.020500468 0.20328382 0.024150673 -0.064066224 -0.025015436 -0.0026510847 -0.14297804
0.015850222 0.06934409 0.09717924 0.0844015 0.09584309 0.070513986 -0.030334966 0.04259675
-0.037251227 -0.08888896 0.026975516 -0.024929278 0.039069135 0.07066186 0.10346751 0.07848706
0.009197426 -0.15622474 -0.026173558 0.08845824 -0.10171263 -0.014279141 0.06983726 0.10136781
-0.011900553 -0.01997236 0.09732125 0.13359928 -0.028707137 0.068373315 0.023379114 0.07728966
0.024006477 0.05972549 -0.03910858 0.057918034 0.09523157 0.034049474 -0.095569864 -0.13438605
0.10586271 0.08130811 -0.13306884 -0.056426004 0.104715675 0.057979364 0.054841027 -0.016149085
0.00802585 0.07740532 -0.025044769 -0.025033908 0.01656664 0.0079539595 0.07751153 -0.044041313
0.016769951 0.013775999 -0.027616812 0.12787038 -0.074732296 0.012801111 0.006519171 0.06655308
0.05081286 -0.045067284 0.022385575 -0.028068697 -0.061409976 -0.0012062612 0.03933298 -0.057176113
0.055658188 0.03627736 -0.13394326 0.0058604046 0.10392389 -0.022074828 -0.08805176 -0.055632815
0.05945179 -0.02179935 -0.05448518 0.053669997 0.11380327 -0.009444327 -0.020261446 0.05825652
-0.017715577 -0.014495886 0.08328983 -0.033839807 0.041668136 0.080293626 -0.03630668 0.13901986
0.08096789 0.060672767 -0.004539444 0.0090695415 0.042186722 -0.07625658 0.015938036 0.009064477
0.032591473 0.1262062 0.05830967 0.00088845484 0.05363307 -0.206048 -0.10021943 -0.047039457
-0.0048176767 -0.035359446 0.05821379 -0.082141675 -0.058232564 0.036529195 -0.062903576 -0.01525294
0.11703263 -0.03173682 -0.20946187 -0.21987593 0.023589803 0.049827322 -0.10390659 -0.19208533
0.1669103 0.20024116 -0.010383747 0.104669996 -0.08854725 0.009249379 0.0035757422 0.041446686
0.0013644107 0.048249796 -0.086106725 -0.060078017 0.0018220561 0.06828229 -0.07602792 0.009751932
0.08485468 -0.059153054 -0.09597271 -0.11577731 0.06814694 0.04625479 -0.068448074 0.026908156
0.020769984 0.072272964 0.022373125 0.020608982 -0.053809002 -0.09509367 -0.032761768 0.060295243
-0.17052205 0.02174836 0.016875237 -0.023059696 0.08086921 0.04635936 0.019049345 -0.00404786
0.09043044 0.117201336 -0.18388002 -0.15020296 0.13709497 0.23348072 -0.056675285 -0.21521665
0.013455568 0.0791833 -0.008932829 0.089055285 -0.050786454 -0.02254994 -0.079190366 -0.05613043

weight f4 [12, 12]
00000000: f0fc 923e ed3d 60be 7c44 02be 33ba b5bd
00000010: fc32 1f3e fb1b 043e ef57 0a3e e90d 87bd
00000020: 7854 44be 24e8 a03e 2524 ff3d 79e4 efbc
00000030: d124 193e 63df 34be 81eb 873e 7c47 88bc
00000040: fa53 0e3e 4fd3 6f3d 3237 653e fdb3 9f3d
00000050: f2d0 bfbe ed19 b73d 9a4b 753e 6b4c c3be
00000060: bb9a a4bc 5444 90bd 7990 813e ff9b 953e
00000070: 16a1 223e 76fe 523e 1ad5 f1bd 835a 67be
00000080: 84e0 babe d42a 55be 82e5 373e fe95 82be
00000090: 3f2d 4d3c 73ae 17be c24a 1fbe 06a3 aebd
000000a0: 1435 8f3d 2fa3 523d e56f 8d3d 9284 09be
000000b0: 2738 d83d 296d 97bd 1c33 723e 6a04 a5bd
000000c0: 3a25 843e 8c53 5dbe 34a9 13be 1f74 82be
000000d0: 7a5f fabc 1f3d bb3d 3c69 7b3d 8635 0d3e
000000e0: 24ca 5c3d 31eb fe3d c2c4 56be 8428 2c3e
000000f0: 4e25 82bd e0a0 1a3e 052b fabd 6c09 813d
00000100: 5351 8e3e 1184 653d 30ed 73be 3142 1ebe
00000110: b0d5 4bbe 1963 5c3e 8952 4a3d 7253 c0bd
00000120: 2767 5a3c 9ed1 1abc 7fee 923c 4e8f 2abe
00000130: 6eb6 cbbd e45c ba3d 0b36 c33d 9bf0 38be
00000140: d166 fc3d 86aa 5a3e a4e1 5abe 33c0 793e
00000150: 6c3f b9bd 6019 21be 1ca8 333e b1c1 28be
00000160: 884c 793d 1c1b 31be fe3f 7f3e 3696 503e
00000170: 09b8 da3c 66e6 83bc 0e82 953d cdf9 97be
00000180: 665a 293e 2270 193b c0e1 ae3e e25b 9cbd
00000190: 77d3 e03d 9e41 87be 5962 60be 5edc 2dbe
000001a0: 9fee 6ebe ece8 75be 92e1 283e b260 29be
000001b0: 1600 883c 0441 98be b1e4 c2bc a45b 6a3e
000001c0: 7b7b 8e3e cc93 fcbb d034 3a3e 9f52 743e
000001d0: cb2b 65be a860 30be 9d04 38be 44ae e23c
000001e0: 5b89 13bd 128a 2a3e 6c42 de3d 46df 5ebe
000001f0: 2c02 993e 6e6a 81be d940 2abe ecf0 5cbe
00000200: f1dd cf3c 81ca 0c3e f416 32be d74d bcbd
00000210: 6389 94bd 921d e13d 5c87 c2bd 3b1b 09be
00000220: 24dd d8bd 27a2 103e a261 d6bb 6b32 ddbd
00000230: a214 593d f463 093e a873 e13d 5410 973e
0.287086 -0.21898623 -0.12721437 -0.08873405 0.15546793 0.12901299 0.13510107 -0.0659445
-0.19172847 0.3142711 0.12458066 -0.029283749 0.1495545 -0.1766334 0.26546863 -0.016635649
0.13899222 0.05855113 0.22384337 0.07798002 -0.374641 0.08940492 0.23954621 -0.3814424
-0.020093312 -0.070442826 0.25305536 0.29220578 0.15881762 0.20604882 -0.11808224 -0.22593121
-0.36499417 -0.20817119 0.17958644 -0.2550506 0.012522995 -0.14812641 -0.15555862 -0.08527188
0.06992546 0.051425155 0.06906108 -0.13429478 0.10557585 -0.073938675 0.23652309 -0.080574825
0.25809652 -0.21613902 -0.14420015 -0.25479218 -0.030563105 0.09142517 0.061379656 0.13789949
0.053903714 0.12447203 -0.20973495 0.1681233 -0.063547716 0.15100431 -0.122152366 0.06300625
0.2779642 0.05603415 -0.23820949 -0.15454938 -0.19905734 0.21522178 0.049395118 -0.09390916
0.0133302575 -0.009449391 0.01793599 -0.16656229 -0.09946905 0.09099749 0.09531792 -0.18060534
0.12324298 0.21354112 -0.21375138 0.24389724 -0.090453 -0.15732336 0.17544597 -0.16480137
0.060864 -0.17295498 0.24926755 0.20369801 0.026699083 -0.016101073 0.073001966 -0.2968277
0.1653839 0.0023412784 0.3415661 -0.07634713 0.10977834 -0.2641725 -0.21912517 -0.16978595
-0.23333214 -0.24014634 0.16492298 -0.16540793 0.016601603 -0.29737103 -0.02379069 0.2288652
0.27828583 -0.0077080484 0.18184209 0.23859642 -0.22379987 -0.17224371 -0.1797051 0.027670987
-0.036019664 0.16654232 0.10852513 -0.2176486 0.2988447 -0.25276512 -0.166263 -0.2157628
0.025374385 0.13749124 -0.17391568 -0.09194534 -0.07252767 0.10991968 -0.09498474 -0.13389294
-0.10589054 0.14124356 -0.0065424005 -0.10800632 0.052998193 0.13417035 0.11008388 0.29504645

bias f4 [12]
00000000: 062f 4d3e 4ae0 88bd 5282 983d 2ab2 863d
00000010: 8c27 45bd 518b 823e 8b28 1b3e 6690 833e
00000020: 5e5b 6abe 45b5 3f3d f52a 1c3e 1b96 3fbe
0.2003747 -0.06683405 0.074467316 0.06576951 -0.048133418 0.25496915 0.15152185 0.25696105
-0.22886416 0.04680373 0.15250762 -0.18709604

weight f4 [3, 12]
00000000: 0c10 fbbb e551 ecbd 45e9 a2bd 62e0 84be
00000010: 0b39 0bbe e605 d1be d0ad 73be 1419 783e
00000020: 36b2 9dbe 77a1 7e3d 225a 9cbe f5c3 15bd
00000030: 08ec dc3e aa9e a5be 9cc9 d3be 962e 293e
00000040: c473 c13e 2f1c bb3e 0dcc 1f3e b342 10be
00000050: 0b28 c5be b45f bbbe 96e1 9f3e 6d4f db3e
00000060: 2c1f b3be 78b0 7d3e b6a6 053e ec98 a5be
00000070: 3fd0 863c 3f59 90bc 7b7c 6c3c b2e2 8a3c
00000080: 3256 31bc 6dc9 993e 5b7c 26be ed88 dbbe
-0.007661825 -0.11539058 -0.07954649 -0.2595244 -0.13595979 -0.40824813 -0.23796773 0.24228317
-0.30800027 0.062165704 -0.30537516 -0.036563832 0.43148828 -0.32347614 -0.41364753 0.16521677
0.37783635 0.3654494 0.15605183 -0.14087944 -0.38507113 -0.36596453 0.31226796 0.42834035
-0.3498472 0.24774349 0.13051876 -0.32343233 0.016456721 -0.01762068 0.014433975 0.0169538
-0.010823773 0.30036488 -0.16258375 -0.42877904

bias f4 [3]
00000000: e636 8fbe d7c3 8a3d c6bc 4fbe
-0.27971572 0.06775635 -0.20286855

weight f4 [3, 12]
00000000: 3053 87be fc0e 44be 78d3 51be 3b22 63be
00000010: 27b3 4b3c a1d7 b3bd d66a 82bc 8315 08be
00000020: f252 863e 0eea 803e 4e6e 95be e85d 8dbe
00000030: 17d2 fbbd bc44 12be 188c b1bd ffac 073c
00000040: e9e5 0bbe eaa4 2dbe 6f27 cebd 7fcf e9bc
00000050: eeaa 3bbe 51b8 e0bc 0918 50be 944b 21be
00000060: 71f8 27be 2ef1 103e 42fc 103e 8e06 263c
00000070: 4d80 83be 80b1 febc b152 533e 6f24 013d
00000080: ae06 393e ad2d 833e 3e81 6abe 2a68 463e
-0.26430655 -0.19146341 -0.20490825 -0.22181027 0.01243285 -0.08781362 -0.015920084 -0.13289456
0.26235157 0.2517857 -0.29185718 -0.27610707 -0.12295931 -0.14284033 -0.08669299 0.008280992
-0.13661923 -0.16957441 -0.10066115 -0.028541325 -0.18326923 -0.027431639 -0.20321669 -0.15751487
-0.16403367 0.14154503 0.14158729 0.010133399 -0.25683823 -0.031090498 0.20637013 0.031528886
0.18068954 0.25620785 -0.22900864 0.19375673

bias f4 [3]
00000000: 6343 b0be 21c1 843e af54 953d
-0.34426412 0.25928596 0.07291543

weight f4 [3, 3]
00000000: 1d3c ccbe 9697 d73e 31ae da3e f72b b9be
00000010: 9bc8 543d aeb5 b13e b37d cbbd e0d4 c43e
00000020: 261a f43e
-0.39889613 0.42107838 0.42711022 -0.36166355 0.051949125 0.34708923 -0.099360846 0.3844366
0.476762

bias f4 [3]
00000000: 4174 e43e 2985 083f 0c54 08bf
0.44619945 0.53328186 -0.53253245

weight f4 [48, 12]
00000000: cf93 09be 950c 1f3d 047b 353d d97a 8cbe
00000010: 2174 d63e a4bb cb3e 43f3 32be 3be0 823d
00000020: dc7f 6cbe 954e 923e 34d4 ad3d ae3c 783e
00000030: 31cb e6bd 60db 4abe a42c 9f3d 20fc c23c
00000040: 0bba 76bc 7c1a 713d 566c f8bd 37dd 53be
00000050: 9491 35bd 5e51 b2ba 80f1 d2bd e1e2 8fbd
00000060: 11be 33be a066 e73d 0a0e 75be c56b 6b3e
00000070: 8b6c abbe 3688 7abe 8b22 943e d66b 1cbe
00000080: b5f7 a2be 15da fdbd 579b 043e 1fc9 153e
00000090: 9169 3e3e 67d8 83bd 8c01 10bd 1cd5 943e
000000a0: 5358 58bd 5ba0 8fbe b28d e73d 18fe c0be
000000b0: 8c4d a5bd 3d94 cdbb 9d7b 80bd dd9e 2e3e
000000c0: e9a9 083d 3c8a 03be 4f19 91bd 1433 b33e
000000d0: c4d5 96be 5a45 0fbf 537e 8c3e ae9b 9fbe
000000e0: 78e0 29bd a30c dd3c ad5b aabe 5ceb 1bbe
000000f0: 4f6d 333e 84c7 babd ed45 87be 326e 9cbe
00000100: c6a3 f43e 63bf e33e 8fdf f6bd 9434 723e
00000110: 1e1e 59bd cdd7 423d f496 debd be06 293d
00000120: 3eb8 67be b4ea f1bc 933b 08be 27c2 5cbc
00000130: 93ac ccbe c255 90be 0f34 583e 7275 63be
00000140: c62c 3fbe e3f1 213e 0758 abbd d937 97bd
00000150: b4fd c2bd 2b58 2c3d 2563 93be ded0 1dbd
00000160: e680 ff3d 437d 9c3e 7a69 9ebe 9940 15be
00000170: 3958 373d 0a12 22be e0ed 1f3e d4fa 3dbe
00000180: f908 d3ba 181b 90be d42e 083e 573f 8dbe
00000190: 4fcb fbbd f8d1 1abe 952d a23d 2fbd e1bd
000001a0: 45b9 2c3e 08c9 073e ed25 f1bc 8c78 49be
000001b0: f5f2 b33d e3b6 813e 861f 023e 0aef e53d
000001c0: 0d81 c63e 7406 153e a750 b33d 3176 223d
000001d0: b5db b63e 141f fbbd 927e 92bd 79e1 0d3e
000001e0: 0810 bebd 215f 703e 3a30 48be b761 d13d
000001f0: b5f1 f03d 5ac5 b03c 802e 1fbe 46ec 5b3e
00000200: c3bd 963e 3990 2b3e 326d 0bbe faef 0c3e
00000210: a5e9 c73d dc42 5c3e 8edc 623e 746e 20be
00000220: 667e ddbe 5858 a8be 0158 5c3e 927c 043e
00000230: e2ce 85be 7ed9 813d ff75 7d3c f608 173e
00000240: 1f68 953d 5238 bfbd 1fee 73be d7a7 373c
00000250: f387 063e 3c85 033e 2fc0 5cbe 09f5 99be
00000260: 5cb7 3cbe 72ce c1bc b374 713c 27e2 a43d
00000270: 531b 57be be40 89bc 4262 01bd 3de7 4bbe
00000280: 3b67 323e 04ed de3c 4621 c9bc 780e 963e
00000290: f892 43be 83b0 00be a2b4 03be 4696 bcbd
000002a0: 2828 413e d362 bcbd 0d8f 82be 26e5 0e3e
000002b0: 65ae e23c 5856 d4bd 4524 803e e36e b3be
000002c0: a0a9 a1be ff7f ad3e 636d fb3d ac17 52be
000002d0: 2423 123d d3f0 fabd 0572 5cbe c2ea 513d
000002e0: 3e94 833e 3767 df3d d709 c5bb e425 95bd
000002f0: 79dd 863e 22b2 3bbe 528e 8a3e 5889 033d
00000300: d96a e73d 119f 453e de8a 47be ed34 a23d
00000310: e99f 2c3e e826 8cbd 1c37 a53b 03e1 0cbd
00000320: 0340 013e 63ed 953d a63f 86be e387 80be
00000330: b290 c8bc 4000 ad3d 12a0 91be 51b2 50be
00000340: 259e e13e 496d 403e 930f 68be 236d b3bd
00000350: 6c63 80bd ceeb 14bd 19d6 40be 330c 443e
00000360: a028 36be ccc3 cd3d 9edf 59be e570 c1be
00000370: 73e3 a33e bad6 113f bea2 9fbe 1838 eabd
00000380: 5027 12be ef4e 97bd 1d2d 9e3e 6357 583d
00000390: c5a6 8fbe 1927 49bd 3f6f 17be dd7d c4be
000003a0: 5767 4b3e 79a5 9b3d 6e24 92be e029 9b3e
000003b0: 42e8 39be 7dd7 86be 7724 48bd 5c84 ccbd
000003c0: 1fbc 41be 2348 903e 69fb 7cbe 44b4 ca3e
000003d0: 89c4 d8bd 6bf0 02bf 959f 763e af96 22be
000003e0: 88a5 52be 3d1d a5bd 1450 69be de07 543c
000003f0: a69b c9bc 30e3 fb3d ac78 863d a0d8 7a3e
-0.13435291 0.03883036 0.04430677 -0.27437475 0.41885474 0.39791596 -0.1747561 0.06390425
-0.2309565 0.28575578 0.0848774 0.24241897 -0.112692244 -0.19810247 0.077721864 0.023801863
-0.015059005 0.058863148 -0.121300384 -0.20689856 -0.044328287 -0.0013604572 -0.10299969 -0.070256956
-0.17552973 0.11298871 -0.23931137 0.2299033 -0.3348125 -0.24466023 0.28932604 -0.15275511
-0.3182961 -0.123951115 0.12949882 0.14627503 0.18594958 -0.0643776 -0.035157725 0.2906884
-0.052818608 -0.2805203 0.11306323 -0.37693858 -0.080714315 -0.006273775 -0.06273577 0.17052789
0.033365164 -0.12845701 -0.07084905 0.34999907 -0.29459965 -0.559652 0.27440128 -0.31173462
-0.041473836 0.026983565 -0.33273068 -0.15226501 0.17522167 -0.09120086 -0.26420537 -0.30552822
0.477812 0.44481954 -0.12054359 0.2365287 -0.053007238 0.047569085 -0.10868636 0.041266195
-0.22628877 -0.02953086 -0.13303976 -0.013474024 -0.39975414 -0.28190428 0.21113609 -0.2221277
-0.18669423 0.15814929 -0.08366399 -0.07383699 -0.09521046 0.04207627 -0.2878658 -0.03852927
0.12475757 0.30564317 -0.30939847 -0.14575423 0.04476187 -0.15827194 0.15618086 -0.18552715
-0.0016100697 -0.2814567 0.13299114 -0.27587387 -0.122946374 -0.15119159 0.0791885 -0.11022412
0.1686755 0.13260281 -0.02943703 -0.19674891 0.08786575 0.25334844 0.12707338 0.11227234
0.38770333 0.14553243 0.087556176 0.039663497 0.35714498 -0.12261787 -0.071530476 0.13855542
-0.092804015 0.23473789 -0.19549647 0.10223716 0.11764852 0.02157848 -0.15545082 0.2147685
0.29441652 0.16754235 -0.13615873 0.13763419 0.09761361 0.2150988 0.22154447 -0.15667135
-0.43260497 -0.328799 0.21517946 0.12938145 -0.26134402 0.063403115 0.015470027 0.14749512
0.0729525 -0.09336914 -0.23821305 0.01120945 0.13137798 0.12843794 -0.21557687 -0.3006976
-0.18429321 -0.023658011 0.014737296 0.08050948 -0.21006517 -0.016754504 -0.031587847 -0.19912429
0.17422192 0.027212627 -0.024551999 0.29307914 -0.19099033 -0.12567334 -0.12861875 -0.0920835
0.18862975 -0.09198537 -0.25499764 0.139546 0.027671048 -0.10368031 0.2502767 -0.35045537
-0.31574726 0.33886716 0.12276723 -0.20516843 0.035678044 -0.12252965 -0.2152787 0.051249273
0.25699037 0.109083585 -0.006013136 -0.07282618 0.26340845 -0.18329671 0.27061707 0.032113403
0.112996764 0.1929896 -0.19486567 0.07920251 0.16857876 -0.06843358 0.00504197 -0.034394275
0.12622075 0.073206685 -0.26220435 -0.25103673 -0.024483059 0.08447313 -0.28442436 -0.20380522
0.44065967 0.18791689 -0.22662191 -0.087610506 -0.06268963 -0.036357693 -0.18831672 0.19145279
-0.17788935 0.10047111 -0.2127671 -0.37781444 0.32009467 0.5696827 -0.3117885 -0.1143648
-0.14272809 -0.07388102 0.30893794 0.052817713 -0.28056923 -0.049109552 -0.14788531 -0.38377276
0.1986364 0.07599921 -0.2854342 0.30305386 -0.18155006 -0.2633628 -0.0488629 -0.09986183
-0.18919419 0.28180036 -0.2470528 0.39590657 -0.10584361 -0.511481 0.24084313 -0.15877794
-0.20570958 -0.080622174 -0.22784454 0.012941329 -0.024610352 0.12299192 0.06565985 0.24496698
