data/best/output/poster/train/6_stemgnn.pt (torch, 435920 bytes, 73 tensors)

weight_key f4 [135, 1]
-0.0038249865 0.15808228 -0.24555837 -0.21876468 -0.11369796 0.080245346 -0.005410341 0.23617424
-0.026124101 0.07792632 -0.08986665 -0.058678105 -0.28426054 -0.19653912 -0.12210754 0.011535902
0.11764867 0.17846876 -0.2010082 -0.12900926 0.107935555 0.24631657 -0.061792564 0.22175342
-0.04848399 0.03134769 0.26978403 -0.27464008 -0.18645956 -0.07452228 -0.114369 0.258029
-0.19139613 -0.13614362 -0.20675021 -0.27761617 -0.17327783 0.2554415 0.13269189 0.14489299
0.016065007 -0.15219615 0.05012683 -0.27788842 -0.21579714 -0.15463842 0.18707585 0.1738392
-0.13249296 -0.011111177 0.1894223 0.29550985 0.117480904 0.040372234 0.20007913 -0.17477146
0.05480494 -0.23155577 -0.20650758 -0.15362255 0.13374645 0.11847739 -0.17776687 0.08914601
0.1619396 -0.039264712 0.009910695 0.06795942 0.18363672 0.284011 -0.23016892 -0.11024298
0.115110844 0.24494499 0.25686118 0.26043957 0.058465816 -0.25841907 0.02733425 -0.18655068
-0.2784982 0.26363373 0.22552991 -0.29624802 0.05594441 -0.050471272 -0.05014642 -0.13655473
0.11289855 -0.17665334 0.10840836 0.14941117 0.21199065 0.109962866 -0.29531068 -0.19423385
0.14797226 0.062322535 -0.23146722 -0.1707954 0.27900332 0.19850327 -0.13083103 -0.07470819
-0.28185466 -0.004382945 -0.22261 -0.22793084 -0.015525169 0.04531053 -0.120880835 0.17717853
-0.18058982 0.2690677 0.20235051 -0.25210527 -0.0740723 0.012546102 0.041736428 0.0687581
0.114993334 0.016138287 -0.14626452 0.13985743 -0.28591633 -0.17686777 -0.0758585 -0.14604487
-0.10449873 -0.24324097 -0.062823944 0.064286225 -0.19292249 -0.015617764 0.21147974
00000000: a0ac 7abb 52e0 213e a773 7bbe d903 60be
00000010: 7ada e8bd ac57 a43d 3b49 b1bb a9d7 713e
00000020: 3602 d6bc d697 9f3d 020c b8bd 7458 70bd
00000030: 998a 91be 8d41 49be 8513 fabd 1401 3d3c
00000040: c9f1 f03d 84c0 363e 18d5 4dbe 011b 04be
00000050: 510d dd3d 693a 7c3e 331a 7dbd 5413 633e
00000060: 2697 46bd 6f66 003d 2221 8a3e a09d 8cbe
00000070: 41ef 3ebe 239f 98bd 4b3a eabd 611c 843e
00000080: 59fd 43be 3c69 0bbe 54b6 53be b523 8ebe
00000090: be6f 31be 3ac9 823e 62e0 073e d45e 143e
000000a0: c39a 833c 4fd9 1bbe ca51 4d3d 6447 8ebe
000000b0: edf9 5cbe 8959 1ebe d090 3f3e e702 323e
000000c0: 3cac 07be a70b 36bc ebf7 413e 114d 973e
000000d0: d499 f03d 5b5d 253d 8be1 4c3e 4af7 32be
000000e0: 257b 603d f51c 6dbe b976 53be 3b4f 1dbe
000000f0: d4f4 083e 46a4 f23d 8508 36be 2f92 b63d
00000100: 7fd3 253e 09d4 20bd 7860 223c 4f2e 8b3d
00000110: 440b 3c3e e469 913e 67b1 6bbe 12c7 e1bd
00000120: 3cbf eb3d dcd2 7a3e 4f83 833e 5658 853e
00000130: da79 6f3d 814f 84be 14ec df3c 2407 3fbe
00000140: 5197 8ebe 00fb 863e 50f1 663e d2ad 97be
00000150: f725 653d f7ba 4ebd 5566 4dbd 01d5 0bbe
00000160: 5b37 e73d 9de4 34be 3405 de3d 3eff 183e
00000170: 1414 593e 3634 e13d f632 97be 3de5 46be
00000180: 0a86 173e ea45 7f3d be05 6dbe fde4 2ebe
00000190: 86d9 8e3e 7144 4b3e 92f8 05be 9c00 99bd
000001a0: 414f 90be cf9e 8fbb e0f3 63be b466 69be
000001b0: 475d 7ebc 8997 393d 5f90 f7bd 4a6e 353e
000001c0: 8aec 38be 3ec3 893e f934 4f3e f113 81be
000001d0: 38b3 97bd 2a8e 4d3c d1f3 2a3d 0cd1 8c3d
000001e0: a081 eb3d 7134 843c 5ec6 15be c936 0f3e
000001f0: a063 92be d31c 35be b45b 9bbd c98c 15be
00000200: 6e03 d6bd 2914 79be d7a9 80bd 7fa8 833d
00000210: 798d 45be a6e1 7fbc 258e 583e

weight_query f4 [135, 1]
-0.07399291 0.009597396 0.0788359 0.18873656 0.32313913 0.41459036 0.31898093 0.41004717
0.104532234 -0.1423351 -0.017433524 0.32513085 0.12047032 -0.025572725 -0.10606014 -0.15677844
-0.12984632 0.060135964 0.28318736 0.2807655 -0.16591047 0.305907 -0.11113082 0.05852118
0.0011403767 0.06475853 0.06374775 -0.14459188 -0.1348583 0.07477907 0.12474027 -0.014102221
0.23243576 -0.14604977 0.10078796 0.38184997 -0.00028263964 0.38867533 0.22880003 -0.1463876
0.30991608 0.08753107 -0.010487995 0.3595058 -0.11781734 0.1540463 0.060089916 0.3345789
0.20504051 0.2649162 0.22739318 0.050947092 0.059870094 -0.12280417 0.28287926 0.3580219
0.3253975 -0.08734925 0.1353492 -0.087413296 -0.041726444 -0.051263597 0.22335877 -0.05522783
0.11555267 0.13461006 0.31345016 -0.102541916 -0.08147025 -0.05012437 0.33009407 0.01577598
0.37299275 0.23040853 0.1603354 0.1202208 0.06341824 0.1588499 0.05411764 0.11989073
0.15992135 -0.11035246 -0.03402077 0.36178163 -0.1186462 0.10058025 0.41552955 0.22941002
0.13055885 -0.13556042 0.26952556 -0.08876934 0.037881408 0.0224668 0.077997245 0.1254026
0.36665693 0.15857942 0.3877017 0.30320644 -0.06613197 0.25484052 -0.08845285 -0.0039957236
0.20953281 0.22059432 0.34469375 0.026071534 0.12252464 0.2749191 -0.16552132 0.3362311
-0.12390253 0.12599018 0.07133807 -0.034585964 0.16098276 0.3676778 0.035222985 -0.05441253
0.012222592 -0.17196666 0.25596592 -0.02029644 -0.0762108 -0.04952895 0.29248428 0.27881056
0.34938562 0.22949323 0.022665776 0.038925532 0.2099992 0.3692253 0.2064064
00000000: 9889 97bd 653e 1d3c b774 a13d 2844 413e
00000010: 7e72 a53e 3045 d43e 7851 a33e b4f1 d13e
00000020: ff14 d63d 4bc0 11be c0d0 8ebc 8d77 a63e
00000030: 25b9 f63d e47d d1bc 0f36 d9bd 878a 20be
00000040: 6ff6 04be 2151 763d effd 903e 7fc0 8f3e
00000050: 6fe4 29be d89f 9c3e 8e98 e3bd e8b3 6f3d
00000060: b178 953a 1fa0 843d 2e8e 823d e50f 14be
00000070: 4b18 0abe c525 993d d477 ff3d 000d 67bc
00000080: a403 6e3e 128e 15be eb69 ce3d d781 c33e
00000090: 402f 94b9 7400 c73e 8e4a 6a3e a2e6 15be
000000a0: 52ad 9e3e 7d43 b33d d7d5 2bbc 2511 b83e
000000b0: 384a f1bd 50be 1d3e d820 763d ed4d ab3e
000000c0: 24f6 513e 19a3 873e c2d9 683e e6ad 503d
000000d0: 583a 753d c180 fbbd 8dd5 903e a54e b73e
000000e0: 809a a63e 2ae4 b2bd fb98 0a3e be05 b3bd
000000f0: 59e9 2abd c7f9 51bd 29b8 643e 9436 62bd
00000100: e1a6 ec3d 38d7 093e 8a7c a03e 7f01 d2bd
00000110: e0d9 a6bd 364f 4dbd 1702 a93e a13c 813c
00000120: e8f8 be3e 37f0 6b3e f72e 243e 5336 f63d
00000130: 6ce1 813d 8ca9 223e 75aa 5d3d 4589 f53d
00000140: 6cc2 233e 7800 e2bd 5d59 0bbd 713b b93e
00000150: c7fc f2bd 05fd cd3d 4ac0 d43e 76ea 6a3e
00000160: 38b1 053e 5ad0 0abe 41ff 893e b3cc b5bd
00000170: 8929 1b3d 4b0c b83c 05bd 9f3d 8a69 003e
00000180: 75ba bb3e a562 223e d680 c63e e03d 9b3e
00000190: 3370 87bd 757a 823e c526 b5bd 8fee 82bb
000001a0: c58f 563e 7ae3 613e b37b b03e f893 d53c
000001b0: 33ee fa3d 32c2 8c3e 6c7e 29be 7c26 ac3e
000001c0: 9cc0 fdbd 9203 013e b219 923d 03aa 0dbd
000001d0: aad8 243e 4440 bc3e fa45 103d acdf 5ebd
000001e0: 4441 483c 0718 30be f70d 833e b844 a6bc
000001f0: 6814 9cbd dede 4abd 80c0 953e 42c0 8e3e
00000200: ace2 b23e 4600 6b3e 94ad b93c 6170 1f3d
00000210: 080a 573e 190b bd3e 335c 533e

weight_ih_l0 f4 [405, 3]
-0.06351186 -0.06337601 -0.10441363 0.061475135 -0.005211437 -0.033545565 0.077517405 -0.052971017
-0.006068015 0.014817509 -0.0070766 -0.06769075 0.0006714753 0.13906309 0.084707424 0.12495895
0.024416938 0.079930015 -0.028497599 -0.012638436 -0.06137873 0.02645432 0.025149683 -0.0039028823
-0.04368672 -0.07730042 0.035371214 -0.043235354 0.054979168 -0.010003801 -0.03578038 0.02135804
-0.038905926 0.1136881 0.11121685 0.030675845 0.031181289 0.05391939 0.051569555 -0.04169344
-0.10167809 -0.04461615 0.09967963 0.038286205 0.10232626 0.0639514 -0.03781726 0.008245801
-0.07203452 -0.101269625 -0.101071596 0.09439894 0.01610237 0.09055041 0.093894064 0.11295379
0.08707838 0.102376774 0.13119763 0.049225956 0.02731562 0.025516547 0.18598172 0.05076909
-0.06317968 0.029888306 0.08470917 0.10603935 0.09542145 0.044827852 -0.04149967 -0.05185998
0.112436146 0.09021569 -0.009790719 0.07733237 0.041745577 0.04689577 -0.074041225 0.0041889534
-0.051119603 0.07460916 -0.007833838 0.04134325 0.0016405844 0.023029901 -0.042768467 -0.039496414
-0.14117226 -0.06167779 -0.12492097 -0.1516317 -0.1359912 0.14828785 0.12703405 0.16141696
0.14122382 -0.004332631 0.013877133 0.005000765 -0.037174504 0.078250855 -0.04610416 -0.023492126
-0.06467943 -0.029598879 0.09014264 0.08988806 -0.008356158 -0.003329038 0.0068279007 -0.110145435
-0.05047748 -0.011668143 0.0001386058 0.0578071 0.016615635 0.0939592 0.01124764 0.08280839
0.024975123 -0.0053954986 -0.03349381 -0.10591917 -0.12415368 -0.00070301216 0.052404273 -0.018843774
-0.059214808 0.054673206 0.042591296 -0.0066474937 -0.03228059 0.08749904 0.043697283 0.019321186
0.16708973 0.15026921 -0.0076893996 0.0719428 -0.02542327 0.009891262 0.096239224 0.026513975
-0.0035094593 0.031206816 0.03659916 0.012164981 0.036143415 0.10753594 0.010163617 -0.047626927
0.009876965 0.044667732 0.04621034 -0.07507859 -0.0025023636 -0.050958242 -0.02370288 0.03646653
-0.05655486 0.036581814 0.09959958 0.032152914 -0.03097071 -0.054932255 -0.0052714916 -0.089647524
0.01774045 -0.10315554 -0.10781696 -0.08118896 -0.014981853 0.060159016 -0.043436456 0.109342076
0.0032311736 -0.054430455 -0.074749514 -0.15526025 0.08272782 0.05832286 0.09741794 0.021055378
-0.07911562 0.04958222 -0.051448207 -0.01533381 -0.12515187 -0.009438644 -0.069118574 -0.018169697
0.0017025397 -0.08375765 0.011308997 0.13571163 0.102630325 0.03339717 0.017783955 0.058256682
0.122632004 0.106486864 0.070945114 0.01152001 0.010674872 -0.103934474 -0.09313698 0.05985838
-0.028944308 0.061251193 -0.066183805 -0.047807597 -0.07572418 0.12855807 0.07518487 0.15032509
0.10329198 0.097838245 0.05298535 -0.043868937 -0.03611908 -0.0062847272 0.017152004 -0.08561828
0.046942737 -0.022976896 -0.08572749 -0.06033461 0.07405277 0.07633407 -0.08227543 0.09867866
0.08127762 0.08924104 0.112120256 -0.0059748967 0.069437705 0.020567812 -0.039700955 0.01476046
0.007592007 0.08558864 0.00815042 -0.0131342085 0.04088064 0.049998466 -0.018285828 0.031336293
0.07358118 -0.027159838 0.007689488 -0.039340142 0.012653556 -0.07971688 -0.06820019 -0.027256958
00000000: 8212 82bd 48cb 81bd d0d6 d5bd 5acd 7b3d
00000010: b4c4 aabb 1367 09bd 72c1 9e3d 23f8 58bd
00000020: 33d6 c6bb 23c5 723c d3e2 e7bb 73a1 8abd
00000030: f205 303a 8e66 0e3e 167b ad3d 7aea ff3d
00000040: 0806 c83c 59b2 a33d cc73 e9bc 7111 4fbc
00000050: 4368 7bbd bbb6 d83c b506 ce3c 80c7 7fbb
00000060: d9f0 32bd af4f 9ebd 68e1 103d 8e17 31bd
00000070: d631 613d fce6 23bc 738e 12bd 0ef7 ae3c
00000080: d25b 1fbd 4ed5 e83d a9c5 e33d e94b fb3c
00000090: e76f ff3c 94da 5c3d 993a 533d bec6 2abd
000000a0: 9a3c d0bd 6dbf 36bd d524 cc3d ffd1 1c3d
000000b0: 6e90 d13d f4f8 823d 45e6 1abd 6519 073c
000000c0: d686 93bd 7366 cfbd a0fe cebd 3b54 c13d
000000d0: 1ee9 833c 7e72 b93d 884b c03d 5154 e73d
000000e0: 2656 b23d eaaa d13d ac58 063e 28a1 493d
000000f0: 02c5 df3c 1408 d13c fe71 3e3e 40f3 4f3d
00000100: 5964 81bd 52d8 f43c 007c ad3d 292b d93d
00000110: 526c c33d 699d 373d 8ffb 29bd 216b 54bd
00000120: ec44 e63d 01c3 b83d 4069 20bc 6f60 9e3d
00000130: 69fd 2a3d c715 403d eda2 97bd 7d43 893b
00000140: ca62 51bd b0cc 983d 8059 00bc 8a57 293d
00000150: e108 d73a 34a9 bc3c fd2d 2fbd fec6 21bd
00000160: 768f 10be daa1 7cbd 91d6 ffbd 5745 1bbe
00000170: 4741 0bbe c5d8 173e 3715 023e 7d4a 253e
00000180: fa9c 103e bef8 8dbb ea5c 633c 75dd a33b
00000190: 4b44 18bd fc41 a03d b7d7 3cbd 8f72 c0bc
000001a0: a676 84bd 5979 f2bc b49c b83d 3b17 b83d
000001b0: 44e8 08bc fd2b 5abb 95bc df3b ee93 e1bd
000001c0: 79c1 4ebd bd2b 3fbc b656 1139 23c7 6c3d
000001d0: 831d 883c ae6d c03d 0548 383c 7297 a93d
000001e0: a198 cc3c b9cc b0bb ce30 09bd 26ec d8bd
000001f0: 4944 febd 594a 38ba dda5 563d 425e 9abc
00000200: 3a8b 72bd 03f1 5f3d 3674 2e3d 38d3 d9bb
00000210: a738 04bd b232 b33d ecfb 323d 7747 9e3c
00000220: 9219 2b3e 2ce0 193e 5cf7 fbbb bf56 933d
00000230: 7644 d0bc f60e 223c 1219 c53d d633 d93c
00000240: f5fe 65bb 70a5 ff3c 00e9 153d a14f 473c
00000250: 1e0b 143d ce3b dc3d 4d85 263c 7414 43bd
00000260: fed2 213c 83f5 363d 0e47 3d3d cec2 99bd
00000270: b2fe 23bb 97b9 50bd 8b2c c2bc ee5d 153d
00000280: 12a6 67bd d0d6 153d ddfa cb3d c6b2 033d
00000290: 49b6 fdbc a500 61bd 7abc acbb 1f99 b7bd
000002a0: 6c54 913c 3643 d3bd 23cf dcbd 6646 a6bd
000002b0: 7276 75bc 4d69 763d 6dea 31bd bdee df3d
000002c0: 19c2 533b 78f2 5ebd 4616 99bd 8bfc 1ebe
000002d0: 346d a93d f4e3 6e3d 0f83 c73d 547c ac3c
000002e0: 5f07 a2bd ba16 4b3d 5bbb 52bd a93a 7bbc
000002f0: d027 00be 8ba4 1abc 0a8e 8dbd 9ed8 94bc
00000300: c127 df3a 2189 abbd 5f49 393c fdf7 0a3e
00000310: d92f d23d 79cb 083d a8af 913c 8f9e 6e3d
00000320: 7d26 fb3d c915 da3d ac4b 913d 6dbe 3c3c
00000330: a9e5 2e3c 99db d4bd 9abe bebd 102e 753d
00000340: 9d1c edbc 88e2 7a3d 608b 87bd e6d1 43bd
00000350: 4715 9bbd baa4 033e 86fa 993d d2ee 193e
00000360: bf8a d33d 6b5f c83d 2b07 593d eaaf 33bd
00000370: 9af1 13bd 1df0 cdbb 5c82 8c3c a358 afbd
00000380: 0747 403d 0b3a bcbc e591 afbd 6d21 77bd
00000390: fba8 973d 0955 9c3d 0580 a8bd 0a18 ca3d
000003a0: e174 a63d 02c4 b63d 4e9f e53d 11c9 c3bb
000003b0: 5b35 8e3d d47d a83c 789d 22bd dbd5 713c
000003c0: 5fc6 f83b 1949 af3d 5789 053c dd30 57bc
000003d0: 7572 273d 31cb 4c3d 29cc 95bc 7c5a 003d
000003e0: bbb1 963d 4f7e debc 1af8 fb3b 2123 21bd
000003f0: dc50 4f3c 9b42 a3bd 8bac 8bbd fc49 dfbc

weight_hh_l0 f4 [405, 135]
0.062700704 0.0789316 -0.06201062 0.12664747 -0.005199412 0.02094502 0.036728527 -0.056186292
-0.05024256 0.027734444 0.0717336 -0.039039776 -0.10060212 0.031985424 0.018819807 0.10818376
-0.107423574 -0.0065290737 -0.055315457 -0.08575896 -0.015528646 -0.067230836 0.070137374 -0.07590551
0.08243432 -0.029251857 0.034627263 -0.13842463 -0.067022935 -0.017529756 -0.17441364 0.022298433
0.010939377 0.0016960797 -0.11017168 0.09930611 0.05081053 -0.021037089 -0.03211004 0.06024057
0.1656048 -0.08882369 -0.029129537 0.011684303 -0.09008268 0.11874122 -0.02153227 0.08375113
-0.029801082 -0.035720192 -0.052315976 -0.049348414 0.06818457 0.08220008 -0.051268104 0.10635247
0.023785476 0.054537788 0.091871046 0.059091665 0.056796875 -0.027873887 -0.06052728 0.047975913
0.017993346 -0.025733395 0.019584963 0.044992056 -0.01226959 -0.091497466 -0.022070024 -0.05060938
-0.103446625 0.0023066816 0.016860468 0.019530425 0.061576802 -0.063032866 -0.0724699 0.10865425
0.0065810434 -0.038435258 -0.0574848 -0.09316987 0.012012706 -0.099299274 0.019872412 0.083789736
-0.006066396 -0.07907896 0.05801727 0.08643488 -0.12925519 0.05240133 0.009640745 0.021093238
-0.010157269 -0.07403078 0.02527504 0.04448714 -0.046740495 -0.070899226 0.04309033 0.070066534
0.059641976 0.0024600292 0.04608852 -0.00012622726 0.016942704 0.06828357 -0.022116626 -0.034498904
-0.026281185 -0.049371105 0.016686847 -0.060068514 0.07666331 -0.014187369 0.047817297 0.08636642
0.009265693 -0.010150636 0.00036458162 -0.065351866 0.06665605 -0.006223395 -0.033894684 -0.09335101
0.05844278 -0.09726827 0.011787077 0.022283584 -0.08494026 -0.110642515 -0.06304175 0.055247962
-0.1369641 -0.13801745 0.02125476 -0.013689951 0.08998744 0.029148838 -0.019181725 0.0026362953
-0.023006693 -0.094123565 -0.055751424 0.07060304 -0.05069017 -0.11887237 -0.16285649 0.053555552
0.049286686 0.14677858 -0.021464828 -0.023818992 -0.13398238 -0.103843644 0.01821251 -0.018569663
-0.04634812 -0.08029228 0.085721284 -0.036095846 -0.1297034 -0.0140798595 -0.07261447 -0.14945142
-0.12879425 0.1354377 -0.017051402 0.07998841 -0.0023075873 -0.024483964 0.120419644 -0.10225246
-0.12495797 0.017998211 0.02577732 0.052677352 -0.0018440133 -0.1434932 0.007088597 0.064141944
0.043072764 0.09495763 0.11458147 -0.13260244 -0.028684601 0.09736553 -0.10882128 0.010522887
-0.12265357 -0.01961302 -0.06458409 -0.112070955 0.015396565 0.019175004 -0.14841177 -0.08303521
-0.14434566 -0.12906332 0.0043152 -0.03525115 -0.0017907263 0.11975082 0.029978266 -0.049450044
-0.1316235 -0.008422066 0.072707355 0.03535952 0.12140523 -0.17032354 -0.00080141635 -0.021207571
-0.0012695353 0.049962457 -0.009560807 -0.010419731 -0.14837134 0.02200321 -0.16565767 -0.050227378
0.07309138 0.029530086 0.059001796 0.06491294 -0.090233445 0.043370683 0.008705309 0.023002634
0.08715779 0.12626688 -0.14779986 0.009848055 0.02119694 -0.00889077 -0.0784189 0.009267358
-0.008277411 0.10652479 -0.18008722 -0.057322342 -0.029763106 0.067936905 0.02815199 0.11599372
0.05493745 -0.025388207 -0.04602926 -0.017227022 0.017218197 0.007481506 0.021652464 -0.0008659598
00000000: 3a69 803d e4a6 a13d d9fe 7dbd e0af 013e
00000010: d45f aabb e494 ab3c a770 163d 9923 66bd
00000020: 25cb 4dbd 5833 e33c 11e9 923d 2ce8 1fbd
00000030: 7c08 cebd 2603 033d ff2b 9a3c 728f dd3d
00000040: e400 dcbd d7f1 d5bb 7692 62bd 65a2 afbd
00000050: dd6b 7ebc 52b0 89bd 2fa4 8f3d 5974 9bbd
00000060: 53d3 a83d 97a1 efbc 51d5 0d3d 30bf 0dbe
00000070: 5243 89bd 909a 8fbc 7d99 32be 34ab b63c
00000080: 133b 333c fe4e de3a b1a1 e1bd 0061 cb3d
00000090: b41e 503d f955 acbc d185 03bd d1be 763d
000000a0: 4e94 293e 32e9 b5bd 11a1 eebc 856f 3f3c
000000b0: 457d b8bd 992e f33d 7164 b0bc b685 ab3d
000000c0: 6621 f4bc 564f 12bd 4749 56bd 9021 4abd
000000d0: 5aa4 8b3d 8458 a83d 81fe 51bd 53cf d93d
000000e0: c2d9 c23c 0463 5f3d e326 bc3d 1a0a 723d
000000f0: d7a3 683d c757 e4bc 74eb 77bd 6482 443d
00000100: c866 933c d7ce d2bc a570 a03c 9749 383d
00000110: 6406 49bc 0663 bbbd 32cc b4bc c84b 4fbd
00000120: d3db d3bd b22b 173b f71e 8a3c 45fe 9f3c
00000130: f537 7c3d 6017 81bd 196b 94bd 1f86 de3d
00000140: cba5 d73b 4a6e 1dbd 2f75 6bbd d8cf bebd
00000150: f1d0 443c 6b5d cbbd 78cb a23c f499 ab3d
00000160: 9ec8 c6bb 26f4 a1bd 84a3 6d3d c504 b13d
00000170: 795b 04be c7a2 563d 37f4 1d3c bacb ac3c
00000180: ad6a 26bc 739d 97bd 9a0d cf3c 2638 363d
00000190: f672 3fbd 9d33 91bd 7c7f 303d 0b7f 8f3d
000001a0: 254b 743d 7138 213b 51c7 3c3d df5b 04b9
000001b0: 6dcb 8a3c 42d8 8b3d ed2d b5bc b94e 0dbd
000001c0: a44b d7bc 5b39 4abd dbb2 883c 670a 76bd
000001d0: a701 9d3d 2372 68bc 12dc 433d e1e0 b03d
000001e0: 22cf 173c da4e 26bc 5125 bf39 33d7 85bd
000001f0: f882 883d 9fed cbbb 27d5 0abd d02e bfbd
00000200: b261 6f3d 9634 c7bd 961e 413c 108c b63c
00000210: 29f5 adbd 8b98 e2bd 081c 81bd b04b 623d
00000220: 5140 0cbe 7254 0dbe 761e ae3c d14b 60bc
00000230: 564b b83d 8bc9 ee3c fe22 9dbc b2c5 2c3b
00000240: 8878 bcbc dbc3 c0bd 9b5b 64bd 5498 903d
00000250: 7fa0 4fbd 5b73 f3bd dac3 26be 115d 5b3d
00000260: d6e0 493d 204d 163e 02d7 afbc 0c20 c3bc
00000270: ad32 09be faab d4bd 6732 953c 681f 98bc
00000280: 87d7 3dbd 4770 a4bd a48e af3d 3dd9 13bd
00000290: f8d0 04be 36af 66bc e5b6 94bd cb09 19be
000002a0: a4e2 03be 2eb0 0a3e 62af 8bbc f7d0 a33d
000002b0: e43a 17bb 9892 c8bc 939e f63d bd69 d1bd
000002c0: f7e9 ffbd fc70 933c f52a d33c 35c4 573d
000002d0: d2b2 f1ba e2ef 12be 7647 e83b da5c 833d
000002e0: 116d 303d 2579 c23d b1a9 ea3d efc8 07be
000002f0: f8fb eabc 9467 c73d b1dd debd 3068 2c3c
00000300: cb31 fbbd 7cab a0bc aa44 84bd 7585 e5bd
00000310: e041 7c3c e614 9d3c 41f9 17be 5d0e aabd
00000320: 59cf 13be 2d29 04be 8566 8d3b 8363 10bd
00000330: ceb6 eaba eb3f f53d fb94 f53c 218c 4abd
00000340: 50c8 06be b5fc 09bc 98e7 943d 25d5 103d
00000350: 4ea3 f83d 4b69 2ebe 2416 52ba 80bb adbc
00000360: 8966 a6ba 6fa5 4c3d eea4 1cbc 85b7 2abc
00000370: a8ee 17be 1340 b43c 2aa2 29be 39bb 4dbd
00000380: efb0 953d 14e9 f13c deab 713d 13f1 843d
00000390: 50cc b8bd 75a5 313d b6a0 0e3c 0570 bc3c
000003a0: c97f b23d 1b4c 013e d958 17be bd59 213c
000003b0: 35a5 ad3c 98aa 11bc 179a a0bd 1ed6 173c
000003c0: fa9d 07bc ab29 da3d c968 38be d5ca 6abd
000003d0: c2d1 f3bc 8122 8b3d 019f e63c 1e8e ed3d
000003e0: 1706 613d eefa cfbc 2d89 3cbd af1f 8dbc
000003f0: 2d0d 8d3c 6c27 f53b 8260 b13c 9401 63ba

bias_ih_l0 f4 [405]
-0.02148263 0.11187199 -0.010563479 0.0818576 -0.009788423 0.025651576 -0.03785941 -0.042486224
0.11672157 0.06402023 -0.025773948 0.038153004 0.038800832 -0.056800198 -0.15407227 0.026585385
-0.107612975 -0.036469318 -0.10564314 -0.090034716 -0.11224554 -0.01955645 0.008860007 0.117567085
0.031658314 -0.021907024 -0.1146589 -0.106812835 -0.079624 -0.15034384 0.009262435 0.010468355
0.056785654 -0.08961936 -0.0147646805 0.05051786 -0.04922259 -0.10094465 -0.05657097 0.06959876
0.069399625 0.040897433 -0.117218584 0.07141287 0.049259733 -0.0024617629 0.0042794845 -0.091603585
0.056105718 0.015723694 0.01898037 -0.040828243 0.07620446 0.013407644 0.08897841 -0.086055465
0.067611545 -0.07335353 -0.11884698 0.07354303 -0.024535848 -0.02996195 -0.09114421 0.104717076
0.0146949 -0.08127286 -0.09372438 -0.08133834 -0.064985484 -0.0018843934 -0.013747925 0.10511794
-0.072350174 -0.03326842 0.03695128 0.034143027 -0.15930678 0.022808848 0.0869151 -0.023813749
-0.0937813 0.016503243 -0.09485788 0.043268334 -0.08192102 -0.051001716 -0.085627496 -0.12982632
-0.016095828 0.01834913 0.060738664 0.032248326 0.08916409 0.040311143 0.011896975 0.019062337
0.01583077 -0.07148426 -0.009950418 0.022791736 0.010412104 0.018380405 0.071195416 -0.10832551
0.12904555 0.03900698 -0.087646954 0.044188205 0.034098092 -0.059502453 0.015225947 -0.051553685
0.021005558 0.11251802 0.10924468 0.029577045 -0.023162901 0.12432943 0.03362978 0.034595262
-0.14036858 -0.03320397 0.013750366 0.029099578 0.16347283 0.015794162 0.020413013 0.18075258
-0.077771656 0.031811245 0.04870877 -0.031937297 -0.03884739 0.13372184 0.06063784 0.14928511
-0.16754083 -0.07985865 0.06711366 -0.08249203 0.0879379 0.13403662 0.100367926 0.027056921
-0.07491261 -0.053277854 0.020309718 0.017341014 -0.018341355 0.000894119 -0.05125108 0.12543248
0.032730825 0.06013453 0.0011507267 -0.01587621 0.05214131 -0.0213396 -0.19291468 -0.10295166
0.057037175 -0.08307525 -0.014106739 0.10530255 -0.09231005 0.002287546 0.002451133 -0.004546831
-0.09362969 -0.022905037 -0.057795633 -0.041795023 0.10131278 0.027333286 -0.19571011 -0.06679853
-0.054772023 -0.079135194 0.11485411 -0.18072337 -0.027614564 0.056921117 -0.068603836 0.015610605
-0.05761831 -0.08012905 0.0631594 -0.131363 -0.0460671 -0.029488571 0.03445628 -0.10460192
-0.05022554 -0.020186251 0.06746167 -0.028161366 -0.04090578 0.0063527436 -0.1263618 -0.10712022
-0.06672325 -0.08626153 0.03943675 0.019886313 -0.22659881 0.03641938 0.0021650724 -0.064599305
-0.015946364 -0.013331104 0.03827534 -0.019806115 -0.14534853 -0.06705657 -0.06392982 0.07192279
-0.11193465 -0.07112549 -0.115109116 0.103933446 0.029060543 0.005683615 -0.098029256 0.034333568
0.039057046 0.033384085 -0.06635096 -0.02029617 -0.06770152 -0.02455182 -0.036470003 0.06716429
-0.008342955 0.033360504 -0.09965597 -0.08764828 -0.03881504 0.09585515 -0.1528235 -0.05848963
0.08496606 -0.0020636246 -0.029144125 -0.058421478 -0.102162644 0.056656066 -0.03714205 -0.08110102
-0.12704499 -0.0797938 0.026117524 0.034492113 -0.14211355 -0.053822935 -0.020346547 -0.10784401
00000000: 57fc afbc 241d e53d 7112 2dbc f5a4 a73d
00000010: 9f5f 20bc 4123 d23c 7812 1bbd 0906 2ebd
00000020: b80b ef3d 0a1d 833d e323 d3bc 5346 1c3d
00000030: 9fed 1e3d 53a7 68bd 1fc5 1dbe 98c9 d93c
00000040: 3164 dcbd da60 15bd 6e5b d8bd 1f64 b8bd
00000050: fde0 e5bd d934 a0bc 9029 113c 03c7 f03d
00000060: 26ac 013d 5c76 b3bc 49d2 eabd b0c0 dabd
00000070: e811 a3bd bcf3 19be 78c1 173c 7783 2b3c
00000080: 1398 683d 5b8a b7bd 8fe7 71bc d1eb 4e3d
00000090: a09d 49bd 12bc cebd f6b6 67bd cb89 8e3d
000000a0: 6421 8e3d 1184 273d 4c10 f0bd e940 923d
000000b0: 93c4 493d 8755 21bb eb3a 8c3b a99a bbbd
000000c0: 1ccf 653d face 803c b97c 9b3c 843b 27bd
000000d0: 1511 9c3d bcab 5b3c 503a b63d d93d b0bd
000000e0: ec77 8a3d 603a 96bd 0c66 f3bd ba9d 963d
000000f0: 67ff c8bc c372 f5bc d1a9 babd e875 d63d
00000100: e1c2 703c 6372 a6bd 91f2 bfbd b794 a6bd
00000110: 1c17 85bd c0fd f6ba fa3e 61bc 1348 d73d
00000120: 542c 94bd 7744 08bd 3a5a 173d 8fd9 0b3d
00000130: 5121 23be 9fd9 ba3c 8b00 b23d 0d15 c3bc
00000140: 6910 c0bd cf31 873c d944 c2bd 233a 313d
00000150: 35c6 a7bd 2de7 50bd 785d afbd 31f1 04be
00000160: 66db 83bc ea50 963c 1bc9 783d d216 043d
00000170: aa9b b63d 4c1d 253d 88eb 423c 9e28 9c3c
00000180: 88af 813c 5766 92bd 1407 23bc bcb5 ba3c
00000190: 8897 2a3c 8192 963c e7ce 913d c4d9 ddbd
000001a0: 8424 043e c8c5 1f3d 3f80 b3bd b1fe 343d
000001b0: 71aa 0b3d d8b8 73bd 4076 793c f529 53bd
000001c0: d913 ac3c d96f e63d adbb df3d 8f4b f23c
000001d0: 20c0 bdbc 6ea0 fe3d 61bf 093d c3b3 0d3d
000001e0: c8bc 0fbe e300 08bd 3749 613c 3d62 ee3c
000001f0: 6c65 273e c262 813c 3139 a73c 3417 393e
00000200: bf46 9fbd 824c 023d d982 473d afd0 02bd
00000210: 711e 1fbd 61ee 083e 625f 783d 32de 183e
00000220: d38f 2bbe ef8c a3bd e372 893d 95f1 a8bd
00000230: c918 b43d e540 093e b38d cd3d 7aa6 dd3c
00000240: c86b 99bd e139 5abd 9160 a63c be0e 8e3c
00000250: 9c40 96bc 4f63 6a3a a7ec 51bd 5f71 003e
00000260: c210 063d a04f 763d fbd3 963a d30e 82bc
00000270: 2092 553d 63d0 aebc 6d8b 45be 52d8 d2bd
00000280: d09f 693d 5b23 aabd f41f 67bc dda8 d73d
00000290: 0d0d bdbd a7ea 153b 30a3 203b 95fd 94bb
000002a0: ecc0 bfbd 58a3 bbbc 1dbb 6cbd 4231 2bbd
000002b0: 137d cf3d 0eea df3c 3b68 48be abcd 88bd
000002c0: a158 60bd a211 a2bd a238 eb3d 8c0f 39be
000002d0: f037 e2bc 1e26 693d 2b80 8cbd 9fc3 7f3c
000002e0: 2d01 6cbd b31a a4bd b759 813d 0684 06be
000002f0: dbb0 3cbd 0492 f1bc 0722 0d3d 8839 d6bd
00000300: 4cb9 4dbd a35d a5bc 5829 8a3d aab2 e6bc
00000310: d28c 27bd ad2a d03b fd64 01be d961 dbbd
00000320: 33a6 88bd e3a9 b0bd 6e88 213d 9fe8 a23c
00000330: 8509 68be 7d2c 153d e3e3 0d3b a44c 84bd
00000340: f3a1 82bc b46a 5abc 9ac6 1c3d 6f40 a2bc
00000350: 3fd6 14be f454 89bd a3ed 82bd 414c 933d
00000360: fe3d e5bd 3eaa 91bd 54be ebbd 0fdb d43d
00000370: 6010 ee3c 9e3d ba3b 90c3 c8bd 5ba1 0c3d
00000380: 48fa 1f3d c0bd 083d 03e3 87bd 2744 a6bc
00000390: 18a7 8abd e620 c9bc 9261 15bd 6e8d 893d
000003a0: e4b0 08bc 06a5 083d 6e18 ccbd f180 b3bd
000003b0: 85fc 1ebd b44f c43d c37d 1cbe d392 6fbd
000003c0: b002 ae3d e03d 07bb a9bf eebc 5c4b 6fbd
000003d0: a63a d1bd 3110 683d 4322 18bd 4b18 a6bd
000003e0: 1518 02be ef6a a3bd 6bf4 d53c 9a47 0d3d
000003f0: 3786 11be 7075 5cbd cdad a6bc 52dd dcbd

bias_hh_l0 f4 [405]
-0.022106001 0.089632384 -0.07484267 0.027444603 -0.0540209 0.008524527 -0.08614293 -0.01420366
0.066411585 0.08589889 -0.09649468 0.021381 0.03331652 0.024763504 -0.1641839 -0.025307544
0.0116742635 -0.094988614 -0.0456603 -0.14168943 -0.0178285 -0.056103136 0.027105924 0.09691522
0.0918738 -0.07440895 -0.08101762 -0.078951746 -0.05605174 -0.039211873 -0.11164718 0.030440664
-0.08152743 -0.14141302 -0.0034337905 0.0051755616 0.042416528 -0.06921415 0.03028147 -0.0069576
0.11738864 -0.07556801 0.022824807 0.08152654 0.079624884 0.0029801996 -0.08072912 -0.011251572
0.04047942 0.036648534 -0.009193132 0.047482472 0.053777296 0.029096141 0.0559424 0.03022107
0.066821 -0.14415379 -0.12377039 0.038324613 0.053722635 -0.028233372 -0.044622615 0.06662536
0.00932932 -0.044167165 -0.0036575359 -0.0018692318 -0.09178888 -0.057523943 -0.040826015 0.027847648
-0.07389058 0.005351299 0.030155893 0.029823793 -0.0031094872 0.008683178 0.033095326 -0.0034891958
-0.070364125 -0.03539832 -0.084356725 -0.013664024 -0.09532469 -0.02743552 0.07214646 -0.0038543572
-0.06702234 0.050112143 0.11117993 -0.07963184 0.19310156 0.025851691 -0.068541855 -0.017863898
0.018455679 -0.04192616 0.03859035 -0.020248085 0.05686259 -0.07909201 0.058067102 -0.049863968
-0.024882738 -0.041756425 0.050967906 -0.053673513 0.07868288 -0.10539625 -0.029096207 0.018804714
-0.012499558 0.057892565 0.067888886 0.016222404 -0.062133376 0.10733875 -0.08277364 -0.041082893
-0.020295283 -0.05010587 -0.10659702 0.027736628 0.0913162 -0.07519322 -0.05576658 0.18236428
-0.07287877 -0.08005852 0.01555518 -0.034381524 -0.09007856 0.10011463 0.090717986 0.110760406
-0.17085846 -0.067594446 -0.034462698 -0.10778372 0.0005734268 0.03258525 0.13083273 0.0259775
-0.07637947 -0.009130761 -0.053200375 -0.024970436 -0.048478834 -0.057822675 -0.012510436 0.05021034
-0.053591378 -0.08383969 0.044669323 -0.12033857 0.019539239 -0.11024002 -0.06516555 -0.12024085
0.03939307 0.0077955816 -0.08392388 0.06321385 0.005467612 -0.0022706753 -0.08689514 -0.06724611
-0.031324156 -0.038428023 -0.058847804 0.0437697 0.086309426 0.004957114 -0.17358135 -0.011883377
0.021496562 -0.026379054 0.13461678 -0.22401784 -0.074978486 0.06029855 -0.12226371 0.017111946
-0.10401029 -0.060110513 0.0365664 0.00881496 -0.084487304 -0.033513665 -0.08535361 -0.0054651545
-0.10387877 -0.041271593 0.039507624 0.07973842 -0.07428882 -0.0035669326 -0.059345827 0.043154966
0.037691254 -0.020518789 -0.1009347 0.019519728 -0.14782509 -0.049218584 -0.012539827 -0.01874306
-0.12792403 -0.07438548 0.069930345 0.066802636 -0.17351642 -0.030362088 0.07328486 -0.0064770556
-0.086822495 0.0021015422 -0.08896109 0.072428994 -0.0068971138 0.041626286 -0.05420733 -0.0367208
-0.000549395 -0.12507296 -0.03708629 -0.14567165 -0.045089144 0.10364652 0.079280436 0.04529449
0.007227742 -0.098774746 -0.09982199 0.01729945 -0.024419328 0.097924024 -0.0354823 -0.07145528
0.079647556 0.11546634 -0.022380684 -0.074893154 -0.0678581 -0.06938138 -0.11622106 -0.030107621
-0.17899458 -0.060388096 0.054310866 -0.06293331 -0.057882454 -0.0031683885 -0.037838142 0.01993965
00000000: a517 b5bc 2f91 b73d 1d47 99bd 81d3 e03c
00000010: 0545 5dbd 75aa 0b3c b46b b0bd 78b6 68bc
00000020: cc02 883d c2eb af3d 019f c5bd 3527 af3c
00000030: e776 083d d5dc ca3c d31f 28be c451 cfbc
00000040: 6945 3f3c 6489 c2bd 4b06 3bbd 0917 11be
00000050: 130d 92bc 67cc 65bd 3e0d de3c 7d7b c63d
00000060: 5528 bc3d b863 98bd 91ec a5bd 74b1 a1bd
00000070: 8296 65bd a19c 20bd 47a7 e4bd b35e f93c
00000080: daf7 a6bd 93ce 10be 7209 61bb c297 a93b
00000090: f4bc 2d3d 26c0 8dbd d810 f83c 94fc e3bb
000000a0: 7569 f03d 67c3 9abd 17fb ba3c 63f7 a63d
000000b0: 5f12 a33d 744f 433b 4f55 a5bd 8358 38bc
000000c0: c0cd 253d c61c 163d ca9e 16bc fb7c 423d
000000d0: 9545 5c3d 085b ee3c dc23 653d 2d92 f73c
000000e0: 73d9 883d 0d9d 13be 557b fdbd 45fa 1c3d
000000f0: 440c 5c3d ac49 e7bc 34c6 36bd e072 883d
00000100: 01da 183c a1e8 34bd 45b3 6fbb 0301 f5ba
00000110: cffb bbbd 3a9e 6bbd 2e39 27bd c020 e43c
00000120: f253 97bd f359 af3b 7e09 f73c 0751 f43c
00000130: 8ac8 4bbb e343 0e3c f78e 073d feaa 64bb
00000140: 111b 90bd d4fd 10bd 38c3 acbd 12df 5fbc
00000150: 9739 c3bd 75c0 e0bc 86c1 933d 6299 7cbb
00000160: 0243 89bd 6442 4d3d 4eb2 e33d 0516 a3bd
00000170: 6abc 453e edc6 d33c ac5f 8cbd 4f57 92bc
00000180: 5d30 973c c4ba 2bbd ea10 1e3d 50df a5bc
00000190: bfe8 683d fefa a1bd c5d7 6d3d 293e 4cbd
000001a0: e2d6 cbbc c908 2bbd b9c3 503d c2d8 5bbd
000001b0: 7d24 a13d fdd9 d7bd 2b5b eebc 580c 9a3c
000001c0: f2ca 4cbc c120 6d3d 5409 8b3d d9e4 843c
000001d0: 917f 7ebd 6bd4 db3d 3a85 a9bd 8946 28bd
000001e0: 4b42 a6bc d03b 4dbd 8a4f dabd ed37 e33c
000001f0: fd03 bb3d e7fe 99bd 7f6b 64bd b4bd 3a3e
00000200: 7741 95bd b9f5 a3bd 27db 7e3c a4d3 0cbd
00000210: 1c7b b8bd e608 cd3d 5aca b93d 5ad6 e23d
00000220: 85f5 2ebe f56e 8abd c228 0dbd b6bd dcbd
00000230: 0552 163a 1c78 053d 04f9 053e c4ce d43c
00000240: d76c 9cbd 3099 15bc a3e8 59bd cd8e ccbc
00000250: be91 46bd 78d7 6cbd 92f8 4cbc 5ca9 4d3d
00000260: a282 5bbd 25b4 abbd 2ef7 363d 1174 f6bd
00000270: c110 a03c 85c5 e1bd 8475 85bd d640 f6bd
00000280: a15a 213d 1472 ff3b 48e0 abbd 4376 813d
00000290: a729 b33b 9ccf 14bb 14f6 b1bd 54b8 89bd
000002a0: c24d 00bd b466 1dbd 650a 71bd db47 333d
000002b0: ffc2 b03d 496f a23b 4fbf 31be 7fb2 42bc
000002c0: 8f19 b03c e318 d8bc fbd8 093e ef64 65be
000002d0: 528e 99bd 9dfb 763d 6565 fabd 5a2e 8c3c
000002e0: 5903 d5bd 7136 76bd a6c6 153d 9f6c 103c
000002f0: ae07 adbd a045 09bd e0cd aebd 0a15 b3bb
00000300: 64be d4bd 670c 29bd bfd2 213d e64d a33d
00000310: bd24 98bd 33c3 69bb 9c14 73bd 43c3 303d
00000320: 2562 1a3d 0517 a8bc dab6 cebd d6e7 9f3c
00000330: 765f 17be 6d99 49bd d973 4dbc 0c8b 99bc
00000340: 84fe 02be 6a57 98bd a437 8f3d d2cf 883d
00000350: 4aae 31be eab9 f8bc 5f16 963d 7b3d d4bb
00000360: fecf b1bd 07ba 093b 3b31 b6bd a755 943d
00000370: 2f01 e2bb 5380 2a3d 8108 5ebd 8d68 16bd
00000380: 4605 10ba 2013 00be cbe7 17bd f32a 15be
00000390: 65af 38bd a044 d43d c85d a23d b786 393d
000003a0: b2d6 ec3b 6a4a cabd 796f ccbd 93b7 8d3c
000003b0: 0b0b c8bc 648c c83d e355 11bd 2557 92bd
000003c0: 421e a33d 9e79 ec3d b257 b7bc 9561 99bd
000003d0: 30f9 8abd d317 8ebd 4f05 eebd 42a4 f6bc
000003e0: 5b4a 37be 8259 77bd 1275 5e3d 2ee3 80bd
000003f0: 2716 6dbd bda4 4fbb 2bfc 1abd 7a58 a33c

weight f4 [1, 4, 1, 12, 12]
-0.15972736 -0.018419115 0.048874702 0.07482361 -0.1385493 0.028244797 0.030807193 0.043289896
0.041586418 0.033203162 -0.06919031 -0.055691145 -0.088052794 0.035763454 0.017945446 0.08940215
0.019275017 -0.02388987 -0.024336906 0.02710826 0.03064298 -0.019260611 0.042955514 -0.026938701
-0.032042272 0.044605777 -0.013133565 0.061331797 -0.053712565 0.021670144 0.065781005 -0.057358142
0.13405304 0.067977086 -0.054518532 0.12361495 -0.00076518673 -0.007904453 -0.11592489 -0.1623095
-0.026090043 0.018672772 0.0054977685 -0.03967773 0.05580967 0.08145392 0.008379027 -0.07619168
-0.0030246368 -0.01283107 0.1840299 0.15005524 -0.036601223 0.02282061 0.058367733 0.07945513
-0.027030464 -0.12328193 0.017318472 0.06542037 -0.080078065 -0.07504984 0.035213992 0.08849281
-0.13444012 -0.01665234 0.2041504 0.02469736 -0.06347249 -0.025032174 -0.00078859495 -0.14202721
0.013584829 0.06758819 0.09848004 0.08506829 0.095267594 0.07038433 -0.02865749 0.04459579
-0.035377994 -0.09031522 0.026347447 -0.026975948 0.04016709 0.07197033 0.10408543 0.07870952
0.009905218 -0.1526276 -0.025360582 0.08885138 -0.10099107 -0.014040377 0.07130244 0.10226766
-0.01265448 -0.020675719 0.09922455 0.13477759 -0.029047802 0.06842412 0.02545491 0.07941443
0.024924252 0.05824764 -0.03868827 0.056820665 0.09516825 0.032601472 -0.096933074 -0.13430265
0.10510559 0.079655774 -0.13538378 -0.05658974 0.10305549 0.05752351 0.054178167 -0.017059825
0.009115036 0.07973706 -0.025917599 -0.025991933 0.016769195 0.009157269 0.07697426 -0.04596387
0.016804937 0.016072014 -0.027656157 0.13039984 -0.075840816 0.012336278 0.006657486 0.06632693
0.050824013 -0.045277346 0.023074742 -0.028095355 -0.060875066 -0.00088431546 0.038292646 -0.05762745
0.057230446 0.035934146 -0.13330406 0.0066925082 0.1041988 -0.021452943 -0.0878887 -0.054584
0.058899082 -0.023330007 -0.05167981 0.05273566 0.11403598 -0.007758465 -0.020553447 0.05735213
-0.017959058 -0.012776372 0.083913304 -0.0343379 0.0435468 0.08167757 -0.036628414 0.14155915
0.08166811 0.060668584 -0.0040123616 0.009466062 0.042653657 -0.07503795 0.016194921 0.009581875
0.032624077 0.12566435 0.05997282 0.0003928513 0.053885717 -0.20628889 -0.10089598 -0.047184262
-0.004651773 -0.035866834 0.05721453 -0.08268899 -0.0591154 0.036683593 -0.06298913 -0.015489164
0.11636281 -0.03164744 -0.20981693 -0.22018653 0.023113547 0.049407437 -0.103856824 -0.19239815
0.1671337 0.20075606 -0.011636285 0.10510403 -0.08996171 0.0075798635 0.004129446 0.042081676
0.0010640952 0.046015333 -0.08595291 -0.059177928 0.0011854327 0.06716643 -0.07690735 0.007690085
0.08381401 -0.059754305 -0.096677214 -0.116225325 0.06740816 0.044263862 -0.06902432 0.026306381
0.020581359 0.07269415 0.019844245 0.020670714 -0.054680374 -0.09667219 -0.031921033 0.061122075
-0.17065185 0.019831048 0.01709549 -0.021932412 0.080057964 0.044941705 0.019053783 -0.0060322634
0.08952772 0.11723263 -0.18433858 -0.15059738 0.13656911 0.23294988 -0.056657948 -0.21563022
0.013753526 0.079835586 -0.01046911 0.08944566 -0.05047692 -0.022774016 -0.079836614 -0.056252386
00000000: 928f 23be afe3 96bc d730 483d 1f3d 993d
00000010: dedf 0dbe a261 e73c 5e5f fc3c bf50 313d
00000020: 8556 2a3d 0a00 083d a6b3 8dbd 661c 64bd
00000030: 0655 b4bd b37c 123d 5402 933c 7918 b73d
00000040: a4e6 9d3c b0b4 c3bc 315e c7bc 2412 de3c
00000050: fd06 fb3c 6ec8 9dbc 1ff2 2f3d 8dae dcbc
00000060: c23e 03bd 8cb4 363d 2a2e 57bc 0d37 7b3d
00000070: b501 5cbd 9685 b13c 31b8 863d 5ff0 6abd
00000080: 3345 093e 9237 8b3d d34e 5fbd d629 fd3d
00000090: d096 48ba ae81 01bc 076a edbd 7634 26be
000000a0: c9ba d5bc a4f7 983c a026 b43b 1e85 22bd
000000b0: ae98 643d 50d1 a63d 3048 093c 620a 9cbd
000000c0: fc38 46bb 6939 52bc 5672 3c3e 15a8 193e
000000d0: 2aeb 15bd 4af2 ba3c 0113 6f3d 5fb9 a23d
000000e0: fe6e ddbc 3d7b fcbd 78df 8d3c 1dfb 853d
000000f0: f8ff a3bd bbb3 99bd 8c3c 103d b83b b53d
00000100: acaa 09be 7d6a 88bc cd0c 513e 1e52 ca3c
00000110: ddfd 81bd 4610 cdbc b6b9 4eba 956f 11be
00000120: e792 5e3c ad6b 8a3d e7af c93d 4938 ae3d
00000130: a81b c33d a925 903d 1dc3 eabc 13aa 363d
00000140: 84e8 10bd 30f7 b8bd 9ad6 d73c aafc dcbc
00000150: 3f86 243d 2e65 933d be2a d53d 7532 a13d
00000160: 7f49 223c 694a 1cbe ffc0 cfbc b6f7 b53d
00000170: 68d4 cebd 9c09 66bc 0307 923d b571 d13d
00000180: bc54 4fbc 2060 a9bc 3e36 cb3d 2303 0a3e
00000190: a8f5 edbc f221 8c3d d186 d03c 08a4 a23d
000001a0: f22d cc3c 1495 6e3d 9777 1ebd c9bc 683d
000001b0: 92e7 c23d 1f89 053d d984 c6bd a286 09be
000001c0: 9941 d73d 9122 a33d 0ca2 0abe a5ca 67bd
000001d0: c20e d33d c69d 6b3d ede9 5d3d 0cc1 8bbc
000001e0: 3b57 153c 2f4d a33d 2551 d4bc 09ed d4bc
000001f0: 8d5f 893c 5f08 163c aea4 9d3d 9c44 3cbd
00000200: 82aa 893c 75a9 833c 2a8f e2bc 8987 053e
00000210: 6e52 9bbd 1a1e 4a3c 0a27 da3b 6ad6 873d
00000220: d72c 503d bd74 39bd 3e07 bd3c 3b28 e6bc
00000230: 2258 79bd 68d1 67ba c0d8 1c3d c30a 6cbd
00000240: 796a 6a3d af2f 133d dc80 08be d44c db3b
00000250: 2e66 d53d 15be afbc fefe b3bd 7993 5fbd
00000260: 2a40 713d 921e bfbc 35ae 53bd 5901 583d
00000270: b28b e93d b93a febb b45f a8bc 11ea 6a3d
00000280: e01e 93bc fd53 51bc bdda ab3d e6a5 0cbd
00000290: 215e 323d 9246 a73d ad07 16bd e2f4 103e
000002a0: 9c41 a73d 9f7f 783d 217a 83bb 8b17 1b3c
000002b0: 9ab5 2e3d 7fad 99bd 36ab 843c 4cfd 1c3c
000002c0: d3a0 053d 28ae 003e 0fa6 753d 9cf7 cd39
000002d0: 45b7 5c3d 653d 53be 8da2 cebd 4944 41bd
000002e0: e66d 98bb 1ae9 12bd c859 6a3d d858 a9bd
000002f0: fd22 72bd 8941 163d 7200 81bd 43c6 7dbc
00000300: a04f ee3d bfa0 01bd 40da 56be 9478 61be
00000310: 9f58 bd3c 745f 4a3d e3b2 d4bd 0504 45be
00000320: 1925 2b3e ff92 4d3e 1ea6 3ebc c840 d73d
00000330: d83d b8bd 8160 f83b 4e50 873b d65d 2c3d
00000340: 1c79 8b3a 937a 3c3d 1408 b0bd 8e64 72bd
00000350: 8560 9b3a 8e8e 893d 9a81 9dbd 1cfd fb3b
00000360: aea6 ab3d eec0 74bd b4fe c5bd 8b07 eebd
00000370: 4a0d 8a3d 064e 353d 9f5c 8dbd 7b80 d73c
00000380: 3d9a a83c ace0 943d 6690 a23c a155 a93c
00000390: 87f8 5fbd 12fc c5bd a1bf 02bd 245b 7a3d
000003a0: 5cbf 2ebe b974 a23c d70b 8c3c 9aab b3bc
000003b0: 6ef5 a33d cb14 383d ae16 9c3c 4baa c5bb
000003c0: 4f5a b73d a917 f03d 41c3 3cbe 3336 1abe
000003d0: c6d8 0b3e 6a8a 6e3e 2a12 68bd 2bce 5cbe
000003e0: 7856 613c d780 a33d a186 2bbc 492f b73d
000003f0: e3c0 4ebd 9390 babc 6181 a3bd e768 66bd

weight f4 [12, 12]
0.28736317 -0.21910647 -0.12861007 -0.090346985 0.15574758 0.12957335 0.1347028 -0.06713081
-0.1905777 0.31566474 0.12346623 -0.026334144 0.14899711 -0.17787296 0.2659495 -0.015945423
0.13871399 0.058111947 0.22409637 0.0783463 -0.37510532 0.088849336 0.23948304 -0.38400993
-0.02045491 -0.07099878 0.25341833 0.2927747 0.15872312 0.20581216 -0.1180311 -0.22570223
-0.36526552 -0.2085569 0.17966388 -0.25713247 0.012719236 -0.14769939 -0.15665847 -0.086114466
0.0706241 0.05232221 0.068648815 -0.13511477 0.106639415 -0.07303857 0.23621304 -0.08000157
0.25899947 -0.21515204 -0.14512073 -0.25595886 -0.029934844 0.09210647 0.060738146 0.13708776
0.05484443 0.12554632 -0.20963097 0.17016648 -0.06376117 0.1509418 -0.12249286 0.06261852
0.2778555 0.056056682 -0.23816413 -0.15488411 -0.19887666 0.2157338 0.04815693 -0.09268952
0.01347897 -0.008795572 0.01775361 -0.16693704 -0.09945697 0.09117584 0.09533417 -0.18068898
0.123468116 0.21391697 -0.2137012 0.24648675 -0.09094253 -0.15770094 0.17637286 -0.16367833
0.060424026 -0.1734288 0.24974525 0.20454085 0.02586214 -0.017231887 0.07351901 -0.29837304
0.16480124 0.0019673342 0.34228474 -0.07552284 0.109291166 -0.2649675 -0.21852724 -0.16912715
-0.23408024 -0.24089593 0.16516519 -0.16795112 0.016246907 -0.29771557 -0.023131639 0.22973967
0.27806416 -0.008046981 0.18199012 0.2391441 -0.22437748 -0.17298669 -0.17924358 0.02610216
-0.035627555 0.16715236 0.107587054 -0.21879244 0.29928923 -0.2522143 -0.16679204 -0.21659656
0.026335645 0.13872796 -0.17436285 -0.090042084 -0.07217092 0.11023429 -0.09573418 -0.13483672
-0.105610855 0.14169568 -0.0068261405 -0.10864378 0.05364662 0.13502584 0.10970887 0.29759112
00000000: 4421 933e 725d 60be 5cb2 03be d707 b9bd
00000010: 4b7c 1f3e e0ae 043e 88ef 093e e17b 89bd
00000020: cd26 43be cf9e a13e dddb fc3d b4ba d7bc
00000030: b392 183e 5424 36be 882a 883e fa9f 82bc
00000040: 0a0b 0e3e cb06 6e3d 8579 653e 0674 a03d
00000050: ce0d c0be a4f6 b53d 0b3b 753e f39c c4be
00000060: 0e91 a7bc cf67 91bd 0cc0 813e 91e6 953e
00000070: 5088 223e 6cc0 523e 4aba f1bd 7c1e 67be
00000080: 1504 bbbe f18f 55be cff9 373e dea6 83be
00000090: 5864 503c 823e 17be 146b 20be c85c b0bd
000000a0: 5ea3 903d d04f 563d c097 8c3d 875b 0abe
000000b0: c465 da3d 3f95 95bd d5e1 713e ddd7 a3bd
000000c0: 949b 843e d150 5cbe 879a 14be 0a0d 83be
000000d0: eb39 f5bc 51a2 bc3d 90c8 783d bc60 0c3e
000000e0: 8ea4 603d 378f 003e 80a9 56be 1f40 2e3e
000000f0: 3795 82bd 7d90 1a3e 89dd fabd 233e 803d
00000100: 1343 8e3e b19b 653d 4ce1 73be f199 1ebe
00000110: 53a6 4bbe 52e9 5c3e 3340 453d 01d4 bdbd
00000120: e6d6 5c3c 4e1b 10bc 0570 913c 8bf1 2abe
00000130: 19b0 cbbd 66ba ba3d 903e c33d 8806 39be
00000140: dadc fc3d 0d0d 5b3e 7dd4 5abe 0667 7c3e
00000150: 1440 babd 5b7c 21be 169b 343e 4b9b 27be
00000160: 2f7f 773d 5297 31be 38bd 7f3e 2873 513e
00000170: d7dc d33c e329 8dbc 2291 963d 5ac4 98be
00000180: a8c1 283e 64ee 003b f23f af3e b8ab 9abd
00000190: 0cd4 df3d d2a9 87be 9bc5 5fbe ab2f 2dbe
000001a0: bbb2 6fbe 6cad 76be 1021 293e 61fb 2bbe
000001b0: 3c18 853c 2d6e 98be 907e bdbc e040 6b3e
000001c0: 6d5e 8e3e 7cd7 03bc 9e5b 3a3e 31e2 743e
000001d0: 36c3 65be 6c23 31be a18b 37be 32d4 d53c
000001e0: 33ee 11bd fd29 2b3e 9a56 dc3d 200b 60be
000001f0: 703c 993e 3c22 81be 88cb 2abe 7dcb 5dbe
00000200: dabd d73c b40e 0e3e 2d8c 32be fc67 b8bd
00000210: 59ce 93bd 84c2 e13d 4810 c4bd a312 0abe
00000220: 814a d8bd ac18 113e d1ad dfbb a180 debd
00000230: 8fbc 5b3d 3744 0a3e 0baf e03d dd5d 983e

bias f4 [12]
0.20008348 -0.06699124 0.074544586 0.06619119 -0.047957994 0.25489146 0.1516741 0.2567243
-0.22891451 0.046684925 0.15276544 -0.18699767
00000000: afe2 4c3e b432 89bd d5aa 983d 3f8f 873d
00000010: 9a6f 44bd 2281 823e 7550 1b3e 5e71 833e
00000020: 9168 6abe b138 3f3d 8b6e 1c3e 517c 3fbe

weight f4 [3, 12]
-0.009442439 -0.11808535 -0.082052365 -0.26137757 -0.1379578 -0.4100165 -0.23977582 0.23992413
-0.31079367 0.05963737 -0.30725375 -0.038541783 0.4339431 -0.32739615 -0.41744098 0.16777326
0.38060513 0.36784244 0.15859202 -0.14436617 -0.38912925 -0.36972192 0.3148369 0.4310789
-0.35211357 0.24807447 0.13089718 -0.32579777 0.013894551 -0.019846464 0.012096199 0.017165266
-0.010460092 0.3006689 -0.16497096 -0.4313173
00000000: 76b4 1abc bbd6 f1bd 120b a8bd 48d3 85be
00000010: cf44 0dbe afed d1be cb87 75be acae 753e
00000020: 5920 9fbe 5146 743d 5d50 9dbe fddd 1dbd
00000030: ca2d de3e 78a0 a7be d3ba d5be c1cc 2b3e
00000040: adde c23e d855 bc3e f265 223e bad4 13be
00000050: f33b c7be 314c bdbe 4d32 a13e 60b6 dc3e
00000060: 3b48 b4be 3c07 7e3e e909 063e f7ce a6be
00000070: f9a5 633c 0d95 a2bc 232f 463c 2c9e 8c3c
00000080: ce60 2bbc 46f1 993e 26ee 28be 9fd5 dcbe

bias f4 [3]
-0.2822807 0.067262195 -0.20426925
00000000: 1987 90be c3c0 893d f52b 51be

weight f4 [3, 12]
-0.2640651 -0.19043264 -0.20508532 -0.2219003 0.012826995 -0.08773999 -0.015833914 -0.1332971
0.26258108 0.25214282 -0.29164946 -0.27517506 -0.12123784 -0.14416926 -0.08866831 0.0045774276
-0.13577169 -0.16776657 -0.102940306 -0.029734755 -0.18207315 -0.026767947 -0.20310101 -0.15870883
-0.16302918 0.14146869 0.14138047 0.009969168 -0.2564526 -0.030572759 0.20595822 0.03134191
0.1808203 0.25633878 -0.22768211 0.19366078
00000000: 8a33 87be c600 43be e301 52be d539 63be
00000010: 5128 523c 06b1 b3bd 20b6 81bc 097f 08be
00000020: 0771 863e dd18 813e 1453 95be bfe3 8cbe
00000030: 8b4b f8bd 1ba1 13be bb97 b5bd 3ffe 953b
00000040: bc07 0bbe 00cb 2bbe 5ed2 d2bd 4d96 f3bc
00000050: 6271 3abe 7448 dbbc b6f9 4fbe 9184 22be
00000060: 1ff1 26be 2bdd 103e 0bc6 103e b955 233c
00000070: c14d 83be b973 fabc b6e6 523e 6060 003d
00000080: f528 393e d63e 833e 8025 69be 034f 463e

bias f4 [3]
-0.3433443 0.2590624 0.07257646
00000000: d3ca afbe d4a3 843e f8a2 943d

weight f4 [3, 3]
-0.40261248 0.41722685 0.4230912 -0.3585809 0.055220637 0.3505493 -0.09607349 0.3879585
0.48053008
00000000: 3923 cebe c29e d53e 699f d83e ea97 b7be
00000010: 092f 623d 337b b33e 2ec2 c4bd 7fa2 c63e
00000020: 0a08 f63e

bias f4 [3]
0.44527963 0.53350556 -0.53219366
00000000: b1fb e33e d293 083f d83d 08bf
