data/best/output/poster/train/7_stemgnn.pt (torch, 435920 bytes, 73 tensors)

weight_key f4 [135, 1]
-0.0038555122 0.15803103 -0.24562922 -0.21883678 -0.11376138 0.08019065 -0.0054584057 0.23613134
-0.026163358 0.077889524 -0.08990161 -0.058711786 -0.2842933 -0.19657134 -0.12213934 0.01150436
0.117617294 0.17843749 -0.20103939 -0.12904038 0.10790445 0.24628548 -0.06182365 0.22172236
-0.048515003 0.03131666 0.26975313 -0.27467108 -0.1864906 -0.07455329 -0.11439998 0.25799808
-0.19142711 -0.13617457 -0.20678118 -0.27764717 -0.1733088 0.25541052 0.13266093 0.14486203
0.016034 -0.15222718 0.050095793 -0.27791938 -0.21582823 -0.15466951 0.18704486 0.17380811
-0.13252401 -0.01114218 0.18939124 0.29547888 0.11744987 0.040341247 0.20004818 -0.17480247
0.054773934 -0.23158684 -0.20653862 -0.15365352 0.13371542 0.11844636 -0.17779794 0.08911502
0.1619086 -0.039295748 0.009879685 0.06792843 0.18360569 0.28397995 -0.23019998 -0.110274024
0.115079805 0.24491377 0.25683004 0.2604085 0.058434807 -0.25845003 0.027303267 -0.1865817
-0.27852926 0.26360282 0.22549894 -0.296279 0.055913378 -0.05050234 -0.050177492 -0.13658573
0.112867504 -0.1766844 0.10837734 0.14938009 0.21195944 0.10993174 -0.29534173 -0.19426487
0.14794125 0.062291574 -0.23149817 -0.17082633 0.27897233 0.1984722 -0.13086213 -0.0747392
-0.28188565 -0.0044139326 -0.22264092 -0.22796176 -0.015556121 0.045279566 -0.12091182 0.17714755
-0.18062083 0.26903674 0.20231944 -0.25213626 -0.074103296 0.012515088 0.04170538 0.068727046
0.1149623 0.016107246 -0.14629556 0.13982639 -0.28594732 -0.17689882 -0.07588954 -0.14607592
-0.10452976 -0.243272 -0.06285493 0.06425525 -0.19295344 -0.01564902 0.21144827
00000000: c3ac 7cbb e3d2 213e 3a86 7bbe c016 60be
00000010: bafb e8bd ff3a a43d 6ddc b2bb 6acc 713e
00000020: 8a54 d6bc 8b84 9f3d 561e b8bd c57b 70bd
00000030: e48e 91be ff49 49be 3124 fabd c87c 3c3c
00000040: 56e1 f03d 51b8 363e 45dd 4dbe 2923 04be
00000050: 02fd dc3d 4332 7c3e cc3a 7dbd 300b 633e
00000060: abb7 46bd e645 003d 151d 8a3e b0a1 8cbe
00000070: 64f7 3ebe 65af 98bd 894a eabd 5318 843e
00000080: 7805 44be 5971 0bbe 72be 53be c527 8ebe
00000090: dd77 31be 2bc5 823e 44d8 073e b656 143e
000000a0: bc59 833c 71e1 1bbe 3f31 4d3d 734b 8ebe
000000b0: 1302 5dbe af61 1ebe b088 3f3e c1fa 313e
000000c0: 60b4 07be b18d 36bc c7ef 413e 0249 973e
000000d0: 8f89 f03d dd3c 253d 6ed9 4c3e 6bff 32be
000000e0: a25a 603d 1a25 6dbe dc7e 53be 5957 1dbe
000000f0: b2ec 083e 0194 f23d aa10 36be f081 b63d
00000100: 5ecb 253e 94f4 20bd 67de 213c 101e 8b3d
00000110: 2103 3c3e d265 913e 8bb9 6bbe 59d7 e1bd
00000120: f6ae eb3d adca 7a3e 3a7f 833e 4354 853e
00000130: 5659 6f3d 9053 84be 1aab df3c 460f 3fbe
00000140: 639b 8ebe f3f6 863e 32e9 663e e2b1 97be
00000150: 6d05 653d 8bdb 4ebd ea86 4dbd 21dd 0bbe
00000160: 1427 e73d c1ec 34be f0f4 dd3d 18f7 183e
00000170: e50b 593e e423 e13d 0837 97be 5fed 46be
00000180: e97d 173e 7325 7f3d db0d 6dbe 19ed 2ebe
00000190: 76d5 8e3e 4c3c 4b3e b900 06be de10 99bd
000001a0: 5153 90be c0a2 90bb fbfb 63be cf6e 69be
000001b0: 1adf 7ebc 1177 393d 9ea0 f7bd 2b66 353e
000001c0: abf4 38be 2fbf 893e d42c 4f3e 0118 81be
000001d0: 78c3 97bd 150c 4d3c 43d3 2a3d c4c0 8c3d
000001e0: 5b71 eb3d 58f3 833c 81ce 15be a62e 0f3e
000001f0: b067 92be f724 35be fa6b 9bbd ed94 15be
00000200: b313 d6bd 4c1c 79be 16ba 80bd 4298 833d
00000210: 9695 45be 6032 80bc e585 583e

weight_query f4 [135, 1]
-0.07363338 0.0052459687 0.07413614 0.18636128 0.32134968 0.41292274 0.31739917 0.40848544
0.102969624 -0.14387159 -0.018942611 0.32361978 0.11896134 -0.027096149 -0.10759691 -0.15831639
-0.1313642 0.058638096 0.28169584 0.279278 -0.16739061 0.3044462 -0.112552404 0.057115074
-0.00026679222 0.06332078 0.06226742 -0.14609256 -0.13636097 0.07327813 0.12321097 -0.015666565
0.23085175 -0.1476091 0.09925363 0.380308 -0.0018103259 0.3871576 0.22728483 -0.14792117
0.3083838 0.08603648 -0.011927804 0.35809973 -0.11919411 0.15268861 0.058724094 0.3332069
0.20367023 0.26353636 0.22601154 0.04955975 0.058498707 -0.12418029 0.28145173 0.35656694
0.32396188 -0.088751614 0.13396934 -0.08880163 -0.043115076 -0.05262786 0.2220206 -0.05658183
0.11418578 0.13325246 0.3120929 -0.10391739 -0.08285529 -0.051506083 0.32872602 0.014426534
0.37165922 0.22910552 0.15904847 0.11895762 0.062148638 0.1575449 0.052772824 0.11852965
0.15857306 -0.111694545 -0.035379246 0.36040583 -0.12001006 0.099240355 0.4142247 0.22813097
0.12928407 -0.13683993 0.2682475 -0.09002515 0.036629368 0.021185713 0.07670133 0.124101795
0.365341 0.15720825 0.3862883 0.30175218 -0.06759264 0.25342506 -0.089859866 -0.0054277335
0.20809019 0.21914098 0.34322408 0.0245813 0.121022426 0.27341697 -0.1670035 0.3347606
-0.12534782 0.12458282 0.069965534 -0.035932187 0.15962298 0.36630428 0.033865903 -0.055764105
0.010877036 -0.17328878 0.25464916 -0.021602925 -0.07751686 -0.05085012 0.29115885 0.27747965
0.34802923 0.22811684 0.021268386 0.037503194 0.2085574 0.36792365 0.20527782
00000000: 19cd 96bd 60e6 ab3b b0d4 973d 7ed5 3e3e
00000010: f287 a43e 9c6a d33e 2582 a23e 0125 d13e
00000020: bde1 d23d 1353 13be 892d 9bbc 7eb1 a53e
00000030: 01a2 f33d bef8 ddbc c55b dcbd b11d 22be
00000040: 5684 06be 802e 703d 703a 903e 87fd 8e3e
00000050: 7268 2bbe 5fe0 9b3e e081 e6bd 7ff1 693d
00000060: 3fe0 8bb9 53ae 813d 1f0c 7f3d 4a99 15be
00000070: 36a2 0bbe d812 963d 0856 fc3d 2b57 80bc
00000080: 6764 6c3e d726 17be 7d45 cb3d bbb7 c23e
00000090: 7548 edba 8539 c63e 5bbd 683e a678 17be
000000a0: 7be4 9d3e e533 b03d d66c 43bc d958 b73e
000000b0: 0b1c f4bd 675a 1c3e ad88 703d 189a aa3e
000000c0: ee8e 503e 3dee 863e 926f 673e 2aff 4a3d
000000d0: 579c 6f3d 3c52 febd 711a 903e f18f b63e
000000e0: 55de a53e 68c3 b5bd 422f 093e a1dd b5bd
000000f0: 6f99 30bd 5090 57bd 5e59 633e 59c2 67bd
00000100: 3cda e93d 5573 083e a4ca 9f3e a4d2 d4bd
00000110: 09b0 a9bd 0bf8 52bd c74e a83e 455d 6c3c
00000120: 1e4a be3e a39a 6a3e 9add 223e 0da0 f33d
00000130: 928f 7e3d 7353 213e 5128 583d acbf f23d
00000140: fa60 223e 1cc0 e4bd d4e9 10bd 1d87 b83e
00000150: d6c7 f5bd 873e cb3d 4315 d43e 2a9b 693e
00000160: 0b63 043e c41f 0cbe bc57 893e 1b5f b8bd
00000170: ad08 163d a98d ad3c 9615 9d3d 1529 fe3d
00000180: fa0d bb3e 33fb 203e 94c7 c53e 437f 9a3e
00000190: 036e 8abd eec0 813e 7308 b8bd 21db b1bb
000001a0: 9815 553e 7e66 603e 11bb af3e b95e c93c
000001b0: 9bda f73d 4ffd 8b3e f702 2bbe be65 ab3e
000001c0: 2e5b 00be 4725 ff3d 174a 8f3d a12d 13bd
000001d0: 3574 233e 3c8c bb3e f9b6 0a3d e768 64bd
000001e0: 9835 323c 9d72 31be 6061 823e 9ef8 b0bc
000001f0: 29c1 9ebd 3748 50bd c612 953e d011 8e3e
00000200: e330 b23e 7697 693e 0a3b ae3c f39c 193d
00000210: 1290 553e 7d60 bc3e 5934 523e

weight_ih_l0 f4 [405, 3]
-0.06334988 -0.06321094 -0.10424869 0.061448555 -0.00523804 -0.03356894 0.076156996 -0.054360323
-0.0074608857 0.013719202 -0.008168025 -0.06876878 -0.00019736473 0.13819826 0.083844036 0.12365032
0.023105424 0.07860811 -0.02832729 -0.012470366 -0.061210882 0.026893184 0.025582418 -0.0034707512
-0.04576508 -0.0793701 0.033320103 -0.0425636 0.055652376 -0.009326987 -0.036152232 0.020990955
-0.03927232 0.1127832 0.11032015 0.029786572 0.03108179 0.05382192 0.05147181 -0.041444864
-0.101442374 -0.04437985 0.09859998 0.037217323 0.10126241 0.06284976 -0.03891997 0.0071359538
-0.07110101 -0.10034322 -0.100159116 0.09435457 0.016059611 0.09050459 0.093822904 0.11288517
0.0870085 0.10211821 0.13094173 0.048969038 0.025576945 0.0237794 0.18423572 0.050050844
-0.0639025 0.029165642 0.0846013 0.10593213 0.095312685 0.044982247 -0.04134633 -0.051705915
0.11238459 0.09016935 -0.009837215 0.07662332 0.041034754 0.046187088 -0.075060315 0.003176756
-0.052126467 0.072923645 -0.009535972 0.039611045 0.0017073182 0.023096586 -0.04270203 -0.039449662
-0.14112581 -0.06162896 -0.12488083 -0.15159117 -0.13595037 0.14686976 0.12562533 0.15999267
0.14091271 -0.0046333177 0.013574086 0.0039634667 -0.03820683 0.07722295 -0.047557898 -0.02492313
-0.066107154 -0.030663963 0.08908733 0.08883315 -0.009583574 -0.0045482963 0.0056185233 -0.11009073
-0.050424293 -0.011614252 0.00048579898 0.058165364 0.016975284 0.09407554 0.0113141285 0.0828798
0.025006842 -0.0053698453 -0.033466775 -0.10512208 -0.12333559 0.000120877055 0.0524335 -0.018816201
-0.05918874 0.05433906 0.042261116 -0.0069723064 -0.031481817 0.08831119 0.044518862 0.018421521
0.16620564 0.1493914 -0.00960166 0.07003846 -0.027327852 0.00874101 0.095099464 0.025379457
-0.0033996452 0.031313665 0.036712125 0.011991057 0.035976097 0.10737065 0.009999858 -0.04779113
0.009712723 0.044608634 0.046153065 -0.075136505 -0.0025702403 -0.05102919 -0.023773205 0.036977325
-0.05605113 0.037080336 0.099512026 0.032070383 -0.031059157 -0.056271914 -0.0066038826 -0.0909778
0.017920813 -0.10298708 -0.107654385 -0.08189166 -0.015679825 0.059465207 -0.043745745 0.10902757
0.0029140343 -0.054356065 -0.074677564 -0.1551777 0.082792886 0.05838948 0.09748671 0.020573884
-0.0795903 0.049110755 -0.051108696 -0.014987966 -0.12480416 -0.009702153 -0.069397196 -0.018449698
0.00019765313 -0.08527022 0.009784449 0.13450347 0.10143189 0.032196738 0.017347032 0.0578263
0.12220049 0.1060278 0.0704778 0.011053596 0.009731379 -0.104885995 -0.09409893 0.06267162
-0.026152318 0.06402961 -0.066241175 -0.047866095 -0.07578243 0.1285179 0.07514735 0.15028638
0.10310982 0.097657084 0.05280427 -0.04398108 -0.03623094 -0.00639527 0.016962025 -0.0858171
0.046753157 -0.0229179 -0.08566879 -0.06027581 0.073668525 0.075946905 -0.08266358 0.0979095
0.08052262 0.08849611 0.1125229 -0.0055687707 0.069843054 0.020260556 -0.040010545 0.014452116
0.00757583 0.08557194 0.008135148 -0.011978824 0.042039804 0.05114138 -0.018311309 0.031310044
0.07355512 -0.028666055 0.0061394 -0.04093031 0.012471281 -0.07990454 -0.06838677 -0.02728466
00000000: 95bd 81bd bd74 81bd 5680 d5bd 7bb1 7b3d
00000010: dda3 abbb 967f 09bd 33f8 9b3d eea8 5ebd
00000020: 727a f4bb 81c6 603c 2ed3 05bc a5d6 8cbd
00000030: b1f3 4eb9 d883 0d3e 6cb6 ab3d 613c fd3d
00000040: 9647 bd3c 4afd a03d a20e e8bc 8250 4cbc
00000050: 43b8 7abd 184f dc3c 3892 d13c 8b75 63bb
00000060: 2a74 3bbd ca8c a2bd a97a 083d 2b57 2ebd
00000070: bff3 633d 38d0 18bc 5d14 14bd 39f5 ab3c
00000080: 03dc 20bd e1fa e63d 88ef e13d f802 f43c
00000090: 3d9f fe3c 6074 5c3d 1bd4 523d 17c2 29bd
000000a0: 05c1 cfbd a5c7 35bd c9ee c93d 3171 183d
000000b0: ab62 cf3d 60b7 803d 8c6a 1fbd b8d4 e93b
000000c0: 689d 91bd bf80 cdbd 3920 cdbd f83c c13d
000000d0: 728f 833c 785a b93d 3926 c03d 5730 e73d
000000e0: 8331 b23d 5a23 d13d 9715 063e c293 483d
000000f0: be86 d13c 04cd c23c 4aa8 3c3e 1d02 4d3d
00000100: 50df 82bd c9ec ee3c 7243 ad3d f2f2 d83d
00000110: 4c33 c33d 4e3f 383d c55a 29bd 95c9 53bd
00000120: e429 e63d b5aa b83d 452c 21bc b0ec 9c3d
00000130: 0f14 283d ac2e 3d3d 39b9 99bd 1f31 503b
00000140: 9082 55bd fe58 953d c43c 1cbc 313f 223d
00000150: 18c8 df3a 0d35 bd3c 53e8 2ebd f895 21bd
00000160: 4983 10be a66e 7cbd 85c1 ffbd b73a 1bbe
00000170: 9336 0bbe 0765 163e eda3 003e 1ed5 233e
00000180: 6c4b 103e 16d3 97bb d865 5e3c f8df 813b
00000190: c47e 1cbd 1127 9e3d 12cc 42bd 982b ccbc
000001a0: 3063 87bd fe32 fbbc 6b73 b63d 28ee b53d
000001b0: 6c04 1dbc e009 95bb 971b b83b 4077 e1bd
000001c0: b489 4ebd b449 3ebc d6b2 fe39 ce3e 6e3d
000001d0: c00f 8b3c adaa c03d e55e 393c e2bc a93d
000001e0: 26db cc3c 87f5 afbb 7514 09bd 3f4a d7bd
000001f0: 5f97 fcbd 607f fd38 82c4 563d 6f24 9abc
00000200: e46f 72bd a292 5e3d fe19 2d3d f277 e4bb
00000210: 14f3 00bd 7fdc b43d 6959 363d bbe8 963c
00000220: d031 2a3e 0ffa 183e 4850 1dbc 5370 8f3d
00000230: a9de dfbc 7436 0f3c 82c3 c23d 94e8 cf3c
00000240: 95cc 5ebb c242 003d 745f 163d 2376 443c
00000250: ac5b 133d 25e5 db3d 72d6 233c a2c0 43bd
00000260: 1d22 1f3c 8bb7 363d ff0a 3d3d 2be1 99bd
00000270: 7a71 28bb fc03 51bd 06c0 c2bc 8975 173d
00000280: df95 65bd 8de1 173d f6cc cb3d 3c5c 033d
00000290: c66f febc 617d 66bd 6265 d8bb 9252 babd
000002a0: abce 923c e4ea d2bd e779 dcbd d1b6 a7bd
000002b0: fa72 80bc ca91 733d bd2e 33bd d949 df3d
000002c0: 62f9 3e3b 77a4 5ebd 8df0 98bd e7e6 1ebe
000002d0: 518f a93d cf29 6f3d 1da7 c73d 908a a83c
000002e0: 3d00 a3bd 5c28 493d 5a57 51bd 1690 75bc
000002f0: 5399 ffbd c7f5 1ebc 1e20 8ebd d223 97bc
00000300: 1c41 4f39 27a2 aebd f44e 203c 47bb 093e
00000310: 86bb cf3d bae0 033d 5d1b 8e3c 45db 6c3d
00000320: 4044 fa3d 1a25 d93d aa56 903d 241a 353c
00000330: 5d70 1f3c 78ce d6bd f1b6 c0bd fa59 803d
00000340: 633d d6bc f521 833d 74a9 87bd 3d0f 44bd
00000350: d233 9bbd 329a 033e dbe6 993d ace4 193e
00000360: 3e2b d33d 7000 c83d 4a49 583d 8125 34bd
00000370: e566 14bd 6a8f d1bb f2f3 8a3c e0c0 afbd
00000380: 3d80 3f3d 52be bbbc 1e73 afbd c5e3 76bd
00000390: 86df 963d 0d8a 9b3d 864b a9bd c784 c83d
000003a0: 0be9 a43d 733d b53d 6872 e63d 3c7a b6bb
000003b0: e009 8f3d 77f9 a53c 19e2 23bd 91c8 6c3c
000003c0: ab3e f83b 5740 af3d 4949 053c d442 44bc
000003d0: ee31 2c3d a079 513d 9901 96bc f63e 003d
000003e0: 11a4 963d 13d5 eabc 052d c93b 8aa6 27bd
000003f0: 5854 4c3c fea4 a3bd 5d0e 8cbd 1484 dfbc

weight_hh_l0 f4 [405, 135]
0.06282217 0.07915729 -0.06200007 0.1270697 -0.0052530165 0.020806486 0.037016448 -0.056254636
-0.050047558 0.0280834 0.07174698 -0.039046254 -0.10069923 0.031919133 0.018827815 0.10866181
-0.10753466 -0.006621959 -0.055310927 -0.08585914 -0.015559858 -0.06732167 0.07009957 -0.07611269
0.08242813 -0.029364113 0.03469723 -0.13880616 -0.06713427 -0.017665816 -0.1746453 0.02233203
0.01092153 0.0017351707 -0.11058975 0.09936678 0.050713543 -0.021007055 -0.032238755 0.059803247
0.1657985 -0.08896688 -0.029057007 0.011687217 -0.09030836 0.11893067 -0.021454068 0.08378121
-0.029857228 -0.035984747 -0.052220564 -0.04940957 0.068435065 0.082574256 -0.051337972 0.10641851
0.024128992 0.054546487 0.09188726 0.059390776 0.056821115 -0.027976362 -0.060413096 0.048430957
0.017859697 -0.025757283 0.01954133 0.04493665 -0.012509117 -0.09206088 -0.022162525 -0.050626412
-0.10332008 0.0025639052 0.01717559 0.019513713 0.061710197 -0.06325064 -0.07252405 0.108669125
0.0068027126 -0.03833468 -0.05751383 -0.09354578 0.012082963 -0.099190645 0.02021879 0.08397648
-0.0062774047 -0.07936365 0.05836158 0.08652532 -0.12946676 0.05262576 0.009516068 0.021073489
-0.010139938 -0.07396582 0.025342347 0.044751577 -0.046978787 -0.070774764 0.04316972 0.07016213
0.059904434 0.0022920673 0.04633683 7.629592e-05 0.017021248 0.06819004 -0.022072926 -0.03436922
-0.026216492 -0.049795315 0.016910747 -0.060175974 0.07657482 -0.014540149 0.04832129 0.086514
0.0093221795 -0.010399051 0.0003845846 -0.06538905 0.06686755 -0.0063837995 -0.03401775 -0.093547925
0.05858241 -0.09723781 0.011745156 0.022138566 -0.08511356 -0.110795945 -0.06321686 0.055260938
-0.13739316 -0.13834351 0.020946978 -0.0139357215 0.09030406 0.029076148 -0.01905083 0.0025122573
-0.023469916 -0.094575696 -0.055971857 0.070865005 -0.050659675 -0.1191616 -0.1634888 0.0536432
0.04921276 0.14715233 -0.021157753 -0.024124432 -0.13405867 -0.104079135 0.01851629 -0.018825924
-0.046346754 -0.08076278 0.08624058 -0.036036655 -0.12981881 -0.014004354 -0.073026575 -0.14966093
-0.12909387 0.13607712 -0.017901387 0.0802988 -0.0023036404 -0.024579655 0.12115587 -0.10276339
-0.12497627 0.01794652 0.025748521 0.053170927 -0.0022426844 -0.14365047 0.006781198 0.06427618
0.04325396 0.09501301 0.114789896 -0.13347657 -0.029248841 0.09751354 -0.10933455 0.009973083
-0.12298642 -0.019502109 -0.06488493 -0.11195201 0.015349783 0.019210167 -0.1493112 -0.0830883
-0.14455926 -0.12928197 0.0040397155 -0.034969196 -0.0009706554 0.11986279 0.030019753 -0.049640123
-0.13196684 -0.009019661 0.07273285 0.035440758 0.12187136 -0.17043515 -0.0007444581 -0.021400508
-0.0012346187 0.049779437 -0.009021293 -0.010284752 -0.14866231 0.021686474 -0.1662728 -0.050254487
0.07358203 0.028783496 0.058931146 0.06523498 -0.09062821 0.043444637 0.008681905 0.022998301
0.08715208 0.12629423 -0.14831245 0.009842124 0.021243881 -0.0089505175 -0.07865044 0.009005429
-0.007957219 0.10649952 -0.18100484 -0.05761612 -0.029701501 0.067979455 0.02763775 0.11604115
0.055717938 -0.025694204 -0.04604761 -0.017246107 0.017632637 0.0071296147 0.02146399 -0.00043259686
00000000: e9a8 803d 381d a23d c9f3 7dbd 8f1e 023e
00000010: 7f21 acbb 5d72 aa3c 8f9e 173d 436b 66bd
00000020: abfe 4cbd 290f e63c 15f0 923d f7ee 1fbd
00000030: 663b cebd a3bd 023d ca3c 9a3c 158a de3d
00000040: 223b dcbd 05fd d8bb b68d 62bd ebd6 afbd
00000050: c6ee 7ebc f2df 89bd 5d90 8f3d f8e0 9bbd
00000060: 14d0 a83d 028d f0bc af1e 0e3d 3423 0ebe
00000070: b17d 89bd e7b7 90bc 38d6 32be a9f1 b63c
00000080: 38f0 323c ab6e e33a e17c e2bd cf80 cb3d
00000090: 01b9 4f3d fd16 acbc c90c 04bd 40f4 743d
000000a0: 15c7 293e 4534 b6bd f608 eebc be7b 3f3c
000000b0: 97f3 b8bd ec91 f33d 71c0 afbc 7c95 ab3d
000000c0: 2597 f4bc be64 13bd 3be5 55bd b061 4abd
000000d0: af27 8c3d b11c a93d c447 52bd f3f1 d93d
000000e0: 2aaa c53c 236c 5f3d 632f bc3d be43 733d
000000f0: 42bd 683d af2e e5bc b973 77bd 8a5f 463d
00000100: 804e 923c f000 d3bc 2415 a03c 7e0f 383d
00000110: 0af3 4cbc 6a8a bcbd 2f8e b5bc a45d 4fbd
00000120: 7a99 d3bd 3107 283b d3b3 8c3c 39db 9f3c
00000130: d5c3 7c3d 8d89 81bd 7d87 94bd eb8d de3d
00000140: 4ae9 de3b d304 1dbd 9f93 6bbd ee94 bfbd
00000150: 9ff7 453c 7724 cbbd e0a1 a53c dcfb ab3d
00000160: b0b2 cdbb 6989 a2bd 8d0c 6f3d 3034 b13d
00000170: ef92 04be 1c8e 573d 48e9 1b3c 4fa2 ac3c
00000180: fc21 26bc 647b 97bd c19a cf3c 6e4d 373d
00000190: d46c 40bd 5cf2 90bd bbd2 303d 2ab1 8f3d
000001a0: 5a5e 753d 8236 163b b0cb 3d3d 0f01 a038
000001b0: 2570 8b3c 38a7 8b3d 48d2 b4bc bdc6 0cbd
000001c0: f8c3 d6bc 2cf6 4bbd 6888 8a3c 157b 76bd
000001d0: 42d3 9c3d ce39 6ebc 8cec 453d 412e b13d
000001e0: 0ebc 183c c860 2abc 12a2 c939 b2ea 85bd
000001f0: dbf1 883d 312f d1bb 3256 0bbd 0e96 bfbd
00000200: 1cf4 6f3d 9e24 c7bd c16e 403c f05b b53c
00000210: 0550 aebd fce8 e2bd d777 81bd 4b59 623d
00000220: cbb0 0cbe eca9 0dbe ff98 ab3c a752 64bc
00000230: 56f1 b83d 1a31 ee3c 7c10 9cbc afa4 243b
00000240: fb43 c0bc e7b0 c1bd bf42 65bd ac21 913d
00000250: 8580 4fbd ff0a f4bd 9c69 27be f9b8 5b3d
00000260: 5293 493d 1aaf 163e 0653 adbc 9aa0 c5bc
00000270: ad46 09be 7127 d5bd 79af 973c d338 9abc
00000280: 18d6 3dbd f566 a5bd e79e b03d 2c9b 13bd
00000290: 39ef 04be 8572 65bc f58e 95bd b740 19be
000002a0: 2f31 04be cd57 0b3e eea5 92bc b273 a43d
000002b0: acf8 16bb 465b c9bc 9220 f83d 9d75 d2bd
000002c0: 8ff3 ffbd 9504 933c 90ee d23c c2c9 593d
000002d0: 00fa 12bb 1c19 13be d034 de3b 3ba3 833d
000002e0: 102b 313d 2e96 c23d f716 eb3d 15ae 08be
000002f0: 449b efbc 2eb5 c73d cbea dfbd 2466 233c
00000300: 4ee0 fbbd e3c2 9fbc 64e2 84bd 1847 e5bd
00000310: a87d 7b3c a45e 9d3c 09e5 18be 332a aabd
00000320: 5807 14be 7e62 04be 975f 843b dc3b 0fbd
00000330: 9573 7eba 9f7a f53d fceb f53c 7153 4bbd
00000340: 5122 07be 33c7 13bc f6f4 943d 542a 113d
00000350: b197 f93d 8d86 2ebe bd27 43ba 1e50 afbc
00000360: eed2 a1ba 86e5 4b3d 0cce 13bc 6081 28bc
00000370: ef3a 18be d5a7 b13c 6b43 2abe a6d7 4dbd
00000380: 2db2 963d 5ecb eb3c c961 713d eb99 853d
00000390: 489b b9bd 01f3 313d 8d3e 0e3c ef66 bc3c
000003a0: ca7c b23d 4653 013e 38df 17be dc40 213c
000003b0: a607 ae3c 31a5 12bc 7b13 a1bd 828b 133c
000003c0: ff5e 02bc 6c1c da3d 5559 39be e1fe 6bbd
000003d0: 9050 f3bc d038 8b3d 9068 e23c fca6 ed3d
000003e0: 7e38 643d a77c d2bc 6b9c 3cbd b547 8dbc
000003f0: 5272 903c 8b9f e93b 40d5 af3c 2bce e2b9

bias_ih_l0 f4 [405]
-0.021625327 0.11223393 -0.009524417 0.082171716 -0.008201854 0.027375454 -0.038367774 -0.04296863
0.118859455 0.062546365 -0.024855599 0.039564658 0.039047346 -0.058054514 -0.15166014 0.02896983
-0.10819398 -0.036194474 -0.105269626 -0.08920452 -0.10935185 -0.018775804 0.00908374 0.11757512
0.032650787 -0.021003533 -0.11291447 -0.10491248 -0.07966571 -0.15053226 0.009077111 0.013370127
0.05836886 -0.08715081 -0.014107512 0.05334754 -0.04843874 -0.10136436 -0.05681665 0.06948183
0.068367735 0.040514976 -0.11744746 0.07166883 0.04893511 -0.00028885083 0.0076393243 -0.088940814
0.056102566 0.016311578 0.019321732 -0.0403568 0.07655342 0.012313629 0.08940852 -0.08283812
0.06655661 -0.07221787 -0.118132085 0.07247661 -0.02510234 -0.029116448 -0.0916172 0.104964495
0.015986068 -0.079241216 -0.09232732 -0.08111688 -0.06442277 -0.006320049 -0.013782422 0.10507474
-0.07207153 -0.03289599 0.03580465 0.034126353 -0.15861204 0.025433064 0.08674646 -0.023676831
-0.09427557 0.016977474 -0.095029 0.045620624 -0.081868276 -0.050768718 -0.08676037 -0.12623674
-0.01332676 0.019496571 0.061829925 0.031152412 0.08866203 0.04166576 0.011817024 0.018677346
0.015655385 -0.07173499 -0.0103394175 0.026050184 0.009837557 0.017676624 0.070976794 -0.105157636
0.12827535 0.039776996 -0.087625735 0.04784018 0.0377956 -0.060704738 0.015126815 -0.05095885
0.020979306 0.11352789 0.10958201 0.030148122 -0.023119416 0.12514997 0.034864485 0.033454355
-0.13875633 -0.031795178 0.014070183 0.02801912 0.1642641 0.017115477 0.021277232 0.18084003
-0.07652551 0.032125175 0.047728956 -0.030162651 -0.039499734 0.13652027 0.063011765 0.1494694
-0.17028582 -0.08264602 0.06873858 -0.084417604 0.086225 0.13559352 0.10057335 0.024367789
-0.07333276 -0.0574972 0.017857037 0.016448224 -0.017963544 -0.0017132147 -0.056152705 0.12605983
0.032150537 0.05796974 0.00016821903 -0.01945067 0.05106623 -0.022938509 -0.19343343 -0.10397207
0.057491727 -0.08626325 -0.015044236 0.10542029 -0.09358747 0.0029892477 -0.0003800746 -0.007413034
-0.09830439 -0.025094595 -0.06178171 -0.04279731 0.10123662 0.026648035 -0.19572386 -0.06557235
-0.05383783 -0.07919193 0.11477705 -0.17966309 -0.02909729 0.053566393 -0.07117362 0.015657373
-0.055297274 -0.080939 0.06287581 -0.13088462 -0.044891436 -0.029844914 0.02957107 -0.10454122
-0.05307603 -0.022481877 0.0690307 -0.028628364 -0.04190778 0.0063414485 -0.12673156 -0.10808758
-0.0695447 -0.08845525 0.03773244 0.019471541 -0.21813792 0.036388326 0.0023790228 -0.06133818
-0.018150883 -0.012542903 0.038331408 -0.021670612 -0.14651737 -0.06812022 -0.06389746 0.07096735
-0.11221355 -0.07124954 -0.11906412 0.1037098 0.029305795 0.0060438463 -0.09865869 0.033377733
0.038747773 0.030747747 -0.06566368 -0.017725967 -0.07209602 -0.02463928 -0.03641101 0.067279406
-0.008330352 0.033189096 -0.10265129 -0.08683494 -0.038595732 0.09591085 -0.1584254 -0.057489328
0.08483759 -0.0020002413 -0.03482887 -0.06323442 -0.102611385 0.056382243 -0.03731959 -0.08120827
-0.1296318 -0.08019174 0.025101252 0.033683274 -0.14425112 -0.057183046 -0.019221345 -0.10891768
00000000: 9927 b1bc e7da e53d 4d0c 1cbc a549 a83d
00000010: 1261 06bc 7d42 e03c 8727 1dbd e0ff 2fbd
00000020: 966c f33d 4f18 803d f89d cbbc 8d0e 223d
00000030: 1cf0 1f3d 92ca 6dbd cc4c 1bbe 2352 ed3c
00000040: ce94 ddbd a840 14bd 9a97 d7bd dcb0 b6bd
00000050: ddf3 dfbd b7cf 99bc f8d3 143c 39cb f03d
00000060: d5bc 053d 9a0f acbc b43f e7bd 5bdc d6bd
00000070: c727 a3bd 2125 1abe 2ab8 143c 610e 5b3c
00000080: 3014 6f3d 207c b2bd 3223 67bc f382 5a3d
00000090: b367 46bd 1e98 cfbd 93b8 68bd 7d4c 8e3d
000000a0: 6204 8c3d 08f3 253d 4b88 f0bd 1cc7 923d
000000b0: 2f70 483d e770 97b9 4c53 fa3b 9a26 b6bd
000000c0: cecb 653d dc9f 853c 9c48 9e3c 2c4d 25bd
000000d0: 0ac8 9c3d 1abf 493c d01b b73d 08a7 a9bd
000000e0: d54e 883d f6e6 93bd 3cef f1bd 9e6e 943d
000000f0: 6ca3 cdbc 9e85 eebc cca1 bbbd a0f7 d63d
00000100: 37f5 823c 3849 a2bd 1b16 bdbd 9b20 a6bd
00000110: 16f0 83bd 6a18 cfbb abcf 61bc 6d31 d73d
00000120: 3d9a 93bd f2bd 06bd e6a7 123d 13c8 0b3d
00000130: 326b 22be 0059 d03c 21a8 b13d eaf5 c1bc
00000140: 8d13 c1bd 5814 8b3c 909e c2bd b1dc 3a3d
00000150: 8eaa a7bd dcf2 4fbd 6caf b1bd 3444 01be
00000160: 7c58 5abc 46b7 9f3c 6041 7d3d 5833 ff3c
00000170: 7094 b53d b7a9 2a3d 319c 413c 3c01 993c
00000180: b93f 803c cbe9 92bd a966 29bc 3267 d53c
00000190: b42d 213c 91ce 903c 485c 913d e35c d7bd
000001a0: 9d5a 033e 34ed 223d 1f75 b3bd 11f4 433d
000001b0: 8fcf 1a3d 88a5 78bd 76d6 773c 3aba 50bd
000001c0: cbdc ab3c 4f81 e83d 886c e03d 32f9 f63c
000001d0: ee64 bdbc 5027 003e 10ce 0e3d 6f07 093d
000001e0: 2416 0ebe a93b 02bd a086 663c 5b88 e53c
000001f0: d934 283e c235 8c3c 974d ae3c 212e 393e
00000200: 68b9 9cbd b095 033d 707f 433d aa17 f7bc
00000210: 79ca 21bd f8cb 0b3e 500c 813d 820e 193e
00000220: 685f 2ebe 5142 a9bd d0c6 8c3d 23e3 acbd
00000230: bc96 b03d 07d9 0a3e 67f9 cd3d f59e c73c
00000240: 7c2f 96bd 2f82 6bbd ec48 923c 6dbe 863c
00000250: 4828 93bc f28d e0ba 6100 66bd d415 013e
00000260: 48b0 033d ae71 6d3d f463 3039 0357 9fbc
00000270: d32a 513d 8ae9 bbbc 6a13 46be 4fef d4bd
00000280: 727c 6b3d c9aa b0bd 197c 76bc 98e6 d73d
00000290: caaa bfbd 41e7 433b c044 c7b9 09e9 f2bb
000002a0: d053 c9bd 2e93 cdbc d10e 7dbd 3b4c 2fbd
000002b0: 2555 cf3d fb4c da3c d66b 48be cc4a 86bd
000002c0: 0e85 5cbd 612f a2bd 3b10 eb3d 9af9 37be
000002d0: 715d eebc 6f68 5b3d 7ac3 91bd e443 803c
000002e0: 657f 62bd 59c3 a5bd 08c5 803d 9e06 06be
000002f0: 15e0 37bd 527d f4bc 073f f23c b519 d6bd
00000300: 4066 59bd ea2b b8bc f85f 8d3d 0886 eabc
00000310: 7ea7 2bbd edcb cf3b ebc5 01be 055d ddbd
00000320: 746d 8ebd 0728 b5bd 558d 1a3d c882 9f3c
00000330: 8c5f 5fbe ed0b 153d 61e9 1b3b be3d 7bbd
00000340: 29b1 94bc c080 4dbc 6501 1d3d 9186 b1bc
00000350: a608 16be 9d82 8bbd acdc 82bd 5457 913d
00000360: 38d0 e5bd 47eb 91bd e4d7 f3bd ce65 d43d
00000370: b512 f03c 750b c63b 910d cabd 17b7 083d
00000380: fcb5 1e3d b3e2 fb3c ae7a 86bd 0c36 91bc
00000390: 14a7 93bd 51d8 c9bc b623 15bd c9c9 893d
000003a0: 077c 08bc 4af1 073d d73a d2bd 84d6 b1bd
000003b0: 8f16 1ebd e86c c43d 453a 22be ee79 6bbd
000003c0: 55bf ad3d 7b16 03bb b8a8 0ebd 0c81 81bd
000003d0: eb25 d2bd 11f1 663d 6ddc 18bd 8550 a6bd
000003e0: 33be 04be 913b a4bd 24a1 cd3c 79f7 093d
000003f0: 91b6 13be c538 6abd 1576 9dbc 3c10 dfbd

bias_hh_l0 f4 [405]
-0.022248698 0.089994326 -0.07380363 0.027758725 -0.052434336 0.010248407 -0.08665129 -0.014686067
0.06854947 0.084425025 -0.09557632 0.022792662 0.033563033 0.023509191 -0.16177177 -0.022923099
0.011093254 -0.09471376 -0.045286775 -0.14085925 -0.014934801 -0.05532249 0.02732966 0.096923254
0.092866294 -0.07350547 -0.079273194 -0.07705139 -0.056093473 -0.03940029 -0.1118325 0.033342436
-0.07994421 -0.13894446 -0.0027766223 0.008005238 0.043200377 -0.06963386 0.030035796 -0.0070745302
0.11635675 -0.07595047 0.022595938 0.081782505 0.079300255 0.0051531116 -0.077369295 -0.008588796
0.04047627 0.03723643 -0.00885177 0.047953915 0.054126274 0.028002128 0.056372527 0.033438426
0.06576607 -0.14301811 -0.123055495 0.0372582 0.053156137 -0.02738787 -0.04509559 0.066872776
0.010620486 -0.042135525 -0.0022604943 -0.0016477878 -0.09122617 -0.061959594 -0.0408605 0.027804429
-0.07361194 0.0057237307 0.029009266 0.029807117 -0.002414765 0.01130739 0.032926682 -0.0033522772
-0.0708584 -0.034924086 -0.08452784 -0.011311731 -0.095271945 -0.027202519 0.071013585 -0.00026477
-0.06425327 0.051259592 0.112271205 -0.08072777 0.1925995 0.027206311 -0.06862181 -0.018248888
0.018280294 -0.042176887 0.03820136 -0.016989637 0.05628804 -0.07979581 0.05784849 -0.04669608
-0.025652947 -0.040986408 0.05098913 -0.050021537 0.08238039 -0.10659854 -0.029195338 0.019399539
-0.012525812 0.058902413 0.06822621 0.016793482 -0.062089898 0.10815928 -0.08153895 -0.0422238
-0.018683007 -0.048697077 -0.10627723 0.026656171 0.09210745 -0.07387191 -0.054902364 0.18245174
-0.07163262 -0.07974461 0.01457537 -0.032606877 -0.09073089 0.102913015 0.093091935 0.1109447
-0.17360345 -0.07038181 -0.032837775 -0.10970929 -0.001139462 0.034142144 0.13103816 0.023288367
-0.07479962 -0.013350109 -0.05565306 -0.025863227 -0.04810102 -0.06043001 -0.017412063 0.050837666
-0.054171667 -0.08600449 0.04368682 -0.12391305 0.01846416 -0.111838914 -0.0656843 -0.12126126
0.039847624 0.0046075787 -0.08486138 0.06333159 0.004190185 -0.0015689734 -0.08972635 -0.07011231
-0.035998873 -0.040617585 -0.062833875 0.042767413 0.086233266 0.004271864 -0.1735951 -0.010657188
0.022430753 -0.026435783 0.13453974 -0.22295757 -0.07646122 0.056943826 -0.124833494 0.017158715
-0.10168926 -0.06092046 0.03628281 0.009293334 -0.08331163 -0.033870008 -0.09023881 -0.0054044425
-0.10672926 -0.04356722 0.04107665 0.079271436 -0.07529083 -0.0035782277 -0.0597156 0.042187613
0.034869816 -0.022712527 -0.102639005 0.019104956 -0.1393642 -0.049249638 -0.0123258745 -0.015481916
-0.13012855 -0.0735973 0.06998642 0.06493814 -0.17468525 -0.03142572 0.073317215 -0.0074325013
-0.0871014 0.0019775091 -0.092916094 0.07220535 -0.006651865 0.041986514 -0.054836772 -0.037676636
-0.00085867255 -0.12770931 -0.036399 -0.14310144 -0.049483657 0.10355907 0.07933942 0.045409612
0.007240346 -0.09894615 -0.10281731 0.018112805 -0.024200024 0.097979724 -0.041084234 -0.070454955
0.079519086 0.11552974 -0.028065432 -0.079706125 -0.06830684 -0.069655195 -0.1163986 -0.030214872
-0.1815814 -0.060786027 0.053294577 -0.06374217 -0.06002004 -0.0065284963 -0.036712937 0.018865978
00000000: e742 b6bc f24e b83d 5c26 97bd 4466 e33c
00000010: 63c5 56bd efe8 273c 3b76 b1bd d49d 70bc
00000020: aa63 8c3d 07e7 ac3d 85bd c3bd adb7 ba3c
00000030: 6479 093d 5996 c03c 80a7 25be 39c9 bbbc
00000040: 7bc0 353c 4af9 c1bd a07e 39bd 683d 10be
00000050: 18b1 74bc d699 62bd 73e2 df3c b37f c63d
00000060: af30 be3d 098a 96bd fc59 a2bd 1fcd 9dbd
00000070: 45c2 65bd 3362 21bd 7008 e5bd 1492 083d
00000080: cab9 a3bd 7547 0ebe fef7 35bb 6728 033c
00000090: e1f2 303d 329c 8ebd a10d f63c 76d1 e7bb
000000a0: 734c ee3d ec8b 9bbd 1e1b b93c 967d a73d
000000b0: 2c68 a23d 6fdb a83b cb73 9ebd 05b8 0cbc
000000c0: 72ca 253d 3a85 183d 0407 11bc 536b 443d
000000d0: 83b3 5d3d b864 e53c e1e6 663d bbf6 083d
000000e0: 5cb0 863d 5773 12be 8504 fcbd 0e9c 183d
000000f0: 40ba 593d 875c e0bc 27b6 38bd 98f4 883d
00000100: 8c01 2e3c 4d96 2cbd cd24 14bb 95fa d7ba
00000110: c9d4 babd 58c9 7dbd 575d 27bd 1dc6 e33c
00000120: dbc1 96bd 228e bb3b d7a4 ed3c 0e2e f43c
00000130: 0941 1ebb a242 393c 21de 063d e1b1 5bbb
00000140: 351e 91bd 8f0c 0fbd ef1c adbd d754 39bc
00000150: f01d c3bd d1d7 debc 926f 913d d4d0 8ab9
00000160: 3897 83bd 94f5 513d 72ee e53d 9a54 a5bd
00000170: ce38 453e c5df de3c 9789 8cbd b17e 95bc
00000180: 8ec0 953c acc1 2cbd 0779 1c3d da2d 8bbc
00000190: 4a8e 663d fc6b a3bd 8af2 6c3d 6444 3fbd
000001a0: 2126 d2bc 5de1 27bd fad9 503d 62e3 4cbd
000001b0: 0db7 a83d 5650 dabd 102b efbc c8eb 9e3c
000001c0: 1039 4dbc a843 713d 2fba 8b3d 7c92 893c
000001d0: fa51 7ebd 9d82 dd3d e5fd a6bd ddf2 2cbd
000001e0: 1b0d 99bc 9676 47bd e0a7 d9bd 0b5e da3c
000001f0: d5a2 bc3d 284a 97bd 4de1 60bd a1d4 3a3e
00000200: 20b4 92bd 2451 a3bd 88cd 6e3c ca8e 05bd
00000210: 1ed1 b9bd 0fc4 d23d fca6 be3d fa36 e33d
00000220: 1ac5 31be 5724 90bd e780 06bd 44af e0bd
00000230: 005a 95ba a2d8 0b3d de2e 063e 3fc7 be3c
00000240: 8b30 99bd 6aba 5abc 77f4 63bd 1edf d3bc
00000250: 9305 45bd 7585 77bd bea3 8ebc 283b 503d
00000260: 1ce3 5dbd 1f23 b0bd f3f0 323d 20c6 fdbd
00000270: 2642 973c cd0b e5bd 7e85 86bd d357 f8bd
00000280: 4337 233d 2cfb 963b cecb adbd feb3 813d
00000290: d24d 893b 03a6 cdba 73c2 b7bd 0b97 8fbd
000002a0: 8e73 13bd a05e 26bd 0caf 80bd e22c 2f3d
000002b0: 119b b03d fefa 8b3b eac2 31be 7c9b 2ebc
000002c0: b3c0 b73c db8f d8bc c9c4 093e fd4e 64be
000002d0: b397 9cbd ee3d 693d b4a8 ffbd 6f90 8c3c
000002e0: 7542 d0bd bb87 79bd 499d 143d 1143 183c
000002f0: 4a9f aabd 47bb 0abd 20cf b8bd c017 b1bb
00000300: df94 dabd 8b73 32bd fd3f 283d 1059 a23d
00000310: 1432 9abd b380 6abb 5898 74bd ebcc 2c3d
00000320: a7d3 0e3d 9f0f babc 6634 d2bd ff81 9c3c
00000330: 7db5 0ebe fdb9 49bd 77f2 49bc dda7 7dbc
00000340: 6b40 05be 2eba 96bd 0a55 8f3d 4afe 843d
00000350: b1e0 32be 41b8 00bd 5627 963d 578c f3bb
00000360: 3862 b2bd 1999 013b cb4a bebd 66e0 933d
00000370: e3f7 d9bb 0dfa 2b3d 869c 60bd d152 1abd
00000380: 8a18 61ba 3bc6 02be 1e17 15bd 2f89 12be
00000390: 60af 4abd c716 d43d b57c a23d 6eff 393d
000003a0: 6d40 ed3b 47a4 cabd e291 d2bd 4e61 943c
000003b0: 213f c6bc 98a9 c83d f147 28bd b04a 90bd
000003c0: e7da a23d db9a ec3d 7ae9 e5bc f73c a3bd
000003d0: 75e4 8bbd 62a7 8ebd 6462 eebd 2e85 f7bc
000003e0: 79f0 39be c5fa 78bd 6a4b 5a3d 418b 82bd
000003f0: 93d7 75bd ffec d5bb 4e60 16bd d38c 9a3c

weight f4 [1, 4, 1, 12, 12]
-0.1589491 -0.018036228 0.048762262 0.07483082 -0.13762882 0.028419409 0.030462584 0.042529542
0.040683948 0.03373297 -0.06814028 -0.05562087 -0.08807907 0.03633569 0.017425027 0.08871824
0.019409535 -0.023641773 -0.024642585 0.026232637 0.031311803 -0.018166168 0.042430166 -0.025861334
-0.030919928 0.04616324 -0.015433838 0.059566405 -0.052726284 0.023388313 0.064583816 -0.059814803
0.13503431 0.070619315 -0.054790482 0.12587665 -0.0007044024 -0.008783866 -0.11563232 -0.1619873
-0.026024241 0.018521983 0.00618672 -0.038865194 0.055626325 0.08092143 0.008525998 -0.0769664
-0.0026705181 -0.012825035 0.18451814 0.15041162 -0.03666489 0.022881946 0.058546007 0.08020811
-0.026621383 -0.12412259 0.017659139 0.065168135 -0.079993606 -0.0756538 0.035514977 0.08889711
-0.13395105 -0.01645802 0.2043232 0.025213942 -0.06383413 -0.025616584 -2.7651631e-05 -0.14343862
0.01325013 0.06705387 0.09900569 0.08538363 0.09463053 0.070298195 -0.028216528 0.045638632
-0.03459892 -0.09132875 0.02647365 -0.027522387 0.040401448 0.07143898 0.10440215 0.079134464
0.010429511 -0.15230764 -0.025195658 0.089365974 -0.10140334 -0.014632751 0.07216918 0.10093882
-0.0122447675 -0.020629361 0.09973499 0.13515984 -0.029137338 0.0684908 0.025631031 0.0801765
0.025282642 0.057395205 -0.038320765 0.0566084 0.0952455 0.03174163 -0.09663271 -0.13397871
0.105185516 0.07951728 -0.13469547 -0.055788238 0.1028692 0.056987897 0.054343004 -0.017833622
0.010268461 0.08127705 -0.028188871 -0.027734715 0.017793806 0.010907221 0.07578657 -0.04840386
0.01776555 0.01868249 -0.027825654 0.13261136 -0.07586365 0.012908324 0.006130686 0.065637104
0.050960943 -0.045024738 0.022767844 -0.028977662 -0.060202215 0.00022140933 0.03777076 -0.05654896
0.05686113 0.03436985 -0.13185793 0.008234007 0.10399119 -0.022255005 -0.08686655 -0.052583955
0.057651937 -0.025846062 -0.050330564 0.050185215 0.114514396 -0.006082495 -0.023565182 0.05498276
-0.01808158 -0.0115559 0.08286516 -0.036637213 0.045714565 0.08412931 -0.03772108 0.14484827
0.08127935 0.059707586 -0.0030970091 0.010412972 0.042661645 -0.0759038 0.016616747 0.010664073
0.031832393 0.12432886 0.060816493 -0.0014186361 0.05368927 -0.20640932 -0.10077101 -0.047039628
-0.0046351706 -0.036019683 0.057350226 -0.08265435 -0.059566047 0.03675261 -0.06296497 -0.015733633
0.11606378 -0.03164599 -0.21016066 -0.22052923 0.023008605 0.04935865 -0.10392227 -0.19278853
0.16743515 0.20119433 -0.012289519 0.10539543 -0.090592556 0.0064644455 0.0060416185 0.043435536
0.00084635796 0.044508502 -0.085209966 -0.057570327 7.705294e-05 0.06540161 -0.07593934 0.0057314825
0.08386837 -0.058936335 -0.09737383 -0.11697657 0.06723371 0.04461353 -0.06939535 0.025430964
0.02133915 0.073649354 0.018481769 0.022159066 -0.0554951 -0.09786367 -0.030105226 0.06239571
-0.1709349 0.018172592 0.017822579 -0.020379016 0.079064846 0.043242943 0.019718213 -0.008013415
0.08930603 0.11726479 -0.18466853 -0.15092735 0.13650163 0.2329649 -0.05672523 -0.21602066
0.014028209 0.08026723 -0.011015839 0.08975162 -0.050694365 -0.02289527 -0.07970426 -0.05610206
00000000: 8ec3 22be b6c0 93bc f0ba 473d e740 993d
00000010: 92ee 0cbe d2cf e83c ab8c f93c 7533 2e3d
00000020: 36a4 263d 952b 0a3d 228d 8bbd b6d2 63bd
00000030: cd62 b4bd bcd4 143d eebe 8e3c e9b1 b53d
00000040: bf00 9f3c 64ac c1bc 3fdf c9bc d4e5 d63c
00000050: ce40 003d 37d1 94bc 41cb 2d3d 26db d3bc
00000060: ca4b fdbc aa15 3d3d 35de 7cbc e7fb 733d
00000070: 84f7 57bd d998 bf3c 8544 843d 5e00 75bd
00000080: 6f46 0a3e dca0 903d fc6b 60bd cfe5 003e
00000090: a5a7 38ba 34ea 0fbc a3d0 ecbd 00e0 25be
000000a0: ca30 d5bc 6abb 973c f8b9 ca3b 1c31 1fbd
000000b0: 6ed8 633d 22ba a53d a1b0 0b3c 8fa0 9dbd
000000c0: dc03 2fbb 1820 52bc 53f2 3c3e 8105 1a3e
000000d0: ec2d 16bd eb72 bb3c f0cd 6f3d 2644 a43d
000000e0: 1615 dabc fc33 febd e6a9 903c df76 853d
000000f0: b0d3 a3bd 61f0 9abd 2778 113d b00f b63d
00000100: 772a 09be f8d2 86bc 1a3a 513e 788d ce3c
00000110: 78bb 82bd dfd9 d1bc 6df5 e7b7 93e1 12be
00000120: 1317 593c 8a53 893d 7fc3 ca3d 9ddd ae3d
00000130: a7cd c13d 80f8 8f3d 5926 e7bc 93ef 3a3d
00000140: 99b7 0dbd 910a bbbd 45df d83c a176 e1bc
00000150: fd7b 253d 9a4e 923d cbd0 d53d 4011 a23d
00000160: 8ae0 2a3c 89f6 1bbe 2067 cebc 8205 b73d
00000170: 8eac cfbd 35be 6fbc 6fcd 933d 03b9 ce3d
00000180: 479e 48bc e8fe a8bc dc41 cc3d 5767 0a3e
00000190: 6db1 eebc e844 8c3d 2bf8 d13c 9433 a43d
000001a0: 8b1d cf3c 3c17 6b3d 3cf6 1cbd 36de 673d
000001b0: 1310 c33d 8303 023d 5fe7 c5bd b731 09be
000001c0: 816b d73d f5d9 a23d 9ced 09be 3582 64bd
000001d0: 16ad d23d 246c 693d c596 5e3d d117 92bc
000001e0: 0c3d 283c 9574 a63d 59ec e6bc ea33 e3bc
000001f0: 51c4 913c 33b4 323c fd35 9b3d 2043 46bd
00000200: 0f89 913c 050c 993c a0f2 e3bc 46cb 073e
00000210: 675e 9bbd 6f7d 533c ece3 c83b bf6c 863d
00000220: 6cbc 503d dc6b 38bd a183 ba3c 9062 edbc
00000230: 9996 76bd 1d2a 6839 83b5 1a3d e29f 67bd
00000240: 37e7 683d 66c7 0c3d c405 07be eee7 063c
00000250: 55f9 d43d 2150 b6bc 17e7 b1bd 4662 57bd
00000260: 7024 6c3d 1fbb d3bc 6c27 4ebd 038f 4d3d
00000270: 8686 ea3d ab4f c7bb c50b c1bc 9a35 613d
00000280: d21f 94bc f554 3dbc 36b5 a93d e710 16bd
00000290: 323f 3b3d fd4b ac3d 6b81 1abd 1b53 143e
000002a0: ca75 a63d f18f 743d 31f7 4abb 2c9b 2a3c
000002b0: fabd 2e3d 7473 9bbd d81f 883c 5db8 2e3c
000002c0: af62 023d 21a0 fe3d b71a 793d 87f1 b9ba
000002d0: 48e9 5b3d f75c 53be 0861 cebd a0ac 40bd
000002e0: a1e2 97bb 6089 13bd 12e8 6a3d af46 a9bd
000002f0: 87fb 73bd e889 163d c7f3 80bd d2e3 80bc
00000300: d9b2 ed3d 3a9f 01bd 5b34 57be 6ad2 61be
00000310: 8b7c bc3c 4c2c 4a3d 33d5 d4bd 5b6a 45be
00000320: 1f74 2b3e e305 4e3e fb59 49bc 8fd9 d73d
00000330: 9788 b9bd b3d3 d33b c5f8 c53b 76e9 313d
00000340: 1fde 5d3a 8c4e 363d 9082 aebd ddce 6bbd
00000350: 7b97 a138 48f1 853d 1686 9bbd 29cf bb3b
00000360: 2ec3 ab3d 3a67 71bd ee6b c7bd 6991 efbd
00000370: d4b1 893d adbc 363d 261f 8ebd 9954 d03c
00000380: 71cf ae3c 79d5 963d 1467 973c ee86 b53c
00000390: d44e 63bd bf6c c8bd 3c9f f6bc a592 7f3d
000003a0: 8f09 2fbe b0de 943c a800 923c e5f1 a6bc
000003b0: c0ec a13d 831f 313d 1788 a13c b34a 03bc
000003c0: 14e6 b63d 8628 f03d bf19 3dbe b38c 1abe
000003d0: 15c7 0b3e 5a8e 6e3e b758 68bd 8534 5dbe
000003e0: 93d6 653c 2563 a43d c77b 34bc b3cf b73d
000003f0: e5a4 4fbd dc8e bbbc fd3b a3bd 46cb 65bd

weight f4 [12, 12]
0.28797284 -0.2185012 -0.12920357 -0.0911293 0.1558892 0.12989518 0.13474447 -0.06758478
-0.19011228 0.3162485 0.12343074 -0.023625605 0.1485249 -0.18014137 0.26585466 -0.015911948
0.13863118 0.05789962 0.2237945 0.07810171 -0.37505764 0.08878515 0.238054 -0.38673106
-0.02082673 -0.071936175 0.25338823 0.29289043 0.15874013 0.20565926 -0.11835702 -0.22590578
-0.36518314 -0.20860997 0.1788992 -0.25939518 0.013110803 -0.14699101 -0.15762125 -0.086884305
0.07149834 0.05342432 0.06816092 -0.1358354 0.10768511 -0.07217014 0.2368035 -0.07933077
0.2602017 -0.21378142 -0.14576204 -0.2568194 -0.029278817 0.092861325 0.06025165 0.13658811
0.055556394 0.12637125 -0.20851423 0.17229009 -0.06378734 0.15100783 -0.12259152 0.062468126
0.277718 0.056050442 -0.2380717 -0.15496555 -0.19880046 0.21598817 0.047928557 -0.091231
0.01368107 -0.007727872 0.017926978 -0.16687615 -0.09945485 0.09130837 0.09570589 -0.180386
0.123370804 0.21396379 -0.21264683 0.24914117 -0.091985874 -0.15893297 0.17702839 -0.16284958
0.059854086 -0.1740251 0.25027496 0.20511886 0.025142971 -0.018182183 0.072868496 -0.30034557
0.16450475 0.00068598136 0.3422595 -0.0754341 0.109226 -0.2652324 -0.21861114 -0.16923788
-0.23408742 -0.24086012 0.164285 -0.170406 0.015590389 -0.29887122 -0.02301427 0.23001347
0.2778645 -0.008319494 0.181876 0.23913091 -0.22451615 -0.17322518 -0.18010591 0.024393307
-0.034832224 0.16854708 0.10701848 -0.21953093 0.29982004 -0.25160038 -0.16724153 -0.21707107
0.027068246 0.13965014 -0.17355923 -0.08789224 -0.071594454 0.11106261 -0.09615689 -0.13540377
-0.10526781 0.14221124 -0.006967923 -0.10895597 0.05407353 0.13561699 0.110328645 0.30053985
00000000: 2d71 933e c7be 5fbe f14d 04be 00a2 babd
00000010: 6ba1 1f3e 3e03 053e 74fa 093e e469 8abd
00000020: cbac 42be 53eb a13e 41c9 fc3d 7c8a c1bc
00000030: e916 183e fb76 38be 1a1e 883e c659 82bc
00000040: 55f5 0d3e 2728 6d3d 632a 653e caf3 9f3d
00000050: 8e07 c0be fdd4 b53d 6ec4 733e 9d01 c6be
00000060: d29c aabc 4653 93bd 1abc 813e bcf5 953e
00000070: c68c 223e 5798 523e 2a65 f2bd d853 67be
00000080: 49f9 babe da9d 55be 5a31 373e 72cf 84be
00000090: b2ce 563c d084 16be 7767 21be 66f0 b1bd
000000a0: b96d 923d 76d3 5a3d f497 8b3d 6f18 0bbe
000000b0: 038a dc3d f0cd 93bd 9e7c 723e 2c78 a2bd
000000c0: 2839 853e 84e9 5abe a542 15be d57d 83be
000000d0: 21da efbc 142e be3d 6fca 763d c1dd 0b3e
000000e0: 1a8f 633d 7767 013e c184 55be d06c 303e
000000f0: f0a2 82bd cca1 1a3e 4311 fbbd 94de 7f3d
00000100: 0e31 8e3e 2695 653d 11c9 73be 4aaf 1ebe
00000110: 5992 4bbe 012c 5d3e bc50 443d 52d7 babd
00000120: 9126 603c 173a fdbb 99db 923c 95e1 2abe
00000130: fcae cbbd e2ff ba3d 7301 c43d 1cb7 38be
00000140: d5a9 fc3d 5319 5b3e 17c0 59be dd1e 7f3e
00000150: 1763 bcbd 53bf 22be ee46 353e 0ac2 26be
00000160: 8f29 753d a333 32be 0a24 803e ae0a 523e
00000170: a2f8 cd3c cdf2 94bc 143c 953d e5c6 99be
00000180: ef73 283e 6ed3 333a a33c af3e 327d 9abd
00000190: e2b1 df3d 8bcc 87be 99db 5fbe b24c 2dbe
000001a0: 9db4 6fbe 09a4 76be 543a 283e e97e 2ebe
000001b0: d56e 7f3c a605 99be 6c88 bcbc a788 6b3e
000001c0: 4144 8e3e 7d4e 08bc b43d 3a3e bcde 743e
000001d0: 90e7 65be f161 31be af6d 38be 79d4 c73c
000001e0: 3cac 0ebd 9b97 2c3e 812c db3d b7cc 60be
000001f0: 0382 993e c4d1 80be 5d41 2bbe e147 5ebe
00000200: 3abe dd3c 7200 0f3e 83b9 31be d900 b4bd
00000210: 1da0 92bd cb74 e33d e7ed c4bd 49a7 0abe
00000220: a696 d7bd d39f 113e 2d53 e4bb 4f24 dfbd
00000230: 357c 5d3d 2edf 0a3e fcf3 e13d 5ce0 993e

bias f4 [12]
0.1993809 -0.06694628 0.074995644 0.06664364 -0.048038244 0.25470075 0.15161288 0.2564775
-0.22880054 0.046781447 0.15308024 -0.18709524
00000000: 822a 4c3e 221b 89bd 5197 993d 767c 883d
00000010: c0c3 44bd 2368 823e 6840 1b3e 0551 833e
00000020: b04a 6abe e79d 3f3d 11c1 1c3e e595 3fbe

weight f4 [3, 12]
-0.011577023 -0.120379426 -0.08416526 -0.26362556 -0.14032575 -0.41214702 -0.24190503 0.23797591
-0.31314477 0.05752899 -0.30949038 -0.04092028 0.43681166 -0.33070952 -0.42065695 0.17081349
0.38381174 0.37067184 0.16153753 -0.14742853 -0.3925722 -0.37296212 0.3178467 0.43431306
-0.35482535 0.24841824 0.13129845 -0.3286684 0.010865214 -0.0225326 0.00933594 0.017496563
-0.010061475 0.30105218 -0.16781889 -0.43437082
00000000: 8ead 3dbc 7d89 f6bd d65e acbd eef9 86be
00000010: 8eb1 0fbe ef04 d3be f4b5 77be f5af 733e
00000020: 8354 a0be 85a3 6b3d 8675 9ebe 069c 27bd
00000030: c7a5 df3e c252 a9be 5960 d7be bbe9 2e3e
00000040: f982 c43e b3c8 bd3e 186a 253e 81f7 16be
00000050: 39ff c8be e4f4 bebe cdbc a23e 485e de3e
00000060: abab b5be 5a61 7e3e 1a73 063e 3947 a8be
00000070: 0304 323c 4a96 b8bc c5f5 183c f454 8f3c
00000080: e3d8 24bc 8323 9a3e b7d8 2bbe da65 debe

bias f4 [3]
-0.28487656 0.0674102 -0.20598793
00000000: 57db 91be 5c0e 8a3d 80ee 52be

weight f4 [3, 12]
-0.26357797 -0.19006126 -0.20551674 -0.22235893 0.01329327 -0.0873857 -0.0158697 -0.1337562
0.26294285 0.25259915 -0.2910307 -0.27494174 -0.12099023 -0.14448051 -0.088779025 0.0042252843
-0.13594173 -0.16784105 -0.103457935 -0.029784836 -0.18203154 -0.026816582 -0.20343174 -0.1586132
-0.16264357 0.14123796 0.14095984 0.009492962 -0.25624195 -0.030322844 0.20533307 0.03096364
0.18114938 0.2566383 -0.22784068 0.1939316
00000000: b1f3 86be 6b9f 42be fb72 52be 0fb2 63be
00000010: 04cc 593c 46f7 b2bd 2c01 82bc 63f7 08be
00000020: 72a0 863e ad54 813e fa01 95be 2ac5 8cbe
00000030: bac9 f7bd b3f2 13be c7d1 b5bd 4174 8a3b
00000040: 4f34 0bbe 86de 2bbe c1e1 d3bd 54ff f3bc
00000050: 7a66 3abe 73ae dbbc 6950 50be 806b 22be
00000060: 098c 26be afa0 103e c757 103e 5e88 1b3c
00000070: 2532 83be 9d67 f8bc d542 523e 76a7 fd3c
00000080: 397f 393e 1866 833e 114f 69be 0196 463e

bias f4 [3]
-0.34385884 0.25950292 0.07289915
00000000: 440e b0be 91dd 843e 264c 953d

weight f4 [3, 3]
-0.40462866 0.41511226 0.42078096 -0.35621926 0.057692125 0.35324025 -0.09491521 0.38923576
0.48199737
00000000: 7d2b cfbe 9889 d43e 9a70 d73e 5f62 b6be
00000010: 944e 6c3d e8db b43e e862 c2bd e949 c73e
00000020: 5cc8 f63e

bias f4 [3]
0.44579417 0.53306496 -0.53251636
00000000: 223f e43e f276 083f fe52 08bf

weight f4 [48, 12]
-0.13435291 0.03883036 0.04430677 -0.28247905 0.450191 0.4292522 -0.17410862 0.06944869
-0.22541207 0.2864695 0.07918136 0.23672292 -0.112692244 -0.19810247 0.077721864 0.017676346
-0.007637943 0.06628421 -0.12034175 -0.20628196 -0.043711685 -0.0005847901 -0.114802666 -0.082059935
-0.17552973 0.11298871 -0.23931137 0.25612575 -0.40268174 -0.3125295 0.28844184 -0.16071469
-0.32625562 -0.12590186 0.15660752 0.17338373 0.18594958 -0.0643776 -0.035157725 0.31309852
-0.10098631 -0.32868803 0.112154104 -0.38319233 -0.08696808 -0.008978803 -0.0528725 0.18039116
0.033365164 -0.12845701 -0.07084905 0.3678124 -0.35616124 -0.6212134 0.272318 -0.32256076
-0.05230001 0.023556247 -0.31782117 -0.13735555 0.17522167 -0.09120086 -0.26420537 -0.32270432
0.53865564 0.50566316 -0.11631254 0.2523145 -0.037221495 0.05242544 -0.13011786 0.01983472
-0.22628877 -0.02953086 -0.13303976 -0.00076620054 -0.43177307 -0.3139232 0.21060371 -0.22879462
-0.19336115 0.15711005 -0.0776155 -0.0677885 -0.09521046 0.04207627 -0.2878658 -0.040483173
0.13676316 0.31764877 -0.30728203 -0.14165875 0.048857346 -0.15630352 0.15514837 -0.18655963
-0.0016100697 -0.2814567 0.13299114 -0.28712088 -0.06906934 -0.097314544 0.07580197 -0.08981808
0.1890815 0.13374048 -0.026237134 -0.193549 0.08786575 0.25334844 0.12707338 0.11163353
0.4336843 0.19151339 0.09004885 0.048115347 0.3655968 -0.118111536 -0.0686217 0.14146417
-0.092804015 0.23473789 -0.19549647 0.08794235 0.17180029 0.07573023 -0.1562779 0.23010346
0.30975154 0.16746391 -0.13735422 0.1364387 0.09761361 0.2150988 0.22154447 -0.14825596
-0.45112258 -0.34731662 0.21676613 0.12187315 -0.26885223 0.065779656 0.010496818 0.14252195
0.0729525 -0.09336914 -0.23821305 0.020009695 0.06818229 0.06524225 -0.21691261 -0.31091818
-0.19451386 -0.02705726 0.011444033 0.07721623 -0.21006517 -0.016754504 -0.031587847 -0.20236455
0.17193064 0.024921346 -0.023575326 0.28800648 -0.19606304 -0.124139994 -0.1603779 -0.12384269
0.18862975 -0.09198537 -0.25499764 0.14696711 -0.031214003 -0.16256534 0.2497214 -0.3568779
-0.32216978 0.33671308 0.120499514 -0.20743611 0.035678044 -0.12252965 -0.2152787 0.053204462
0.21833313 0.0704263 -0.0042819055 -0.07714408 0.2590905 -0.18192855 0.26674095 0.02823727
0.112996764 0.1929896 -0.19486567 0.06988658 0.16365947 -0.07335289 0.00463372 -0.034748826
0.12586623 0.07146368 -0.26920223 -0.25803462 -0.024483059 0.08447313 -0.28442436 -0.21001102
0.47908166 0.22633901 -0.22590487 -0.082917474 -0.057996597 -0.031945832 -0.18612507 0.19364443
-0.17788935 0.10047111 -0.2127671 -0.38175482 0.3503416 0.5999297 -0.31036404 -0.107708886
-0.13607213 -0.0723552 0.30707312 0.050952867 -0.28056923 -0.049109552 -0.14788531 -0.3899427
0.20883137 0.086194195 -0.28548124 0.30613527 -0.1784686 -0.26353 -0.05234875 -0.10334769
-0.18919419 0.28180036 -0.2470528 0.40611058 -0.15932173 -0.5649592 0.2390716 -0.1696168
-0.21654844 -0.0829153 -0.21774572 0.023040151 -0.024610352 0.12299192 0.06565985 0.26775613
00000000: cf93 09be 950c 1f3d 047b 353d 18a1 90be
00000010: 6f7f e63e f2c6 db3e 8849 32be 1d3b 8e3d
00000020: 6cd2 66be 21ac 923e d629 a23d 7e67 723e
00000030: 31cb e6bd 60db 4abe a42c 9f3d fccd 903c
00000040: b647 fabb 04c0 873d bc75 f6bd 943b 53be
00000050: 060b 33bd 994c 19ba a91d ebbd 0a0f a8bd
00000060: 11be 33be a066 e73d 0a0e 75be ea22 833e
00000070: 4d2c cebe de03 a0be a6ae 933e 6492 24be
00000080: fa0a a7be 6bec 00be b95d 203e 818b 313e
00000090: 9169 3e3e 67d8 83bd 8c01 10bd 734e a03e
000000a0: e9d1 cebd cc49 a8be 0db1 e53d c931 c4be
000000b0: 521c b2bd d41b 13bc d690 58bd 76b8 383e
000000c0: e9a9 083d 3c8a 03be 4f19 91bd e851 bc3e
000000d0: c45a b6be d707 1fbf 446d 8b3e af26 a5be
000000e0: 8938 56bd 08f9 c03c 75b9 a2be efa6 0cbe
000000f0: 4f6d 333e 84c7 babd ed45 87be 8039 a5be
00000100: 56e5 093f 2473 013f 4535 eebd 5e2f 813e
00000110: 9175 18bd 0fbc 563d 9e3d 05be 6c7c a23c
00000120: 3eb8 67be b4ea f1bc 933b 08be d9da 48ba
00000130: 5c11 ddbe 8bba a0be 80a8 573e 2349 6abe
00000140: 7700 46be 75e1 203e e0f4 9ebd b2d4 8abd
00000150: b4fd c2bd 2b58 2c3d 2563 93be afd1 25bd
00000160: a40b 0c3e dca2 a23e 1254 9dbe fe0e 11be
00000170: a41e 483d 080e 20be 37df 1e3e 7d09 3fbe
00000180: f908 d3ba 181b 90be d42e 083e 8201 93be
00000190: 3a74 8dbd d94c c7bd 103e 9b3d 8bf2 b7bd
000001a0: 959e 413e 44f3 083e 42ef d6bc b631 46be
000001b0: f5f2 b33d e3b6 813e 861f 023e 1fa0 e43d
000001c0: de0b de3e 161c 443e 886b b83d 9914 453d
000001d0: 812f bb3e 76e4 f1bd 8989 8cbd fcdb 103e
000001e0: 0810 bebd 215f 703e 3a30 48be 1e1b b43d
000001f0: 6aec 2f3e 7318 9b3d 5007 20be 3ea0 6b3e
00000200: c197 9e3e a97b 2b3e 96a6 0cbe 96b6 0b3e
00000210: a5e9 c73d dc42 5c3e 8edc 623e 69d0 17be
00000220: 8af9 e6be 7cd3 b1be f1f7 5d3e a198 f93d
00000230: 00a7 89be 7cb7 863d d9fa 2b3c 46f1 113e
00000240: 1f68 953d 5238 bfbd 1fee 73be 5feb a33c
00000250: 28a3 8b3d bb9d 853d 571e 5ebe ab30 9fbe
00000260: a42e 47be 30a7 ddbc c17f 3b3c 8b23 9e3d
00000270: 531b 57be be40 89bc 4262 01bd a738 4fbe
00000280: 960e 303e da27 cc3c 0b21 c1bc 9675 933e
00000290: c0c4 48be 1c3d febd 1b3a 24be 3ca1 fdbd
000002a0: 2828 413e d362 bcbd 0d8f 82be 8c7e 163e
000002b0: 82b4 ffbc 8777 26be f7b6 7f3e b3b8 b6be
000002c0: 70f3 a4be a865 ac3e 73c8 f63d 226a 54be
000002d0: 2423 123d d3f0 fabd 0572 5cbe ecec 593d
000002e0: b892 5f3e aa3b 903d 3a4f 8cbb b7fd 9dbd
000002f0: 83a7 843e 7a4b 3abe 4592 883e d951 e73c
00000300: d96a e73d 119f 453e de8a 47be b220 8f3d
00000310: 5996 273e 0a3a 96bd 76d6 973b c954 0ebd
00000320: 14e3 003e 8d5b 923d e0d4 89be 1d1d 84be
00000330: b290 c8bc 4000 ad3d 12a0 91be 210d 57be
00000340: 314a f53e 6ac5 673e 9b53 67be a3d0 a9bd
00000350: d78d 6dbd a2d9 02bd 9297 3ebe ba4a 463e
00000360: a028 36be ccc3 cd3d 9edf 59be 5e75 c3be
00000370: f95f b33e fe94 193f 09e8 9ebe 7a96 dcbd
00000380: 7e56 0bbe f72e 94bd b038 9d3e f4b3 503d
00000390: c5a6 8fbe 1927 49bd 3f6f 17be 92a6 c7be
000003a0: e4d7 553e 9586 b03d 992a 92be c3bd 9c3e
000003b0: 79c0 36be 67ed 86be a56b 56bd f4a7 d3bd
000003c0: 1fbc 41be 2348 903e 69fb 7cbe baed cf3e
000003d0: 3c25 23be 2ba1 10bf 2fcf 743e 07b0 2dbe
000003e0: e0be 5dbe 7fcf a9bd bcf8 5ebe b3be bc3c
000003f0: a69b c9bc 30e3 fb3d ac78 863d 5517 893e
