data/best/output/poster/train/8_stemgnn.pt (torch, 435920 bytes, 73 tensors)

weight_key f4 [135, 1]
00000000: b130 7dbb 52cf 213e dd8a 7bbe 351b 60be
00000010: 9103 e9bd 4334 a43d 4b3a b3bb cdc9 713e
00000020: 9267 d6bc 1580 9f3d 9322 b8bd f283 70bd
00000030: e38f 91be f34b 49be 1028 fabd 0a5e 3c3c
00000040: 85dd f03d 6ab6 363e 2cdf 4dbe 0d25 04be
00000050: 3af9 dc3d 5f30 7c3e 5e42 7dbd 4a09 633e
00000060: 40bf 46bd 543e 003d 231c 8a3e a1a2 8cbe
00000070: 48f9 3ebe 2db3 98bd 4f4e eabd 6217 843e
00000080: 5d07 44be 3d73 0bbe 56c0 53be b728 8ebe
00000090: c279 31be 38c4 823e 5dd6 073e d154 143e
000000a0: 944a 833c 57e3 1bbe a829 4d3d 674c 8ebe
000000b0: f903 5dbe 9763 1ebe c986 3f3e d8f8 313e
000000c0: 45b6 07be 28ac 36bc dfed 413e 0f48 973e
000000d0: c185 f03d 4635 253d 88d7 4c3e 4f01 33be
000000e0: 0653 603d 0227 6dbe c580 53be 4059 1dbe
000000f0: cbea 083e 3190 f23d 9112 36be 217e b63d
00000100: 75c9 253e 39fc 20bd cebf 213c 3d1a 8b3d
00000110: 3601 3c3e db64 913e 74bb 6bbe 33db e1bd
00000120: 1bab eb3d c3c8 7a3e 457e 833e 4f53 853e
00000130: b751 6f3d 8554 84be e99b df3c 2e11 3fbe
00000140: 569c 8ebe fdf5 863e 4ae7 663e d7b2 97be
00000150: d2fd 643d 1ce3 4ebd 7f8e 4dbd 06df 0bbe
00000160: 4723 e73d a7ee 34be 21f1 dd3d 30f5 183e
00000170: fe09 593e 1520 e13d fb37 97be 48ef 46be
00000180: fd7b 173e ce1d 7f3d c50f 6dbe ffee 2ebe
00000190: 80d4 8e3e 643a 4b3e a602 06be b114 99bd
000001a0: 4454 90be 87df 90bb dffd 63be b370 69be
000001b0: 52fd 7ebc 826f 393d 65a4 f7bd 4764 353e
000001c0: 8df6 38be 3cbe 893e f02a 4f3e f618 81be
000001d0: 44c7 97bd a8ed 4c3c a3cb 2a3d f1bc 8c3d
000001e0: 866d eb3d fce3 833c 6dd0 15be b92c 0f3e
000001f0: a668 92be e326 35be d16f 9bbd da96 15be
00000200: 8b17 d6bd 381e 79be ebbd 80bd 7294 833d
00000210: 7d97 45be 5e41 80bc 0b84 583e
-0.0038633759 0.15801743 -0.24564691 -0.21885379 -0.11377633 0.08017781 -0.0054695955 0.23612137
-0.026172433 0.077881016 -0.089909695 -0.058719583 -0.2843009 -0.19657879 -0.122146726 0.01149703
0.117610015 0.17843023 -0.20104665 -0.12904759 0.10789724 0.24627827 -0.06183087 0.22171512
-0.048522234 0.03130944 0.26974592 -0.27467826 -0.18649781 -0.0745605 -0.114407174 0.2579909
-0.19143434 -0.13618179 -0.20678839 -0.27765438 -0.17331603 0.25540328 0.13265367 0.1448548
0.016026773 -0.15223442 0.050088555 -0.27792665 -0.21583547 -0.15467678 0.1870376 0.17380083
-0.13253124 -0.011149444 0.18938397 0.29547164 0.117442615 0.04033401 0.20004094 -0.17480968
0.054766677 -0.23159412 -0.2065459 -0.15366077 0.13370816 0.118439086 -0.1778052 0.08910776
0.16190131 -0.03930304 0.00987239 0.06792114 0.18359837 0.2839726 -0.23020726 -0.11028137
0.11507245 0.24490647 0.25682274 0.26040122 0.05842754 -0.25845733 0.027296023 -0.18658897
-0.2785365 0.2635955 0.22549167 -0.2962863 0.055906124 -0.050509557 -0.050184723 -0.13659295
0.112860255 -0.17669164 0.10837007 0.14937282 0.21195218 0.10992447 -0.29534897 -0.19427216
0.14793392 0.062284283 -0.23150547 -0.17083357 0.278965 0.19846493 -0.13086948 -0.0747465
-0.2818929 -0.004421178 -0.22264813 -0.22796898 -0.015563326 0.045272358 -0.12091903 0.17714034
-0.18062802 0.2690295 0.20231223 -0.25214356 -0.07411054 0.012507834 0.04169811 0.06871975
0.11495499 0.016099922 -0.1463029 0.13981904 -0.28595465 -0.17690615 -0.07589687 -0.14608327
-0.10453709 -0.24327934 -0.06286224 0.06424798 -0.1929607 -0.01565617 0.2114412

weight_query f4 [135, 1]
00000000: e055 8fbd ea01 0c3c c62d 9d3d 707b 403e
00000010: d611 a53e aac5 d33e 79be a23e 104f d13e
00000020: a75f d33d 9222 13be f9ff 99bc 7bc1 a53e
00000030: 7de0 f33d 5af2 dcbc 6e12 dcbd 83f6 21be
00000040: 015f 06be 57bd 703d d44e 903e 9013 8f3e
00000050: e93e 2bbe 9cf2 9b3e 1140 e6bd 4e72 6a3d
00000060: 5587 15b9 1bfa 813d 8bb8 7f3d 8f6e 15be
00000070: 1f77 0bbe 4f74 963d a0c5 fc3d ddfe 7cbc
00000080: 78a0 6c3e 03ef 16be 33af cb3d 82d4 c23e
00000090: 726e d0ba f055 c63e e3f5 683e 4540 17be
000000a0: a800 9e3e 689b b03d 2785 40bc a66d b73e
000000b0: 47ce f3bd 2682 1c3e bd29 713d a2af aa3e
000000c0: 50bd 503e 1a06 873e eda0 673e cdcc 4b3d
000000d0: 6660 703d 3ff3 fdbd ec33 903e ffa9 b63e
000000e0: 34f6 a53e d266 b5bd 2762 093e 976d b5bd
000000f0: f0b8 2fbd 78bf 56bd 5f8c 633e c4ee 66bd
00000100: 974a ea3d 86a9 083e 8ee4 9f3e f66a d4bd
00000110: af48 a9bd ab22 52bd 5269 a83e 3c9b 6f3c
00000120: 7663 be3e a7c4 6a3e 72fd 223e e8db f33d
00000130: c910 7f3d b079 213e 42d6 583d e01a f33d
00000140: df8e 223e c363 e4bd 7822 10bd eca0 b83e
00000150: a46f f5bd 2788 cb3d 8c27 d43e 38c0 693e
00000160: 5786 043e dffc 0bbe 026a 893e e312 b8bd
00000170: 74ae 163d 8d05 af3c 8877 9d3d 6d8d fe3d
00000180: 0628 bb3e 2f24 213e 68d6 c53e d08e 9a3e
00000190: 3c24 8abd 5ad4 813e 61ac b7bd 5c29 abbb
000001a0: 464b 553e 829a 603e 8fd4 af3e 7f11 cb3c
000001b0: 7f55 f83d ce1e 8c3e 3ac1 2abe 9385 ab3e
000001c0: 6122 00be d685 ff3d 16a1 8f3d fa80 12bd
000001d0: 8da1 233e e7a2 bb3e 6666 0b3d 6aaf 63bd
000001e0: de35 353c 5646 31be 3a77 823e 5095 afbc
000001f0: c967 9ebd 1c8d 4fbd b62b 953e 422c 8e3e
00000200: 084d b23e 98d0 693e 8609 b03c 967b 1a3d
00000210: f7c3 553e 0873 bc3e de45 523e
-0.06998801 0.008545378 0.07674746 0.18797088 0.3224017 0.41361743 0.31785944 0.40880632
0.103209786 -0.14368656 -0.018798815 0.32374176 0.11908052 -0.026971031 -0.10745703 -0.15816693
-0.13122179 0.05877432 0.2818514 0.27944613 -0.16723217 0.30458534 -0.112426884 0.057237916
-0.00014260162 0.06346532 0.062431853 -0.14592956 -0.1361966 0.07346403 0.123423815 -0.0154416235
0.23108089 -0.14739613 0.09945526 0.38052756 -0.0015902056 0.3873744 0.22750048 -0.1477061
0.30859876 0.086233914 -0.011750496 0.35825843 -0.11904579 0.15284023 0.058877695 0.33337122
0.20384717 0.26371843 0.22619982 0.04975586 0.058685683 -0.12399911 0.28164613 0.35676572
0.324144 -0.08857502 0.13416348 -0.08858793 -0.04290098 -0.052428693 0.22221516 -0.05638005
0.11440008 0.13345918 0.3122906 -0.10371964 -0.082658164 -0.051302593 0.32892853 0.014624413
0.37185258 0.2292658 0.15916994 0.11907178 0.062271867 0.15769076 0.052938707 0.118703604
0.15874813 -0.111518405 -0.035189122 0.36060274 -0.119841844 0.099380784 0.41436422 0.22827232
0.12941872 -0.13670681 0.2683869 -0.08987977 0.036787465 0.021364952 0.076888144 0.124293186
0.36553973 0.15736459 0.3864014 0.30187082 -0.067451924 0.25357324 -0.089684255 -0.0052234363
0.20829496 0.2193394 0.34341857 0.024788616 0.12125682 0.27367252 -0.16675273 0.33500347
-0.12513115 0.12476699 0.070131466 -0.035767533 0.15979595 0.36647722 0.0340332 -0.05558721
0.011060206 -0.17311987 0.25481588 -0.021433502 -0.07734639 -0.05067168 0.2913491 0.2776814
0.34824395 0.22833478 0.021488916 0.037715517 0.20875536 0.36806512 0.20534465

weight_ih_l0 f4 [405, 3]
00000000: b8a6 81bd 435e 81bd 4368 d5bd 2960 7c3d
00000010: 9d2c a6bb 1ed0 08bd 256d 9d3d c5a9 5bbd
00000020: 6395 dbbb 1dd6 703c ab34 ebbb d0c0 8abd
00000030: 5920 303a e567 0e3e f589 ad3d 4251 ff3d
00000040: 54ac c53c 9f2d a33d 29bc e8bc a4a5 4dbc
00000050: 8910 7bbd b713 da3c 3862 cf3c 7e83 75bb
00000060: abf9 32bd 614a 9ebd 954a 113d 47f0 2fbd
00000070: f55f 623d fa7c 1fbc 313a 12bd c1aa af3c
00000080: c5f4 1ebd 248a ea3d 1082 e53d ba48 013d
00000090: 6bfd ff3c 5923 5d3d 188a 533d a4f5 29bd
000000a0: 34d4 cfbd f302 36bd 7792 cc3d 08b1 1d3d
000000b0: 3312 d23d 3a8c 823d 4dc5 1bbd d52a 043c
000000c0: 18e3 92bd 50c8 cebd 5773 cebd 5a90 c13d
000000d0: f2e1 843c 81b1 b93d 9083 c03d 938d e73d
000000e0: 3692 b23d c1da d13d d970 063e 0f0a 4a3d
000000f0: 19f5 e43c 6a48 d63c be2a 3f3e d591 4f3d
00000100: b891 81bd 1037 f43c 2396 ad3d 5d46 d93d
00000110: 308a c33d 533c 383d 8a55 29bd cac5 53bd
00000120: 8dc1 e63d c040 b93d a847 1cbc 464f 9e3d
00000130: f5dd 2a3d e303 403d 9380 97bd d070 8b3b
00000140: 5208 51bd 9584 963d ff6e 12bc 32e4 243d
00000150: c23e e23a ed5b bd3c 50d5 2ebd 8bbf 1fbd
00000160: 200d 10be e695 7abd 0cab ffbd d12e 1bbe
00000170: 7c2a 0bbe ef21 183e fa5f 023e 57a2 253e
00000180: cefe 103e 4980 81bb 5809 6a3c d11d a93b
00000190: b59c 17bd e3a2 a03d 5063 41bd 339f c9bc
000001a0: 93bb 86bd 0d94 f1bc 49d9 b83d 2965 b83d
000001b0: 048d 10bc 85aa 78bb d974 d13b e869 e1bd
000001c0: fd6d 4ebd d6e3 3dbc 9b71 1f3a dec2 6e3d
000001d0: 121a 8c3c 3a06 be3d c033 243c 0afd a63d
000001e0: 5a65 cc3c 0a74 b1bb b94b 09bd 2797 d6bd
000001f0: a8e0 fbbd 0977 f639 ddc8 563d d01a 9abc
00000200: 786e 72bd 2073 5e3d 35f8 2c3d 4761 e5bb
00000210: 59f9 01bd a55e b43d f15c 353d 5e35 a43c
00000220: f8d8 2b3e 03ac 1a3e 4527 f6bb bfb2 933d
00000230: e878 cebc b553 253c ad81 c53d 4f25 db3c
00000240: f376 54bb 36db 003d cbfe 163d a4ce 493c
00000250: e4a8 143d f090 dc3d 5e1a 293c 036d 42bd
00000260: 8b8a 243c db4c 373d dba0 3d3d 8592 99bd
00000270: c6fb 17bb 54fe 4fbd 62b2 c0bc a1f6 153d
00000280: 3e0c 67bd c24f 163d 9d6a cc3d 598b 043d
00000290: 1208 fcbc 11ca 60bd 2c00 abbb 566b b7bd
000002a0: 989c 913c 8332 d3bd 0ec5 dcbd f21e a6bd
000002b0: 6b36 74bc 14ce 763d c21a 32bd c9d6 df3d
000002c0: 412e 513b b100 5fbd 0c18 99bd 8bfc 1ebe
000002d0: 976c a93d 41e7 6e3d 2a84 c73d b66d ae3c
000002e0: e087 a1bd 562e 4c3d 6303 52bd d649 78bc
000002f0: 04f5 ffbd e51a 17bc 9423 8dbd 1935 93bc
00000300: 81dd 083b 6cae aabd 2fd2 403c b847 0b3e
00000310: d2d3 d23d 8e4c 0a3d 30c9 933c 69af 6f3d
00000320: 25ba fb3d db63 da3d 179d 913d 6477 3f3c
00000330: 1a2c 0d3c 2d18 d9bd 1b07 c3bd d90d 8b3d
00000340: cf1f abbc c4e8 8d3d c09d 87bd 43f4 43bd
00000350: 2225 9bbd a38a 033e 9dc5 993d acd4 193e
00000360: 0650 d33d 0c25 c83d ce94 583d 8ae4 33bd
00000370: 3229 14bd 228d cfbb db57 8c3c 5a5d afbd
00000380: b245 403d ff95 bcbc aaa9 afbd 6951 77bd
00000390: 5498 973d 7243 9c3d c18d a8bd 9953 cb3d
000003a0: 33b0 a73d 2618 b83d 5b70 e63d f4bf b6bb
000003b0: f405 8f3d ab15 a93c bb4c 22bd d724 733c
000003c0: f42c f63b dd20 af3d d64a 043c ed42 41bc
000003d0: dcda 2c3d 9212 523d b9dd 95bc ea51 003d
000003e0: 07ad 963d a239 ebbc a2e6 c83b 4782 27bd
000003f0: 1fd3 533c adad a2bd e412 8bbd 2419 dfbc
-0.06330627 -0.06316807 -0.10420277 0.061615143 -0.0050712363 -0.0334016 0.07686833 -0.0536287
-0.006701158 0.014699486 -0.0071779094 -0.06775057 0.00067186874 0.1390682 0.08473579 0.124666706
0.024130024 0.07967686 -0.028410034 -0.012551699 -0.061295066 0.026620729 0.025315389 -0.0037462409
-0.043695133 -0.077290304 0.035471518 -0.042953756 0.055267293 -0.009734387 -0.035700027 0.021443726
-0.03880765 0.114521295 0.11206448 0.031563498 0.031248769 0.05398879 0.05164537 -0.041494027
-0.101478964 -0.044436406 0.099888735 0.03849891 0.102573775 0.06374402 -0.038029958 0.008066853
-0.07172221 -0.100968 -0.10080593 0.09451361 0.01622102 0.09067059 0.094000936 0.113063
0.08719294 0.10246802 0.13128985 0.049326 0.027948903 0.026157577 0.18668649 0.050676186
-0.06326622 0.029811412 0.08475902 0.10609124 0.095478415 0.044979405 -0.041341342 -0.0517023
0.11267386 0.09045553 -0.009538569 0.07729964 0.04171558 0.046878707 -0.073975705 0.0042553917
-0.051033325 0.07349507 -0.008937596 0.040256687 0.0017261135 0.023115123 -0.0426839 -0.03900103
-0.14067507 -0.06117811 -0.124837965 -0.15154578 -0.13590425 0.14856695 0.12731925 0.16175209
0.141597 -0.0039520604 0.014284454 0.005161025 -0.03701468 0.07843568 -0.047213852 -0.024612045
-0.06578746 -0.029489541 0.09025819 0.0900367 -0.008822683 -0.0037943434 0.006392103 -0.11006528
-0.05039786 -0.011589965 0.0006082297 0.05829131 0.017102275 0.092785314 0.010022104 0.08153732
0.024950672 -0.0054154443 -0.03351948 -0.10478049 -0.12298709 0.00047009464 0.052437652 -0.018811613
-0.059187382 0.05430901 0.042228896 -0.0070001218 -0.031731937 0.088071145 0.04427809 0.020044979
0.16781986 0.1510468 -0.0075120055 0.072118275 -0.025204137 0.010090758 0.09643874 0.026751189
-0.0032419532 0.031459056 0.036864083 0.012317333 0.03629388 0.10769832 0.010321228 -0.047467243
0.010042797 0.04475103 0.04629598 -0.074986495 -0.002319084 -0.050779656 -0.02352256 0.036612157
-0.05640816 0.036697157 0.09981272 0.032359455 -0.030765567 -0.054880206 -0.0052185263 -0.089560196
0.017774865 -0.10312369 -0.10779773 -0.08111371 -0.014905552 0.060255125 -0.04348255 0.10929639
0.0031918439 -0.05444402 -0.0747529 -0.15526025 0.08272665 0.05832601 0.09742005 0.021292549
-0.07887244 0.049848877 -0.05127276 -0.015154323 -0.12497905 -0.009222721 -0.068915516 -0.017969655
0.002088398 -0.083340496 0.011768862 0.13601577 0.10294308 0.033764414 0.01804027 0.058516894
0.122913636 0.10663577 0.07110041 0.01168618 0.008616472 -0.10600314 -0.0952284 0.067897506
-0.020889191 0.06929162 -0.06621885 -0.047840368 -0.07575442 0.12845854 0.07508395 0.15022534
0.10317998 0.09772691 0.052876286 -0.043919124 -0.0361721 -0.006333963 0.017131737 -0.08562727
0.046941467 -0.023020742 -0.08577283 -0.060380373 0.07402101 0.07630052 -0.082301624 0.09928054
0.08187904 0.08988981 0.11251899 -0.005577082 0.06983557 0.020640215 -0.039623957 0.014840326
0.007512683 0.0855119 0.008074483 -0.0117957415 0.042200908 0.05128724 -0.018294202 0.03132812
0.07357221 -0.028714005 0.006131009 -0.040895727 0.012928753 -0.07943282 -0.067907125 -0.027233668

weight_hh_l0 f4 [405, 135]
00000000: 878b 803d fb52 a33d a843 7dbd f72a 033e
00000010: 95a9 a6bb 1444 a83c fd3e 183d d2c7 66bd
00000020: e9d9 49bd 1564 ed3c 1d67 933d bff1 1ebd
00000030: 51a1 cebd 4b26 023d 24d4 9c3c 703e e13d
00000040: 1dba dcbd 5952 d8bb b315 63bd 9358 b0bd
00000050: 3c3c 7bbc 2ac1 89bd 5ecc 8f3d 21fd 9cbd
00000060: cd0e a93d 4f5e f0bc 7768 0f3d db02 0fbe
00000070: 06bb 89bd f571 8fbc 5efd 32be f170 b93c
00000080: 9ff5 353c 9095 0a3b 24a0 e4bd 9514 cc3d
00000090: 4625 4e3d 8f44 acbc d07f 03bd 0049 703d
000000a0: d152 2a3e 6224 b6bd 76cf ecbc ec08 413c
000000b0: 0027 babd 5390 f43d b611 adbc e728 ac3d
000000c0: dc66 f5bc ae4b 16bd 484e 56bd 4a30 4bbd
000000d0: 0f85 8d3d a521 ab3d a657 53bd 83a5 da3d
000000e0: 4fda ca3c b485 603d cbec bb3d 0a9a 753d
000000f0: ea68 683d 40a8 e4bc 4378 77bd 9c28 4b3d
00000100: f9e6 923c bf28 d1bc 8994 a13c 6df4 383d
00000110: 3f58 54bc 9c6e bfbd 91fc b6bc 7291 4fbd
00000120: 805c d3bd 16fc 533b cf5b 923c 7810 a03c
00000130: a93d 7c3d 6ce0 82bd 4054 94bd 3f81 de3d
00000140: 6cf1 e43b 3a4e 1dbd a6a1 6abd 308a c1bd
00000150: 9994 443c 79c0 cabd cbc6 aa3c 7654 ad3d
00000160: a68a c6bb 26f4 a3bd 39d3 723d 5180 b13d
00000170: 8725 05be e825 5a3d 63a3 193c e226 ac3c
00000180: d83d 26bc 1362 97bd d059 cf3c 1283 3a3d
00000190: a58b 40bd 6603 91bd c943 313d 2379 903d
000001a0: 8903 783d baac 013b c826 3e3d 63bd 4d3a
000001b0: 283e 8f3c 1541 8b3d 163d b5bc 1081 0bbd
000001c0: cec7 d7bc 5660 50bd fc84 8f3c 8234 76bd
000001d0: 70da 9c3d ddc0 7cbc 264b 4b3d d8b9 b13d
000001e0: 2d82 143c b7df 37bc 03f8 0d3a fc87 85bd
000001f0: f52a 8a3d 42a7 debb fb65 0cbd cea3 c0bd
00000200: 9efa 703d 5ece c6bd b8d9 423c 30a1 b13c
00000210: bbca aebd c315 e4bd 2b9b 82bd 0b6d 623d
00000220: 6793 0cbe 48a2 0dbe f642 ac3c 98bd 64bc
00000230: 069f b83d c3d6 ee3c ce6d 9cbc c266 283b
00000240: 24a4 bfbc ad7f c1bd b244 65bd 70df 903d
00000250: 159b 4fbd f0fd f3bd 325c 27be 4bb3 5b3d
00000260: b37f 493d b8a1 163e a94e aebc 6ec0 c5bc
00000270: 4d4f 09be 0f2c d5bd 6ac8 963c c7d1 99bc
00000280: 351f 3ebd 372a a5bd 447d b03d 94b2 13bd
00000290: 3ef7 04be 4187 65bc e470 95bd 0a3a 19be
000002a0: bc24 04be af3f 0b3e 71ff 90bc 985d a43d
000002b0: 8b9b 16bb ef7a c9bc 0cce f73d 6741 d2bd
000002c0: ee07 00be a230 933c 07f3 d23c 4a3f 593d
000002d0: 84b6 09bb 2f13 13be 8e9f df3b f77a 833d
000002e0: ebc9 303d 87a0 c23d 59d2 ea3d 9788 08be
000002f0: 2e0c efbc 828d c73d a5bb dfbd 4be6 253c
00000300: 34cb fbbd f7b1 9fbc d6bb 84bd cd50 e5bd
00000310: 5407 7b3c 6e75 9d3c 18b6 18be 223b aabd
00000320: 1a08 14be c760 04be 3837 843b 8f80 0fbd
00000330: 7b9f 94ba 005e f53d 9862 f53c 31bf 4abd
00000340: 3a0e 07be cd4b 11bc dcdc 943d 547f 113d
00000350: 054a f93d 9386 2ebe 4f2d 3cba 3cc4 adbc
00000360: be56 a3ba fcf5 4b3d ef48 16bc 968d 27bc
00000370: 0d16 18be f273 b23c 4c17 2abe 1b11 4ebd
00000380: 5b72 963d b4e3 ec3c 0e82 713d 116e 853d
00000390: c86d b9bd f3e3 313d 2283 0e3c 5093 bc3c
000003a0: 9d77 b23d 6954 013e cec6 17be 465b 203c
000003b0: 5f27 ae3c 44fc 12bc d2eb a0bd e42a 153c
000003c0: 6b9f 04bc 8331 da3d 5e30 39be fed0 6bbd
000003d0: 4b12 f4bc cc2e 8b3d 120e e43c 8499 ed3d
000003e0: 10a6 633d f116 d2bc 98c9 3cbd dc65 8dbc
000003f0: 4d9a 8f3c a7e1 eb3b c04c b03c 2033 ccb9
0.06276613 0.07974812 -0.0618321 0.12809359 -0.0050861337 0.020540275 0.037169445 -0.056342907
-0.04928008 0.028978387 0.07197402 -0.038804766 -0.100893624 0.0317748 0.019144125 0.10998237
-0.10777686 -0.0066016135 -0.055440616 -0.08610644 -0.015334185 -0.06726296 0.07021402 -0.07665468
0.08254776 -0.029341845 0.035011735 -0.13965933 -0.06725125 -0.017510394 -0.17479464 0.022636862
0.011105924 0.0021146275 -0.11163357 0.09964863 0.050328515 -0.021028785 -0.032104313 0.05866337
0.16633154 -0.08893658 -0.028907519 0.011781912 -0.0908947 0.1194159 -0.02112661 0.08406239
-0.029956274 -0.036693268 -0.05232075 -0.0496066 0.069101445 0.083560266 -0.05159726 0.106761
0.0247623 0.05481501 0.09176024 0.059961356 0.05674068 -0.02791226 -0.060417425 0.049599275
0.017932402 -0.025532125 0.019724147 0.045154978 -0.012960493 -0.09347269 -0.02233723 -0.050675817
-0.10320377 0.00323463 0.017866043 0.019539103 0.06158224 -0.06390461 -0.07242632 0.108644955
0.0069867875 -0.03840468 -0.057283066 -0.09450185 0.011998319 -0.098999925 0.020846745 0.08463375
-0.0060590087 -0.08005552 0.05928347 0.086670525 -0.13002597 0.053258806 0.009377333 0.021014635
-0.010146581 -0.07391753 0.02531138 0.045535155 -0.047008175 -0.07080726 0.043277536 0.07054355
0.060550246 0.001978679 0.046423703 0.000784835 0.017485693 0.06799523 -0.022123855 -0.03405863
-0.026340391 -0.050873123 0.017519467 -0.06010867 0.07658851 -0.015426842 0.049632214 0.08678025
0.009064239 -0.011222771 0.000541568 -0.065200776 0.06746475 -0.006794841 -0.034276944 -0.09406243
0.058832757 -0.0970733 0.0118927285 0.021683306 -0.085347615 -0.11136963 -0.06377252 0.055279773
-0.13728105 -0.13831437 0.021028023 -0.013961218 0.09014706 0.02915514 -0.019095328 0.0025696014
-0.023393698 -0.0944818 -0.055973716 0.07073867 -0.050685007 -0.11913669 -0.16343763 0.053637784
0.04919405 0.14710128 -0.021277742 -0.02413961 -0.13409157 -0.10408794 0.018406112 -0.018776787
-0.04641648 -0.080646925 0.086176425 -0.036058977 -0.1298494 -0.014009298 -0.07296923 -0.14963546
-0.12904638 0.13598512 -0.017699929 0.08025664 -0.0022980894 -0.024594752 0.12099847 -0.10266381
-0.12503025 0.017967526 0.02575065 0.053038873 -0.0021013329 -0.14362787 0.0068244403 0.06419938
0.043161314 0.095032744 0.11465902 -0.13333355 -0.029180612 0.09743787 -0.10924462 0.010125707
-0.12294617 -0.01949404 -0.06481139 -0.11197052 0.015321571 0.019221034 -0.14913213 -0.0831206
-0.14456216 -0.12927543 0.004034903 -0.035034712 -0.0011339033 0.1198082 0.02995424 -0.04949874
-0.13189021 -0.00886817 0.07268688 0.03552182 0.12172321 -0.17043523 -0.00071783824 -0.021211736
-0.0012461764 0.049795136 -0.009172662 -0.010226628 -0.14852162 0.021783803 -0.1661045 -0.05030928
0.0734603 0.028917171 0.05896192 0.06515134 -0.09054142 0.04343028 0.008698257 0.023019463
0.08714221 0.12629856 -0.14821932 0.009787386 0.021259008 -0.008971278 -0.07857479 0.009104464
-0.008094649 0.10653975 -0.18084857 -0.057572357 -0.029793879 0.06796035 0.02783874 0.116015464
0.05557829 -0.025645705 -0.046090692 -0.017260484 0.017529631 0.0071985307 0.021520972 -0.00038948003

bias_ih_l0 f4 [405]
00000000: c8ad b4bc 9d94 e53d 9650 23bc 7376 a73d
00000010: 8efa 17bc cd8f d83c b11e 1dbd c676 2fbd
00000020: 63e8 ef3d d630 813d 4b2d d1bc 7888 1a3d
00000030: 3801 1f3d 1fad 6bbd c113 1dbe 0ede e63c
00000040: 0965 dcbd efbe 15bd c92e d8bd 7def b7bd
00000050: 4168 e3bd 67d6 a0bc 423b 113c 74b9 f03d
00000060: cbee 013d b34f b2bc ba15 eabd aa1c d8bd
00000070: 062c a3bd fa90 1abe d104 123c 7a3f 403c
00000080: 5781 6a3d af21 b6bd 4f82 5dbc c605 533d
00000090: 6f3f 48bd d1d5 cfbd 40e8 69bd 29a2 903d
000000a0: a5c0 8c3d ded7 243d 095b f0bd b4b4 923d
000000b0: 8c54 493d ff10 1cbb bb45 af3b 367d babd
000000c0: 7cb4 653d 13bd 773c 431e 9c3c c809 27bd
000000d0: 8a55 9c3d d50d 533c e39e b63d 5532 aebd
000000e0: a91f 893d 8acc 95bd 2fed f2bd 8792 943d
000000f0: 2432 cdbc b90b f6bc 9475 bbbd 9a61 d73d
00000100: 3a7b 713c ad1b a5bd 062d bfbd d2e2 a6bd
00000110: 8f74 82bd acf5 27bc 80ee 61bc 4e0e d73d
00000120: 32c8 93bd acf9 06bd 3fea 113d 12f8 0b3d
00000130: 8011 23be 5fb3 c23c c31c b13d f24c c3bc
00000140: 4c0e c1bd bebf 893c 2099 c2bd e01b 423d
00000150: bb12 a8bd 540b 51bd 2204 b1bd ec88 03be
00000160: f90e 72bc 6e5b a33c 28e4 7c3d 0972 fd3c
00000170: 7c02 b63d 7bca 283d 31f3 3a3c 024b 9a3c
00000180: c041 7e3c b6d7 92bd 179f 2abc b8fa c33c
00000190: c507 203c 4686 903c 6d4e 913d 647a dabd
000001a0: 69aa 033e f7a2 1f3d a87e b3bd 3065 3d3d
000001b0: 8fca 133d 4751 78bd 9a38 763c 9e32 52bd
000001c0: d249 ab3c c3f7 e63d f262 df3d 3c13 f43c
000001d0: af68 bfbc 7ae4 fe3d be9b 0c3d ccaf 0a3d
000001e0: e246 0fbe 3fb2 01bd a3d0 5a3c 79cd e63c
000001f0: b1d4 273e 9c4e 873c a817 a83c 9146 393e
00000200: b685 9ebd 6bd3 023d a636 433d 2155 febc
00000210: 30cc 21bd 1042 0b3e 6850 7c3d 31c1 183e
00000220: 1318 2dbe 9408 a8bd dbc0 8e3d 7287 aabd
00000230: bb97 b33d 0e3d 0a3e a5b4 cd3d 6f78 e83c
00000240: 5be5 97bd 9cd5 5dbd 0836 b13c 1006 8e3c
00000250: d570 94bc c2b7 4e3a 8420 57bd 736c 003e
00000260: c7cb 033d 4fc6 733d b8b0 1d3b 20fb 8ebc
00000270: ddad 553d 6888 b1bc d2a4 45be 3b58 cfbd
00000280: 4d87 673d 6ce3 aabd 68d4 62bc 7c1e d83d
00000290: 0307 bebd 813c 5a3b bba3 213b bfd9 b2bb
000002a0: 0d22 c0bd c70d d9bc 4752 6ebd 7c8a 2bbd
000002b0: a715 d03d 1963 dd3c 7b77 49be f7dd 88bd
000002c0: fccf 5ebd f13c a1bd 4409 eb3d f6b2 38be
000002d0: 5daf bebc 5cee 6a3d c882 87bd 83be 803c
000002e0: c311 53bd 834f a4bd 16b2 813d 40f7 04be
000002f0: 5b42 3fbd 3fad f1bc 1c12 083d 4fc4 d4bd
00000300: 4e90 4dbd 2987 acbc 3fa2 8c3d d087 e3bc
00000310: 7606 2abd d232 d23b cc5d 02be e4c7 debd
00000320: 6d40 8abd 2659 b1bd 8c49 253d 710b 9f3c
00000330: e248 57be 5a81 133d 832a 313b 603b 81bd
00000340: 78bf 8fbc 3f30 46bc 33e2 1c3d 0392 b6bc
00000350: c80f 15be 2afd 89bd 2b92 82bd ca1b 933d
00000360: a7f7 e4bd 822a 90bd cbb6 f9bd 2d01 d53d
00000370: 0389 013d 634e bf3b 7938 c7bd bc1e 023d
00000380: 0420 223d 25bb f83c bf46 86bd 643b 9abc
00000390: 9f71 8dbd d8b8 c6bc 10ed 14bd fdc3 893d
000003a0: dc18 08bc ef1f 093d d8c7 c9bd 50a5 b4bd
000003b0: d224 1dbd 8f78 c43d bb1f 20be 3459 6fbd
000003c0: 5f09 b03d 653e 07bb d5bf f9bc 969c 77bd
000003d0: 34ff d0bd 2451 683d ded7 12bd 59d8 a5bd
000003e0: 59f9 02be d8ea 9bbd 4b52 cc3c 0a7c 0b3d
000003f0: 7f5b 12be b77b 5abd 7e40 a6bc 616d debd
-0.022055522 0.11209986 -0.009967944 0.08176889 -0.0092760455 0.026435757 -0.038359348 -0.04283788
0.11714246 0.06308143 -0.025534293 0.037727803 0.03881952 -0.057538148 -0.15339567 0.028182056
-0.107614584 -0.03655904 -0.105557986 -0.08981226 -0.11103869 -0.019633485 0.008864226 0.117541224
0.03172187 -0.02176652 -0.11429925 -0.10552342 -0.07967381 -0.15094367 0.008912281 0.011733884
0.057252254 -0.088931434 -0.0135198375 0.051519178 -0.04888862 -0.10148204 -0.057106256 0.070621796
0.068726815 0.04024493 -0.117361136 0.07163373 0.049152896 -0.0023813841 0.0053488887 -0.09105913
0.056080326 0.015120762 0.019057399 -0.040780813 0.07633503 0.012881716 0.08917024 -0.08505694
0.06695492 -0.07314403 -0.118616454 0.072545104 -0.025048323 -0.030034887 -0.091532856 0.10516663
0.014738852 -0.08061919 -0.093347594 -0.08148731 -0.06369888 -0.010251444 -0.013789773 0.10500775
-0.072159186 -0.03295295 0.035623785 0.034172125 -0.15924644 0.023767171 0.08648064 -0.023840401
-0.09426555 0.016815063 -0.095018625 0.047389865 -0.082066976 -0.051036194 -0.086433664 -0.128452
-0.014774078 0.019941058 0.061741024 0.030938165 0.088871926 0.041208725 0.01141052 0.018834595
0.015518606 -0.0717005 -0.010413907 0.023923263 0.009767477 0.017642152 0.07095037 -0.106678754
0.12857975 0.038973775 -0.08764392 0.046239078 0.036081847 -0.060624387 0.015028143 -0.051317804
0.020909224 0.112777255 0.10907544 0.029794328 -0.023365347 0.12445922 0.034328215 0.03385906
-0.13991883 -0.03166413 0.013355407 0.028174149 0.16389729 0.016516976 0.020519093 0.18093325
-0.07740347 0.031939905 0.04765954 -0.031046452 -0.03950137 0.1359942 0.06160012 0.14917447
-0.16903715 -0.08204761 0.06970378 -0.083266154 0.08769175 0.13499853 0.10044221 0.02837774
-0.07416793 -0.054158792 0.02163221 0.017336875 -0.018120209 0.00078856584 -0.052521244 0.1254137
0.03217676 0.059515294 0.0024061631 -0.01745373 0.052167762 -0.021671489 -0.19301155 -0.101242505
0.056525517 -0.083441585 -0.013844587 0.105526894 -0.09278681 0.0033300223 0.0024664241 -0.0054580863
-0.09381495 -0.026495827 -0.058183935 -0.041880116 0.1016038 0.027024793 -0.19674484 -0.066829614
-0.054397568 -0.07872952 0.11476377 -0.18037018 -0.02327698 0.057356223 -0.066167414 0.015715843
-0.05153061 -0.08022978 0.06332795 -0.12984943 -0.04669414 -0.029501555 0.033220395 -0.103890054
-0.050186448 -0.021060543 0.068668835 -0.027774721 -0.041510068 0.0064147497 -0.12731093 -0.1087797
-0.067505695 -0.08659582 0.040353343 0.019414635 -0.21023896 0.03601203 0.0027033396 -0.06310153
-0.017547354 -0.012096464 0.038301658 -0.02228642 -0.14556801 -0.0673774 -0.063755356 0.07183035
-0.111800484 -0.07039358 -0.12193068 0.10400615 0.031624805 0.005838202 -0.09727568 0.03176759
0.039581314 0.030362675 -0.065564625 -0.018827148 -0.06906437 -0.024258062 -0.036358893 0.06726835
-0.008306708 0.03347772 -0.0985257 -0.08820593 -0.038365193 0.09593307 -0.15637104 -0.05843468
0.085955374 -0.0020636555 -0.03048698 -0.060452066 -0.10204926 0.056718007 -0.0358504 -0.08097906
-0.12790431 -0.07613152 0.024941584 0.03405384 -0.14292715 -0.05334064 -0.020294424 -0.10860706

bias_hh_l0 f4 [405]
00000000: 16c9 b9bc a808 b83d e60e 98bd 7619 e03c
00000010: c32b 5bbd 8983 183c d271 b1bd 6c79 6ebc
00000020: 77df 883d 8eff ad3d 5a21 c5bd 81ab ab3c
00000030: 808a 083d 44d1 c43c 756e 27be 4e3d c2bc
00000040: 9a3e 3f3c 6db8 c2bd ffac 3abd bddc 10be
00000050: 172a 88bc 2d1d 66bd 1716 de3c ee6d c63d
00000060: a849 bc3d 0f1a 98bd 0230 a5bd 6e0d 9fbd
00000070: bdca 65bd 9411 23bd dd5e e5bd 58de 013d
00000080: 3703 a6bd 3e1a 10be 7874 0fbb 6a67 ca3b
00000090: 251b 2f3d e5d9 8ebd 4dae f33c c876 c2bb
000000a0: b608 ef3d 8219 9cbd 1bd0 b93c 2e6b a73d
000000b0: 5cda a23d fd93 483b a524 a3bd e56c 2fbc
000000c0: 20b3 253d 92a4 133d b55b 15bc b7ae 423d
000000d0: 7fce 5c3d 140c ea3c 0aed 653d 45c0 ff3c
000000e0: 3081 873d 2066 13be 7802 fdbd dfe3 183d
000000f0: e3f2 593d a2e2 e7bc b45d 38bd 925e 893d
00000100: 5892 193c 383b 32bd db01 57bb 6244 04bb
00000110: 4259 b9bd dcf1 86bd 0b65 27bd a639 e33c
00000120: d0ef 96bd 58b0 b93b 8d29 ec3c 0f8e f43c
00000130: 35d4 47bb 5ef7 1d3c 65c7 053d 246a 66bb
00000140: f418 91bd ddb6 0fbd 7f17 adbd 1558 1cbc
00000150: 1d86 c3bd bc08 e1bc dc1a 923d 5388 22bb
00000160: 0a8e 86bd a7c7 533d d5bf e53d efc4 a5bd
00000170: d46f 453e 4e21 db3c b65e 8dbd eb34 94bc
00000180: b6a1 943c 7f9d 2cbd ec2a 1c3d 549a 9cbc
00000190: cf44 663d 0e7e a3bd d7d6 6c3d 697f 45bd
000001a0: c1a7 cfbc 9a2b 2bbd e3c6 503d 4372 53bd
000001b0: 8f34 a53d 3826 dabd fef9 efbc 06fb 9b3c
000001c0: fc5e 4ebc 9330 6e3d 99b0 8a3d 86ac 863c
000001d0: db53 7fbd 7518 dc3d 1017 a8bd 804a 2bbd
000001e0: 0e93 a2bc 2ced 46bd 9e1e dbbd 29a3 db3c
000001f0: 83e2 bb3d f383 98bd 46fc 63bd 11ed 3a3e
00000200: 6e80 94bd 46b2 a3bd 57aa 6d3c 852d 09bd
00000210: fcd1 b9bd 3eb0 d13d dfc2 bb3d 5a9c e23d
00000220: c57d 30be 9aea 8ebd cc8c 02bd 9353 debd
00000230: a694 ab39 b368 093d 7c0c 063e b9a0 df3c
00000240: 6ae6 9abd 1708 24bc e97d 54bd 7b97 ccbc
00000250: d6a9 45bd 2446 6dbd 00c8 61bc a295 4d3d
00000260: 9dc7 5dbd d0f8 acbd 9b1b 3c3d 26af f9bd
00000270: 3848 a03c 8173 e2bd 51a8 85bd bfc0 f2bd
00000280: 1e42 1f3d 1971 f33b d856 abbd e2eb 813d
00000290: 398a a33b 7efb a0ba 11ee b1bd 1596 8bbd
000002a0: 0a10 01bd ec1b 2cbd 8ea1 72bd a1ee 323d
000002b0: 935b b13d 7c53 983b 8fce 32be cf34 43bc
000002c0: db2a b33c 20c6 d4bc 4dc1 093e 5908 65be
000002d0: 2bac 90bd dbc3 783d 0268 f5bd 0e0b 8d3c
000002e0: a18b c8bd 18a0 76bd 6a77 163d 1d39 293c
000002f0: 6d50 aebd 3e53 09bd d555 b1bd 6bc1 9bbb
00000300: e4a9 d4bd 2da1 2cbd 8ac4 263d 9e18 a43d
00000310: 9261 99bd efb2 65bb d6f7 76bd 32f7 293d
00000320: b82d 173d 19d4 aabc 49d6 ccbd a80a 9c3c
00000330: d39e 06be 9044 4bbd 2ea2 44bc ed45 8dbc
00000340: 34a2 04be 1ed0 95bd 7045 8f3d 6dbb 833d
00000350: d3e7 31be c25a fbbc d771 963d f244 d7bb
00000360: a789 b1bd bcb1 393b b229 c4bd c57b 943d
00000370: 9afa 8dbb 6c22 2b3d 4ff2 5abd 2ceb 20bd
00000380: ddc7 d2b7 2c2b 03be 44af 14bd dca9 13be
00000390: 7a44 3ebd a3de d43d 0698 a23d d4f3 393d
000003a0: c406 ee3b f50c cabd e31e cabd 2126 893c
000003b0: a75b c4bc 3fb5 c83d c5dd 1fbd 4f3a 92bd
000003c0: f124 a53d 9c79 ec3d df57 c2bc 398a 9dbd
000003d0: bebd 8abd 5af7 8dbd 1b60 ebbd 7aa4 f5bc
000003e0: 9f2b 38be 5559 68bd faa3 593d f8c8 81bd
000003f0: 4a6b 70bd 2909 30bb 81c5 1abd 3918 9d3c
-0.022678893 0.08986026 -0.07424717 0.02735589 -0.05350853 0.009308704 -0.086642876 -0.014555316
0.066832475 0.08496009 -0.09625502 0.020955803 0.03333521 0.024025567 -0.1635073 -0.023710873
0.01167264 -0.09507833 -0.04557514 -0.14146705 -0.016621633 -0.056180168 0.027110143 0.09688936
0.09193736 -0.07426845 -0.080657974 -0.077662334 -0.05610155 -0.039811686 -0.11199734 0.031706184
-0.08106082 -0.1407251 -0.002188949 0.0061768787 0.042750496 -0.06975154 0.029746199 -0.00593457
0.11671583 -0.07622053 0.02268224 0.0817474 0.07951805 0.0030605786 -0.07965974 -0.010707115
0.04045403 0.03604562 -0.009116103 0.047529902 0.053907868 0.028570212 0.05613426 0.031219611
0.066164374 -0.14394426 -0.123539865 0.03732669 0.05321015 -0.02830631 -0.045011237 0.06707491
0.00937327 -0.043513507 -0.0032807502 -0.002018236 -0.09050228 -0.065891 -0.040867846 0.02773745
-0.07369959 0.0056667738 0.028828407 0.029852895 -0.0030491475 0.009641496 0.03266086 -0.003515848
-0.070848376 -0.0350865 -0.08451747 -0.009542485 -0.095470645 -0.027469985 0.07134029 -0.0024800494
-0.065700606 0.051704075 0.1121823 -0.08094203 0.1928094 0.02674928 -0.0690283 -0.01809164
0.018143516 -0.042142387 0.03812687 -0.019116558 0.056217965 -0.079830274 0.057822075 -0.04821721
-0.025348546 -0.04178963 0.050970923 -0.05162264 0.080666654 -0.10651821 -0.02929401 0.019040596
-0.012595888 0.058151793 0.067719646 0.016439687 -0.06233583 0.10746852 -0.08207524 -0.041819096
-0.019845512 -0.04856603 -0.10699199 0.0268112 0.09174063 -0.07447042 -0.05566051 0.18254496
-0.072510585 -0.07992987 0.014505944 -0.033490676 -0.090732545 0.10238694 0.09168028 0.11064978
-0.17235477 -0.069783404 -0.031872556 -0.10855784 0.00032726413 0.033547115 0.130907 0.027298318
-0.07563479 -0.010011694 -0.05187789 -0.024974575 -0.04825767 -0.05792822 -0.013780594 0.05019153
-0.054145444 -0.08445895 0.045924764 -0.1219161 0.019565687 -0.11057187 -0.065262444 -0.1185317
0.038881414 0.007429254 -0.083661735 0.06343819 0.0049908427 -0.0012281982 -0.08687986 -0.06815735
-0.031509437 -0.042018816 -0.0592361 0.043684606 0.086600445 0.004648624 -0.17461608 -0.011914446
0.021871021 -0.02597338 0.13452645 -0.22366466 -0.070640884 0.060733657 -0.119827285 0.017217185
-0.09792257 -0.06021127 0.036734976 0.010328558 -0.08511434 -0.03352665 -0.08658949 -0.004753282
-0.103839666 -0.042145897 0.040714778 0.08012508 -0.07489313 -0.003504928 -0.06029495 0.04149551
0.036908835 -0.02085309 -0.10001809 0.01904805 -0.13146524 -0.049625933 -0.012001557 -0.017245257
-0.129525 -0.07315086 0.06995666 0.06432233 -0.1737359 -0.030682925 0.07345932 -0.006569498
-0.08668833 0.0028334698 -0.09578265 0.0725017 -0.0043328525 0.041780874 -0.05345374 -0.039286777
-2.512702e-05 -0.12809438 -0.03629996 -0.14420265 -0.046452023 0.10394027 0.079391524 0.04539855
0.00726399 -0.098657526 -0.098691724 0.016741814 -0.023969484 0.09800195 -0.039029855 -0.07140028
0.08063687 0.11546633 -0.02372354 -0.076923795 -0.06774472 -0.06931944 -0.1149294 -0.029985655
-0.1798539 -0.05672582 0.053134896 -0.0633716 -0.05869607 -0.0026860929 -0.03778601 0.01917659

weight f4 [1, 4, 1, 12, 12]
00000000: 7622 21be 4213 8abc e259 443d eaca 973d
00000010: 17eb 0bbe ae63 f33c 0d13 f33c ebe8 273d
00000020: 5aef 253d 3d4d 0f3d e312 89bd 11d1 5ebd
00000030: 56c9 b5bd c808 133d 7dc2 873c d591 b33d
00000040: 4c8e a23c b20e bfbc a680 cbbc f25d ce3c
00000050: b05a 053d bb8a 88bc 59f7 293d 52c1 d4bc
00000060: 66c3 f5bc 0956 423d 4d00 8bbc a883 6e3d
00000070: 0aa4 54bd fa94 cb3c 036d 823d 190a 7dbd
00000080: 2626 0b3e e382 943d f524 60bd f398 023e
00000090: 4b90 473a 1a47 eabb 5c09 eebd 7a27 26be
000000a0: 60c7 dabc 7322 9b3c b0eb c73b e560 1fbd
000000b0: 3338 623d 5c2a a73d 199e 0d3c a6f7 97bd
000000c0: 26bd 42bb 7a3a 63bc 882d 3e3e a707 1b3e
000000d0: ee37 14bd 104e b73c fa83 733d b44f a73d
000000e0: 9406 dabc ef9c 00be 02ff 953c 000a 823d
000000f0: 7b38 a2bd a902 9cbd 8e09 153d 35ff b73d
00000100: 1871 08be 755b 84bc 9297 513e 9826 d63c
00000110: 64e0 84bd 84a3 dcbc ee5b d93a a2be 14be
00000120: 69d1 3f3c e639 853d 41b5 cd3d 243c b13d
00000130: e4dc c03d eefc 8c3d 82fe ddbc 83f9 423d
00000140: 6409 0ebd f5cd bebd 9234 d83c dac3 f7bc
00000150: 7393 283d c258 913d 49cf d73d 0d3d a43d
00000160: 276d 333c e2ec 1bbe 8621 cbbc b810 b93d
00000170: bb38 d2bd 7a4a 83bc ca33 973d 6a14 cb3d
00000180: 8046 4dbc e744 b1bc e0e0 ce3d 867e 0b3e
00000190: 55c1 ebbc 4218 8b3d 02b9 d93c ed5a a73d
000001a0: 442f ce3c bedf 643d ce44 1abd f724 613d
000001b0: 39f3 c53d 7a86 083d a7fb c6bd 4c6a 09be
000001c0: adf6 d53d da9b a33d c9fc 09be 0293 64bd
000001d0: dcc9 d13d 9c29 6c3d 5b02 5f3d b02e 78bc
000001e0: f7f5 353c c505 a93d e3d8 f2bc 5388 edbc
000001f0: 53e2 973c fbb3 483c d16a 993d 1a1f 4ebd
00000200: c18c 973c b12f a83c 8cc1 e3bc c16c 093e
00000210: 64bd 9cbd 64ab 4c3c 06f7 ac3b 6f4d 843d
00000220: b47a 523d e51c 37bd 5ee3 b83c a0f0 f5bc
00000230: 5585 71bd 656f e23a 1fe5 163d eeee 67bd
00000240: 9e92 6c3d e140 0a3d f6e5 05be 00fb 1b3c
00000250: c72a d53d a468 b6bc d3c4 b0bd bf2b 51bd
00000260: 1afa 663d 3633 e4bc c2d7 45bd fbb2 473d
00000270: 7270 ea3d 6e38 b0bb 2ddf b8bc 05b0 633d
00000280: d880 9cbc cef1 47bc 1691 aa3d 2f71 13bd
00000290: 0e95 383d a3b6 ab3d ed0e 1cbd 5171 153e
000002a0: 54ff a53d ecbe 703d 4e4c 0abb 8b4d 3b3c
000002b0: f57e 2f3d 27ea 9cbd c6e1 8a3c ca79 403c
000002c0: 1397 fd3c a17e fb3d 0b5c 7e3d 8127 5ebb
000002d0: 61b3 5f3d 7153 52be 0c44 cfbd cb87 41bd
000002e0: fc27 98bb 6064 10bd e26b 693d 0a36 aabd
000002f0: 3335 75bd b6a2 183d 1006 80bd 39b2 6fbc
00000300: 3223 ed3d e4d3 00bd a9d2 57be 0a68 62be
00000310: 969b bb3c 1247 4b3d 320c d5bd 8c05 46be
00000320: f712 2c3e 86cc 4e3e a23d 58bc 9c34 d93d
00000330: c988 bcbd 216d 993b d145 c13b 0d9b 313d
00000340: d273 c83a 6601 333d b240 aebd 61c5 6abd
00000350: 8772 1f3a 1421 853d 81f3 9cbd 3bef 5f3b
00000360: 7638 ac3d 5487 6bbd 1bbd c9bd 22e8 f1bd
00000370: 9ca8 883d 2ae2 393d 7c22 8fbd fb50 c63c
00000380: 4896 b83c 5c14 9a3d e3d3 853c 0eae ca3c
00000390: 7f12 69bd bc3f ccbd 1c64 fabc 003d 7e3d
000003a0: 8b01 2ebe 9579 913c d549 923c 634a a6bc
000003b0: e7eb a33d 7413 303d 6318 9c3c 8b4e 29bc
000003c0: 3342 b63d 6994 f03d 2ba4 3dbe bd0f 1bbe
000003d0: d191 0b3e fbb3 6e3e c5aa 68bd 68c4 5dbe
000003e0: 9dc3 6d3c 30dc a53d 1ab3 43bc 0c23 b93d
000003f0: f8d1 4bbd 005b b3bc 9a2a a4bd 78ba 66bd
-0.15735802 -0.016854886 0.04793728 0.0741175 -0.13663898 0.029710617 0.02967217 0.040993612
0.040511467 0.03498577 -0.066930555 -0.0543986 -0.088762924 0.035897046 0.016572231 0.0876805
0.019843243 -0.023322437 -0.024841618 0.025191281 0.03255719 -0.016667714 0.041495655 -0.025971089
-0.0300004 0.04744533 -0.016967917 0.058231026 -0.051914252 0.024851311 0.063684486 -0.061777208
0.13588771 0.07251527 -0.054722745 0.12753658 0.0007612749 -0.0071495892 -0.11622879 -0.16225997
-0.026706398 0.018937325 0.006101094 -0.038910765 0.055229377 0.08162376 0.00864365 -0.07420282
-0.0029714792 -0.013868922 0.18572056 0.15139638 -0.03618615 0.02237609 0.059452035 0.08169499
-0.026614465 -0.12559865 0.018310074 0.063495636 -0.07920929 -0.07617695 0.036386065 0.08984224
-0.13324392 -0.016156891 0.20467976 0.02614145 -0.064881116 -0.02693344 0.0016583183 -0.14525846
0.011707642 0.06505184 0.10044337 0.08654049 0.094171315 0.0688418 -0.027098898 0.047601234
-0.034676924 -0.09316627 0.026392255 -0.030244756 0.041156244 0.07097007 0.105375834 0.08019457
0.010951317 -0.15227082 -0.024796259 0.09036392 -0.10264727 -0.016026724 0.07382925 0.09916003
-0.012529016 -0.0216393 0.10101485 0.13622484 -0.028778711 0.06791736 0.026577476 0.081716396
0.025169022 0.05587744 -0.037663274 0.054966893 0.09665532 0.03333137 -0.097159676 -0.13419455
0.1044744 0.07988711 -0.13475336 -0.05580426 0.1024358 0.05765687 0.054445606 -0.01514785
0.011106006 0.082530536 -0.029644435 -0.028995669 0.018540537 0.012249942 0.07491077 -0.05032263
0.018499734 0.020530554 -0.027802251 0.13420393 -0.07653311 0.012492035 0.005278471 0.06460082
0.05138655 -0.04470529 0.022569355 -0.030021966 -0.058965046 0.001727563 0.0368396 -0.056624345
0.057757013 0.03375328 -0.13076004 0.009520292 0.1040855 -0.022266693 -0.08631291 -0.05106711
0.05639086 -0.02785645 -0.048301466 0.048754673 0.114472285 -0.0053778207 -0.022567356 0.055587787
-0.019104406 -0.012203647 0.08328454 -0.035996612 0.045064025 0.083844446 -0.03810017 0.14594008
0.081053406 0.058775827 -0.002110261 0.011432062 0.042845685 -0.076618485 0.01695336 0.011747787
0.030955827 0.12280012 0.062099498 -0.0033898058 0.05461443 -0.20539643 -0.10120401 -0.047248643
-0.0046434384 -0.035251975 0.05698765 -0.083110884 -0.059865188 0.03726455 -0.06251156 -0.014629894
0.115789786 -0.031452075 -0.21076454 -0.2211 0.022901338 0.049628325 -0.10402717 -0.19338053
0.1680411 0.20195207 -0.013198288 0.106057376 -0.09205777 0.0046821986 0.0058982153 0.04336076
0.0015293306 0.043702506 -0.085084334 -0.05731714 0.00060824346 0.0650045 -0.07663632 0.0034169692
0.084092066 -0.057502106 -0.09850522 -0.11811854 0.06672785 0.045381702 -0.06988999 0.024208536
0.022532597 0.075234145 0.016336387 0.024741199 -0.056902405 -0.09973094 -0.030565314 0.062069893
-0.16992776 0.01775817 0.017857471 -0.020299142 0.08003979 0.042987302 0.019054597 -0.0103336675
0.08899345 0.11747057 -0.18519656 -0.15142722 0.13629843 0.23310845 -0.056803484 -0.21656954
0.01451197 0.08098638 -0.011944557 0.09039888 -0.04976079 -0.021893978 -0.08015938 -0.056330174

weight f4 [12, 12]
00000000: 9703 943e ed3d 60be d236 06be 9db4 bebd
00000010: 04e5 203e 2346 063e cfad 083e 0c6a 8dbd
00000020: 92e8 40be 5be2 a23e b7d2 fb3d 41d9 b6bc
00000030: 845d 173e 141b 39be 898d 883e 6986 74bc
00000040: 5739 0d3e 45ec 693d 5a1c 663e 233a a13d
00000050: 6e85 c0be 26c6 b33d 365c 733e 88d7 c6be
00000060: 6bad b0bc f9f9 93bd a13f 823e d18c 963e
00000070: 46bd 213e 51aa 513e 5a7c f0bd 8291 66be
00000080: 197d bbbe 3cbc 56be 27e8 363e 9d7e 85be
00000090: 4a01 603c 1620 16be f640 23be 06d5 b4bd
000000a0: 719b 953d c799 613d 946d 893d 5480 0cbe
000000b0: b035 e03d f1c9 90bd e088 723e 6744 a1bd
000000c0: eff1 853e 7a2e 5abe dde2 16be 7669 84be
000000d0: f2e6 e4bc 96da c03d f19e 703d dc7a 0a3e
000000e0: d13c 6a3d 6e2f 033e 9917 55be 3824 323e
000000f0: 50e6 81bd 9f8e 1a3e 0464 fcbd aa13 7d3d
00000100: 8077 8e3e cf73 663d c626 74be ee48 1fbe
00000110: 4525 4bbe 2115 5e3e 9a0e 423d dc31 b9bd
00000120: 373b 693c dd34 f3bb aac2 8b3c ede5 2bbe
00000130: bd4a cabd 4a95 bc3d b75a c23d 5c60 39be
00000140: 6f96 fe3d 0732 5c3e f176 59be 9764 803e
00000150: 59ba bebd 9c61 23be 0baf 363e 572b 25be
00000160: cdd4 703d d42a 33be 40ce 803e e04c 533e
00000170: 80a1 c23c 89d8 a2bc 9e37 953d f0a1 9abe
00000180: 66ae 273e 24e7 683a 9ac0 af3e 5c4e 98bd
00000190: afdc dd3d 335c 88be adc4 5ebe 6375 2cbe
000001a0: d1de 70be cacc 77be 8c02 283e dede 2fbe
000001b0: 1dfa 713c 4c20 99be bdf8 b3bc cbc6 6c3e
000001c0: 4fda 8d3e b15a 15bc 852f 3b3e 34b1 753e
000001d0: 6807 67be d29a 32be 017b 38be 0698 be3c
000001e0: 73a1 0abd b829 2d3e 0f70 d83d 9d58 62be
000001f0: c40b 9a3e 614e 80be e899 2cbe e870 5fbe
00000200: 1cad e93c e2b6 103e 229b 31be 839f b0bd
00000210: 5006 91bd 53fe e33d 4386 c7bd 3116 0cbe
00000220: e7b6 d5bd d5aa 123e 5e64 03bc eb49 e1bd
00000230: c6a4 623d 2160 0c3e d302 e23d 14ec 9a3e
0.2890899 -0.21898623 -0.1310685 -0.09311793 0.15712363 0.13112693 0.13347553 -0.069049925
-0.18838719 0.3181332 0.1229605 -0.022320392 0.14781767 -0.18076736 0.26670483 -0.014924624
0.13791405 0.05711009 0.22471753 0.07872417 -0.376018 0.08778028 0.23765644 -0.38836312
-0.021567067 -0.07225413 0.2543917 0.2940431 0.15794858 0.20475127 -0.11742468 -0.22516444
-0.3661888 -0.20970243 0.17861997 -0.2607316 0.013672182 -0.14660677 -0.1594275 -0.088296935
0.07305039 0.055078294 0.067103535 -0.13720828 0.1094774 -0.07069767 0.23685026 -0.07874375
0.26161143 -0.21306792 -0.14734979 -0.2586171 -0.027942155 0.09416692 0.05874533 0.1352343
0.057186905 0.12811062 -0.20809783 0.17396629 -0.06342757 0.15093468 -0.12323764 0.06178633
0.27825546 0.056262787 -0.23842916 -0.15555164 -0.19838436 0.21687748 0.047377206 -0.09042713
0.014235309 -0.0074220733 0.017060596 -0.16786928 -0.098775364 0.09208162 0.09489959 -0.18103164
0.12431037 0.21503459 -0.21236779 0.25076744 -0.09312887 -0.15955204 0.17840211 -0.16129814
0.058796693 -0.17496806 0.25157356 0.20634794 0.02375865 -0.019878643 0.07285999 -0.30201674
0.16375121 0.00088845403 0.3432663 -0.07436821 0.10833108 -0.26632842 -0.21754713 -0.16841654
-0.23522498 -0.24199215 0.16407222 -0.17174861 0.014769104 -0.29907453 -0.021969194 0.23122708
0.2770562 -0.009115861 0.18279846 0.23993379 -0.22561419 -0.17441872 -0.18015672 0.02326585
-0.033845376 0.16910446 0.105682485 -0.22104116 0.300871 -0.25059798 -0.16855586 -0.21820414
0.028524928 0.14132264 -0.17344335 -0.086241744 -0.07081282 0.11132493 -0.09742405 -0.1368034
-0.104352765 0.1432298 -0.008019535 -0.11000427 0.05533292 0.13708545 0.11035695 0.30258238

bias f4 [12]
00000000: 992c 4b3e ff6e 88bd 3e90 9a3d 8e81 883d
00000010: 06f8 45bd 810c 823e d0ae 1a3e a451 833e
00000020: b9b2 69be 280c 413d e68e 1c3e 95f7 3fbe
0.19841231 -0.06661796 0.07547043 0.066653356 -0.048332237 0.25400165 0.15105748 0.25648224
-0.22822084 0.047130734 0.15288886 -0.18746789

weight f4 [3, 12]
00000000: 73ef 61bc 63c8 f8bd a94e aebd d622 88be
00000010: bf32 12be 141f d4be e8ee 79be f3a8 723e
00000020: 5be7 a0be ca76 673d ed9f 9fbe 7670 31bd
00000030: a832 e13e e925 abbe fd26 d9be 041a 323e
00000040: 2139 c63e 5948 bf3e cb84 283e 473f 1abe
00000050: dfdf cabe 4ab8 c0be 3454 a43e c60e e03e
00000060: 211b b7be a2b6 7f3e 05d0 073e e5c0 a9be
00000070: 1530 fe3b 66cc cebc 9f62 d63b 714c 983c
00000080: 62b5 0ebc 00c8 9a3e 6ccc 2ebe 60f7 dfbe
-0.013789999 -0.12147596 -0.08511097 -0.26589078 -0.1427717 -0.4142996 -0.24407542 0.23697262
-0.3142651 0.05650977 -0.311767 -0.04332014 0.4398396 -0.3342736 -0.42412558 0.17392737
0.3871546 0.37359884 0.16456906 -0.15063201 -0.39623925 -0.376406 0.32095492 0.4376127
-0.35762885 0.24972013 0.13262947 -0.3315498 0.0077571967 -0.02524395 0.0065425183 0.018591138
-0.008710237 0.30230713 -0.17070168 -0.4374342

bias f4 [3]
00000000: b2e1 92be cc00 8a3d 8f22 54be
-0.28687817 0.06738433 -0.20716308

weight f4 [3, 12]
00000000: 4dfd 86be ca93 41be 1b42 53be 5036 64be
00000010: 0d50 6b3c f48e b1bd 5ee5 84bc 4209 0abe
00000020: 3027 873e 36e7 813e 9389 94be fd75 8cbe
00000030: efd7 f5bd 5c5c 14be 5603 b5bd 02b7 7c3b
00000040: e4cc 0bbe ed0b 2cbe 29a7 d4bd c82e efbc
00000050: eb16 3bbe 0fe8 e0bc 0562 50be 349a 22be
00000060: 0d7f 25be 6464 103e 2a10 103e fb6f 123c
00000070: 5a26 83be c0a5 f5bc 2792 513e c872 fc3c
00000080: a294 393e a36f 833e 79ef 68be 1ddc 463e
-0.26365128 -0.18904033 -0.20630686 -0.22286344 0.014362347 -0.08669844 -0.016222652 -0.13480094
0.26397085 0.25371712 -0.2901121 -0.27433768 -0.12004077 -0.14488357 -0.08838527 0.003856123
-0.13652378 -0.16801424 -0.10383446 -0.029197112 -0.18270461 -0.027454404 -0.20349891 -0.15879136
-0.16161747 0.14100796 0.14068666 0.008937831 -0.25615197 -0.029986262 0.20465909 0.03081645
0.18123105 0.2567111 -0.22747602 0.19419904

bias f4 [3]
00000000: 3a8d afbe d366 843e f5d7 933d
-0.34287435 0.258597 0.07218925

weight f4 [3, 3]
00000000: a996 d0be d20f d33e 6dd7 d53e 41c9 b4be
00000010: 72c1 793d 4ab0 b63e 037f bebd f451 c83e
00000020: e7ed f73e
-0.40739945 0.41223007 0.4176592 -0.35309795 0.0609755 0.35681373 -0.09301569 0.39125025
0.48423693

bias f4 [3]
00000000: 18be e33e 51b2 083f 7624 08bf
0.44480968 0.5339709 -0.53180635

weight f4 [48, 12]
00000000: cf93 09be 950c 1f3d 047b 353d bc84 92be
00000010: 1695 ec3e 99dc e13e 0502 33be 4055 9b3d
00000020: 5b45 60be b263 923e 5b0d 9f3d 41d9 703e
00000030: 31cb e6bd 60db 4abe a42c 9f3d 6c7e 763c
00000040: e9d0 14bc 60ca 843d 3f0c f7bd 7f37 4ebe
00000050: b3fa 1ebd 735b 34ba 112e f6bd 721f b3bd
00000060: 11be 33be a066 e73d 0a0e 75be deee 873e
00000070: b430 ddbe 4508 afbe f55d 943e 5d9a 2dbe
00000080: f98e abbe e909 00be 331c 293e fb49 3a3e
00000090: 9169 3e3e 67d8 83bd 8c01 10bd 50b0 a43e
000000a0: 76ae fcbd eec0 b3be edef e73d e795 c7be
000000b0: caac bfbd c1a8 0cbc 5ab0 48bd 93b0 3c3e
000000c0: e9a9 083d 3c8a 03be 4f19 91bd 1656 bf3e
000000d0: 2a70 c4be 8912 26bf 4282 8b3e 158e a9be
000000e0: a973 79bd 9153 bd3c 7b88 a0be f744 08be
000000f0: 4f6d 333e 84c7 babd ed45 87be 3a9b a9be
00000100: 8540 113f 53ce 083f c4ed efbd 8f85 883e
00000110: 1988 bbbc 5958 533d 57be 0bbe 43ed 5c3c
00000120: 3eb8 67be b4ea f1bc 933b 08be 654e 503b
00000130: 2e6c e5be 5d15 a9be c7cf 573e b344 6ebe
00000140: 07fc 49be 0e9c 203e 9336 98bd 6516 84bd
00000150: b4fd c2bd 2b58 2c3d 2563 93be e0fb 2abd
00000160: 4313 103e aba6 a43e e759 9dbe 21f3 07be
00000170: 138e 6c3d cacf 1fbe 9622 213e 1ec6 3cbe
00000180: f908 d3ba 181b 90be d42e 083e b3ef 94be
00000190: af86 36bd f51b 95bd 4487 953d b64d 9ebd
000001a0: fe70 4e3e a773 063e 3ba0 9abc d6a7 3ebe
000001b0: f5f2 b33d e3b6 813e 861f 023e 7d3b e93d
000001c0: 3f72 e93e dae8 5a3e a788 ba3d 89b1 623d
000001d0: 1ee3 be3e bff6 eebd 441f 82bd 1e11 163e
000001e0: 0810 bebd 215f 703e 3a30 48be 2004 a83d
000001f0: 0a4b 493e afd5 cd3d 79e0 20be 8166 763e
00000200: e1fa a33e 1fb9 2a3e acc2 09be 809a 0e3e
00000210: a5e9 c73d dc42 5c3e 8edc 623e 491c 14be
00000220: 4bca e8be 3da4 b3be 60a5 5e3e 8856 ea3d
00000230: 8577 8dbe a3e6 883d d599 c33b 664e 0d3e
00000240: 1f68 953d 5238 bfbd 1fee 73be fac9 b83c
00000250: 2588 143d 4b7d 083d 9d83 5ebe 842c a4be
00000260: 5826 51be afff e4bc 3396 183b 4578 8b3d
00000270: 531b 57be be40 89bc 4262 01bd 03cf 51be
00000280: 2991 353e 673c f83c 835c bfbc b558 953e
00000290: 7ffe 44be d938 febd a2cb 2dbe 2662 08be
000002a0: 2828 413e d362 bcbd 0d8f 82be dbdd 193e
000002b0: da12 80bd 638a 46be f137 803e 709c b8be
000002c0: 2dd7 a6be a791 ac3e d27a ee3d f090 58be
000002d0: 2423 123d d3f0 fabd 0572 5cbe 2f6a 5a3d
000002e0: 2f86 463e 3445 3c3d 49e7 8abb f35a b0bd
000002f0: 3610 803e 0108 3abe ab69 843e 4cc8 a43c
00000300: d96a e73d 119f 453e de8a 47be 24ce 883d
00000310: feca 1c3e bed0 abbd 4e45 7f3b d718 0dbd
00000320: 1132 013e a46f 903d 51ea 8cbe 8e32 87be
00000330: b290 c8bc 4000 ad3d 12a0 91be 5407 57be
00000340: 77f5 003f 7383 803e c461 65be 1653 95bd
00000350: b892 44bd 97ad ecbc 095f 36be 4383 4e3e
00000360: a028 36be ccc3 cd3d 9edf 59be ad26 c5be
00000370: 1e46 bb3e 1188 1d3f ce22 9fbe 84f1 c9bd
00000380: 0204 02be 052a 95bd c9d5 9e3e bd9c 5d3d
00000390: c5a6 8fbe 1927 49bd 3f6f 17be 97b0 c8be
000003a0: 32fb 543e 2ccd ae3d 443e 92be b05c 9f3e
000003b0: 9e82 31be f9e7 86be fa88 55bd 9f36 d3bd
000003c0: 1fbc 41be 2348 903e 69fb 7cbe dff2 d13e
000003d0: 4430 3bbe eca3 16bf d9e3 743e c171 3abe
000003e0: 9a80 6abe de31 aabd 496b 5ebe 3d2a c13c
000003f0: a69b c9bc 30e3 fb3d ac78 863d 47ee 8c3e
-0.13435291 0.03883036 0.04430677 -0.28616893 0.46207494 0.44113615 -0.17481239 0.075846195
-0.21901457 0.28591686 0.07766219 0.23520376 -0.112692244 -0.19810247 0.077721864 0.01504479
-0.009083011 0.064839125 -0.12062883 -0.20138358 -0.038813304 -0.0006880082 -0.12020505 -0.08746232
-0.17552973 0.11298871 -0.23931137 0.2654943 -0.4320122 -0.34185997 0.28977934 -0.16953416
-0.33507517 -0.1250378 0.16514663 0.18192284 0.18594958 -0.0643776 -0.035157725 0.32165766
-0.12337963 -0.3510813 0.11325059 -0.38981554 -0.09359129 -0.008585156 -0.048996307 0.18426733
0.033365164 -0.12845701 -0.07084905 0.37370366 -0.38366824 -0.6487203 0.27247816 -0.33116212
-0.060901318 0.023111137 -0.31354126 -0.13307558 0.17522167 -0.09120086 -0.26420537 -0.3312624
0.56739074 0.53439826 -0.11715272 0.26664397 -0.022892045 0.051597927 -0.13646828 0.013484302
-0.22628877 -0.02953086 -0.13303976 0.0031785008 -0.44809097 -0.3302411 0.21075355 -0.23268394
-0.19725047 0.1568453 -0.07432284 -0.06449584 -0.09521046 0.04207627 -0.2878658 -0.041744113
0.14069848 0.32158408 -0.30732653 -0.1327634 0.05775268 -0.15606609 0.1573585 -0.1843495
-0.0016100697 -0.2814567 0.13299114 -0.29089126 -0.044562038 -0.07280723 0.073011905 -0.07729666
0.2016029 0.13130055 -0.018875232 -0.18618712 0.08786575 0.25334844 0.12707338 0.113882996
0.45594975 0.21377888 0.091080956 0.055345092 0.37282652 -0.11668157 -0.0635362 0.14654967
-0.092804015 0.23473789 -0.19549647 0.08203912 0.19657531 0.100505225 -0.1571063 0.2406254
0.32027343 0.1667218 -0.13453168 0.13926125 0.09761361 0.2150988 0.22154447 -0.14463915
-0.45466837 -0.3508624 0.21742773 0.11442286 -0.2763025 0.066846155 0.005969266 0.13799438
0.0729525 -0.09336914 -0.23821305 0.022557247 0.03626265 0.033322614 -0.21729894 -0.32065213
-0.20424783 -0.02795395 0.0023282885 0.06810049 -0.21006517 -0.016754504 -0.031587847 -0.20489125
0.17731155 0.03030224 -0.023359543 0.2916924 -0.19237708 -0.124131866 -0.16972211 -0.1331869
0.18862975 -0.09198537 -0.25499764 0.15026037 -0.06253596 -0.19388728 0.2504268 -0.36056852
-0.3258604 0.33704874 0.1164452 -0.2114904 0.035678044 -0.12252965 -0.2152787 0.05332392
0.19387124 0.045964435 -0.004238997 -0.08611097 0.25012368 -0.18167116 0.25861868 0.02011504
0.112996764 0.1929896 -0.19486567 0.06679943 0.1531181 -0.08389424 0.003895122 -0.034447517
0.12616755 0.07052544 -0.2752252 -0.26405758 -0.024483059 0.08447313 -0.28442436 -0.20998889
0.5037455 0.25100288 -0.22400576 -0.07291238 -0.047991484 -0.028891368 -0.1780969 0.2016726
-0.17788935 0.10047111 -0.2127671 -0.3850607 0.36576933 0.61535746 -0.3108124 -0.098605186
-0.12696841 -0.07283405 0.3102248 0.054104555 -0.28056923 -0.049109552 -0.14788531 -0.39197227
0.20798948 0.08535227 -0.2856313 0.31125402 -0.17334983 -0.26348856 -0.052132584 -0.103131525
-0.18919419 0.28180036 -0.2470528 0.41005608 -0.1828013 -0.58843875 0.23915042 -0.18207456
-0.2290062 -0.08310293 -0.21720614 0.023579711 -0.024610352 0.12299192 0.06565985 0.2752554
