data/best/output/poster/train/9_stemgnn.pt (torch, 435920 bytes, 73 tensors)

weight_key f4 [135, 1]
000000 a4 b1 7c bb 56 db 21 3e 80 7a 7b be 99 0c 60 be
       -0.003855803 0.15806326 -0.24558449 -0.21879806
000010 17 eb e8 bd 39 49 a4 3d 4c 14 b2 bb ff d1 71 3e
       -0.11372965 0.080217786 -0.0054345485 0.23615263
000020 ad 2b d6 bc 1b 8e 9f 3d 41 15 b8 bd 4a 6a 70 bd
       -0.026143873 0.07790776 -0.08988429 -0.058695115
000030 c5 8c 91 be d4 45 49 be fa 1b fa bd da bd 3c 3c
       -0.2842771 -0.19655544 -0.12212367 0.0115198735
000040 6b e9 f0 3d 56 bc 36 3e 40 d9 4d be 24 1f 04 be
       0.11763271 0.17845282 -0.20102406 -0.12902504
000050 06 05 dd 3d 41 36 7c 3e cf 2a 7d bd 2a 0f 63 3e
       0.10791974 0.24630071 -0.061808404 0.22173753
000060 c1 a7 46 bd db 55 00 3d 13 1f 8a 3e b1 9f 8c be
       -0.048499826 0.03133188 0.26976833 -0.27465585
000070 69 f3 3e be 6b a7 98 bd 91 42 ea bd 52 1a 84 3e
       -0.18647541 -0.074538074 -0.11438478 0.2580133
000080 7d 01 44 be 5c 6d 0b be 78 ba 53 be c9 25 8e be
       -0.19141193 -0.13615936 -0.20676601 -0.27763203
000090 e1 73 31 be 27 c7 82 3e 3c dc 07 3e b4 5a 14 3e
       -0.1732936 0.25542566 0.13267606 0.14487725
0000a0 9e 79 83 3c 77 dd 1b be 29 41 4d 3d 76 49 8e be
       0.016049203 -0.15221201 0.05011097 -0.2779042
0000b0 19 fe 5c be b5 5d 1e be a9 8c 3f 3e b8 fe 31 3e
       -0.21581306 -0.15465434 0.18706001 0.17382324
0000c0 66 b0 07 be 1f 4e 36 bc c2 f3 41 3e 01 4b 97 3e
       -0.13250884 -0.011127024 0.18940642 0.2954941
0000d0 87 91 f0 3d c9 4c 25 3d 68 dd 4c 3e 70 fb 32 be
       0.11746507 0.04035643 0.20006335 -0.17478728
0000e0 87 6a 60 3d 1e 21 6d be e3 7a 53 be 5f 53 1d be
       0.054789092 -0.23157164 -0.20652346 -0.15363835
0000f0 ad f0 08 3e f5 9b f2 3d ac 0c 36 be e2 89 b6 3d
       0.1337306 0.11846153 -0.17778271 0.08913018
000100 55 cf 25 3e b4 e4 20 bd c4 1d 22 3c f9 25 8b 3d
       0.16192372 -0.03928061 0.009894792 0.06794352
000110 17 07 3c 3e cd 67 91 3e 95 b5 6b be 73 cf e1 bd
       0.1836208 0.28399506 -0.23018487 -0.11025896
000120 d8 b6 eb 3d b4 ce 7a 3e 3c 81 83 3e 41 56 85 3e
       0.11509484 0.24492913 0.25684536 0.2604237
000130 49 69 6f 3d 96 51 84 be f8 ca df 3c 4c 0b 3f be
       0.058450017 -0.25843495 0.027318463 -0.18656653
000140 63 99 8e be ef f8 86 3e 2b ed 66 3e e5 af 97 be
       -0.278514 0.26361796 0.2255141 -0.29626384
000150 6e 15 65 3d 7c cb 4e bd df 76 4d bd 21 d9 0b be
       0.05592864 -0.050487027 -0.050162192 -0.13657047
000160 18 2f e7 3d c1 e8 34 be ec fc dd 3d 1c fb 18 3e
       0.11288279 -0.17666914 0.10839257 0.1493954
000170 f4 0f 59 3e f6 2b e1 3d 03 35 97 be 61 e9 46 be
       0.21197492 0.10994713 -0.29532632 -0.19424964
000180 e3 81 17 3e 69 35 7f 3d df 09 6d be 1a e9 2e be
       0.14795642 0.062306795 -0.23148297 -0.17081109
000190 73 d7 8e 3e 4b 40 4b 3e bd fc 05 be e8 08 99 bd
       0.2789875 0.19848745 -0.13084693 -0.07472402
0001a0 52 51 90 be b3 22 90 bb 01 f8 63 be d4 6a 69 be
       -0.28187042 -0.0043986677 -0.22262575 -0.22794658
0001b0 4a 9f 7e bc 04 87 39 3d a0 98 f7 bd 2a 6a 35 3e
       -0.015540907 0.045294777 -0.12089658 0.1771628
0001c0 aa f0 38 be 2d c1 89 3e d4 30 4f 3e 00 16 81 be
       -0.18060556 0.26905194 0.2023347 -0.25212097
0001d0 83 bb 97 bd c2 4b 4d 3c 2e e3 2a 3d b3 c8 8c 3d
       -0.07408812 0.012530269 0.04172056 0.06874218
0001e0 46 79 eb 3d 0d 13 84 3c 8b ca 15 be 99 32 0f 3e
       0.114977404 0.016122365 -0.14628045 0.13984145
0001f0 b5 65 92 be 05 21 35 be 0e 64 9b bd fb 90 15 be
       -0.2859322 -0.17688377 -0.07587443 -0.14606087
000200 cf 0b d6 bd 57 18 79 be 2d b2 80 bd 2f a0 83 3d
       -0.10451471 -0.24325691 -0.06283984 0.06427037
000210 9e 91 45 be cd 10 80 bc 48 8a 58 3e
       -0.1929383 -0.015633011 0.211465

weight_query f4 [135, 1]
000000 e8 dc 93 bd 06 d4 da 3b 4a 08 a1 3d 30 0a 42 3e
       -0.07219869 0.006678107 0.07862909 0.18949199
000010 85 6c a5 3e 69 dc d3 3e 8f af a2 3e 47 31 d1 3e
       0.32309356 0.41379097 0.31774566 0.40857908
000020 5b ce d2 3d 96 80 13 be 31 7a 9d bc d6 85 a5 3e
       0.102932654 -0.1440452 -0.019223304 0.3232867
000030 6f e9 f2 3d f4 b3 e0 bc fe ed dc bd b6 5c 22 be
       0.1186093 -0.027429558 -0.10787581 -0.15855679
000040 96 c0 06 be 8a 42 6f 3d ae 21 90 3e ff e8 8e 3e
       -0.13159403 0.058413066 0.28150696 0.27912137
000050 25 93 2b be ad c3 9b 3e 22 1e e7 bd fa 7e 68 3d
       -0.1675535 0.30422726 -0.11285044 0.05676172
000060 be b2 23 ba 3f 1c 81 3d 57 36 7e 3d 7a cc 15 be
       -0.0006244591 0.06304216 0.06206354 -0.14628783
000070 b3 da 0b be 95 a1 95 3d 83 07 fc 3d cf 24 81 bc
       -0.13657646 0.0730621 0.1230612 -0.015764622
000080 36 46 6c 3e e4 54 17 be 30 db ca 3d e9 a1 c2 3e
       0.23073658 -0.14778477 0.09905088 0.38014153
000090 cc af 01 bb 8d 1f c6 3e 7c 85 68 3e 68 a9 17 be
       -0.001978862 0.38695946 0.2270717 -0.14810717
0000a0 0f ce 9d 3e 87 cf af 3d 8b f5 46 bc 5a 36 b7 3e
       0.30821273 0.085845046 -0.012143503 0.35783654
0000b0 d8 c4 f4 bd c9 fa 1b 3e b6 12 6f 3d 12 70 aa 3e
       -0.119516075 0.15232386 0.058367454 0.33288628
0000c0 32 38 50 3e d1 c2 86 3e f3 1d 67 3e 81 bd 49 3d
       0.20333937 0.26320508 0.22570018 0.04925299
0000d0 72 3c 6e 3d eb 09 ff bd d9 f3 8f 3e 11 6c b6 3e
       0.058163114 -0.124530636 0.28115728 0.35629323
0000e0 6c b3 a5 3e 4d 89 b6 bd c3 d0 08 3e 22 76 b6 bd
       0.3236345 -0.08912907 0.13360886 -0.08909251
0000f0 1e af 31 bd 6e c8 58 bd ba ff 62 3e ad 30 69 bd
       -0.043379895 -0.05292552 0.22167864 -0.056931186
000100 02 28 e9 3d 49 11 08 3e c2 95 9f 3e 28 a5 d5 bd
       0.11384584 0.13287844 0.31168944 -0.10431892
000110 98 7e aa bd c0 9e 54 bd 46 17 a8 3e 12 20 65 3c
       -0.08324927 -0.05190921 0.32830256 0.013984697
000120 29 0f be 3e b6 2a 6a 3e 77 6a 22 3e ee a6 f2 3d
       0.3712094 0.22867855 0.15860926 0.118482456
000130 74 a5 7c 3d e6 e4 20 3e 9b a6 56 3d ae 0a f2 3d
       0.061681226 0.15712318 0.05240498 0.11818443
000140 8f fa 21 3e 9e 8c e5 bd 6c 3f 12 bd b8 63 b8 3e
       0.15818237 -0.11208461 -0.035705015 0.3601358
000150 e9 56 f6 bd 81 97 ca 3d b8 e4 d3 3e 7f 30 69 3e
       -0.120282955 0.09892178 0.41385436 0.22772406
000160 6a f0 03 3e 40 98 0c be 43 1d 89 3e e4 44 b9 bd
       0.1288468 -0.13729954 0.26780137 -0.09046343
000170 4a 75 14 3d db 8e aa 3c 93 41 9c 3d dc 3e fd 3d
       0.036244668 0.020820072 0.07629695 0.12365505
000180 00 d3 ba 3e ab 81 20 3e 00 8a c5 3e f6 49 9a 3e
       0.36489105 0.15674464 0.38581848 0.30134553
000190 11 31 8b bd 4f 8a 81 3e 5b ea b8 bd bc 95 be bb
       -0.06796468 0.25300834 -0.09029075 -0.0058161896
0001a0 48 bc 54 3e 4f 19 60 3e 58 9d af 3e f1 0b c8 3c
       0.20774949 0.21884654 0.3429973 0.024419757
0001b0 f9 a2 f7 3d 45 f2 8b 3e 5e 1a 2b be d7 57 ab 3e
       0.120916314 0.27333274 -0.16709277 0.33465454
0001c0 2d 89 00 be cf 96 fe 3d 00 90 8e 3d 87 dc 14 bd
       -0.12552328 0.12431108 0.069610596 -0.036343124
0001d0 1e 0d 23 3e d6 5a bb 3e e8 07 09 3d 29 35 66 bd
       0.15922973 0.3659274 0.033454806 -0.05620304
0001e0 f0 d4 2a 3c a0 ea 31 be cb 25 82 3e 3c 96 b4 bc
       0.010426745 -0.17374659 0.2541946 -0.022044294
0001f0 4d a1 9f bd d6 f5 51 bd b9 dd 94 3e c4 db 8d 3e
       -0.077944376 -0.051259838 0.2907541 0.2770673
000200 f2 fa b1 3e 93 31 69 3e b8 79 ab 3c 93 74 18 3d
       0.3476177 0.22772817 0.020932063 0.03722055
000210 4e 49 55 3e b2 38 bc 3e 45 d7 51 3e
       0.20828745 0.36762005 0.20492275

weight_ih_l0 f4 [405, 3]
000000 bf 53 81 bd 1b 0a 81 bd 90 15 d5 bd 1f ce 7c 3d
       -0.063148014 -0.063007556 -0.10404503 0.06172001
000010 7e cc a2 bb 0f 68 08 bd 95 fc 9d 3d cf 83 5a bd
       -0.004968225 -0.033302363 0.07714192 -0.05334836
000020 5a 2c d3 bb a0 f6 53 3c 34 ba 12 bc 63 70 8e bd
       -0.006444496 0.012937218 -0.008955527 -0.0695503
000030 e9 b8 7c 3a df b4 0e 3e 59 15 ae 3d ee f6 fe 3d
       0.0009640591 0.13936184 0.085001655 0.12449442
000040 86 50 c4 3c a1 bc a2 3d a1 cd e8 bc be cf 4d bc
       0.023964178 0.07946134 -0.028418364 -0.012561737
000050 57 17 7b bd 1f b0 da 3c 43 f7 cf 3c a6 2d 70 bb
       -0.061301555 0.02669531 0.025386458 -0.0036648302
000060 a8 6f 35 bd 5a 86 9f bd ae a1 0e 3d d9 31 31 bd
       -0.044295937 -0.077892974 0.03482216 -0.04326043
000070 6e 0c 61 3d c9 49 24 bc 0c 9e 11 bd 4b e3 b0 3c
       0.054943494 -0.010027357 -0.035551116 0.021592757
000080 d7 69 1e bd 52 49 eb 3d 6a 45 e6 3d 4d b2 02 3d
       -0.038675155 0.11488594 0.112437084 0.031908322
000090 94 f5 ff 3c 7b 21 5d 3d 75 7f 53 3d 70 4b 28 bd
       0.03124503 0.053987008 0.051635224 -0.041087568
0000a0 df fe ce bd 0b 30 34 bd d0 0b cd 3d fb ab 1e 3d
       -0.101072066 -0.04399113 0.10012019 0.038738232
0000b0 dc 7f d2 3d 84 6b 82 3d 2c fb 1b bd 14 6d 02 3c
       0.102782935 0.06368163 -0.038081333 0.007960577
0000c0 72 71 91 bd f8 53 cd bd e0 f9 cc bd f4 8d c1 3d
       -0.07101716 -0.100257814 -0.100085974 0.094509035
0000d0 66 d9 84 3c 97 ab b9 3d 31 8d c0 3d 5a 98 e7 3d
       0.016216945 0.09065931 0.0940193 0.11308356
0000e0 36 97 b2 3d 7f 2c d2 3d bc 9a 06 3e 73 a4 4a 3d
       0.087202474 0.10262393 0.13144964 0.049473237
0000f0 bc a3 ee 3c d8 1c e0 3c a6 4b 40 3e d7 85 50 3d
       0.029130809 0.027357504 0.18778858 0.05090889
000100 da 17 81 bd 0c 24 f6 3c df 9c ad 3d ec 4d d9 3d
       -0.063033774 0.030046485 0.084771864 0.106105655
000110 ed 8c c3 3d 56 6e 3b 3d 54 25 26 bd 7d 9b 50 bd
       0.09548364 0.04575952 -0.040562943 -0.050929535
000120 b3 ff e6 3d 0d 80 b9 3d 29 a4 1a bc 63 d7 9e 3d
       0.112792395 0.09057627 -0.009438553 0.077559255
000130 ad ee 2b 3d 0b 13 41 3d 6d 3c 97 bd 90 da 8f 3b
       0.041975666 0.0471373 -0.07384572 0.0043900684
000140 15 88 50 bd 00 be 90 3d b0 b6 40 bc a6 07 19 3d
       -0.050911028 0.070674896 -0.011762306 0.03736081
000150 a4 47 ec 3a f9 fc bd 3c 25 85 2e bd e2 a4 1e bd
       0.0018026722 0.023191916 -0.042607445 -0.038731463
000160 75 c6 0f be 2d 7d 79 bd d1 4e 00 be 63 a8 1b be
       -0.14040549 -0.060910393 -0.12530066 -0.15200953
000170 f5 a3 0b be 82 74 18 3e d1 b4 02 3e b6 df 25 3e
       -0.13636763 0.14888194 0.12764288 0.1619862
000180 15 1c 11 3e 39 1b 7b bb ff 48 6b 3c 35 e5 b0 3b
       0.14170869 -0.0038315787 0.014360665 0.0053984174
000190 3c a2 16 bd 31 11 a1 3d 2c 2f 42 bd 5f 2d cb bc
       -0.036775813 0.07864607 -0.047408268 -0.024801908
0001a0 1b 1c 87 bd 1d eb f0 bc 5c 05 b9 3d da 7a b8 3d
       -0.065971576 -0.029408986 0.09034225 0.09007807
0001b0 81 4f 0b bc a6 26 63 bb e8 1c db 3b ee 73 e1 bd
       -0.008502842 -0.0034660487 0.0066867955 -0.1100844
0001c0 6a 83 4e bd 23 28 3e bc 55 55 51 3a f3 87 6f 3d
       -0.050418295 -0.011606249 0.0007985433 0.05847926
0001d0 fa 95 8d 3c c1 ef ba 3d 14 b8 0b 3c 01 f7 a3 3d
       0.017283428 0.09127761 0.008527774 0.08006097
0001e0 1e 8b ca 3c 59 24 b9 bb 8b 2e 0a bd 79 cc d5 bd
       0.02472454 -0.005650085 -0.033735793 -0.10439391
0001f0 1d 13 fb bd 47 d0 60 3a be 47 57 3d 8f 1c 99 bc
       -0.12259505 0.00085759576 0.052558653 -0.018690376
000200 b6 eb 71 bd 88 b9 5d 3d 23 3d 2c 3d ef 27 eb bb
       -0.059062682 0.054132015 0.042050492 -0.0071763913
000210 95 64 04 bd 38 27 b3 3d a1 f0 32 3d 2c ac a2 3c
       -0.032322485 0.08747715 0.043686513 0.019857489
000220 0f a8 2b 3e 9c 6b 1a 3e 0f e6 f5 bb 62 b7 93 3d
       0.16763328 0.15080112 -0.0075042318 0.07212712
000230 5e d9 ce bc c6 b0 23 3c b6 4f c5 3d 0d 16 da 3c
       -0.025250133 0.009990877 0.09634344 0.026621843
000240 a5 39 4f bb 02 2a 01 3d 7b 4c 17 3d 74 8d 44 3c
       -0.0031620052 0.031534202 0.03693817 0.011996616
000250 5e 53 13 3d 7c db db 3d 79 ec 2c 3c 0b 71 41 bd
       0.035968177 0.10735223 0.010554426 -0.047226947
000260 c4 47 28 3c 8b f9 36 3d 1f 4e 3d 3d f3 c0 99 bd
       0.0102710165 0.044671576 0.04621708 -0.07507505
000270 7c c9 0a bb 04 2d 4f bd 7c 17 bf bc e2 f1 17 3d
       -0.0021177223 -0.05058004 -0.023326628 0.03709591
000280 04 0e 65 bd b7 83 18 3d 4b 4d cd 3d 2a 54 06 3d
       -0.05592157 0.037234988 0.10024508 0.03279511
000290 66 b4 f8 bc dd d2 60 bd b5 0b ab bb 09 7e b7 bd
       -0.030359458 -0.054888595 -0.0052199014 -0.08959586
0002a0 fc ed 8d 3c e8 20 d4 bd 5a ab dd bd 0f ef a5 bd
       0.017325394 -0.10357839 -0.10823698 -0.081022374
0002b0 0e ae 72 bc 43 1e 77 3d 56 f9 31 bd 24 e8 df 3d
       -0.014812006 0.060331594 -0.043450676 0.10932949
0002c0 c3 0a 53 3b 56 43 62 bd aa c0 9a bd 17 ca 1f be
       0.003220246 -0.055239998 -0.07556279 -0.15604435
0002d0 22 0b a9 3d 8b 20 6e 3d 38 24 c7 3d 5e 62 ac 3c
       0.082540765 0.058136504 0.09723705 0.021042999
0002e0 75 0a a2 bd 25 08 4b 3d 89 02 52 bd 5f 52 78 bc
       -0.07912151 0.049568314 -0.05127195 -0.015156358
0002f0 ee f0 ff bd e0 eb 0a bc 3c 9e 8b bd 01 0a 8d bc
       -0.124971256 -0.008479089 -0.0681729 -0.017216684
000300 de b9 2d 3b 0a 82 a9 bd 66 9c 49 3c a5 19 0b 3e
       0.002650849 -0.08276756 0.012305355 0.13584001
000310 72 7b d2 3d 11 49 09 3d f3 dc 94 3c 03 3b 70 3d
       0.102774516 0.033516947 0.018171763 0.058650028
000320 a0 ec fb 3d 8b b0 da 3d c3 eb 91 3d cd de 41 3c
       0.12300992 0.10678204 0.07125046 0.011832905
000330 bc 5a df 3b 0d d1 dc bd 9c c6 c6 bd a1 4a 90 3d
       0.0068162363 -0.10782061 -0.097058505 0.07045484
000340 7d 0f 97 bc ba ea 92 3d eb e0 87 bd c6 7d 44 bd
       -0.018440003 0.07173677 -0.066346966 -0.04797151
000350 31 69 9b bd 50 35 03 3e b3 19 99 3d be 7d 19 3e
       -0.07588423 0.12813306 0.07475605 0.14989373
000360 d8 f6 d2 3d e6 cb c7 3d 7d e0 57 3d 96 48 34 bd
       0.10300988 0.097556874 0.052704323 -0.044014536
000370 c1 8d 14 bd 2d ff d2 bb 55 fe 82 3c 62 c3 b1 bd
       -0.036268 -0.0064391107 0.015990416 -0.086798444
000380 f6 95 3b 3d a4 84 bd bc f6 e5 af bd 58 cb 77 bd
       0.04579731 -0.023134537 -0.085887834 -0.060496658
000390 57 c2 97 3d cc 6e 9c 3d f3 65 a8 bd 8c 9b cc 3d
       0.07410114 0.0763832 -0.0822257 0.09990606
0003a0 c9 fa a8 3d c6 4c b9 3d 79 88 e6 3d 87 2d b5 bb
       0.082509585 0.090478465 0.11256499 -0.005529109
0003b0 35 19 8f 3d 61 2d ae 3c d8 bc 1f bd 24 5a 7d 3c
       0.0698723 0.021261873 -0.038998455 0.015463386
0003c0 a9 ea f0 3b cd cb ae 3d d6 b4 01 3c be 7c 0c bc
       0.0073521924 0.08534966 0.00791665 -0.008574663
0003d0 38 3b 3a 3d 34 77 5f 3d 2d 1b 96 bc c9 32 00 3d
       0.04546663 0.05455704 -0.018323505 0.031298432
0003e0 84 9e 96 3d 36 aa d9 bc 0d f8 07 3c d9 b6 1e bd
       0.07354453 -0.02657042 0.008298886 -0.038748596
0003f0 52 48 57 3c 9d 3a a2 bd e7 a2 8a bd 1a 23 e0 bc
       0.013139801 -0.07921336 -0.067693524 -0.027360488

weight_hh_l0 f4 [405, 135]
000000 bd 8a 80 3d 97 d4 a4 3d fe 7c 7c bd 0a 79 04 3e
       0.06276462 0.08048361 -0.06164264 0.12936798
000010 21 c9 a1 bb 0c 5b a5 3c 25 75 19 3d db 4f 67 bd
       -0.0049373065 0.020185016 0.037465233 -0.05647264
000020 17 48 46 bd ba 7d f6 3c 92 e9 93 3d bf 01 1e bd
       -0.048408594 0.030089248 0.072222844 -0.038575884
000030 a7 21 cf bd f6 5a 01 3d 02 8d 9f 3c 82 85 e4 3d
       -0.101138406 0.031580888 0.019476417 0.11158277
000040 1a 5f dd bd 68 3a d9 bb 0f a6 63 bd 8b fc b0 bd
       -0.10809155 -0.006629277 -0.055578288 -0.08641919
000050 df b1 77 bc d2 b3 89 bd d5 01 90 3d 75 65 9e bd
       -0.015118091 -0.06723751 0.070315994 -0.07734195
000060 c8 4f a9 3d 0e a4 f0 bc 93 f3 10 3d 88 20 10 be
       0.0826717 -0.029375102 0.03538854 -0.1407491
000070 46 10 8a bd 20 92 8e bc f1 40 33 be 89 30 bc 3c
       -0.06741385 -0.017403662 -0.17505242 0.022972362
000080 db 06 39 3c f8 29 26 3b ca 46 e7 bd de bb cc 3d
       0.011293138 0.0025354605 -0.11292799 0.0999677
000090 a2 4a 4c 3d 5c 5d ac bc a3 29 03 bd 55 83 6a 3d
       0.049875863 -0.021040611 -0.03202213 0.057254154
0000a0 ad ff 2a 3e 46 35 b6 bd b2 39 eb bc a1 ab 42 3c
       0.16699095 -0.0889688 -0.028714035 0.01188174
0000b0 bf a6 bb bd 40 c6 f5 3d 8e 09 aa bc 7e c8 ac 3d
       -0.09162664 0.12000704 -0.02075651 0.08436678
0000c0 57 6f f6 bc 1b e3 19 bd b8 8d 56 bd 27 34 4c bd
       -0.030082388 -0.0375701 -0.052381247 -0.049854424
0000d0 d5 31 8f 3d 3e 9c ad 3d de ae 54 bd 79 75 db 3d
       0.069919266 0.084770665 -0.05192458 0.107157655
0000e0 ab ac d1 3c 36 b8 61 3d 39 aa bb 3d 83 96 78 3d
       0.02559503 0.055107318 0.09163327 0.060690414
0000f0 dc 17 68 3d 2b 8d e4 bc b2 48 77 bd bf 13 51 3d
       0.05666338 -0.027899345 -0.060372062 0.051044222
000100 49 06 93 3c a3 58 cf bc 21 01 a3 3c 83 c6 39 3d
       0.017947333 -0.02531082 0.019898 0.04535533
000110 d1 47 5e bc 1f 00 c3 bd 3c f0 b8 bc 03 ea 4f bd
       -0.013566927 -0.095215075 -0.02257549 -0.05076028
000120 19 fa d2 bd b5 49 85 3b f4 66 99 3c d0 40 a0 3c
       -0.103016086 0.0040676245 0.01872585 0.019562155
000130 9b f5 7b 3d 7c 72 84 bd 07 29 94 bd 6c 7a de 3d
       0.061513525 -0.06467149 -0.07234388 0.10863194
000140 ff 94 ee 3b 40 88 1d bd c8 bd 69 bd f2 00 c4 bd
       0.0072809453 -0.038460016 -0.057065755 -0.09570493
000150 a2 99 43 3c 89 3a ca bd e6 97 b1 3c 35 e7 ae 3d
       0.011938484 -0.09874446 0.021678876 0.08540193
000160 c2 13 c2 bb d5 e6 a5 bd 8c 7c 77 3d 57 e2 b1 3d
       -0.0059227655 -0.08100668 0.06042151 0.08685749
000170 bd db 05 be 1b 54 5d 3d ec 99 16 3c 74 8c ab 3c
       -0.13072105 0.054035287 0.009191971 0.020940997
000180 9e 13 26 bc 78 39 97 bd 0a 59 cf 3c 9d 44 3e 3d
       -0.010136513 -0.07384008 0.025311012 0.046452153
000190 68 20 41 bd f9 f9 90 bd 59 d4 31 3d 6b 68 91 3d
       -0.047150046 -0.070789285 0.0434154 0.07099994
0001a0 73 66 7b 3d 97 43 ce 3a ae 08 3f 3d 09 0f d5 3a
       0.061377 0.0015736696 0.046639137 0.0016255091
0001b0 6c 8c 93 3c 2f b9 8a 3d 33 87 b5 bc f8 e1 09 bd
       0.018011294 0.06773602 -0.022159195 -0.033662766
0001c0 91 a8 d8 bc df d3 55 bd 7e 97 95 3c 84 1f 76 bd
       -0.026447566 -0.05220401 0.018260714 -0.06008865
0001d0 1e cc 9c 3d 08 7a 87 bc 42 ee 51 3d 58 71 b2 3d
       0.0765612 -0.016537681 0.05125261 0.08713025
0001e0 15 99 10 3c a7 d9 48 bc 86 21 3e 3a 26 24 85 bd
       0.00882556 -0.012258924 0.000725292 -0.065010354
0001f0 c6 ae 8b 3d e2 44 ef bb 9e c2 0d bd 91 fb c1 bd
       0.06820445 -0.0073019126 -0.03460943 -0.094718106
000200 7a 58 72 3d 78 68 c6 bd ca 21 45 3c a7 15 ad 3c
       0.05916641 -0.096878946 0.012031982 0.021128489
000210 9f 75 af bd fd 5e e5 bd cc f1 83 bd b8 71 62 3d
       -0.08567356 -0.11199758 -0.064426035 0.055284232
000220 25 92 0c be 0c a3 0d be cb 0d ac 3c 4b 0c 65 bc
       -0.13727625 -0.13831729 0.02100267 -0.013979982
000230 83 7e b8 3d fd 0c ef 3c c0 68 9c bc 34 a0 29 3b
       0.09008505 0.029180998 -0.019092917 0.0025882842
000240 f0 5e c0 bc ac 65 c1 bd 2b 50 65 bd f3 c1 90 3d
       -0.02348277 -0.094432205 -0.055984657 0.07068243
000250 58 9b 4f bd 5b fd f3 bd 86 7d 27 be f9 c6 5b 3d
       -0.050685257 -0.11913558 -0.16356477 0.053656552
000260 33 7f 49 3d 3f 9a 16 3e 39 b3 ae bc 49 e7 c5 bc
       0.049193572 0.14707278 -0.021325694 -0.024158137
000270 a3 52 09 be 19 2f d5 bd e8 7f 96 3c 92 92 99 bc
       -0.1341043 -0.10409374 0.018371537 -0.018746648
000280 82 46 3e bd 5e 15 a5 bd 14 9b b0 3d 96 b5 13 bd
       -0.04645396 -0.08060716 0.08623329 -0.036061846
000290 60 fa 04 be 0e 0c 65 bc 7b 6b 95 bd 9d 35 19 be
       -0.12986135 -0.013979925 -0.07295891 -0.14961858
0002a0 a4 22 04 be 60 56 0b 3e f5 9b 90 bc fd 66 a4 3d
       -0.1290384 0.13607168 -0.017652491 0.08027456
0002b0 bc 89 16 bb 29 7d c9 bc 8b ce f7 3d 4d 61 d2 bd
       -0.002297028 -0.024595814 0.12099942 -0.10272465
0002c0 26 0e 00 be 6d 46 93 3c 03 f0 d2 3c fe 28 59 3d
       -0.12505397 0.017977918 0.025749212 0.05301761
0002d0 d1 9c 06 bb db 15 13 be fe f2 df 3b 91 67 83 3d
       -0.0020540247 -0.14363806 0.006834387 0.06416238
0002e0 b6 a5 30 3d 72 a5 c2 3d 23 a7 ea 3d 0c a2 08 be
       0.043126784 0.095042124 0.1145766 -0.13343066
0002f0 8e cf ef bc 3e 79 c7 3d 53 b4 df bd 0b ec 24 3c
       -0.029273774 0.09739922 -0.10923066 0.010066043
000300 62 c3 fb bd 3f 9a 9f bc f2 ca 84 bd 39 5c e5 bd
       -0.12293126 -0.01948273 -0.06484021 -0.11199231
000310 6f d5 7a 3c c0 67 9d 3c 07 c4 18 be 01 43 aa bd
       0.015309676 0.01921451 -0.14918528 -0.08313561
000320 d7 0b 14 be ae 5e 04 be a8 17 84 3b 12 5a 0f bd
       -0.14457642 -0.12926742 0.0040311404 -0.034998007
000330 64 69 8a ba d3 54 f5 3d 53 05 f5 3c b6 78 4a bd
       -0.0010559973 0.119790696 0.029909765 -0.049431525
000340 0f 13 07 be d4 60 12 bc b3 ca 94 3d 33 ab 11 3d
       -0.13190864 -0.008934218 0.07265224 0.03556366
000350 61 39 f9 3d 70 84 2e be 71 4c 3a ba 9a 36 ad bc
       0.12169147 -0.17042708 -0.00071067276 -0.0211442
000360 c9 cf a6 ba 71 04 4c 3d 76 3c 16 bc 3f 09 27 bc
       -0.001272672 0.049808923 -0.009169688 -0.0101950755
000370 3f 03 18 be 5e 77 b2 3c 40 0b 2a be 7a 34 4e bd
       -0.14844988 0.021785434 -0.16605854 -0.050343014
000380 dd 70 96 3d 2c 20 ec 3c c4 83 71 3d 02 67 85 3d
       0.07345746 0.028823934 0.058963552 0.06513788
000390 43 79 b9 bd 5f f8 31 3d 0f e4 0e 3c d6 bb bc 3c
       -0.09056332 0.043449756 0.008721366 0.023038786
0003a0 a3 6b b2 3d fe 52 01 3e 51 cc 17 be 94 15 20 3c
       0.08711936 0.12629315 -0.14824034 0.00977077
0003b0 af 1d ae 3c 64 d4 13 bc 75 db a0 bd dc 51 15 3c
       0.021254389 -0.009022806 -0.07854358 0.009113755
0003c0 02 17 05 bc 4f 3a da 3d 74 46 39 be 92 d5 6b bd
       -0.008123161 0.10655653 -0.18093282 -0.057576723
0003d0 5e 33 f4 bc a9 21 8b 3d 3e d1 e4 3c c4 8a ed 3d
       -0.02980965 0.067935295 0.027931806 0.11598733
0003e0 59 e9 63 3d 3b 4c d2 bc 5e e1 3c bd cb 66 8d bc
       0.05564246 -0.025671115 -0.046113364 -0.01726093
0003f0 a2 c2 8f 3c 33 7f ea 3b 20 32 b0 3c 59 32 b7 b9
       0.017548863 0.0071562766 0.021508276 -0.00034941992

bias_ih_l0 f4 [405]
000000 64 21 b9 bc 62 76 e5 3d 5e 8d 27 bc 73 28 a7 3d
       -0.02259893 0.1120422 -0.010226576 0.08162012
000010 dd e5 1e bc b9 95 d6 3c ae cf 1d bd c7 d9 2f bd
       -0.009698358 0.02619444 -0.038528137 -0.042932298
000020 e6 c2 ee 3d dc ea 80 3d 0d 4e d4 bc fd 4d 18 3d
       0.11658268 0.06294796 -0.025916124 0.03718375
000030 06 8f 1e 3d 07 e8 6a bd 94 68 1d be e3 5e e5 3c
       0.038710617 -0.057350185 -0.15371925 0.027999347
000040 71 9b dc bd 69 b7 16 bd 66 93 d8 bd 3b 24 b8 bd
       -0.107718356 -0.036796007 -0.10574989 -0.089912854
000050 ea ab e4 bd af d7 9f bc 21 cc 0e 3c da 7c ef 3d
       -0.111656025 -0.019512026 0.00871566 0.116937354
000060 43 65 ff 3c 6d f9 b2 bc fe b7 ea bd 0a 60 d4 bd
       0.031176215 -0.021847451 -0.11460875 -0.103698805
000070 b7 30 a3 bd 47 e5 1a be 85 23 0d 3c c0 50 35 3c
       -0.07968276 -0.15126525 0.008614426 0.011066616
000080 80 24 68 3d 5c 36 b7 bd 92 15 3b bc ef af 50 3d
       0.056675434 -0.08945915 -0.011418717 0.050949033
000090 eb fd 48 bd 75 2d d0 bd 49 20 6b bd 77 11 96 3d
       -0.04907028 -0.1016492 -0.057403836 0.0732755
0000a0 2a 24 8c 3d 22 91 23 3d dd 2e f0 bd d6 7a 92 3d
       0.06842835 0.03993333 -0.117276885 0.07152335
0000b0 3d ce 4a 3d 68 02 4d bb 6a ff 99 3b 1b f4 bb bd
       0.04951309 -0.0031281952 0.004699637 -0.09177419
0000c0 f2 b1 65 3d 7b 85 72 3c d2 32 9b 3c c5 ac 28 bd
       0.056077905 0.014802332 0.018945131 -0.04118039
0000d0 d5 9c 9c 3d 81 20 5a 3c 4c 8c b6 3d 8e fc ae bd
       0.07647101 0.013313414 0.08913478 -0.08544265
0000e0 aa d9 87 3d 63 53 96 bd e0 27 f3 bd f4 cc 93 3d
       0.06633313 -0.073401235 -0.1187284 0.07216826
0000f0 2d 18 ce bc ec 00 f9 bc 38 92 bb bd f3 70 d7 3d
       -0.025158012 -0.030395947 -0.091587484 0.1051959
000100 e4 04 69 3c af 4e a6 bd 0f 57 c0 bd ff 29 a7 bd
       0.014222357 -0.081204765 -0.09391605 -0.08162307
000110 4d 1a 7f bd 50 3b 3a bc 9f e1 63 bc 3b 73 d6 3d
       -0.06228094 -0.01136668 -0.013908773 0.10471197
000120 24 8d 93 bd e8 93 07 bd 7c 7a 0f 3d 68 f6 0b 3d
       -0.07204655 -0.03310004 0.03502892 0.03417054
000130 50 5e 23 be 08 a5 c1 3c 73 2e b0 3d 53 f8 c3 bc
       -0.15953946 0.023638263 0.086026095 -0.023922121
000140 3f 6c c1 bd 9d a6 94 3c 25 c5 c2 bd 90 97 3d 3d
       -0.094444744 0.018145854 -0.095102586 0.04628712
000150 0e 5e a8 bd 2c 44 52 bd 38 ad b1 bd 96 6a 04 be
       -0.082210645 -0.051334545 -0.08675617 -0.12931284
000160 fc 34 7f bc 50 5f ab 3c 16 f7 7d 3d 5f 73 fb 3c
       -0.015576597 0.020919472 0.062003218 0.030694662
000170 09 75 b5 3d 0b 41 28 3d d6 99 39 3c b0 e2 99 3c
       0.08860213 0.041077655 0.011328181 0.01878485
000180 c8 eb 79 3c 92 f7 92 bd 86 af 2e bc 86 76 bc 3c
       0.015253969 -0.071761265 -0.010661965 0.023005735
000190 4a 9a 1a 3c 03 c4 8e 3c 34 3d 91 3d 30 8f db bd
       0.009436199 0.01742745 0.07091752 -0.1072067
0001a0 d2 a3 03 3e 85 6a 1f 3d 5a 83 b3 bd 9f 41 3b 3d
       0.12855461 0.038919944 -0.08765288 0.045716878
0001b0 27 41 11 3d 06 b2 79 bd 19 58 73 3c 94 26 52 bd
       0.035462525 -0.060960792 0.014852547 -0.051306322
0001c0 94 99 aa 3c 9c 77 e9 3d c3 91 df 3d 5a aa f3 3c
       0.020825185 0.11399767 0.10916474 0.029744316
0001d0 e1 18 c1 bc f0 43 fb 3d 15 e0 0c 3d c0 6f 0b 3d
       -0.023571433 0.122688174 0.03439339 0.03404212
0001e0 d6 92 0f be a4 72 fc bc d1 93 59 3c d1 e4 e4 3c
       -0.14020857 -0.030816384 0.013279871 0.02794114
0001f0 ea cb 27 3e de 1e 86 3c 84 1f a6 3c cb 93 39 3e
       0.16386381 0.01637214 0.0202787 0.18122785
000200 68 5b 9f bd 3c 79 02 3d a3 d7 41 3d 3f 06 fd bc
       -0.07781106 0.0318539 0.047324788 -0.030886767
000210 27 38 22 bd 0b f2 0a 3e cd e6 7b 3d b1 1f 19 3e
       -0.039604332 0.13568895 0.061499406 0.14953496
000220 cd 26 2c be cd 3d a8 bd d8 55 8c 3d a7 7c a9 bd
       -0.16811676 -0.082149126 0.06852311 -0.08275729
000230 cd f5 b3 3d c8 6c 09 3e 3a b7 cd 3d d8 44 f0 3c
       0.08787117 0.13420403 0.10044713 0.029329702
000240 59 21 99 bd 7c 59 53 bd d9 08 c7 3c 1c 2c 90 3c
       -0.07477064 -0.05159901 0.024296211 0.017599158
000250 73 28 87 bc 17 a9 a5 39 c2 e2 4e bd ed 90 00 3e
       -0.01649878 0.00031597234 -0.05050922 0.12555285
000260 28 2b 08 3d 47 70 79 3d e0 04 20 3b e9 36 80 bc
       0.033244282 0.06089809 0.0024416968 -0.015651183
000270 5b 02 60 3d 86 11 a2 bc 09 60 43 be c2 e2 ca bd
       0.054689746 -0.019783746 -0.19079603 -0.09906532
000280 7c cf 6d 3d 94 54 a7 bd ea fd 82 bc 26 24 d8 3d
       0.0580592 -0.08170429 -0.015990216 0.1055377
000290 87 e2 bb bd f7 f9 74 3b 8a ee 92 3b 2c 76 67 bb
       -0.09174066 0.0037380436 0.0044840025 -0.0035318239
0002a0 4c 88 bc bd 15 c3 02 bd ba 46 69 bd c7 d7 2a bd
       -0.09205684 -0.031924326 -0.056952216 -0.041709688
0002b0 6b bf d1 3d 12 d3 db 3c f6 97 4b be 16 b6 8a bd
       0.10241588 0.026834045 -0.19882187 -0.067730114
0002c0 52 f8 58 bd 88 e1 a0 bd 36 35 eb 3d ac 07 3a be
       -0.05297119 -0.07855517 0.114847586 -0.18166989
0002d0 16 ef b3 bc 26 77 73 3d 47 de 83 bd 92 e0 80 3c
       -0.021964591 0.0594398 -0.064388804 0.015732083
0002e0 92 c2 54 bd cc e4 a1 bd 0c 4c 82 3d 64 20 06 be
       -0.05194337 -0.07904968 0.06362161 -0.13098294
0002f0 42 d7 47 bd b4 cf f0 bc d2 5c 0f 3d aa 30 d1 bd
       -0.04878927 -0.029395916 0.03500063 -0.1021436
000300 8f 70 45 bd 83 e6 a2 bc 31 94 8b 3d 81 18 db bc
       -0.048203047 -0.019885307 0.06815375 -0.026745083
000310 65 4a 1d bd 40 2a da 3b 23 f5 02 be a6 15 dc bd
       -0.038401026 0.0066578686 -0.12788825 -0.107463166
000320 15 36 86 bd b7 9c ae bd d1 48 25 3d 14 e1 98 3c
       -0.06553284 -0.08525985 0.040352646 0.018662013
000330 b0 5f 55 be e6 a3 0f 3d 47 2a 5e 3b 15 6b 7a bd
       -0.20837283 0.035068415 0.003389971 -0.061137278
000340 ad c8 8a bc 83 0e 46 bc c6 f3 1c 3d 7e c1 af bc
       -0.016941393 -0.012088421 0.038318418 -0.021454569
000350 80 6d 15 be f8 ff 87 bd bb c8 81 bd c9 b7 93 3d
       -0.14592552 -0.06640619 -0.063371144 0.072127886
000360 6a 39 e5 bd 04 97 92 bd e8 01 f6 bd 38 5f d5 3d
       -0.111925915 -0.0715771 -0.12012082 0.10418552
000370 c0 11 13 3d ea 90 ab 3b 21 56 ca bd f6 a5 03 3d
       0.0359056 0.005235781 -0.09879709 0.032140695
000380 d3 a2 24 3d 79 e1 f0 3c 5d 08 86 bd 98 27 90 bc
       0.040194344 0.029404389 -0.06544564 -0.017597005
000390 8f 1e 87 bd 3a 75 c6 bc ac 4e 14 bd ed 56 8a 3d
       -0.065976255 -0.02422582 -0.03620784 0.06754861
0003a0 59 1b 07 bc af 58 0b 3d 96 82 c4 bd 31 48 b5 bd
       -0.008246266 0.034020122 -0.0959522 -0.0885166
0003b0 99 fd 1b bd 13 81 c4 3d cd 5a 20 be 8e be 6f bd
       -0.038083646 0.095949315 -0.15659638 -0.058531336
0003c0 bb bb b0 3d 5f 21 0a bb 0b cb e8 bc 48 77 6f bd
       0.08629557 -0.002107702 -0.028417131 -0.058463365
0003d0 eb 77 cd bd c3 ee 6a 3d 73 39 17 bd 85 6c a5 bd
       -0.10032638 0.057356607 -0.036920022 -0.08077339
0003e0 4c 42 06 be 7e 29 9d bd bf c5 d5 3c a8 41 0d 3d
       -0.13111228 -0.0767393 0.02609527 0.034486443
0003f0 f5 79 0e be dc e9 57 bd 50 56 b2 bc 13 44 e0 bd
       -0.1391371 -0.05271326 -0.021769673 -0.10950484

bias_hh_l0 f4 [405]
000000 b2 3c be bc 6d ea b7 3d 7f 96 98 bd 75 e1 de 3c
       -0.023222301 0.0898026 -0.0745058 0.027207116
000010 96 e6 5c bd 5e 8f 14 3c 4f ca b1 bd 74 05 70 bc
       -0.05393084 0.0090673845 -0.086811654 -0.014649738
000020 fa b9 87 3d 94 b9 ad 3d 8a e9 c5 bd 8a 36 a7 3c
       0.06627269 0.08482662 -0.09663685 0.020411748
000030 4e 18 08 3d 6d 5b c6 3c 48 c3 27 be 79 bc c3 bc
       0.033226304 0.024213517 -0.16383088 -0.023893582
000040 5b 8b 3d 3c ab 34 c3 bd 35 76 3b bd 1c f7 10 be
       0.011568869 -0.0953153 -0.045767028 -0.14156765
000050 c2 38 8d bc d1 9d 65 bd 88 de dc 3c 54 31 c5 3d
       -0.017238978 -0.05605871 0.02696158 0.09628549
000060 96 2b bb 3d 7b 44 98 bd 46 d2 a5 bd ce 50 9b bd
       0.09139173 -0.074349366 -0.08096747 -0.07583772
000070 1e d4 65 bd d1 62 24 bd 06 fb e5 bd 52 45 fe 3c
       -0.056110494 -0.0401333 -0.112295195 0.031038914
000080 a3 31 a7 bd 95 a4 10 be 9f 31 b8 b8 a0 b8 b7 3b
       -0.08163764 -0.14125283 -8.783046e-05 0.005606726
000090 a9 5c 2e 3d 89 31 8f bd 37 3e f1 3c 4f 03 57 bb
       0.042568836 -0.0699187 0.029448612 -0.0032808369
0000a0 3b 6c ee 3d e0 bc 9c bd c0 80 ba 3c 50 31 a7 3d
       0.11641737 -0.076532125 0.02276647 0.081637025
0000b0 37 97 a3 3d 94 a2 17 3b 0a 79 a4 bd 03 24 3b bc
       0.07987826 0.0023137676 -0.08030899 -0.01142216
0000c0 96 b0 25 3d af 56 12 3d 90 32 17 bc ba 0b 41 3d
       0.04045161 0.0357272 -0.009228364 0.047130324
0000d0 17 5d 5d 3d 6a 95 ed 3c db c7 65 3d 5d 97 fc 3c
       0.054043856 0.02900191 0.0560988 0.030833894
0000e0 31 3b 86 3d 8b a9 13 be 29 3d fd bd be 58 17 3d
       0.065542586 -0.14420144 -0.12365181 0.036949866
0000f0 e1 7f 59 3d d5 d7 ea bc f9 96 38 bd eb 6d 89 3d
       0.05310047 -0.02866737 -0.045065854 0.06710418
000100 02 1c 11 3c 3c a1 34 bd 40 43 7c bb d3 29 0d bb
       0.008856775 -0.044099078 -0.0038492233 -0.0021539822
000110 da 71 b6 bd 8f 3a 89 bd d3 e1 27 bd 56 cd e0 3c
       -0.08908434 -0.06700622 -0.040986847 0.027441662
000120 c2 b4 96 bd 80 de b4 3b 08 4a e7 3c bb 8a f4 3c
       -0.073586956 0.005519688 0.028233543 0.029851308
000130 cf 07 5b bb b4 da 1b 3c c5 ea 03 3d 2b c5 6b bb
       -0.0033421402 0.009512592 0.032206316 -0.0035975676
000140 e7 76 91 bd 6d 43 0a bd 84 43 ad bd 55 69 2e bc
       -0.07102757 -0.03375571 -0.08460143 -0.01064523
000150 70 d1 c3 bd 6c 7a e3 bc c6 71 91 3d 1c f3 5a bb
       -0.095614314 -0.027768336 0.07101779 -0.0033409065
000160 ca 32 88 bd 98 c9 57 3d 4d 49 e6 3d 99 44 a6 bd
       -0.06650312 0.05268249 0.1124445 -0.08118553
000170 1b 29 45 3e 6d 0e da 3c e1 89 8d bd 3d 9d 94 bc
       0.19253962 0.026618207 -0.06911064 -0.018141383
000180 bc 76 92 3c 3a dd 2c bd ce 26 1b 3d 86 1e a4 bc
       0.017878883 -0.042203166 0.037878804 -0.020034086
000190 72 e9 64 3d 9f ee a3 bd 64 b4 6c 3d 07 a9 47 bd
       0.055886693 -0.08004498 0.05778922 -0.04874518
0001a0 73 dc cf bc 0c 64 2b bd 7b bd 50 3d d4 95 55 bd
       -0.025373673 -0.04184346 0.050961953 -0.05214484
0001b0 dc ef a3 3d 98 d6 da bd 3e 6a f1 bc 19 13 9c 3c
       0.08004734 -0.10685462 -0.029469606 0.019052075
0001c0 7a bf 4f bc 48 30 73 3d 6a df 8a 3d a4 43 86 3c
       -0.012679929 0.059372216 0.06780894 0.016389675
0001d0 fa 15 80 bd eb 77 d8 3d e5 f4 a7 bd 8c 8a 2a bd
       -0.06254192 0.105697475 -0.08201007 -0.041636035
0001e0 bf f2 a4 bc 3d 74 43 bd 37 46 db bd 81 ba d9 3c
       -0.020135282 -0.047718275 -0.10706752 0.02657819
0001f0 f3 d0 bb 3d e3 cf 98 bd 56 f8 64 bd 4b 3a 3b 3e
       0.09170713 -0.07461526 -0.055900894 0.18283956
000200 20 56 95 bd 5d df a3 bd 3f 2e 68 3c 15 86 08 bd
       -0.07291818 -0.080015875 0.014171182 -0.033330996
000210 f7 07 ba bd 34 10 d1 3d 11 8e bb 3d 5e 59 e3 3d
       -0.090835504 0.102081686 0.091579564 0.1110103
000220 7f 8c 2f be d3 1f 8f bd d2 62 07 bd c8 48 dd bd
       -0.17143439 -0.06988492 -0.033053227 -0.108048975
000230 08 d4 04 3a 9a 27 06 3d c6 0d 06 3e 22 6d e7 3c
       0.00050669955 0.03275261 0.13091192 0.02825028
000240 68 22 9c bd 26 2f f4 bb 7e 94 49 bd 6f 71 ca bc
       -0.0762375 -0.0074519096 -0.04921388 -0.024712292
000250 a6 05 3f bd b1 35 6f bd f5 d0 40 bc 81 27 4e 3d
       -0.046636246 -0.058400813 -0.011768569 0.050330643
000260 3c 68 59 bd d2 23 aa bd dd 40 3c 3d 19 fe f5 bd
       -0.05307792 -0.083076134 0.045960296 -0.12011356
000270 37 f1 b4 3c c9 95 de bd bf 1e 81 bd 46 4b ee bd
       0.022087676 -0.10868413 -0.063046925 -0.11635451
000280 4d 8a 25 3d 4e 2f 16 3c c4 bb af bd 8c f1 81 3d
       0.040415097 0.009166552 -0.08580735 0.063448995
000290 e5 d1 c5 3b 24 01 57 ba 46 cc ad bd 2a a4 87 bd
       0.0060369843 -0.0008201769 -0.08486228 -0.06623109
0002a0 0f b9 f3 bc 1e 58 42 bd 01 96 6d bd 56 a1 33 3d
       -0.029751329 -0.047447316 -0.058004383 0.043855034
0002b0 57 05 b3 3d 6b 13 92 3b 0a ef 34 be c7 f5 51 bc
       0.08741253 0.004457881 -0.17669311 -0.012814946
0002c0 35 da be 3c 76 58 d3 bc 47 d7 09 3e 0f 5d 66 be
       0.023297409 -0.025799017 0.13461028 -0.22496437
0002d0 17 fc 8d bd 54 a6 80 3d 80 c3 f1 bd 1d 2d 8d 3c
       -0.06932848 0.062817246 -0.11804867 0.017233426
0002e0 09 64 c9 bd aa ca 71 bd 59 ab 17 3d e2 a6 16 3c
       -0.09833533 -0.059031166 0.037028644 0.009195061
0002f0 de 9a b2 bd 7b e4 08 bd 78 b0 ad bd 64 0e 45 bb
       -0.08720945 -0.03342102 -0.08480924 -0.0030068392
000300 06 9a d0 bd dc d0 27 bd 6b a8 24 3d 74 34 a6 3d
       -0.10185628 -0.04097067 0.04019968 0.081154734
000310 8c 03 93 bd 17 c4 55 bb 30 55 79 bd b4 5b 2f 3d
       -0.07178411 -0.00326181 -0.060872257 0.042812064
000320 73 42 1f 3d 68 e2 9f bc a6 d6 cc bd 4b e0 95 3c
       0.03888173 -0.019517139 -0.100018784 0.018295428
000330 a1 b5 04 be 04 22 4f bd 3d 62 39 bc 34 5d 7a bc
       -0.12959911 -0.05056955 -0.011314926 -0.01528101
000340 5a 03 04 be e7 cb 95 bd 3c 4e 8f 3d 8e 6f 85 3d
       -0.12891904 -0.07314282 0.06997344 0.06515418
000350 8b 45 32 be f6 65 f3 bc 47 3b 97 3d 22 85 cd bb
       -0.17409341 -0.029711705 0.07384353 -0.006271974
000360 6a cb b1 bd d8 42 d8 3a cf 74 c0 bd d0 d9 94 3d
       -0.08681376 0.0016499413 -0.093972795 0.07268107
000370 c9 54 5a b8 bd aa 28 3d a3 2d 61 bd f2 63 1f bd
       -5.2054213e-05 0.041178454 -0.054975163 -0.038913675
000380 65 1d 1a 3a 62 26 04 be 80 32 14 bd 63 67 12 be
       0.0005879014 -0.12905267 -0.036180973 -0.14297251
000390 57 9e 31 bd 87 ef d4 3d 3c e7 a2 3d b1 19 3b 3d
       -0.043363895 0.10397249 0.07954261 0.045678798
0003a0 c3 01 f0 3b 96 f0 c8 bd a1 d9 c4 bd 9d 9a 86 3c
       0.0073244288 -0.09811513 -0.09611822 0.016431147
0003b0 36 0d c2 bc c3 bd c8 3d 07 ca 20 bd fd 6c 92 bd
       -0.02368794 0.09801819 -0.03925517 -0.07149694
0003c0 4d d7 a5 3d 85 62 ec 3d 16 63 b1 bc 93 77 99 bd
       0.08097706 0.115422286 -0.021653693 -0.0749351
0003d0 75 36 87 bd 89 a8 8c bd e6 90 ed bd 2e f5 f3 bc
       -0.06602184 -0.06868083 -0.11599903 -0.029779997
0003e0 92 74 3b be a0 d6 6a bd b5 5d 5e 3d 2a e6 80 bd
       -0.18306187 -0.05733359 0.054288585 -0.062939
0003f0 2a e5 60 bd 84 eb 06 bb 6b d0 20 bd 70 bd 95 3c
       -0.054906048 -0.0020587156 -0.039261263 0.018278807

weight f4 [1, 4, 1, 12, 12]
000000 e6 7a 20 be e6 b6 83 bc cb 09 4f 3d ce 36 9c 3d
       -0.15671882 -0.016078424 0.05054645 0.07627641
000010 b1 fc 0e be 9b 0a dc 3c c8 b7 fa 3c b6 28 2f 3d
       -0.13963582 0.026860526 0.030605212 0.042763434
000020 97 38 19 3d 14 60 07 3d 9a 86 88 bd 08 bf 5a bd
       0.037407484 0.03305061 -0.06666298 -0.053404838
000030 5b 69 b1 bd 2a 4e 14 3d de 50 85 3c 47 d2 b2 3d
       -0.08662673 0.036207356 0.016273912 0.087315135
000040 dc 1f ab 3c 8f 2e b3 bc ab 4b cd bc d6 d6 cb 3c
       0.020889215 -0.021872787 -0.025060495 0.024882715
000050 e6 ef 06 3d ec 96 8b bc df e1 32 3d aa 30 cf bc
       0.03294363 -0.017039739 0.04367244 -0.02529176
000060 75 ae e9 bc fd 08 49 3d 9d 6f 60 bc 91 1d 79 3d
       -0.02852557 0.049080838 -0.013698486 0.060819212
000070 db dc 5d bd a8 32 bf 3c 9a 68 85 3d 3d 31 73 bd
       -0.054165702 0.023339584 0.06514092 -0.05937313
000080 e6 2e 08 3e 35 7d 8f 3d f7 50 5b bd 33 9c 04 3e
       0.1329914 0.07006303 -0.05354401 0.1295021
000090 27 48 3f bb 71 f4 26 bc 29 d9 ee bd 6a 9d 25 be
       -0.0029187293 -0.010190115 -0.11662514 -0.1617333
0000a0 86 3f ec bc 2c b3 79 3c e8 cd a2 3b 9a 17 1e bd
       -0.028838884 0.015240472 0.0049683936 -0.038596727
0000b0 f8 2e 5b 3d 68 6f a6 3d a2 79 c5 3b 89 4b 9d bd
       0.05351159 0.08126718 0.0060264627 -0.07680423
0000c0 81 a0 79 ba 55 23 6f bc 89 eb 3c 3e b2 92 19 3e
       -0.0009522513 -0.014595826 0.18449225 0.14997366
0000d0 b6 5e f5 bc 0c 54 da 3c db 84 70 3d 32 fa a4 3d
       -0.029952388 0.026651405 0.05872045 0.080555335
0000e0 cc 1c c4 bc 73 05 00 be 94 98 ab 3c 73 40 7e 3d
       -0.023939513 -0.12502079 0.020946778 0.062073182
0000f0 b8 a4 9e bd 0e 6b 98 bd ee 92 15 3d 30 bd b7 3d
       -0.07746261 -0.07442294 0.036517076 0.089716315
000100 28 0e 07 be 62 80 3c bc af fc 51 3e 94 4f d6 3c
       -0.13188994 -0.011505218 0.20506547 0.026160993
000110 ce 93 82 bd e1 5e d8 bc 6c 3f 5d 3b 17 15 13 be
       -0.06375848 -0.02641243 0.0033759726 -0.14363514
000120 34 f4 44 3c 02 9b 82 3d ad 60 c8 3d 31 86 ac 3d
       0.012021113 0.06377222 0.097840644 0.084240325
000130 6a 8e cb 3d 93 84 95 3d 66 fc e5 bc 5d f2 3b 3d
       0.09939273 0.07300677 -0.028074455 0.045885433
000140 3c 0b fa bc 41 b3 bb bd 75 79 e6 3c 84 1b 04 bd
       -0.030522935 -0.09165049 0.028134087 -0.032252803
000150 22 29 2f 3d 3c d7 94 3d 2a 78 d8 3d 53 65 a4 3d
       0.042763837 0.07267615 0.105697945 0.080271386
000160 b5 50 45 3c 90 ac 17 be 52 fe c6 bc d0 7a b9 3d
       0.012043168 -0.14811921 -0.024291191 0.09056628
000170 c3 87 d0 bd 6b aa 80 bc e5 92 9a 3d 1f 1d ce 3d
       -0.101821445 -0.015706262 0.07547549 0.10064148
000180 5f 5f 2c bc ab 11 b7 bc dc 94 cc 3d 82 25 0a 3e
       -0.010520785 -0.022347292 0.0998933 0.1349087
000190 1a 36 ba bc da 93 93 3d 49 3a d4 3c 58 32 a5 3d
       -0.022730876 0.07205935 0.025906699 0.08066243
0001a0 47 d1 e2 3c 30 f8 66 3d 68 99 0f bd 1c 66 5b 3d
       0.027687682 0.056389034 -0.03505841 0.053564176
0001b0 c7 85 be 3d cc 92 f8 3c e3 a7 c7 bd 77 d7 08 be
       0.0930286 0.030343436 -0.09748819 -0.13363443
0001c0 7b 97 d1 3d eb 04 9c 3d de 18 0b be b8 21 63 bd
       0.10233971 0.076181255 -0.13583705 -0.05545208
0001d0 6f 4f ce 3d b1 91 6a 3d fd 5b 54 3d 48 52 91 bc
       0.100737445 0.05726785 0.05184554 -0.01773943
0001e0 92 44 4d 3c 89 45 ac 3d f1 3c d7 bc fd a3 d7 bc
       0.0125285555 0.084117 -0.026274176 -0.026323313
0001f0 69 37 85 3c ac ba 2e 3c ef 83 9c 3d 13 f8 43 bd
       0.016261773 0.010664623 0.07642352 -0.047844004
000200 0c 11 7e 3c df 99 93 3c da 3b da bc d9 56 0b 3e
       0.015506994 0.018017707 -0.026639868 0.13607349
000210 57 5f 98 bd b9 5f 52 3c fc bc a2 3b c6 86 83 3d
       -0.0744006 0.012840205 0.0049663763 0.0642219
000220 f7 b5 56 3d 81 2c 31 bd b6 09 b7 3c 35 9a f8 bc
       0.05241963 -0.043255333 0.022343498 -0.03034697
000230 ba e8 6f bd a5 e9 b6 3a 4a ac 1f 3d 08 e1 64 bd
       -0.058571555 0.001395513 0.038982667 -0.05587867
000240 65 d3 65 3d 90 40 07 3d 13 e1 07 be 10 60 fd 3b
       0.056109805 0.033020556 -0.13269453 0.007732399
000250 24 d8 d6 3d 40 ec af bc c0 43 b3 bd 1a 5d 58 bd
       0.10490444 -0.021474957 -0.08753157 -0.052823164
000260 f8 3d 6f 3d 33 8f cd bc eb f4 4b bd 63 98 44 3d
       0.058408707 -0.025092697 -0.04979412 0.04799689
000270 df dc ef 3d 98 3f f8 ba 47 06 8f bc 4c 49 72 3d
       0.1171205 -0.0018939851 -0.017459048 0.059151933
000280 b3 c7 a8 bc c7 fa 3d bc 29 e7 ae 3d bf a0 06 bd
       -0.020603037 -0.0115954345 0.08540184 -0.032868143
000290 cf 96 2a 3d 68 3a a7 3d 60 74 12 bd ef f4 18 3e
       0.04164773 0.08165437 -0.035755515 0.14937185
0002a0 f8 9a a5 3d 3d df 70 3d df 56 5b bb 30 07 27 3c
       0.080861986 0.058806647 -0.0033468527 0.010194585
0002b0 19 2e 34 3d da 3f 98 bd d2 b7 86 3c 06 8a 2e 3c
       0.043989275 -0.07434054 0.016445074 0.010653025
0002c0 3b 86 05 3d 3e c9 fe 3d 57 e3 7d 3d 6f 81 5c bb
       0.032598715 0.12440728 0.061984386 -0.0033646484
0002d0 7b ef 57 3d 7e fb 52 be 76 00 d0 bd 58 bd 41 bd
       0.05271862 -0.20603749 -0.10156338 -0.047299713
0002e0 83 4b ea bb 9e fa 19 bd 04 c1 67 3d 20 73 aa bd
       -0.007150115 -0.037592523 0.05658056 -0.083227396
0002f0 d6 6a 77 bd b7 88 19 3d ab 88 85 bd ca 06 74 bc
       -0.06040462 0.037483897 -0.06520208 -0.014894197
000300 2b ec ed 3d 47 86 fd bc 09 c7 56 be d6 80 61 be
       0.11617311 -0.030947817 -0.20974363 -0.22021803
000310 f6 ab b1 3c ad 6a 47 3d 7b c4 d3 bd 15 1a 45 be
       0.021688443 0.04868572 -0.1034021 -0.19248231
000320 47 e7 2a 3e 47 e3 4d 3e 83 e1 53 bc c5 82 da 3d
       0.16689788 0.2010623 -0.012932184 0.106694736
000330 c6 bc c0 bd 08 1b 1d 3b cc 1b f2 3a f0 f0 25 3d
       -0.09411006 0.002397241 0.0018471419 0.04051298
000340 21 e4 76 3b ae ed 35 3d 69 aa b1 bd 8d 62 75 bd
       0.0037672597 0.044416122 -0.08675081 -0.05990844
000350 29 df 76 3b 3d 81 89 3d d3 f0 a2 bd eb c6 c8 3a
       0.0037669635 0.06714103 -0.0795609 0.0015318071
000360 b9 3b ab 3d 59 70 6c bd 7f b1 c7 bd e7 b4 ef bd
       0.083610006 -0.05772433 -0.097506516 -0.11704426
000370 ac 58 83 3d 23 ec 2a 3d 15 3e 8e bd d5 91 cd 3c
       0.06413397 0.041729104 -0.06945435 0.025093952
000380 17 a2 a6 3c 88 bc 97 3d 47 cd 75 3c 2b af cb 3c
       0.020340962 0.07409006 0.015002555 0.0248638
000390 ff d1 70 bd 08 e5 d0 bd bc 9e 0f bd 40 44 71 3d
       -0.058794018 -0.10199934 -0.03506349 0.05890298
0003a0 83 3f 2b be 47 48 9c 3c 09 40 83 3c 44 dd bd bc
       -0.16723447 0.019077433 0.016021745 -0.023176797
0003b0 78 85 ab 3d c9 ae 39 3d fb 9e 85 3c 3c 67 46 bc
       0.083750665 0.045332704 0.01631116 -0.012109574
0003c0 a4 e7 b6 3d 3f 7c f1 3d 47 73 3c be 2b 07 1a be
       0.08930901 0.11791276 -0.1840335 -0.15041797
0003d0 7e 3b 0a 3e 37 8c 6d 3e f8 c1 65 bd c0 b7 5c be
       0.13499257 0.23198019 -0.056093186 -0.2155447
0003e0 86 6e 58 3c a5 c9 a3 3d e3 cc 3f bc a5 3a ba 3d
       0.013209945 0.07997445 -0.011706564 0.09093217
0003f0 5f 9f 53 bd 8d cf b8 bc a0 ec a4 bd a5 f6 66 bd
       -0.05166566 -0.022559905 -0.08052945 -0.056387562

weight f4 [12, 12]
000000 cb fb 93 3e 6e 23 60 be 1d fe 05 be 96 24 bd bd
       0.2890304 -0.21888515 -0.13085218 -0.09235494
000010 31 59 21 3e 6c 98 05 3e 81 74 09 3e 2d 77 8c bd
       0.1575668 0.13046426 0.13423349 -0.068586685
000020 c1 7a 41 be 9b 9f a2 3e d9 9b fd 3d da d2 d4 bc
       -0.18894483 0.31762394 0.12383241 -0.025979448
000030 e0 73 17 3e 91 93 38 be 32 a7 88 3e ce 5f 78 bc
       0.14790297 -0.18025042 0.2669006 -0.01515956
000040 4c c2 0c 3e 6e 05 6b 3d c3 b8 65 3e b0 53 a1 3d
       0.13745993 0.057378225 0.22433762 0.0787729
000050 32 77 c0 be 75 ea b3 3d 95 dd 72 3e d8 12 c5 be
       -0.3759094 0.087849535 0.2371734 -0.3849094
000060 c1 ed ae bc 5d 65 93 bd 85 48 82 3e 64 57 96 3e
       -0.021353604 -0.07197068 0.25445953 0.2936355
000070 32 6e 21 3e 97 1c 52 3e 11 86 f1 bd 6f a3 66 be
       0.15764692 0.20518719 -0.11793149 -0.22523282
000080 25 5b bb be f0 83 56 be 69 99 36 3e d5 c6 83 be
       -0.36592975 -0.20948768 0.17831959 -0.25737634
000090 0d e7 61 3c 0a 9a 15 be fd d5 23 be 72 29 b5 bd
       0.013787997 -0.14609542 -0.15999599 -0.08845796
0000a0 5c 8b 97 3d 3b ff 62 3d b6 15 89 3d f4 de 0c be
       0.073996276 0.055419188 0.06693594 -0.13756925
0000b0 ed 3f e1 3d d4 c8 8f bd dc 4f 73 3e 80 9c a1 bd
       0.10998521 -0.07020727 0.23760933 -0.07891178
0000c0 db f5 85 3e 56 bb 59 be 83 48 17 be 2d 63 84 be
       0.26164135 -0.21262869 -0.14773755 -0.25856915
0000d0 22 44 df bc 56 ee c0 3d f5 c2 70 3d 4a 3b 0a 3e
       -0.027254168 0.09420459 0.058779676 0.1349918
0000e0 29 33 6b 3d f9 84 03 3e 6b 5f 54 be 0b a3 30 3e
       0.057421837 0.12843694 -0.20739524 0.17249696
0000f0 64 3b 82 bd 67 8b 1a 3e 18 fa fb bd 1d db 7e 3d
       -0.06358984 0.1509224 -0.12303561 0.06222068
000100 af 85 8e 3e 1c 58 65 3d bb bf 73 be 4c e6 1e be
       0.27836367 0.05599223 -0.23803608 -0.15517539
000110 b0 65 4b be c0 a8 5d 3e 3d c9 44 3d 9c ee bd bd
       -0.1986301 0.21646404 0.04804348 -0.09274027
000120 1f af 65 3c 2e 3c f8 bb 39 86 8b 3c 11 7e 2b be
       0.014018803 -0.0075755334 0.017031776 -0.1674731
000130 b8 ac c9 bd 03 c5 bb 3d 0f 64 c3 3d 45 43 39 be
       -0.098473966 0.091684364 0.09540569 -0.18092068
000140 fe 20 fe 3d 88 06 5c 3e 1d 0b 59 be c7 84 7d 3e
       0.124086365 0.21486866 -0.21195646 0.24757682
000150 6d e1 be bd 6b cf 23 be e8 0f 37 3e 66 2b 25 be
       -0.0932034 -0.15997092 0.17877162 -0.16129836
000160 0b 45 6e 3d 75 2f 33 be a7 c7 80 3e d6 8c 53 3e
       0.058171313 -0.17498572 0.25152323 0.20659193
000170 1e cb c0 3c fe bc a5 bc 7a 33 94 3d 20 1a 9a be
       0.023534354 -0.02023172 0.07236381 -0.30098057
000180 91 67 27 3e 78 f5 ec 3a a8 f1 af 3e e8 34 98 bd
       0.16348101 0.0018078526 0.34364057 -0.07431966
000190 2b 9a dc 3d 6d 57 88 be fd cd 5e be c5 31 2c be
       0.10771593 -0.266292 -0.21758266 -0.1681586
0001a0 b3 f2 70 be 09 c9 77 be bb 8d 27 3e 75 e8 2b be
       -0.23530082 -0.24197783 0.1636266 -0.16787894
0001b0 1d 19 73 3c af fc 98 be e4 c7 b2 bc f2 7a 6c 3e
       0.01483753 -0.29880282 -0.02182383 0.23093775
0001c0 31 9f 8d 3e 14 a7 10 bc 98 d0 3a 3e 96 aa 75 3e
       0.27660516 -0.008828897 0.18243635 0.23990855
0001d0 6d df 66 be e3 7b 32 be 71 eb 38 be d3 0e d3 3c
       -0.22546168 -0.17430072 -0.18058564 0.025763905
0001e0 c7 47 0a bd 04 94 2d 3e 3d f6 d7 3d e8 31 62 be
       -0.03375986 0.16950995 0.10545013 -0.2208935
0001f0 e2 57 9a 3e 4d 56 80 be 01 6d 2c be ef 83 5f be
       0.30145174 -0.25065842 -0.16838457 -0.21827672
000200 80 6f ea 3c 13 e5 10 3e 76 e2 30 be 86 6d b3 bd
       0.02861762 0.14149885 -0.17273888 -0.08761124
000210 3c 15 91 bd 4f e3 e3 3d d8 e2 c7 bd 6d d3 0b be
       -0.07084128 0.1112734 -0.09760064 -0.13654871
000220 f8 c7 d4 bd 9b 65 12 3e 34 9e fc bb d0 55 e1 bd
       -0.103897035 0.14296572 -0.007709289 -0.110026956
000230 d5 49 62 3d a9 56 0c 3e 9d d4 e2 3d c8 8f 99 3e
       0.055246193 0.13704933 0.11075709 0.2999251

bias f4 [12]
000000 5b 8f 48 3e d2 43 83 bd c6 e5 9f 3d 22 8b 84 3d
       0.19585936 -0.0640942 0.07807498 0.0647185
000010 6d 23 4f bd 27 cd 80 3e ad 2e 18 3e c5 5a 84 3e
       -0.050570894 0.2515652 0.14861555 0.25850502
000020 d4 d6 66 be a7 a0 4a 3d d6 5b 1a 3e 50 63 42 be
       -0.22542888 0.049469616 0.15074095 -0.18983197

weight f4 [3, 12]
000000 f6 57 6b bc 2e 82 f9 bd e5 cf ae bd 62 7e 88 be
       -0.014364233 -0.12183033 -0.085357465 -0.26658922
000010 75 da 12 be 1a 71 d4 be 77 6e 7a be 94 90 72 3e
       -0.14341147 -0.4149254 -0.24456201 0.23687965
000020 f6 17 a1 be 23 6d 66 3d bb f5 9f be ab 52 34 bd
       -0.31463593 0.056256425 -0.31242165 -0.04402415
000030 85 a6 e1 3e ac 55 ad be 37 45 db be 60 27 33 3e
       0.44072357 -0.33854425 -0.42826244 0.17495489
000040 1a b8 c6 3e 7e c1 bf 3e 0c 4d 29 3e 27 87 1e be
       0.38812333 0.3745231 0.16533297 -0.15481244
000050 92 1d cd be e5 e0 c2 be 52 d2 a4 3e 6a 96 e0 3e
       -0.40061623 -0.38062206 0.32191712 0.43864757
000060 5f 79 b7 be 11 f1 80 3e 62 f5 09 3e 48 32 aa be
       -0.35834786 0.2518392 0.13472512 -0.33241487
000070 5b f1 e3 3b c2 16 d5 bc f5 51 c2 3b 4b 12 aa 3c
       0.006956262 -0.026011828 0.00593018 0.020760676
000080 b2 56 d6 bb 9f de 9b 3e 8b 9f 2f be b1 69 e0 be
       -0.0065410966 0.30443284 -0.17150705 -0.43830636

bias f4 [3]
000000 ad 24 93 be 8e 50 86 3d 66 76 53 be
       -0.2873892 0.06558333 -0.20650634

weight f4 [3, 12]
000000 4b 37 88 be be 61 42 be 41 f9 51 be b9 32 62 be
       -0.26604685 -0.18982598 -0.20505239 -0.22089662
000010 55 9b 66 3c 00 f5 b3 bd ce f3 7a bc 0b d4 08 be
       0.01407512 -0.087869644 -0.015316917 -0.13362138
000020 ef a9 86 3e 1f 47 81 3e 65 88 94 be 2b 24 8e be
       0.26301524 0.25249574 -0.2901031 -0.2776197
000030 bb d5 f1 bd 6b fb 15 be 86 b9 b9 bd 2d b0 ab ba
       -0.11808344 -0.1464669 -0.09068589 -0.0013098769
000040 dc 2e 0c be 6c ac 2a be 37 8d da bd da 00 f9 bc
       -0.1368975 -0.16667336 -0.10671466 -0.030395914
000050 37 57 3a be a7 bf dc bc 3e dc 51 be 31 80 22 be
       -0.18197332 -0.026946856 -0.20494172 -0.15869214
000060 c2 c2 23 be 7c a4 0f 3e e6 92 0f 3e 48 b6 fe 3b
       -0.15992263 0.1402759 0.14020881 0.0077731945
000070 62 59 83 be 64 fb f1 bc c2 be 50 3e 0e 45 fa 3c
       -0.2565413 -0.029538818 0.20385268 0.030550506
000080 fc 93 39 3e c9 78 83 3e 37 1c 69 be fc da 47 3e
       0.18122858 0.2567809 -0.2276467 0.1951713

bias f4 [3]
000000 ef 87 af be b1 0a 84 3e c4 d7 91 3d
       -0.34283397 0.25789407 0.07121232

weight f4 [3, 3]
000000 db c4 d1 be 61 d8 d1 3e 7c 7f d4 3e e6 ac b2 be
       -0.409705 0.40985397 0.41503513 -0.34897536
000010 f5 8a 85 3d f8 ff b8 3e e2 2e b7 bd f5 30 ca 3e
       0.065206446 0.3613279 -0.08944489 0.39490476
000020 a0 e9 f9 3e
       0.48811054

bias f4 [3]
000000 cd b8 e3 3e 61 e0 08 3f 70 e4 07 bf
       0.4447693 0.53467375 -0.5308294
